module @IrToHlo.6869 attributes {mhlo.cross_program_prefetches = [], mhlo.is_dynamic = false, mhlo.use_auto_spmd_partitioning = false} {
  func.func @main(%arg0: tensor<32000x4096xf32>, %arg1: tensor<4096xf32>, %arg2: tensor<f32>, %arg3: tensor<4096x11008xf32>, %arg4: tensor<11008x4096xf32>, %arg5: tensor<4096xf32>, %arg6: tensor<4096x4096xf32>, %arg7: tensor<2049xi64>, %arg8: tensor<4096x4096xf32>, %arg9: tensor<4096xf32>, %arg10: tensor<4096x11008xf32>, %arg11: tensor<11008x4096xf32>, %arg12: tensor<4096xf32>, %arg13: tensor<4096x4096xf32>, %arg14: tensor<4096x4096xf32>, %arg15: tensor<4096xf32>, %arg16: tensor<4096x11008xf32>, %arg17: tensor<11008x4096xf32>, %arg18: tensor<4096xf32>, %arg19: tensor<4096x4096xf32>, %arg20: tensor<4096x4096xf32>, %arg21: tensor<4096xf32>, %arg22: tensor<4096x11008xf32>, %arg23: tensor<11008x4096xf32>, %arg24: tensor<4096xf32>, %arg25: tensor<4096x4096xf32>, %arg26: tensor<4096x4096xf32>, %arg27: tensor<4096xf32>, %arg28: tensor<4096x11008xf32>, %arg29: tensor<11008x4096xf32>, %arg30: tensor<4096xf32>, %arg31: tensor<4096x4096xf32>, %arg32: tensor<4096x4096xf32>, %arg33: tensor<4096xf32>, %arg34: tensor<4096x11008xf32>, %arg35: tensor<11008x4096xf32>, %arg36: tensor<4096xf32>, %arg37: tensor<4096x4096xf32>, %arg38: tensor<4096x4096xf32>, %arg39: tensor<4096xf32>, %arg40: tensor<4096x11008xf32>, %arg41: tensor<11008x4096xf32>, %arg42: tensor<4096xf32>, %arg43: tensor<4096x4096xf32>, %arg44: tensor<4096x4096xf32>, %arg45: tensor<4096xf32>, %arg46: tensor<4096x11008xf32>, %arg47: tensor<11008x4096xf32>, %arg48: tensor<4096xf32>, %arg49: tensor<4096x4096xf32>, %arg50: tensor<4096x4096xf32>, %arg51: tensor<4096xf32>, %arg52: tensor<4096x11008xf32>, %arg53: tensor<11008x4096xf32>, %arg54: tensor<4096xf32>, %arg55: tensor<4096x4096xf32>, %arg56: tensor<4096x4096xf32>, %arg57: tensor<4096xf32>, %arg58: tensor<4096x11008xf32>, %arg59: tensor<11008x4096xf32>, %arg60: tensor<4096xf32>, %arg61: tensor<4096x4096xf32>, %arg62: tensor<4096x4096xf32>, %arg63: tensor<4096xf32>, %arg64: tensor<4096x11008xf32>, %arg65: tensor<11008x4096xf32>, %arg66: tensor<4096xf32>, %arg67: tensor<4096x4096xf32>, %arg68: tensor<4096x4096xf32>, %arg69: tensor<4096xf32>, %arg70: tensor<4096x11008xf32>, %arg71: tensor<11008x4096xf32>, %arg72: tensor<4096xf32>, %arg73: tensor<4096x4096xf32>, %arg74: tensor<4096x4096xf32>, %arg75: tensor<4096xf32>, %arg76: tensor<4096x11008xf32>, %arg77: tensor<11008x4096xf32>, %arg78: tensor<4096xf32>, %arg79: tensor<4096x4096xf32>, %arg80: tensor<4096x4096xf32>, %arg81: tensor<4096xf32>, %arg82: tensor<4096x11008xf32>, %arg83: tensor<11008x4096xf32>, %arg84: tensor<4096xf32>, %arg85: tensor<4096x4096xf32>, %arg86: tensor<4096x4096xf32>, %arg87: tensor<4096xf32>, %arg88: tensor<4096x11008xf32>, %arg89: tensor<11008x4096xf32>, %arg90: tensor<4096xf32>, %arg91: tensor<4096x4096xf32>, %arg92: tensor<4096x4096xf32>, %arg93: tensor<4096xf32>, %arg94: tensor<4096x11008xf32>, %arg95: tensor<11008x4096xf32>, %arg96: tensor<4096xf32>, %arg97: tensor<4096x4096xf32>, %arg98: tensor<4096x4096xf32>, %arg99: tensor<4096xf32>, %arg100: tensor<4096x11008xf32>, %arg101: tensor<11008x4096xf32>, %arg102: tensor<4096xf32>, %arg103: tensor<4096x4096xf32>, %arg104: tensor<4096x4096xf32>, %arg105: tensor<4096xf32>, %arg106: tensor<4096x11008xf32>, %arg107: tensor<11008x4096xf32>, %arg108: tensor<4096xf32>, %arg109: tensor<4096x4096xf32>, %arg110: tensor<4096x4096xf32>, %arg111: tensor<4096xf32>, %arg112: tensor<4096x11008xf32>, %arg113: tensor<11008x4096xf32>, %arg114: tensor<4096xf32>, %arg115: tensor<4096x4096xf32>, %arg116: tensor<4096x4096xf32>, %arg117: tensor<4096xf32>, %arg118: tensor<4096x11008xf32>, %arg119: tensor<11008x4096xf32>, %arg120: tensor<4096xf32>, %arg121: tensor<4096x4096xf32>, %arg122: tensor<4096x4096xf32>, %arg123: tensor<4096xf32>, %arg124: tensor<4096x11008xf32>, %arg125: tensor<11008x4096xf32>, %arg126: tensor<4096xf32>, %arg127: tensor<4096x4096xf32>, %arg128: tensor<4096x4096xf32>, %arg129: tensor<4096xf32>, %arg130: tensor<4096x11008xf32>, %arg131: tensor<11008x4096xf32>, %arg132: tensor<4096xf32>, %arg133: tensor<4096x4096xf32>, %arg134: tensor<4096x4096xf32>, %arg135: tensor<4096xf32>, %arg136: tensor<4096x11008xf32>, %arg137: tensor<11008x4096xf32>, %arg138: tensor<4096xf32>, %arg139: tensor<4096x4096xf32>, %arg140: tensor<4096x4096xf32>, %arg141: tensor<4096xf32>, %arg142: tensor<4096x11008xf32>, %arg143: tensor<11008x4096xf32>, %arg144: tensor<4096xf32>, %arg145: tensor<4096x4096xf32>, %arg146: tensor<4096x4096xf32>, %arg147: tensor<4096xf32>, %arg148: tensor<4096x11008xf32>, %arg149: tensor<11008x4096xf32>, %arg150: tensor<4096xf32>, %arg151: tensor<4096x4096xf32>, %arg152: tensor<4096x4096xf32>, %arg153: tensor<4096xf32>, %arg154: tensor<4096x11008xf32>, %arg155: tensor<11008x4096xf32>, %arg156: tensor<4096xf32>, %arg157: tensor<4096x4096xf32>, %arg158: tensor<4096x4096xf32>, %arg159: tensor<4096xf32>, %arg160: tensor<4096x11008xf32>, %arg161: tensor<11008x4096xf32>, %arg162: tensor<4096xf32>, %arg163: tensor<4096x4096xf32>, %arg164: tensor<4096x4096xf32>, %arg165: tensor<4096xf32>, %arg166: tensor<4096x11008xf32>, %arg167: tensor<11008x4096xf32>, %arg168: tensor<4096xf32>, %arg169: tensor<4096x4096xf32>, %arg170: tensor<4096x4096xf32>, %arg171: tensor<4096xf32>, %arg172: tensor<4096x11008xf32>, %arg173: tensor<11008x4096xf32>, %arg174: tensor<4096xf32>, %arg175: tensor<4096x4096xf32>, %arg176: tensor<4096x4096xf32>, %arg177: tensor<4096xf32>, %arg178: tensor<4096x11008xf32>, %arg179: tensor<11008x4096xf32>, %arg180: tensor<4096xf32>, %arg181: tensor<4096x4096xf32>, %arg182: tensor<4096x4096xf32>, %arg183: tensor<4096xf32>, %arg184: tensor<4096x11008xf32>, %arg185: tensor<11008x4096xf32>, %arg186: tensor<4096xf32>, %arg187: tensor<4096x4096xf32>, %arg188: tensor<4096x4096xf32>, %arg189: tensor<4096xf32>, %arg190: tensor<4096x11008xf32>, %arg191: tensor<11008x4096xf32>, %arg192: tensor<4096xf32>, %arg193: tensor<4096x4096xf32>, %arg194: tensor<4096x4096xf32>, %arg195: tensor<4096xf32>, %arg196: tensor<1xi64>, %arg197: tensor<32000x4096xf32>, %arg198: tensor<1xi64>, %arg199: tensor<i64>, %arg200: tensor<2304x32x128xf32>, %arg201: tensor<f32>, %arg202: tensor<4608x64xcomplex<f32>>, %arg203: tensor<4096x4096xf32>, %arg204: tensor<2304x32x128xf32>, %arg205: tensor<4096x4096xf32>, %arg206: tensor<11008x4096xf32>, %arg207: tensor<2304x32x128xf32>, %arg208: tensor<4096x4096xf32>, %arg209: tensor<2304x32x128xf32>, %arg210: tensor<4096x4096xf32>, %arg211: tensor<11008x4096xf32>, %arg212: tensor<2304x32x128xf32>, %arg213: tensor<4096x4096xf32>, %arg214: tensor<2304x32x128xf32>, %arg215: tensor<4096x4096xf32>, %arg216: tensor<11008x4096xf32>, %arg217: tensor<2304x32x128xf32>, %arg218: tensor<4096x4096xf32>, %arg219: tensor<2304x32x128xf32>, %arg220: tensor<4096x4096xf32>, %arg221: tensor<11008x4096xf32>, %arg222: tensor<2304x32x128xf32>, %arg223: tensor<4096x4096xf32>, %arg224: tensor<2304x32x128xf32>, %arg225: tensor<4096x4096xf32>, %arg226: tensor<11008x4096xf32>, %arg227: tensor<2304x32x128xf32>, %arg228: tensor<4096x4096xf32>, %arg229: tensor<2304x32x128xf32>, %arg230: tensor<4096x4096xf32>, %arg231: tensor<11008x4096xf32>, %arg232: tensor<2304x32x128xf32>, %arg233: tensor<4096x4096xf32>, %arg234: tensor<2304x32x128xf32>, %arg235: tensor<4096x4096xf32>, %arg236: tensor<11008x4096xf32>, %arg237: tensor<2304x32x128xf32>, %arg238: tensor<4096x4096xf32>, %arg239: tensor<2304x32x128xf32>, %arg240: tensor<4096x4096xf32>, %arg241: tensor<11008x4096xf32>, %arg242: tensor<2304x32x128xf32>, %arg243: tensor<4096x4096xf32>, %arg244: tensor<2304x32x128xf32>, %arg245: tensor<4096x4096xf32>, %arg246: tensor<11008x4096xf32>, %arg247: tensor<2304x32x128xf32>, %arg248: tensor<4096x4096xf32>, %arg249: tensor<2304x32x128xf32>, %arg250: tensor<4096x4096xf32>, %arg251: tensor<11008x4096xf32>, %arg252: tensor<2304x32x128xf32>, %arg253: tensor<4096x4096xf32>, %arg254: tensor<2304x32x128xf32>, %arg255: tensor<4096x4096xf32>, %arg256: tensor<11008x4096xf32>, %arg257: tensor<2304x32x128xf32>, %arg258: tensor<4096x4096xf32>, %arg259: tensor<2304x32x128xf32>, %arg260: tensor<4096x4096xf32>, %arg261: tensor<11008x4096xf32>, %arg262: tensor<2304x32x128xf32>, %arg263: tensor<4096x4096xf32>, %arg264: tensor<2304x32x128xf32>, %arg265: tensor<4096x4096xf32>, %arg266: tensor<11008x4096xf32>, %arg267: tensor<2304x32x128xf32>, %arg268: tensor<4096x4096xf32>, %arg269: tensor<2304x32x128xf32>, %arg270: tensor<4096x4096xf32>, %arg271: tensor<11008x4096xf32>, %arg272: tensor<2304x32x128xf32>, %arg273: tensor<4096x4096xf32>, %arg274: tensor<2304x32x128xf32>, %arg275: tensor<4096x4096xf32>, %arg276: tensor<11008x4096xf32>, %arg277: tensor<2304x32x128xf32>, %arg278: tensor<4096x4096xf32>, %arg279: tensor<2304x32x128xf32>, %arg280: tensor<4096x4096xf32>, %arg281: tensor<11008x4096xf32>, %arg282: tensor<2304x32x128xf32>, %arg283: tensor<4096x4096xf32>, %arg284: tensor<2304x32x128xf32>, %arg285: tensor<4096x4096xf32>, %arg286: tensor<11008x4096xf32>, %arg287: tensor<2304x32x128xf32>, %arg288: tensor<4096x4096xf32>, %arg289: tensor<2304x32x128xf32>, %arg290: tensor<4096x4096xf32>, %arg291: tensor<11008x4096xf32>, %arg292: tensor<2304x32x128xf32>, %arg293: tensor<4096x4096xf32>, %arg294: tensor<2304x32x128xf32>, %arg295: tensor<4096x4096xf32>, %arg296: tensor<11008x4096xf32>, %arg297: tensor<2304x32x128xf32>, %arg298: tensor<4096x4096xf32>, %arg299: tensor<2304x32x128xf32>, %arg300: tensor<4096x4096xf32>, %arg301: tensor<11008x4096xf32>, %arg302: tensor<2304x32x128xf32>, %arg303: tensor<4096x4096xf32>, %arg304: tensor<2304x32x128xf32>, %arg305: tensor<4096x4096xf32>, %arg306: tensor<11008x4096xf32>, %arg307: tensor<2304x32x128xf32>, %arg308: tensor<4096x4096xf32>, %arg309: tensor<2304x32x128xf32>, %arg310: tensor<4096x4096xf32>, %arg311: tensor<11008x4096xf32>, %arg312: tensor<2304x32x128xf32>, %arg313: tensor<4096x4096xf32>, %arg314: tensor<2304x32x128xf32>, %arg315: tensor<4096x4096xf32>, %arg316: tensor<11008x4096xf32>, %arg317: tensor<2304x32x128xf32>, %arg318: tensor<4096x4096xf32>, %arg319: tensor<2304x32x128xf32>, %arg320: tensor<4096x4096xf32>, %arg321: tensor<11008x4096xf32>, %arg322: tensor<2304x32x128xf32>, %arg323: tensor<4096x4096xf32>, %arg324: tensor<2304x32x128xf32>, %arg325: tensor<4096x4096xf32>, %arg326: tensor<11008x4096xf32>, %arg327: tensor<2304x32x128xf32>, %arg328: tensor<4096x4096xf32>, %arg329: tensor<2304x32x128xf32>, %arg330: tensor<4096x4096xf32>, %arg331: tensor<11008x4096xf32>, %arg332: tensor<2304x32x128xf32>, %arg333: tensor<4096x4096xf32>, %arg334: tensor<2304x32x128xf32>, %arg335: tensor<4096x4096xf32>, %arg336: tensor<11008x4096xf32>, %arg337: tensor<2304x32x128xf32>, %arg338: tensor<4096x4096xf32>, %arg339: tensor<2304x32x128xf32>, %arg340: tensor<4096x4096xf32>, %arg341: tensor<11008x4096xf32>, %arg342: tensor<2304x32x128xf32>, %arg343: tensor<4096x4096xf32>, %arg344: tensor<2304x32x128xf32>, %arg345: tensor<4096x4096xf32>, %arg346: tensor<11008x4096xf32>, %arg347: tensor<2304x32x128xf32>, %arg348: tensor<4096x4096xf32>, %arg349: tensor<2304x32x128xf32>, %arg350: tensor<4096x4096xf32>, %arg351: tensor<11008x4096xf32>, %arg352: tensor<2304x32x128xf32>, %arg353: tensor<4096x4096xf32>, %arg354: tensor<2304x32x128xf32>, %arg355: tensor<4096x4096xf32>, %arg356: tensor<11008x4096xf32>, %arg357: tensor<2304x32x128xf32>, %arg358: tensor<4096x4096xf32>, %arg359: tensor<2304x32x128xf32>, %arg360: tensor<4096x4096xf32>, %arg361: tensor<11008x4096xf32>) -> (tensor<1x32000xf32>, tensor<2304x32x128xf32>, tensor<2304x32x128xf32>, tensor<2304x32x128xf32>, tensor<2304x32x128xf32>, tensor<2304x32x128xf32>, tensor<2304x32x128xf32>, tensor<2304x32x128xf32>, tensor<2304x32x128xf32>, tensor<2304x32x128xf32>, tensor<2304x32x128xf32>, tensor<2304x32x128xf32>, tensor<2304x32x128xf32>, tensor<2304x32x128xf32>, tensor<2304x32x128xf32>, tensor<2304x32x128xf32>, tensor<2304x32x128xf32>, tensor<2304x32x128xf32>, tensor<2304x32x128xf32>, tensor<2304x32x128xf32>, tensor<2304x32x128xf32>, tensor<2304x32x128xf32>, tensor<2304x32x128xf32>, tensor<2304x32x128xf32>, tensor<2304x32x128xf32>, tensor<2304x32x128xf32>, tensor<2304x32x128xf32>, tensor<2304x32x128xf32>, tensor<2304x32x128xf32>, tensor<2304x32x128xf32>, tensor<2304x32x128xf32>, tensor<2304x32x128xf32>, tensor<2304x32x128xf32>, tensor<2304x32x128xf32>, tensor<2304x32x128xf32>, tensor<2304x32x128xf32>, tensor<2304x32x128xf32>, tensor<2304x32x128xf32>, tensor<2304x32x128xf32>, tensor<2304x32x128xf32>, tensor<2304x32x128xf32>, tensor<2304x32x128xf32>, tensor<2304x32x128xf32>, tensor<2304x32x128xf32>, tensor<2304x32x128xf32>, tensor<2304x32x128xf32>, tensor<2304x32x128xf32>, tensor<2304x32x128xf32>, tensor<2304x32x128xf32>, tensor<2304x32x128xf32>, tensor<2304x32x128xf32>, tensor<2304x32x128xf32>, tensor<2304x32x128xf32>, tensor<2304x32x128xf32>, tensor<2304x32x128xf32>, tensor<2304x32x128xf32>, tensor<2304x32x128xf32>, tensor<2304x32x128xf32>, tensor<2304x32x128xf32>, tensor<2304x32x128xf32>, tensor<2304x32x128xf32>, tensor<2304x32x128xf32>, tensor<2304x32x128xf32>, tensor<2304x32x128xf32>, tensor<2304x32x128xf32>) {
    %0 = stablehlo.constant dense<2.44140625E-4> : tensor<1xf32>
    %1 = stablehlo.constant dense<2.000000e+00> : tensor<1x4096xf32>
    %2 = stablehlo.constant dense<0> : tensor<1xi64>
    %3 = stablehlo.constant dense<0xFF800000> : tensor<f32>
    %4 = stablehlo.constant dense<0.000000e+00> : tensor<f32>
    %5 = stablehlo.convert %arg196 : (tensor<1xi64>) -> tensor<1xui32>
    %6 = "stablehlo.gather"(%arg197, %5) {dimension_numbers = #stablehlo.gather<offset_dims = [1], collapsed_slice_dims = [0], start_index_map = [0], index_vector_dim = 1>, indices_are_sorted = false, slice_sizes = dense<[1, 4096]> : tensor<2xi64>} : (tensor<32000x4096xf32>, tensor<1xui32>) -> tensor<1x4096xf32>
    %7 = stablehlo.power %6, %1 : tensor<1x4096xf32>
    %8 = stablehlo.reduce(%7 init: %4) across dimensions = [1] : (tensor<1x4096xf32>, tensor<f32>) -> tensor<1xf32>
     reducer(%arg362: tensor<f32>, %arg363: tensor<f32>)  {
      %3287 = stablehlo.add %arg362, %arg363 : tensor<f32>
      stablehlo.return %3287 : tensor<f32>
    }
    %9 = stablehlo.multiply %8, %0 : tensor<1xf32>
    %10 = stablehlo.reshape %9 : (tensor<1xf32>) -> tensor<1x1xf32>
    %11 = stablehlo.reshape %arg2 : (tensor<f32>) -> tensor<1x1xf32>
    %12 = stablehlo.add %10, %11 : tensor<1x1xf32>
    %13 = stablehlo.rsqrt %12 : tensor<1x1xf32>
    %14 = stablehlo.reshape %13 : (tensor<1x1xf32>) -> tensor<1xf32>
    %15 = stablehlo.broadcast_in_dim %14, dims = [0] : (tensor<1xf32>) -> tensor<1x4096xf32>
    %16 = stablehlo.multiply %6, %15 : tensor<1x4096xf32>
    %17 = stablehlo.reshape %arg195 : (tensor<4096xf32>) -> tensor<1x4096xf32>
    %18 = stablehlo.multiply %16, %17 : tensor<1x4096xf32>
    %19 = stablehlo.transpose %arg205, dims = [1, 0] {result_layout = dense<[0, 1]> : tensor<2xindex>, xla_shape = "f32[4096,4096]{0,1}"} : (tensor<4096x4096xf32>) -> tensor<4096x4096xf32>
    %20 = stablehlo.dot %18, %19, precision = [DEFAULT, DEFAULT] : (tensor<1x4096xf32>, tensor<4096x4096xf32>) -> tensor<1x4096xf32>
    %21 = stablehlo.reshape %20 : (tensor<1x4096xf32>) -> tensor<1x32x64x2xf32>
    %22 = stablehlo.slice %21 [0:1, 0:32, 0:64, 0:1] : (tensor<1x32x64x2xf32>) -> tensor<1x32x64x1xf32>
    %23 = stablehlo.reshape %22 : (tensor<1x32x64x1xf32>) -> tensor<1x32x64xf32>
    %24 = stablehlo.slice %21 [0:1, 0:32, 0:64, 1:2] : (tensor<1x32x64x2xf32>) -> tensor<1x32x64x1xf32>
    %25 = stablehlo.reshape %24 : (tensor<1x32x64x1xf32>) -> tensor<1x32x64xf32>
    %26 = stablehlo.complex %23, %25 : tensor<1x32x64xcomplex<f32>>
    %27 = stablehlo.convert %arg198 : (tensor<1xi64>) -> tensor<1xui32>
    %28 = "stablehlo.gather"(%arg202, %27) {dimension_numbers = #stablehlo.gather<offset_dims = [1], collapsed_slice_dims = [0], start_index_map = [0], index_vector_dim = 1>, indices_are_sorted = false, slice_sizes = dense<[1, 64]> : tensor<2xi64>} : (tensor<4608x64xcomplex<f32>>, tensor<1xui32>) -> tensor<1x64xcomplex<f32>>
    %29 = stablehlo.broadcast_in_dim %28, dims = [0, 2] : (tensor<1x64xcomplex<f32>>) -> tensor<1x32x64xcomplex<f32>>
    %30 = stablehlo.multiply %26, %29 : tensor<1x32x64xcomplex<f32>>
    %31 = stablehlo.real %30 : (tensor<1x32x64xcomplex<f32>>) -> tensor<1x32x64xf32>
    %32 = stablehlo.reshape %31 : (tensor<1x32x64xf32>) -> tensor<1x32x64x1xf32>
    %33 = stablehlo.imag %30 : (tensor<1x32x64xcomplex<f32>>) -> tensor<1x32x64xf32>
    %34 = stablehlo.reshape %33 : (tensor<1x32x64xf32>) -> tensor<1x32x64x1xf32>
    %35 = stablehlo.concatenate %32, %34, dim = 3 : (tensor<1x32x64x1xf32>, tensor<1x32x64x1xf32>) -> tensor<1x32x64x2xf32>
    %36 = stablehlo.reshape %35 : (tensor<1x32x64x2xf32>) -> tensor<32x1x128xf32>
    %37 = stablehlo.compare  LT, %arg198, %2 : (tensor<1xi64>, tensor<1xi64>) -> tensor<1xi1>
    %38 = stablehlo.reshape %arg199 : (tensor<i64>) -> tensor<1xi64>
    %39 = stablehlo.add %arg198, %38 : tensor<1xi64>
    %40 = stablehlo.select %37, %39, %arg198 : tensor<1xi1>, tensor<1xi64>
    %41 = stablehlo.reshape %40 : (tensor<1xi64>) -> tensor<1x1xi64>
    %42 = stablehlo.transpose %arg203, dims = [1, 0] {result_layout = dense<[0, 1]> : tensor<2xindex>, xla_shape = "f32[4096,4096]{0,1}"} : (tensor<4096x4096xf32>) -> tensor<4096x4096xf32>
    %43 = stablehlo.dot %18, %42, precision = [DEFAULT, DEFAULT] : (tensor<1x4096xf32>, tensor<4096x4096xf32>) -> tensor<1x4096xf32>
    %44 = stablehlo.reshape %43 : (tensor<1x4096xf32>) -> tensor<1x32x64x2xf32>
    %45 = stablehlo.slice %44 [0:1, 0:32, 0:64, 0:1] : (tensor<1x32x64x2xf32>) -> tensor<1x32x64x1xf32>
    %46 = stablehlo.reshape %45 : (tensor<1x32x64x1xf32>) -> tensor<1x32x64xf32>
    %47 = stablehlo.slice %44 [0:1, 0:32, 0:64, 1:2] : (tensor<1x32x64x2xf32>) -> tensor<1x32x64x1xf32>
    %48 = stablehlo.reshape %47 : (tensor<1x32x64x1xf32>) -> tensor<1x32x64xf32>
    %49 = stablehlo.complex %46, %48 : tensor<1x32x64xcomplex<f32>>
    %50 = stablehlo.broadcast_in_dim %28, dims = [0, 2] : (tensor<1x64xcomplex<f32>>) -> tensor<1x32x64xcomplex<f32>>
    %51 = stablehlo.multiply %49, %50 : tensor<1x32x64xcomplex<f32>>
    %52 = stablehlo.real %51 : (tensor<1x32x64xcomplex<f32>>) -> tensor<1x32x64xf32>
    %53 = stablehlo.reshape %52 : (tensor<1x32x64xf32>) -> tensor<1x32x64x1xf32>
    %54 = stablehlo.imag %51 : (tensor<1x32x64xcomplex<f32>>) -> tensor<1x32x64xf32>
    %55 = stablehlo.reshape %54 : (tensor<1x32x64xf32>) -> tensor<1x32x64x1xf32>
    %56 = stablehlo.concatenate %53, %55, dim = 3 : (tensor<1x32x64x1xf32>, tensor<1x32x64x1xf32>) -> tensor<1x32x64x2xf32>
    %57 = stablehlo.reshape %56 : (tensor<1x32x64x2xf32>) -> tensor<1x32x128xf32>
    %58 = "stablehlo.scatter"(%arg204, %41, %57) ({
    ^bb0(%arg362: tensor<f32>, %arg363: tensor<f32>):
      stablehlo.return %arg363 : tensor<f32>
    }) {indices_are_sorted = false, scatter_dimension_numbers = #stablehlo.scatter<update_window_dims = [1, 2], inserted_window_dims = [0], scatter_dims_to_operand_dims = [0], index_vector_dim = 1>, unique_indices = false} : (tensor<2304x32x128xf32>, tensor<1x1xi64>, tensor<1x32x128xf32>) -> tensor<2304x32x128xf32>
    %59 = stablehlo.convert %arg7 : (tensor<2049xi64>) -> tensor<2049xui32>
    %60 = "stablehlo.gather"(%58, %59) {dimension_numbers = #stablehlo.gather<offset_dims = [1, 2], collapsed_slice_dims = [0], start_index_map = [0], index_vector_dim = 1>, indices_are_sorted = false, slice_sizes = dense<[1, 32, 128]> : tensor<3xi64>} : (tensor<2304x32x128xf32>, tensor<2049xui32>) -> tensor<2049x32x128xf32>
    %61 = stablehlo.transpose %60, dims = [1, 2, 0] : (tensor<2049x32x128xf32>) -> tensor<32x128x2049xf32>
    %62 = stablehlo.dot_general %36, %61, batching_dims = [0] x [0], contracting_dims = [2] x [1], precision = [DEFAULT, DEFAULT] : (tensor<32x1x128xf32>, tensor<32x128x2049xf32>) -> tensor<32x1x2049xf32>
    %63 = stablehlo.broadcast_in_dim %arg201, dims = [] : (tensor<f32>) -> tensor<32x1x2049xf32>
    %64 = stablehlo.divide %62, %63 : tensor<32x1x2049xf32>
    %65 = stablehlo.reduce(%64 init: %3) across dimensions = [2] : (tensor<32x1x2049xf32>, tensor<f32>) -> tensor<32x1xf32>
     reducer(%arg362: tensor<f32>, %arg363: tensor<f32>)  {
      %3287 = stablehlo.maximum %arg362, %arg363 : tensor<f32>
      stablehlo.return %3287 : tensor<f32>
    }
    %66 = stablehlo.broadcast_in_dim %65, dims = [0, 1] : (tensor<32x1xf32>) -> tensor<32x1x2049xf32>
    %67 = stablehlo.subtract %64, %66 : tensor<32x1x2049xf32>
    %68 = stablehlo.exponential %67 : tensor<32x1x2049xf32>
    %69 = stablehlo.reduce(%68 init: %4) across dimensions = [2] : (tensor<32x1x2049xf32>, tensor<f32>) -> tensor<32x1xf32>
     reducer(%arg362: tensor<f32>, %arg363: tensor<f32>)  {
      %3287 = stablehlo.add %arg362, %arg363 : tensor<f32>
      stablehlo.return %3287 : tensor<f32>
    }
    %70 = stablehlo.broadcast_in_dim %69, dims = [0, 1] : (tensor<32x1xf32>) -> tensor<32x1x2049xf32>
    %71 = stablehlo.divide %68, %70 : tensor<32x1x2049xf32>
    %72 = stablehlo.compare  LT, %arg198, %2 : (tensor<1xi64>, tensor<1xi64>) -> tensor<1xi1>
    %73 = stablehlo.reshape %arg199 : (tensor<i64>) -> tensor<1xi64>
    %74 = stablehlo.add %arg198, %73 : tensor<1xi64>
    %75 = stablehlo.select %72, %74, %arg198 : tensor<1xi1>, tensor<1xi64>
    %76 = stablehlo.reshape %75 : (tensor<1xi64>) -> tensor<1x1xi64>
    %77 = stablehlo.transpose %arg194, dims = [1, 0] {result_layout = dense<[0, 1]> : tensor<2xindex>, xla_shape = "f32[4096,4096]{0,1}"} : (tensor<4096x4096xf32>) -> tensor<4096x4096xf32>
    %78 = stablehlo.dot %18, %77, precision = [DEFAULT, DEFAULT] : (tensor<1x4096xf32>, tensor<4096x4096xf32>) -> tensor<1x4096xf32>
    %79 = stablehlo.reshape %78 : (tensor<1x4096xf32>) -> tensor<1x32x128xf32>
    %80 = "stablehlo.scatter"(%arg200, %76, %79) ({
    ^bb0(%arg362: tensor<f32>, %arg363: tensor<f32>):
      stablehlo.return %arg363 : tensor<f32>
    }) {indices_are_sorted = false, scatter_dimension_numbers = #stablehlo.scatter<update_window_dims = [1, 2], inserted_window_dims = [0], scatter_dims_to_operand_dims = [0], index_vector_dim = 1>, unique_indices = false} : (tensor<2304x32x128xf32>, tensor<1x1xi64>, tensor<1x32x128xf32>) -> tensor<2304x32x128xf32>
    %81 = stablehlo.convert %arg7 : (tensor<2049xi64>) -> tensor<2049xui32>
    %82 = "stablehlo.gather"(%80, %81) {dimension_numbers = #stablehlo.gather<offset_dims = [1, 2], collapsed_slice_dims = [0], start_index_map = [0], index_vector_dim = 1>, indices_are_sorted = false, slice_sizes = dense<[1, 32, 128]> : tensor<3xi64>} : (tensor<2304x32x128xf32>, tensor<2049xui32>) -> tensor<2049x32x128xf32>
    %83 = stablehlo.transpose %82, dims = [1, 0, 2] {result_layout = dense<[2, 0, 1]> : tensor<3xindex>, xla_shape = "f32[32,2049,128]{2,0,1}"} : (tensor<2049x32x128xf32>) -> tensor<32x2049x128xf32>
    %84 = stablehlo.dot_general %71, %83, batching_dims = [0] x [0], contracting_dims = [2] x [1], precision = [DEFAULT, DEFAULT] : (tensor<32x1x2049xf32>, tensor<32x2049x128xf32>) -> tensor<32x1x128xf32>
    %85 = stablehlo.reshape %84 : (tensor<32x1x128xf32>) -> tensor<1x4096xf32>
    %86 = stablehlo.transpose %arg193, dims = [1, 0] {result_layout = dense<[0, 1]> : tensor<2xindex>, xla_shape = "f32[4096,4096]{0,1}"} : (tensor<4096x4096xf32>) -> tensor<4096x4096xf32>
    %87 = stablehlo.dot %85, %86, precision = [DEFAULT, DEFAULT] : (tensor<1x4096xf32>, tensor<4096x4096xf32>) -> tensor<1x4096xf32>
    %88 = stablehlo.add %6, %87 : tensor<1x4096xf32>
    %89 = stablehlo.power %88, %1 : tensor<1x4096xf32>
    %90 = stablehlo.reduce(%89 init: %4) across dimensions = [1] : (tensor<1x4096xf32>, tensor<f32>) -> tensor<1xf32>
     reducer(%arg362: tensor<f32>, %arg363: tensor<f32>)  {
      %3287 = stablehlo.add %arg362, %arg363 : tensor<f32>
      stablehlo.return %3287 : tensor<f32>
    }
    %91 = stablehlo.multiply %90, %0 : tensor<1xf32>
    %92 = stablehlo.reshape %91 : (tensor<1xf32>) -> tensor<1x1xf32>
    %93 = stablehlo.reshape %arg2 : (tensor<f32>) -> tensor<1x1xf32>
    %94 = stablehlo.add %92, %93 : tensor<1x1xf32>
    %95 = stablehlo.rsqrt %94 : tensor<1x1xf32>
    %96 = stablehlo.reshape %95 : (tensor<1x1xf32>) -> tensor<1xf32>
    %97 = stablehlo.broadcast_in_dim %96, dims = [0] : (tensor<1xf32>) -> tensor<1x4096xf32>
    %98 = stablehlo.multiply %88, %97 : tensor<1x4096xf32>
    %99 = stablehlo.reshape %arg192 : (tensor<4096xf32>) -> tensor<1x4096xf32>
    %100 = stablehlo.multiply %98, %99 : tensor<1x4096xf32>
    %101 = stablehlo.transpose %arg206, dims = [1, 0] {result_layout = dense<[0, 1]> : tensor<2xindex>, xla_shape = "f32[4096,11008]{0,1}"} : (tensor<11008x4096xf32>) -> tensor<4096x11008xf32>
    %102 = stablehlo.dot %100, %101, precision = [DEFAULT, DEFAULT] : (tensor<1x4096xf32>, tensor<4096x11008xf32>) -> tensor<1x11008xf32>
    %103 = stablehlo.logistic %102 : tensor<1x11008xf32>
    %104 = stablehlo.multiply %102, %103 : tensor<1x11008xf32>
    %105 = stablehlo.transpose %arg191, dims = [1, 0] {result_layout = dense<[0, 1]> : tensor<2xindex>, xla_shape = "f32[4096,11008]{0,1}"} : (tensor<11008x4096xf32>) -> tensor<4096x11008xf32>
    %106 = stablehlo.dot %100, %105, precision = [DEFAULT, DEFAULT] : (tensor<1x4096xf32>, tensor<4096x11008xf32>) -> tensor<1x11008xf32>
    %107 = stablehlo.multiply %104, %106 : tensor<1x11008xf32>
    %108 = stablehlo.transpose %arg190, dims = [1, 0] {result_layout = dense<[0, 1]> : tensor<2xindex>, xla_shape = "f32[11008,4096]{0,1}"} : (tensor<4096x11008xf32>) -> tensor<11008x4096xf32>
    %109 = stablehlo.dot %107, %108, precision = [DEFAULT, DEFAULT] : (tensor<1x11008xf32>, tensor<11008x4096xf32>) -> tensor<1x4096xf32>
    %110 = stablehlo.add %88, %109 : tensor<1x4096xf32>
    %111 = stablehlo.power %110, %1 : tensor<1x4096xf32>
    %112 = stablehlo.reduce(%111 init: %4) across dimensions = [1] : (tensor<1x4096xf32>, tensor<f32>) -> tensor<1xf32>
     reducer(%arg362: tensor<f32>, %arg363: tensor<f32>)  {
      %3287 = stablehlo.add %arg362, %arg363 : tensor<f32>
      stablehlo.return %3287 : tensor<f32>
    }
    %113 = stablehlo.multiply %112, %0 : tensor<1xf32>
    %114 = stablehlo.reshape %113 : (tensor<1xf32>) -> tensor<1x1xf32>
    %115 = stablehlo.reshape %arg2 : (tensor<f32>) -> tensor<1x1xf32>
    %116 = stablehlo.add %114, %115 : tensor<1x1xf32>
    %117 = stablehlo.rsqrt %116 : tensor<1x1xf32>
    %118 = stablehlo.reshape %117 : (tensor<1x1xf32>) -> tensor<1xf32>
    %119 = stablehlo.broadcast_in_dim %118, dims = [0] : (tensor<1xf32>) -> tensor<1x4096xf32>
    %120 = stablehlo.multiply %110, %119 : tensor<1x4096xf32>
    %121 = stablehlo.reshape %arg189 : (tensor<4096xf32>) -> tensor<1x4096xf32>
    %122 = stablehlo.multiply %120, %121 : tensor<1x4096xf32>
    %123 = stablehlo.transpose %arg210, dims = [1, 0] {result_layout = dense<[0, 1]> : tensor<2xindex>, xla_shape = "f32[4096,4096]{0,1}"} : (tensor<4096x4096xf32>) -> tensor<4096x4096xf32>
    %124 = stablehlo.dot %122, %123, precision = [DEFAULT, DEFAULT] : (tensor<1x4096xf32>, tensor<4096x4096xf32>) -> tensor<1x4096xf32>
    %125 = stablehlo.reshape %124 : (tensor<1x4096xf32>) -> tensor<1x32x64x2xf32>
    %126 = stablehlo.slice %125 [0:1, 0:32, 0:64, 0:1] : (tensor<1x32x64x2xf32>) -> tensor<1x32x64x1xf32>
    %127 = stablehlo.reshape %126 : (tensor<1x32x64x1xf32>) -> tensor<1x32x64xf32>
    %128 = stablehlo.slice %125 [0:1, 0:32, 0:64, 1:2] : (tensor<1x32x64x2xf32>) -> tensor<1x32x64x1xf32>
    %129 = stablehlo.reshape %128 : (tensor<1x32x64x1xf32>) -> tensor<1x32x64xf32>
    %130 = stablehlo.complex %127, %129 : tensor<1x32x64xcomplex<f32>>
    %131 = stablehlo.broadcast_in_dim %28, dims = [0, 2] : (tensor<1x64xcomplex<f32>>) -> tensor<1x32x64xcomplex<f32>>
    %132 = stablehlo.multiply %130, %131 : tensor<1x32x64xcomplex<f32>>
    %133 = stablehlo.real %132 : (tensor<1x32x64xcomplex<f32>>) -> tensor<1x32x64xf32>
    %134 = stablehlo.reshape %133 : (tensor<1x32x64xf32>) -> tensor<1x32x64x1xf32>
    %135 = stablehlo.imag %132 : (tensor<1x32x64xcomplex<f32>>) -> tensor<1x32x64xf32>
    %136 = stablehlo.reshape %135 : (tensor<1x32x64xf32>) -> tensor<1x32x64x1xf32>
    %137 = stablehlo.concatenate %134, %136, dim = 3 : (tensor<1x32x64x1xf32>, tensor<1x32x64x1xf32>) -> tensor<1x32x64x2xf32>
    %138 = stablehlo.reshape %137 : (tensor<1x32x64x2xf32>) -> tensor<32x1x128xf32>
    %139 = stablehlo.compare  LT, %arg198, %2 : (tensor<1xi64>, tensor<1xi64>) -> tensor<1xi1>
    %140 = stablehlo.reshape %arg199 : (tensor<i64>) -> tensor<1xi64>
    %141 = stablehlo.add %arg198, %140 : tensor<1xi64>
    %142 = stablehlo.select %139, %141, %arg198 : tensor<1xi1>, tensor<1xi64>
    %143 = stablehlo.reshape %142 : (tensor<1xi64>) -> tensor<1x1xi64>
    %144 = stablehlo.transpose %arg208, dims = [1, 0] {result_layout = dense<[0, 1]> : tensor<2xindex>, xla_shape = "f32[4096,4096]{0,1}"} : (tensor<4096x4096xf32>) -> tensor<4096x4096xf32>
    %145 = stablehlo.dot %122, %144, precision = [DEFAULT, DEFAULT] : (tensor<1x4096xf32>, tensor<4096x4096xf32>) -> tensor<1x4096xf32>
    %146 = stablehlo.reshape %145 : (tensor<1x4096xf32>) -> tensor<1x32x64x2xf32>
    %147 = stablehlo.slice %146 [0:1, 0:32, 0:64, 0:1] : (tensor<1x32x64x2xf32>) -> tensor<1x32x64x1xf32>
    %148 = stablehlo.reshape %147 : (tensor<1x32x64x1xf32>) -> tensor<1x32x64xf32>
    %149 = stablehlo.slice %146 [0:1, 0:32, 0:64, 1:2] : (tensor<1x32x64x2xf32>) -> tensor<1x32x64x1xf32>
    %150 = stablehlo.reshape %149 : (tensor<1x32x64x1xf32>) -> tensor<1x32x64xf32>
    %151 = stablehlo.complex %148, %150 : tensor<1x32x64xcomplex<f32>>
    %152 = stablehlo.broadcast_in_dim %28, dims = [0, 2] : (tensor<1x64xcomplex<f32>>) -> tensor<1x32x64xcomplex<f32>>
    %153 = stablehlo.multiply %151, %152 : tensor<1x32x64xcomplex<f32>>
    %154 = stablehlo.real %153 : (tensor<1x32x64xcomplex<f32>>) -> tensor<1x32x64xf32>
    %155 = stablehlo.reshape %154 : (tensor<1x32x64xf32>) -> tensor<1x32x64x1xf32>
    %156 = stablehlo.imag %153 : (tensor<1x32x64xcomplex<f32>>) -> tensor<1x32x64xf32>
    %157 = stablehlo.reshape %156 : (tensor<1x32x64xf32>) -> tensor<1x32x64x1xf32>
    %158 = stablehlo.concatenate %155, %157, dim = 3 : (tensor<1x32x64x1xf32>, tensor<1x32x64x1xf32>) -> tensor<1x32x64x2xf32>
    %159 = stablehlo.reshape %158 : (tensor<1x32x64x2xf32>) -> tensor<1x32x128xf32>
    %160 = "stablehlo.scatter"(%arg209, %143, %159) ({
    ^bb0(%arg362: tensor<f32>, %arg363: tensor<f32>):
      stablehlo.return %arg363 : tensor<f32>
    }) {indices_are_sorted = false, scatter_dimension_numbers = #stablehlo.scatter<update_window_dims = [1, 2], inserted_window_dims = [0], scatter_dims_to_operand_dims = [0], index_vector_dim = 1>, unique_indices = false} : (tensor<2304x32x128xf32>, tensor<1x1xi64>, tensor<1x32x128xf32>) -> tensor<2304x32x128xf32>
    %161 = stablehlo.convert %arg7 : (tensor<2049xi64>) -> tensor<2049xui32>
    %162 = "stablehlo.gather"(%160, %161) {dimension_numbers = #stablehlo.gather<offset_dims = [1, 2], collapsed_slice_dims = [0], start_index_map = [0], index_vector_dim = 1>, indices_are_sorted = false, slice_sizes = dense<[1, 32, 128]> : tensor<3xi64>} : (tensor<2304x32x128xf32>, tensor<2049xui32>) -> tensor<2049x32x128xf32>
    %163 = stablehlo.transpose %162, dims = [1, 2, 0] : (tensor<2049x32x128xf32>) -> tensor<32x128x2049xf32>
    %164 = stablehlo.dot_general %138, %163, batching_dims = [0] x [0], contracting_dims = [2] x [1], precision = [DEFAULT, DEFAULT] : (tensor<32x1x128xf32>, tensor<32x128x2049xf32>) -> tensor<32x1x2049xf32>
    %165 = stablehlo.broadcast_in_dim %arg201, dims = [] : (tensor<f32>) -> tensor<32x1x2049xf32>
    %166 = stablehlo.divide %164, %165 : tensor<32x1x2049xf32>
    %167 = stablehlo.reduce(%166 init: %3) across dimensions = [2] : (tensor<32x1x2049xf32>, tensor<f32>) -> tensor<32x1xf32>
     reducer(%arg362: tensor<f32>, %arg363: tensor<f32>)  {
      %3287 = stablehlo.maximum %arg362, %arg363 : tensor<f32>
      stablehlo.return %3287 : tensor<f32>
    }
    %168 = stablehlo.broadcast_in_dim %167, dims = [0, 1] : (tensor<32x1xf32>) -> tensor<32x1x2049xf32>
    %169 = stablehlo.subtract %166, %168 : tensor<32x1x2049xf32>
    %170 = stablehlo.exponential %169 : tensor<32x1x2049xf32>
    %171 = stablehlo.reduce(%170 init: %4) across dimensions = [2] : (tensor<32x1x2049xf32>, tensor<f32>) -> tensor<32x1xf32>
     reducer(%arg362: tensor<f32>, %arg363: tensor<f32>)  {
      %3287 = stablehlo.add %arg362, %arg363 : tensor<f32>
      stablehlo.return %3287 : tensor<f32>
    }
    %172 = stablehlo.broadcast_in_dim %171, dims = [0, 1] : (tensor<32x1xf32>) -> tensor<32x1x2049xf32>
    %173 = stablehlo.divide %170, %172 : tensor<32x1x2049xf32>
    %174 = stablehlo.compare  LT, %arg198, %2 : (tensor<1xi64>, tensor<1xi64>) -> tensor<1xi1>
    %175 = stablehlo.reshape %arg199 : (tensor<i64>) -> tensor<1xi64>
    %176 = stablehlo.add %arg198, %175 : tensor<1xi64>
    %177 = stablehlo.select %174, %176, %arg198 : tensor<1xi1>, tensor<1xi64>
    %178 = stablehlo.reshape %177 : (tensor<1xi64>) -> tensor<1x1xi64>
    %179 = stablehlo.transpose %arg188, dims = [1, 0] {result_layout = dense<[0, 1]> : tensor<2xindex>, xla_shape = "f32[4096,4096]{0,1}"} : (tensor<4096x4096xf32>) -> tensor<4096x4096xf32>
    %180 = stablehlo.dot %122, %179, precision = [DEFAULT, DEFAULT] : (tensor<1x4096xf32>, tensor<4096x4096xf32>) -> tensor<1x4096xf32>
    %181 = stablehlo.reshape %180 : (tensor<1x4096xf32>) -> tensor<1x32x128xf32>
    %182 = "stablehlo.scatter"(%arg207, %178, %181) ({
    ^bb0(%arg362: tensor<f32>, %arg363: tensor<f32>):
      stablehlo.return %arg363 : tensor<f32>
    }) {indices_are_sorted = false, scatter_dimension_numbers = #stablehlo.scatter<update_window_dims = [1, 2], inserted_window_dims = [0], scatter_dims_to_operand_dims = [0], index_vector_dim = 1>, unique_indices = false} : (tensor<2304x32x128xf32>, tensor<1x1xi64>, tensor<1x32x128xf32>) -> tensor<2304x32x128xf32>
    %183 = stablehlo.convert %arg7 : (tensor<2049xi64>) -> tensor<2049xui32>
    %184 = "stablehlo.gather"(%182, %183) {dimension_numbers = #stablehlo.gather<offset_dims = [1, 2], collapsed_slice_dims = [0], start_index_map = [0], index_vector_dim = 1>, indices_are_sorted = false, slice_sizes = dense<[1, 32, 128]> : tensor<3xi64>} : (tensor<2304x32x128xf32>, tensor<2049xui32>) -> tensor<2049x32x128xf32>
    %185 = stablehlo.transpose %184, dims = [1, 0, 2] {result_layout = dense<[2, 0, 1]> : tensor<3xindex>, xla_shape = "f32[32,2049,128]{2,0,1}"} : (tensor<2049x32x128xf32>) -> tensor<32x2049x128xf32>
    %186 = stablehlo.dot_general %173, %185, batching_dims = [0] x [0], contracting_dims = [2] x [1], precision = [DEFAULT, DEFAULT] : (tensor<32x1x2049xf32>, tensor<32x2049x128xf32>) -> tensor<32x1x128xf32>
    %187 = stablehlo.reshape %186 : (tensor<32x1x128xf32>) -> tensor<1x4096xf32>
    %188 = stablehlo.transpose %arg187, dims = [1, 0] {result_layout = dense<[0, 1]> : tensor<2xindex>, xla_shape = "f32[4096,4096]{0,1}"} : (tensor<4096x4096xf32>) -> tensor<4096x4096xf32>
    %189 = stablehlo.dot %187, %188, precision = [DEFAULT, DEFAULT] : (tensor<1x4096xf32>, tensor<4096x4096xf32>) -> tensor<1x4096xf32>
    %190 = stablehlo.add %110, %189 : tensor<1x4096xf32>
    %191 = stablehlo.power %190, %1 : tensor<1x4096xf32>
    %192 = stablehlo.reduce(%191 init: %4) across dimensions = [1] : (tensor<1x4096xf32>, tensor<f32>) -> tensor<1xf32>
     reducer(%arg362: tensor<f32>, %arg363: tensor<f32>)  {
      %3287 = stablehlo.add %arg362, %arg363 : tensor<f32>
      stablehlo.return %3287 : tensor<f32>
    }
    %193 = stablehlo.multiply %192, %0 : tensor<1xf32>
    %194 = stablehlo.reshape %193 : (tensor<1xf32>) -> tensor<1x1xf32>
    %195 = stablehlo.reshape %arg2 : (tensor<f32>) -> tensor<1x1xf32>
    %196 = stablehlo.add %194, %195 : tensor<1x1xf32>
    %197 = stablehlo.rsqrt %196 : tensor<1x1xf32>
    %198 = stablehlo.reshape %197 : (tensor<1x1xf32>) -> tensor<1xf32>
    %199 = stablehlo.broadcast_in_dim %198, dims = [0] : (tensor<1xf32>) -> tensor<1x4096xf32>
    %200 = stablehlo.multiply %190, %199 : tensor<1x4096xf32>
    %201 = stablehlo.reshape %arg186 : (tensor<4096xf32>) -> tensor<1x4096xf32>
    %202 = stablehlo.multiply %200, %201 : tensor<1x4096xf32>
    %203 = stablehlo.transpose %arg211, dims = [1, 0] {result_layout = dense<[0, 1]> : tensor<2xindex>, xla_shape = "f32[4096,11008]{0,1}"} : (tensor<11008x4096xf32>) -> tensor<4096x11008xf32>
    %204 = stablehlo.dot %202, %203, precision = [DEFAULT, DEFAULT] : (tensor<1x4096xf32>, tensor<4096x11008xf32>) -> tensor<1x11008xf32>
    %205 = stablehlo.logistic %204 : tensor<1x11008xf32>
    %206 = stablehlo.multiply %204, %205 : tensor<1x11008xf32>
    %207 = stablehlo.transpose %arg185, dims = [1, 0] {result_layout = dense<[0, 1]> : tensor<2xindex>, xla_shape = "f32[4096,11008]{0,1}"} : (tensor<11008x4096xf32>) -> tensor<4096x11008xf32>
    %208 = stablehlo.dot %202, %207, precision = [DEFAULT, DEFAULT] : (tensor<1x4096xf32>, tensor<4096x11008xf32>) -> tensor<1x11008xf32>
    %209 = stablehlo.multiply %206, %208 : tensor<1x11008xf32>
    %210 = stablehlo.transpose %arg184, dims = [1, 0] {result_layout = dense<[0, 1]> : tensor<2xindex>, xla_shape = "f32[11008,4096]{0,1}"} : (tensor<4096x11008xf32>) -> tensor<11008x4096xf32>
    %211 = stablehlo.dot %209, %210, precision = [DEFAULT, DEFAULT] : (tensor<1x11008xf32>, tensor<11008x4096xf32>) -> tensor<1x4096xf32>
    %212 = stablehlo.add %190, %211 : tensor<1x4096xf32>
    %213 = stablehlo.power %212, %1 : tensor<1x4096xf32>
    %214 = stablehlo.reduce(%213 init: %4) across dimensions = [1] : (tensor<1x4096xf32>, tensor<f32>) -> tensor<1xf32>
     reducer(%arg362: tensor<f32>, %arg363: tensor<f32>)  {
      %3287 = stablehlo.add %arg362, %arg363 : tensor<f32>
      stablehlo.return %3287 : tensor<f32>
    }
    %215 = stablehlo.multiply %214, %0 : tensor<1xf32>
    %216 = stablehlo.reshape %215 : (tensor<1xf32>) -> tensor<1x1xf32>
    %217 = stablehlo.reshape %arg2 : (tensor<f32>) -> tensor<1x1xf32>
    %218 = stablehlo.add %216, %217 : tensor<1x1xf32>
    %219 = stablehlo.rsqrt %218 : tensor<1x1xf32>
    %220 = stablehlo.reshape %219 : (tensor<1x1xf32>) -> tensor<1xf32>
    %221 = stablehlo.broadcast_in_dim %220, dims = [0] : (tensor<1xf32>) -> tensor<1x4096xf32>
    %222 = stablehlo.multiply %212, %221 : tensor<1x4096xf32>
    %223 = stablehlo.reshape %arg183 : (tensor<4096xf32>) -> tensor<1x4096xf32>
    %224 = stablehlo.multiply %222, %223 : tensor<1x4096xf32>
    %225 = stablehlo.transpose %arg215, dims = [1, 0] {result_layout = dense<[0, 1]> : tensor<2xindex>, xla_shape = "f32[4096,4096]{0,1}"} : (tensor<4096x4096xf32>) -> tensor<4096x4096xf32>
    %226 = stablehlo.dot %224, %225, precision = [DEFAULT, DEFAULT] : (tensor<1x4096xf32>, tensor<4096x4096xf32>) -> tensor<1x4096xf32>
    %227 = stablehlo.reshape %226 : (tensor<1x4096xf32>) -> tensor<1x32x64x2xf32>
    %228 = stablehlo.slice %227 [0:1, 0:32, 0:64, 0:1] : (tensor<1x32x64x2xf32>) -> tensor<1x32x64x1xf32>
    %229 = stablehlo.reshape %228 : (tensor<1x32x64x1xf32>) -> tensor<1x32x64xf32>
    %230 = stablehlo.slice %227 [0:1, 0:32, 0:64, 1:2] : (tensor<1x32x64x2xf32>) -> tensor<1x32x64x1xf32>
    %231 = stablehlo.reshape %230 : (tensor<1x32x64x1xf32>) -> tensor<1x32x64xf32>
    %232 = stablehlo.complex %229, %231 : tensor<1x32x64xcomplex<f32>>
    %233 = stablehlo.broadcast_in_dim %28, dims = [0, 2] : (tensor<1x64xcomplex<f32>>) -> tensor<1x32x64xcomplex<f32>>
    %234 = stablehlo.multiply %232, %233 : tensor<1x32x64xcomplex<f32>>
    %235 = stablehlo.real %234 : (tensor<1x32x64xcomplex<f32>>) -> tensor<1x32x64xf32>
    %236 = stablehlo.reshape %235 : (tensor<1x32x64xf32>) -> tensor<1x32x64x1xf32>
    %237 = stablehlo.imag %234 : (tensor<1x32x64xcomplex<f32>>) -> tensor<1x32x64xf32>
    %238 = stablehlo.reshape %237 : (tensor<1x32x64xf32>) -> tensor<1x32x64x1xf32>
    %239 = stablehlo.concatenate %236, %238, dim = 3 : (tensor<1x32x64x1xf32>, tensor<1x32x64x1xf32>) -> tensor<1x32x64x2xf32>
    %240 = stablehlo.reshape %239 : (tensor<1x32x64x2xf32>) -> tensor<32x1x128xf32>
    %241 = stablehlo.compare  LT, %arg198, %2 : (tensor<1xi64>, tensor<1xi64>) -> tensor<1xi1>
    %242 = stablehlo.reshape %arg199 : (tensor<i64>) -> tensor<1xi64>
    %243 = stablehlo.add %arg198, %242 : tensor<1xi64>
    %244 = stablehlo.select %241, %243, %arg198 : tensor<1xi1>, tensor<1xi64>
    %245 = stablehlo.reshape %244 : (tensor<1xi64>) -> tensor<1x1xi64>
    %246 = stablehlo.transpose %arg213, dims = [1, 0] {result_layout = dense<[0, 1]> : tensor<2xindex>, xla_shape = "f32[4096,4096]{0,1}"} : (tensor<4096x4096xf32>) -> tensor<4096x4096xf32>
    %247 = stablehlo.dot %224, %246, precision = [DEFAULT, DEFAULT] : (tensor<1x4096xf32>, tensor<4096x4096xf32>) -> tensor<1x4096xf32>
    %248 = stablehlo.reshape %247 : (tensor<1x4096xf32>) -> tensor<1x32x64x2xf32>
    %249 = stablehlo.slice %248 [0:1, 0:32, 0:64, 0:1] : (tensor<1x32x64x2xf32>) -> tensor<1x32x64x1xf32>
    %250 = stablehlo.reshape %249 : (tensor<1x32x64x1xf32>) -> tensor<1x32x64xf32>
    %251 = stablehlo.slice %248 [0:1, 0:32, 0:64, 1:2] : (tensor<1x32x64x2xf32>) -> tensor<1x32x64x1xf32>
    %252 = stablehlo.reshape %251 : (tensor<1x32x64x1xf32>) -> tensor<1x32x64xf32>
    %253 = stablehlo.complex %250, %252 : tensor<1x32x64xcomplex<f32>>
    %254 = stablehlo.broadcast_in_dim %28, dims = [0, 2] : (tensor<1x64xcomplex<f32>>) -> tensor<1x32x64xcomplex<f32>>
    %255 = stablehlo.multiply %253, %254 : tensor<1x32x64xcomplex<f32>>
    %256 = stablehlo.real %255 : (tensor<1x32x64xcomplex<f32>>) -> tensor<1x32x64xf32>
    %257 = stablehlo.reshape %256 : (tensor<1x32x64xf32>) -> tensor<1x32x64x1xf32>
    %258 = stablehlo.imag %255 : (tensor<1x32x64xcomplex<f32>>) -> tensor<1x32x64xf32>
    %259 = stablehlo.reshape %258 : (tensor<1x32x64xf32>) -> tensor<1x32x64x1xf32>
    %260 = stablehlo.concatenate %257, %259, dim = 3 : (tensor<1x32x64x1xf32>, tensor<1x32x64x1xf32>) -> tensor<1x32x64x2xf32>
    %261 = stablehlo.reshape %260 : (tensor<1x32x64x2xf32>) -> tensor<1x32x128xf32>
    %262 = "stablehlo.scatter"(%arg214, %245, %261) ({
    ^bb0(%arg362: tensor<f32>, %arg363: tensor<f32>):
      stablehlo.return %arg363 : tensor<f32>
    }) {indices_are_sorted = false, scatter_dimension_numbers = #stablehlo.scatter<update_window_dims = [1, 2], inserted_window_dims = [0], scatter_dims_to_operand_dims = [0], index_vector_dim = 1>, unique_indices = false} : (tensor<2304x32x128xf32>, tensor<1x1xi64>, tensor<1x32x128xf32>) -> tensor<2304x32x128xf32>
    %263 = stablehlo.convert %arg7 : (tensor<2049xi64>) -> tensor<2049xui32>
    %264 = "stablehlo.gather"(%262, %263) {dimension_numbers = #stablehlo.gather<offset_dims = [1, 2], collapsed_slice_dims = [0], start_index_map = [0], index_vector_dim = 1>, indices_are_sorted = false, slice_sizes = dense<[1, 32, 128]> : tensor<3xi64>} : (tensor<2304x32x128xf32>, tensor<2049xui32>) -> tensor<2049x32x128xf32>
    %265 = stablehlo.transpose %264, dims = [1, 2, 0] : (tensor<2049x32x128xf32>) -> tensor<32x128x2049xf32>
    %266 = stablehlo.dot_general %240, %265, batching_dims = [0] x [0], contracting_dims = [2] x [1], precision = [DEFAULT, DEFAULT] : (tensor<32x1x128xf32>, tensor<32x128x2049xf32>) -> tensor<32x1x2049xf32>
    %267 = stablehlo.broadcast_in_dim %arg201, dims = [] : (tensor<f32>) -> tensor<32x1x2049xf32>
    %268 = stablehlo.divide %266, %267 : tensor<32x1x2049xf32>
    %269 = stablehlo.reduce(%268 init: %3) across dimensions = [2] : (tensor<32x1x2049xf32>, tensor<f32>) -> tensor<32x1xf32>
     reducer(%arg362: tensor<f32>, %arg363: tensor<f32>)  {
      %3287 = stablehlo.maximum %arg362, %arg363 : tensor<f32>
      stablehlo.return %3287 : tensor<f32>
    }
    %270 = stablehlo.broadcast_in_dim %269, dims = [0, 1] : (tensor<32x1xf32>) -> tensor<32x1x2049xf32>
    %271 = stablehlo.subtract %268, %270 : tensor<32x1x2049xf32>
    %272 = stablehlo.exponential %271 : tensor<32x1x2049xf32>
    %273 = stablehlo.reduce(%272 init: %4) across dimensions = [2] : (tensor<32x1x2049xf32>, tensor<f32>) -> tensor<32x1xf32>
     reducer(%arg362: tensor<f32>, %arg363: tensor<f32>)  {
      %3287 = stablehlo.add %arg362, %arg363 : tensor<f32>
      stablehlo.return %3287 : tensor<f32>
    }
    %274 = stablehlo.broadcast_in_dim %273, dims = [0, 1] : (tensor<32x1xf32>) -> tensor<32x1x2049xf32>
    %275 = stablehlo.divide %272, %274 : tensor<32x1x2049xf32>
    %276 = stablehlo.compare  LT, %arg198, %2 : (tensor<1xi64>, tensor<1xi64>) -> tensor<1xi1>
    %277 = stablehlo.reshape %arg199 : (tensor<i64>) -> tensor<1xi64>
    %278 = stablehlo.add %arg198, %277 : tensor<1xi64>
    %279 = stablehlo.select %276, %278, %arg198 : tensor<1xi1>, tensor<1xi64>
    %280 = stablehlo.reshape %279 : (tensor<1xi64>) -> tensor<1x1xi64>
    %281 = stablehlo.transpose %arg182, dims = [1, 0] {result_layout = dense<[0, 1]> : tensor<2xindex>, xla_shape = "f32[4096,4096]{0,1}"} : (tensor<4096x4096xf32>) -> tensor<4096x4096xf32>
    %282 = stablehlo.dot %224, %281, precision = [DEFAULT, DEFAULT] : (tensor<1x4096xf32>, tensor<4096x4096xf32>) -> tensor<1x4096xf32>
    %283 = stablehlo.reshape %282 : (tensor<1x4096xf32>) -> tensor<1x32x128xf32>
    %284 = "stablehlo.scatter"(%arg212, %280, %283) ({
    ^bb0(%arg362: tensor<f32>, %arg363: tensor<f32>):
      stablehlo.return %arg363 : tensor<f32>
    }) {indices_are_sorted = false, scatter_dimension_numbers = #stablehlo.scatter<update_window_dims = [1, 2], inserted_window_dims = [0], scatter_dims_to_operand_dims = [0], index_vector_dim = 1>, unique_indices = false} : (tensor<2304x32x128xf32>, tensor<1x1xi64>, tensor<1x32x128xf32>) -> tensor<2304x32x128xf32>
    %285 = stablehlo.convert %arg7 : (tensor<2049xi64>) -> tensor<2049xui32>
    %286 = "stablehlo.gather"(%284, %285) {dimension_numbers = #stablehlo.gather<offset_dims = [1, 2], collapsed_slice_dims = [0], start_index_map = [0], index_vector_dim = 1>, indices_are_sorted = false, slice_sizes = dense<[1, 32, 128]> : tensor<3xi64>} : (tensor<2304x32x128xf32>, tensor<2049xui32>) -> tensor<2049x32x128xf32>
    %287 = stablehlo.transpose %286, dims = [1, 0, 2] {result_layout = dense<[2, 0, 1]> : tensor<3xindex>, xla_shape = "f32[32,2049,128]{2,0,1}"} : (tensor<2049x32x128xf32>) -> tensor<32x2049x128xf32>
    %288 = stablehlo.dot_general %275, %287, batching_dims = [0] x [0], contracting_dims = [2] x [1], precision = [DEFAULT, DEFAULT] : (tensor<32x1x2049xf32>, tensor<32x2049x128xf32>) -> tensor<32x1x128xf32>
    %289 = stablehlo.reshape %288 : (tensor<32x1x128xf32>) -> tensor<1x4096xf32>
    %290 = stablehlo.transpose %arg181, dims = [1, 0] {result_layout = dense<[0, 1]> : tensor<2xindex>, xla_shape = "f32[4096,4096]{0,1}"} : (tensor<4096x4096xf32>) -> tensor<4096x4096xf32>
    %291 = stablehlo.dot %289, %290, precision = [DEFAULT, DEFAULT] : (tensor<1x4096xf32>, tensor<4096x4096xf32>) -> tensor<1x4096xf32>
    %292 = stablehlo.add %212, %291 : tensor<1x4096xf32>
    %293 = stablehlo.power %292, %1 : tensor<1x4096xf32>
    %294 = stablehlo.reduce(%293 init: %4) across dimensions = [1] : (tensor<1x4096xf32>, tensor<f32>) -> tensor<1xf32>
     reducer(%arg362: tensor<f32>, %arg363: tensor<f32>)  {
      %3287 = stablehlo.add %arg362, %arg363 : tensor<f32>
      stablehlo.return %3287 : tensor<f32>
    }
    %295 = stablehlo.multiply %294, %0 : tensor<1xf32>
    %296 = stablehlo.reshape %295 : (tensor<1xf32>) -> tensor<1x1xf32>
    %297 = stablehlo.reshape %arg2 : (tensor<f32>) -> tensor<1x1xf32>
    %298 = stablehlo.add %296, %297 : tensor<1x1xf32>
    %299 = stablehlo.rsqrt %298 : tensor<1x1xf32>
    %300 = stablehlo.reshape %299 : (tensor<1x1xf32>) -> tensor<1xf32>
    %301 = stablehlo.broadcast_in_dim %300, dims = [0] : (tensor<1xf32>) -> tensor<1x4096xf32>
    %302 = stablehlo.multiply %292, %301 : tensor<1x4096xf32>
    %303 = stablehlo.reshape %arg180 : (tensor<4096xf32>) -> tensor<1x4096xf32>
    %304 = stablehlo.multiply %302, %303 : tensor<1x4096xf32>
    %305 = stablehlo.transpose %arg216, dims = [1, 0] {result_layout = dense<[0, 1]> : tensor<2xindex>, xla_shape = "f32[4096,11008]{0,1}"} : (tensor<11008x4096xf32>) -> tensor<4096x11008xf32>
    %306 = stablehlo.dot %304, %305, precision = [DEFAULT, DEFAULT] : (tensor<1x4096xf32>, tensor<4096x11008xf32>) -> tensor<1x11008xf32>
    %307 = stablehlo.logistic %306 : tensor<1x11008xf32>
    %308 = stablehlo.multiply %306, %307 : tensor<1x11008xf32>
    %309 = stablehlo.transpose %arg179, dims = [1, 0] {result_layout = dense<[0, 1]> : tensor<2xindex>, xla_shape = "f32[4096,11008]{0,1}"} : (tensor<11008x4096xf32>) -> tensor<4096x11008xf32>
    %310 = stablehlo.dot %304, %309, precision = [DEFAULT, DEFAULT] : (tensor<1x4096xf32>, tensor<4096x11008xf32>) -> tensor<1x11008xf32>
    %311 = stablehlo.multiply %308, %310 : tensor<1x11008xf32>
    %312 = stablehlo.transpose %arg178, dims = [1, 0] {result_layout = dense<[0, 1]> : tensor<2xindex>, xla_shape = "f32[11008,4096]{0,1}"} : (tensor<4096x11008xf32>) -> tensor<11008x4096xf32>
    %313 = stablehlo.dot %311, %312, precision = [DEFAULT, DEFAULT] : (tensor<1x11008xf32>, tensor<11008x4096xf32>) -> tensor<1x4096xf32>
    %314 = stablehlo.add %292, %313 : tensor<1x4096xf32>
    %315 = stablehlo.power %314, %1 : tensor<1x4096xf32>
    %316 = stablehlo.reduce(%315 init: %4) across dimensions = [1] : (tensor<1x4096xf32>, tensor<f32>) -> tensor<1xf32>
     reducer(%arg362: tensor<f32>, %arg363: tensor<f32>)  {
      %3287 = stablehlo.add %arg362, %arg363 : tensor<f32>
      stablehlo.return %3287 : tensor<f32>
    }
    %317 = stablehlo.multiply %316, %0 : tensor<1xf32>
    %318 = stablehlo.reshape %317 : (tensor<1xf32>) -> tensor<1x1xf32>
    %319 = stablehlo.reshape %arg2 : (tensor<f32>) -> tensor<1x1xf32>
    %320 = stablehlo.add %318, %319 : tensor<1x1xf32>
    %321 = stablehlo.rsqrt %320 : tensor<1x1xf32>
    %322 = stablehlo.reshape %321 : (tensor<1x1xf32>) -> tensor<1xf32>
    %323 = stablehlo.broadcast_in_dim %322, dims = [0] : (tensor<1xf32>) -> tensor<1x4096xf32>
    %324 = stablehlo.multiply %314, %323 : tensor<1x4096xf32>
    %325 = stablehlo.reshape %arg177 : (tensor<4096xf32>) -> tensor<1x4096xf32>
    %326 = stablehlo.multiply %324, %325 : tensor<1x4096xf32>
    %327 = stablehlo.transpose %arg220, dims = [1, 0] {result_layout = dense<[0, 1]> : tensor<2xindex>, xla_shape = "f32[4096,4096]{0,1}"} : (tensor<4096x4096xf32>) -> tensor<4096x4096xf32>
    %328 = stablehlo.dot %326, %327, precision = [DEFAULT, DEFAULT] : (tensor<1x4096xf32>, tensor<4096x4096xf32>) -> tensor<1x4096xf32>
    %329 = stablehlo.reshape %328 : (tensor<1x4096xf32>) -> tensor<1x32x64x2xf32>
    %330 = stablehlo.slice %329 [0:1, 0:32, 0:64, 0:1] : (tensor<1x32x64x2xf32>) -> tensor<1x32x64x1xf32>
    %331 = stablehlo.reshape %330 : (tensor<1x32x64x1xf32>) -> tensor<1x32x64xf32>
    %332 = stablehlo.slice %329 [0:1, 0:32, 0:64, 1:2] : (tensor<1x32x64x2xf32>) -> tensor<1x32x64x1xf32>
    %333 = stablehlo.reshape %332 : (tensor<1x32x64x1xf32>) -> tensor<1x32x64xf32>
    %334 = stablehlo.complex %331, %333 : tensor<1x32x64xcomplex<f32>>
    %335 = stablehlo.broadcast_in_dim %28, dims = [0, 2] : (tensor<1x64xcomplex<f32>>) -> tensor<1x32x64xcomplex<f32>>
    %336 = stablehlo.multiply %334, %335 : tensor<1x32x64xcomplex<f32>>
    %337 = stablehlo.real %336 : (tensor<1x32x64xcomplex<f32>>) -> tensor<1x32x64xf32>
    %338 = stablehlo.reshape %337 : (tensor<1x32x64xf32>) -> tensor<1x32x64x1xf32>
    %339 = stablehlo.imag %336 : (tensor<1x32x64xcomplex<f32>>) -> tensor<1x32x64xf32>
    %340 = stablehlo.reshape %339 : (tensor<1x32x64xf32>) -> tensor<1x32x64x1xf32>
    %341 = stablehlo.concatenate %338, %340, dim = 3 : (tensor<1x32x64x1xf32>, tensor<1x32x64x1xf32>) -> tensor<1x32x64x2xf32>
    %342 = stablehlo.reshape %341 : (tensor<1x32x64x2xf32>) -> tensor<32x1x128xf32>
    %343 = stablehlo.compare  LT, %arg198, %2 : (tensor<1xi64>, tensor<1xi64>) -> tensor<1xi1>
    %344 = stablehlo.reshape %arg199 : (tensor<i64>) -> tensor<1xi64>
    %345 = stablehlo.add %arg198, %344 : tensor<1xi64>
    %346 = stablehlo.select %343, %345, %arg198 : tensor<1xi1>, tensor<1xi64>
    %347 = stablehlo.reshape %346 : (tensor<1xi64>) -> tensor<1x1xi64>
    %348 = stablehlo.transpose %arg218, dims = [1, 0] {result_layout = dense<[0, 1]> : tensor<2xindex>, xla_shape = "f32[4096,4096]{0,1}"} : (tensor<4096x4096xf32>) -> tensor<4096x4096xf32>
    %349 = stablehlo.dot %326, %348, precision = [DEFAULT, DEFAULT] : (tensor<1x4096xf32>, tensor<4096x4096xf32>) -> tensor<1x4096xf32>
    %350 = stablehlo.reshape %349 : (tensor<1x4096xf32>) -> tensor<1x32x64x2xf32>
    %351 = stablehlo.slice %350 [0:1, 0:32, 0:64, 0:1] : (tensor<1x32x64x2xf32>) -> tensor<1x32x64x1xf32>
    %352 = stablehlo.reshape %351 : (tensor<1x32x64x1xf32>) -> tensor<1x32x64xf32>
    %353 = stablehlo.slice %350 [0:1, 0:32, 0:64, 1:2] : (tensor<1x32x64x2xf32>) -> tensor<1x32x64x1xf32>
    %354 = stablehlo.reshape %353 : (tensor<1x32x64x1xf32>) -> tensor<1x32x64xf32>
    %355 = stablehlo.complex %352, %354 : tensor<1x32x64xcomplex<f32>>
    %356 = stablehlo.broadcast_in_dim %28, dims = [0, 2] : (tensor<1x64xcomplex<f32>>) -> tensor<1x32x64xcomplex<f32>>
    %357 = stablehlo.multiply %355, %356 : tensor<1x32x64xcomplex<f32>>
    %358 = stablehlo.real %357 : (tensor<1x32x64xcomplex<f32>>) -> tensor<1x32x64xf32>
    %359 = stablehlo.reshape %358 : (tensor<1x32x64xf32>) -> tensor<1x32x64x1xf32>
    %360 = stablehlo.imag %357 : (tensor<1x32x64xcomplex<f32>>) -> tensor<1x32x64xf32>
    %361 = stablehlo.reshape %360 : (tensor<1x32x64xf32>) -> tensor<1x32x64x1xf32>
    %362 = stablehlo.concatenate %359, %361, dim = 3 : (tensor<1x32x64x1xf32>, tensor<1x32x64x1xf32>) -> tensor<1x32x64x2xf32>
    %363 = stablehlo.reshape %362 : (tensor<1x32x64x2xf32>) -> tensor<1x32x128xf32>
    %364 = "stablehlo.scatter"(%arg219, %347, %363) ({
    ^bb0(%arg362: tensor<f32>, %arg363: tensor<f32>):
      stablehlo.return %arg363 : tensor<f32>
    }) {indices_are_sorted = false, scatter_dimension_numbers = #stablehlo.scatter<update_window_dims = [1, 2], inserted_window_dims = [0], scatter_dims_to_operand_dims = [0], index_vector_dim = 1>, unique_indices = false} : (tensor<2304x32x128xf32>, tensor<1x1xi64>, tensor<1x32x128xf32>) -> tensor<2304x32x128xf32>
    %365 = stablehlo.convert %arg7 : (tensor<2049xi64>) -> tensor<2049xui32>
    %366 = "stablehlo.gather"(%364, %365) {dimension_numbers = #stablehlo.gather<offset_dims = [1, 2], collapsed_slice_dims = [0], start_index_map = [0], index_vector_dim = 1>, indices_are_sorted = false, slice_sizes = dense<[1, 32, 128]> : tensor<3xi64>} : (tensor<2304x32x128xf32>, tensor<2049xui32>) -> tensor<2049x32x128xf32>
    %367 = stablehlo.transpose %366, dims = [1, 2, 0] : (tensor<2049x32x128xf32>) -> tensor<32x128x2049xf32>
    %368 = stablehlo.dot_general %342, %367, batching_dims = [0] x [0], contracting_dims = [2] x [1], precision = [DEFAULT, DEFAULT] : (tensor<32x1x128xf32>, tensor<32x128x2049xf32>) -> tensor<32x1x2049xf32>
    %369 = stablehlo.broadcast_in_dim %arg201, dims = [] : (tensor<f32>) -> tensor<32x1x2049xf32>
    %370 = stablehlo.divide %368, %369 : tensor<32x1x2049xf32>
    %371 = stablehlo.reduce(%370 init: %3) across dimensions = [2] : (tensor<32x1x2049xf32>, tensor<f32>) -> tensor<32x1xf32>
     reducer(%arg362: tensor<f32>, %arg363: tensor<f32>)  {
      %3287 = stablehlo.maximum %arg362, %arg363 : tensor<f32>
      stablehlo.return %3287 : tensor<f32>
    }
    %372 = stablehlo.broadcast_in_dim %371, dims = [0, 1] : (tensor<32x1xf32>) -> tensor<32x1x2049xf32>
    %373 = stablehlo.subtract %370, %372 : tensor<32x1x2049xf32>
    %374 = stablehlo.exponential %373 : tensor<32x1x2049xf32>
    %375 = stablehlo.reduce(%374 init: %4) across dimensions = [2] : (tensor<32x1x2049xf32>, tensor<f32>) -> tensor<32x1xf32>
     reducer(%arg362: tensor<f32>, %arg363: tensor<f32>)  {
      %3287 = stablehlo.add %arg362, %arg363 : tensor<f32>
      stablehlo.return %3287 : tensor<f32>
    }
    %376 = stablehlo.broadcast_in_dim %375, dims = [0, 1] : (tensor<32x1xf32>) -> tensor<32x1x2049xf32>
    %377 = stablehlo.divide %374, %376 : tensor<32x1x2049xf32>
    %378 = stablehlo.compare  LT, %arg198, %2 : (tensor<1xi64>, tensor<1xi64>) -> tensor<1xi1>
    %379 = stablehlo.reshape %arg199 : (tensor<i64>) -> tensor<1xi64>
    %380 = stablehlo.add %arg198, %379 : tensor<1xi64>
    %381 = stablehlo.select %378, %380, %arg198 : tensor<1xi1>, tensor<1xi64>
    %382 = stablehlo.reshape %381 : (tensor<1xi64>) -> tensor<1x1xi64>
    %383 = stablehlo.transpose %arg176, dims = [1, 0] {result_layout = dense<[0, 1]> : tensor<2xindex>, xla_shape = "f32[4096,4096]{0,1}"} : (tensor<4096x4096xf32>) -> tensor<4096x4096xf32>
    %384 = stablehlo.dot %326, %383, precision = [DEFAULT, DEFAULT] : (tensor<1x4096xf32>, tensor<4096x4096xf32>) -> tensor<1x4096xf32>
    %385 = stablehlo.reshape %384 : (tensor<1x4096xf32>) -> tensor<1x32x128xf32>
    %386 = "stablehlo.scatter"(%arg217, %382, %385) ({
    ^bb0(%arg362: tensor<f32>, %arg363: tensor<f32>):
      stablehlo.return %arg363 : tensor<f32>
    }) {indices_are_sorted = false, scatter_dimension_numbers = #stablehlo.scatter<update_window_dims = [1, 2], inserted_window_dims = [0], scatter_dims_to_operand_dims = [0], index_vector_dim = 1>, unique_indices = false} : (tensor<2304x32x128xf32>, tensor<1x1xi64>, tensor<1x32x128xf32>) -> tensor<2304x32x128xf32>
    %387 = stablehlo.convert %arg7 : (tensor<2049xi64>) -> tensor<2049xui32>
    %388 = "stablehlo.gather"(%386, %387) {dimension_numbers = #stablehlo.gather<offset_dims = [1, 2], collapsed_slice_dims = [0], start_index_map = [0], index_vector_dim = 1>, indices_are_sorted = false, slice_sizes = dense<[1, 32, 128]> : tensor<3xi64>} : (tensor<2304x32x128xf32>, tensor<2049xui32>) -> tensor<2049x32x128xf32>
    %389 = stablehlo.transpose %388, dims = [1, 0, 2] {result_layout = dense<[2, 0, 1]> : tensor<3xindex>, xla_shape = "f32[32,2049,128]{2,0,1}"} : (tensor<2049x32x128xf32>) -> tensor<32x2049x128xf32>
    %390 = stablehlo.dot_general %377, %389, batching_dims = [0] x [0], contracting_dims = [2] x [1], precision = [DEFAULT, DEFAULT] : (tensor<32x1x2049xf32>, tensor<32x2049x128xf32>) -> tensor<32x1x128xf32>
    %391 = stablehlo.reshape %390 : (tensor<32x1x128xf32>) -> tensor<1x4096xf32>
    %392 = stablehlo.transpose %arg175, dims = [1, 0] {result_layout = dense<[0, 1]> : tensor<2xindex>, xla_shape = "f32[4096,4096]{0,1}"} : (tensor<4096x4096xf32>) -> tensor<4096x4096xf32>
    %393 = stablehlo.dot %391, %392, precision = [DEFAULT, DEFAULT] : (tensor<1x4096xf32>, tensor<4096x4096xf32>) -> tensor<1x4096xf32>
    %394 = stablehlo.add %314, %393 : tensor<1x4096xf32>
    %395 = stablehlo.power %394, %1 : tensor<1x4096xf32>
    %396 = stablehlo.reduce(%395 init: %4) across dimensions = [1] : (tensor<1x4096xf32>, tensor<f32>) -> tensor<1xf32>
     reducer(%arg362: tensor<f32>, %arg363: tensor<f32>)  {
      %3287 = stablehlo.add %arg362, %arg363 : tensor<f32>
      stablehlo.return %3287 : tensor<f32>
    }
    %397 = stablehlo.multiply %396, %0 : tensor<1xf32>
    %398 = stablehlo.reshape %397 : (tensor<1xf32>) -> tensor<1x1xf32>
    %399 = stablehlo.reshape %arg2 : (tensor<f32>) -> tensor<1x1xf32>
    %400 = stablehlo.add %398, %399 : tensor<1x1xf32>
    %401 = stablehlo.rsqrt %400 : tensor<1x1xf32>
    %402 = stablehlo.reshape %401 : (tensor<1x1xf32>) -> tensor<1xf32>
    %403 = stablehlo.broadcast_in_dim %402, dims = [0] : (tensor<1xf32>) -> tensor<1x4096xf32>
    %404 = stablehlo.multiply %394, %403 : tensor<1x4096xf32>
    %405 = stablehlo.reshape %arg174 : (tensor<4096xf32>) -> tensor<1x4096xf32>
    %406 = stablehlo.multiply %404, %405 : tensor<1x4096xf32>
    %407 = stablehlo.transpose %arg221, dims = [1, 0] {result_layout = dense<[0, 1]> : tensor<2xindex>, xla_shape = "f32[4096,11008]{0,1}"} : (tensor<11008x4096xf32>) -> tensor<4096x11008xf32>
    %408 = stablehlo.dot %406, %407, precision = [DEFAULT, DEFAULT] : (tensor<1x4096xf32>, tensor<4096x11008xf32>) -> tensor<1x11008xf32>
    %409 = stablehlo.logistic %408 : tensor<1x11008xf32>
    %410 = stablehlo.multiply %408, %409 : tensor<1x11008xf32>
    %411 = stablehlo.transpose %arg173, dims = [1, 0] {result_layout = dense<[0, 1]> : tensor<2xindex>, xla_shape = "f32[4096,11008]{0,1}"} : (tensor<11008x4096xf32>) -> tensor<4096x11008xf32>
    %412 = stablehlo.dot %406, %411, precision = [DEFAULT, DEFAULT] : (tensor<1x4096xf32>, tensor<4096x11008xf32>) -> tensor<1x11008xf32>
    %413 = stablehlo.multiply %410, %412 : tensor<1x11008xf32>
    %414 = stablehlo.transpose %arg172, dims = [1, 0] {result_layout = dense<[0, 1]> : tensor<2xindex>, xla_shape = "f32[11008,4096]{0,1}"} : (tensor<4096x11008xf32>) -> tensor<11008x4096xf32>
    %415 = stablehlo.dot %413, %414, precision = [DEFAULT, DEFAULT] : (tensor<1x11008xf32>, tensor<11008x4096xf32>) -> tensor<1x4096xf32>
    %416 = stablehlo.add %394, %415 : tensor<1x4096xf32>
    %417 = stablehlo.power %416, %1 : tensor<1x4096xf32>
    %418 = stablehlo.reduce(%417 init: %4) across dimensions = [1] : (tensor<1x4096xf32>, tensor<f32>) -> tensor<1xf32>
     reducer(%arg362: tensor<f32>, %arg363: tensor<f32>)  {
      %3287 = stablehlo.add %arg362, %arg363 : tensor<f32>
      stablehlo.return %3287 : tensor<f32>
    }
    %419 = stablehlo.multiply %418, %0 : tensor<1xf32>
    %420 = stablehlo.reshape %419 : (tensor<1xf32>) -> tensor<1x1xf32>
    %421 = stablehlo.reshape %arg2 : (tensor<f32>) -> tensor<1x1xf32>
    %422 = stablehlo.add %420, %421 : tensor<1x1xf32>
    %423 = stablehlo.rsqrt %422 : tensor<1x1xf32>
    %424 = stablehlo.reshape %423 : (tensor<1x1xf32>) -> tensor<1xf32>
    %425 = stablehlo.broadcast_in_dim %424, dims = [0] : (tensor<1xf32>) -> tensor<1x4096xf32>
    %426 = stablehlo.multiply %416, %425 : tensor<1x4096xf32>
    %427 = stablehlo.reshape %arg171 : (tensor<4096xf32>) -> tensor<1x4096xf32>
    %428 = stablehlo.multiply %426, %427 : tensor<1x4096xf32>
    %429 = stablehlo.transpose %arg225, dims = [1, 0] {result_layout = dense<[0, 1]> : tensor<2xindex>, xla_shape = "f32[4096,4096]{0,1}"} : (tensor<4096x4096xf32>) -> tensor<4096x4096xf32>
    %430 = stablehlo.dot %428, %429, precision = [DEFAULT, DEFAULT] : (tensor<1x4096xf32>, tensor<4096x4096xf32>) -> tensor<1x4096xf32>
    %431 = stablehlo.reshape %430 : (tensor<1x4096xf32>) -> tensor<1x32x64x2xf32>
    %432 = stablehlo.slice %431 [0:1, 0:32, 0:64, 0:1] : (tensor<1x32x64x2xf32>) -> tensor<1x32x64x1xf32>
    %433 = stablehlo.reshape %432 : (tensor<1x32x64x1xf32>) -> tensor<1x32x64xf32>
    %434 = stablehlo.slice %431 [0:1, 0:32, 0:64, 1:2] : (tensor<1x32x64x2xf32>) -> tensor<1x32x64x1xf32>
    %435 = stablehlo.reshape %434 : (tensor<1x32x64x1xf32>) -> tensor<1x32x64xf32>
    %436 = stablehlo.complex %433, %435 : tensor<1x32x64xcomplex<f32>>
    %437 = stablehlo.broadcast_in_dim %28, dims = [0, 2] : (tensor<1x64xcomplex<f32>>) -> tensor<1x32x64xcomplex<f32>>
    %438 = stablehlo.multiply %436, %437 : tensor<1x32x64xcomplex<f32>>
    %439 = stablehlo.real %438 : (tensor<1x32x64xcomplex<f32>>) -> tensor<1x32x64xf32>
    %440 = stablehlo.reshape %439 : (tensor<1x32x64xf32>) -> tensor<1x32x64x1xf32>
    %441 = stablehlo.imag %438 : (tensor<1x32x64xcomplex<f32>>) -> tensor<1x32x64xf32>
    %442 = stablehlo.reshape %441 : (tensor<1x32x64xf32>) -> tensor<1x32x64x1xf32>
    %443 = stablehlo.concatenate %440, %442, dim = 3 : (tensor<1x32x64x1xf32>, tensor<1x32x64x1xf32>) -> tensor<1x32x64x2xf32>
    %444 = stablehlo.reshape %443 : (tensor<1x32x64x2xf32>) -> tensor<32x1x128xf32>
    %445 = stablehlo.compare  LT, %arg198, %2 : (tensor<1xi64>, tensor<1xi64>) -> tensor<1xi1>
    %446 = stablehlo.reshape %arg199 : (tensor<i64>) -> tensor<1xi64>
    %447 = stablehlo.add %arg198, %446 : tensor<1xi64>
    %448 = stablehlo.select %445, %447, %arg198 : tensor<1xi1>, tensor<1xi64>
    %449 = stablehlo.reshape %448 : (tensor<1xi64>) -> tensor<1x1xi64>
    %450 = stablehlo.transpose %arg223, dims = [1, 0] {result_layout = dense<[0, 1]> : tensor<2xindex>, xla_shape = "f32[4096,4096]{0,1}"} : (tensor<4096x4096xf32>) -> tensor<4096x4096xf32>
    %451 = stablehlo.dot %428, %450, precision = [DEFAULT, DEFAULT] : (tensor<1x4096xf32>, tensor<4096x4096xf32>) -> tensor<1x4096xf32>
    %452 = stablehlo.reshape %451 : (tensor<1x4096xf32>) -> tensor<1x32x64x2xf32>
    %453 = stablehlo.slice %452 [0:1, 0:32, 0:64, 0:1] : (tensor<1x32x64x2xf32>) -> tensor<1x32x64x1xf32>
    %454 = stablehlo.reshape %453 : (tensor<1x32x64x1xf32>) -> tensor<1x32x64xf32>
    %455 = stablehlo.slice %452 [0:1, 0:32, 0:64, 1:2] : (tensor<1x32x64x2xf32>) -> tensor<1x32x64x1xf32>
    %456 = stablehlo.reshape %455 : (tensor<1x32x64x1xf32>) -> tensor<1x32x64xf32>
    %457 = stablehlo.complex %454, %456 : tensor<1x32x64xcomplex<f32>>
    %458 = stablehlo.broadcast_in_dim %28, dims = [0, 2] : (tensor<1x64xcomplex<f32>>) -> tensor<1x32x64xcomplex<f32>>
    %459 = stablehlo.multiply %457, %458 : tensor<1x32x64xcomplex<f32>>
    %460 = stablehlo.real %459 : (tensor<1x32x64xcomplex<f32>>) -> tensor<1x32x64xf32>
    %461 = stablehlo.reshape %460 : (tensor<1x32x64xf32>) -> tensor<1x32x64x1xf32>
    %462 = stablehlo.imag %459 : (tensor<1x32x64xcomplex<f32>>) -> tensor<1x32x64xf32>
    %463 = stablehlo.reshape %462 : (tensor<1x32x64xf32>) -> tensor<1x32x64x1xf32>
    %464 = stablehlo.concatenate %461, %463, dim = 3 : (tensor<1x32x64x1xf32>, tensor<1x32x64x1xf32>) -> tensor<1x32x64x2xf32>
    %465 = stablehlo.reshape %464 : (tensor<1x32x64x2xf32>) -> tensor<1x32x128xf32>
    %466 = "stablehlo.scatter"(%arg224, %449, %465) ({
    ^bb0(%arg362: tensor<f32>, %arg363: tensor<f32>):
      stablehlo.return %arg363 : tensor<f32>
    }) {indices_are_sorted = false, scatter_dimension_numbers = #stablehlo.scatter<update_window_dims = [1, 2], inserted_window_dims = [0], scatter_dims_to_operand_dims = [0], index_vector_dim = 1>, unique_indices = false} : (tensor<2304x32x128xf32>, tensor<1x1xi64>, tensor<1x32x128xf32>) -> tensor<2304x32x128xf32>
    %467 = stablehlo.convert %arg7 : (tensor<2049xi64>) -> tensor<2049xui32>
    %468 = "stablehlo.gather"(%466, %467) {dimension_numbers = #stablehlo.gather<offset_dims = [1, 2], collapsed_slice_dims = [0], start_index_map = [0], index_vector_dim = 1>, indices_are_sorted = false, slice_sizes = dense<[1, 32, 128]> : tensor<3xi64>} : (tensor<2304x32x128xf32>, tensor<2049xui32>) -> tensor<2049x32x128xf32>
    %469 = stablehlo.transpose %468, dims = [1, 2, 0] : (tensor<2049x32x128xf32>) -> tensor<32x128x2049xf32>
    %470 = stablehlo.dot_general %444, %469, batching_dims = [0] x [0], contracting_dims = [2] x [1], precision = [DEFAULT, DEFAULT] : (tensor<32x1x128xf32>, tensor<32x128x2049xf32>) -> tensor<32x1x2049xf32>
    %471 = stablehlo.broadcast_in_dim %arg201, dims = [] : (tensor<f32>) -> tensor<32x1x2049xf32>
    %472 = stablehlo.divide %470, %471 : tensor<32x1x2049xf32>
    %473 = stablehlo.reduce(%472 init: %3) across dimensions = [2] : (tensor<32x1x2049xf32>, tensor<f32>) -> tensor<32x1xf32>
     reducer(%arg362: tensor<f32>, %arg363: tensor<f32>)  {
      %3287 = stablehlo.maximum %arg362, %arg363 : tensor<f32>
      stablehlo.return %3287 : tensor<f32>
    }
    %474 = stablehlo.broadcast_in_dim %473, dims = [0, 1] : (tensor<32x1xf32>) -> tensor<32x1x2049xf32>
    %475 = stablehlo.subtract %472, %474 : tensor<32x1x2049xf32>
    %476 = stablehlo.exponential %475 : tensor<32x1x2049xf32>
    %477 = stablehlo.reduce(%476 init: %4) across dimensions = [2] : (tensor<32x1x2049xf32>, tensor<f32>) -> tensor<32x1xf32>
     reducer(%arg362: tensor<f32>, %arg363: tensor<f32>)  {
      %3287 = stablehlo.add %arg362, %arg363 : tensor<f32>
      stablehlo.return %3287 : tensor<f32>
    }
    %478 = stablehlo.broadcast_in_dim %477, dims = [0, 1] : (tensor<32x1xf32>) -> tensor<32x1x2049xf32>
    %479 = stablehlo.divide %476, %478 : tensor<32x1x2049xf32>
    %480 = stablehlo.compare  LT, %arg198, %2 : (tensor<1xi64>, tensor<1xi64>) -> tensor<1xi1>
    %481 = stablehlo.reshape %arg199 : (tensor<i64>) -> tensor<1xi64>
    %482 = stablehlo.add %arg198, %481 : tensor<1xi64>
    %483 = stablehlo.select %480, %482, %arg198 : tensor<1xi1>, tensor<1xi64>
    %484 = stablehlo.reshape %483 : (tensor<1xi64>) -> tensor<1x1xi64>
    %485 = stablehlo.transpose %arg170, dims = [1, 0] {result_layout = dense<[0, 1]> : tensor<2xindex>, xla_shape = "f32[4096,4096]{0,1}"} : (tensor<4096x4096xf32>) -> tensor<4096x4096xf32>
    %486 = stablehlo.dot %428, %485, precision = [DEFAULT, DEFAULT] : (tensor<1x4096xf32>, tensor<4096x4096xf32>) -> tensor<1x4096xf32>
    %487 = stablehlo.reshape %486 : (tensor<1x4096xf32>) -> tensor<1x32x128xf32>
    %488 = "stablehlo.scatter"(%arg222, %484, %487) ({
    ^bb0(%arg362: tensor<f32>, %arg363: tensor<f32>):
      stablehlo.return %arg363 : tensor<f32>
    }) {indices_are_sorted = false, scatter_dimension_numbers = #stablehlo.scatter<update_window_dims = [1, 2], inserted_window_dims = [0], scatter_dims_to_operand_dims = [0], index_vector_dim = 1>, unique_indices = false} : (tensor<2304x32x128xf32>, tensor<1x1xi64>, tensor<1x32x128xf32>) -> tensor<2304x32x128xf32>
    %489 = stablehlo.convert %arg7 : (tensor<2049xi64>) -> tensor<2049xui32>
    %490 = "stablehlo.gather"(%488, %489) {dimension_numbers = #stablehlo.gather<offset_dims = [1, 2], collapsed_slice_dims = [0], start_index_map = [0], index_vector_dim = 1>, indices_are_sorted = false, slice_sizes = dense<[1, 32, 128]> : tensor<3xi64>} : (tensor<2304x32x128xf32>, tensor<2049xui32>) -> tensor<2049x32x128xf32>
    %491 = stablehlo.transpose %490, dims = [1, 0, 2] {result_layout = dense<[2, 0, 1]> : tensor<3xindex>, xla_shape = "f32[32,2049,128]{2,0,1}"} : (tensor<2049x32x128xf32>) -> tensor<32x2049x128xf32>
    %492 = stablehlo.dot_general %479, %491, batching_dims = [0] x [0], contracting_dims = [2] x [1], precision = [DEFAULT, DEFAULT] : (tensor<32x1x2049xf32>, tensor<32x2049x128xf32>) -> tensor<32x1x128xf32>
    %493 = stablehlo.reshape %492 : (tensor<32x1x128xf32>) -> tensor<1x4096xf32>
    %494 = stablehlo.transpose %arg169, dims = [1, 0] {result_layout = dense<[0, 1]> : tensor<2xindex>, xla_shape = "f32[4096,4096]{0,1}"} : (tensor<4096x4096xf32>) -> tensor<4096x4096xf32>
    %495 = stablehlo.dot %493, %494, precision = [DEFAULT, DEFAULT] : (tensor<1x4096xf32>, tensor<4096x4096xf32>) -> tensor<1x4096xf32>
    %496 = stablehlo.add %416, %495 : tensor<1x4096xf32>
    %497 = stablehlo.power %496, %1 : tensor<1x4096xf32>
    %498 = stablehlo.reduce(%497 init: %4) across dimensions = [1] : (tensor<1x4096xf32>, tensor<f32>) -> tensor<1xf32>
     reducer(%arg362: tensor<f32>, %arg363: tensor<f32>)  {
      %3287 = stablehlo.add %arg362, %arg363 : tensor<f32>
      stablehlo.return %3287 : tensor<f32>
    }
    %499 = stablehlo.multiply %498, %0 : tensor<1xf32>
    %500 = stablehlo.reshape %499 : (tensor<1xf32>) -> tensor<1x1xf32>
    %501 = stablehlo.reshape %arg2 : (tensor<f32>) -> tensor<1x1xf32>
    %502 = stablehlo.add %500, %501 : tensor<1x1xf32>
    %503 = stablehlo.rsqrt %502 : tensor<1x1xf32>
    %504 = stablehlo.reshape %503 : (tensor<1x1xf32>) -> tensor<1xf32>
    %505 = stablehlo.broadcast_in_dim %504, dims = [0] : (tensor<1xf32>) -> tensor<1x4096xf32>
    %506 = stablehlo.multiply %496, %505 : tensor<1x4096xf32>
    %507 = stablehlo.reshape %arg168 : (tensor<4096xf32>) -> tensor<1x4096xf32>
    %508 = stablehlo.multiply %506, %507 : tensor<1x4096xf32>
    %509 = stablehlo.transpose %arg226, dims = [1, 0] {result_layout = dense<[0, 1]> : tensor<2xindex>, xla_shape = "f32[4096,11008]{0,1}"} : (tensor<11008x4096xf32>) -> tensor<4096x11008xf32>
    %510 = stablehlo.dot %508, %509, precision = [DEFAULT, DEFAULT] : (tensor<1x4096xf32>, tensor<4096x11008xf32>) -> tensor<1x11008xf32>
    %511 = stablehlo.logistic %510 : tensor<1x11008xf32>
    %512 = stablehlo.multiply %510, %511 : tensor<1x11008xf32>
    %513 = stablehlo.transpose %arg167, dims = [1, 0] {result_layout = dense<[0, 1]> : tensor<2xindex>, xla_shape = "f32[4096,11008]{0,1}"} : (tensor<11008x4096xf32>) -> tensor<4096x11008xf32>
    %514 = stablehlo.dot %508, %513, precision = [DEFAULT, DEFAULT] : (tensor<1x4096xf32>, tensor<4096x11008xf32>) -> tensor<1x11008xf32>
    %515 = stablehlo.multiply %512, %514 : tensor<1x11008xf32>
    %516 = stablehlo.transpose %arg166, dims = [1, 0] {result_layout = dense<[0, 1]> : tensor<2xindex>, xla_shape = "f32[11008,4096]{0,1}"} : (tensor<4096x11008xf32>) -> tensor<11008x4096xf32>
    %517 = stablehlo.dot %515, %516, precision = [DEFAULT, DEFAULT] : (tensor<1x11008xf32>, tensor<11008x4096xf32>) -> tensor<1x4096xf32>
    %518 = stablehlo.add %496, %517 : tensor<1x4096xf32>
    %519 = stablehlo.power %518, %1 : tensor<1x4096xf32>
    %520 = stablehlo.reduce(%519 init: %4) across dimensions = [1] : (tensor<1x4096xf32>, tensor<f32>) -> tensor<1xf32>
     reducer(%arg362: tensor<f32>, %arg363: tensor<f32>)  {
      %3287 = stablehlo.add %arg362, %arg363 : tensor<f32>
      stablehlo.return %3287 : tensor<f32>
    }
    %521 = stablehlo.multiply %520, %0 : tensor<1xf32>
    %522 = stablehlo.reshape %521 : (tensor<1xf32>) -> tensor<1x1xf32>
    %523 = stablehlo.reshape %arg2 : (tensor<f32>) -> tensor<1x1xf32>
    %524 = stablehlo.add %522, %523 : tensor<1x1xf32>
    %525 = stablehlo.rsqrt %524 : tensor<1x1xf32>
    %526 = stablehlo.reshape %525 : (tensor<1x1xf32>) -> tensor<1xf32>
    %527 = stablehlo.broadcast_in_dim %526, dims = [0] : (tensor<1xf32>) -> tensor<1x4096xf32>
    %528 = stablehlo.multiply %518, %527 : tensor<1x4096xf32>
    %529 = stablehlo.reshape %arg165 : (tensor<4096xf32>) -> tensor<1x4096xf32>
    %530 = stablehlo.multiply %528, %529 : tensor<1x4096xf32>
    %531 = stablehlo.transpose %arg230, dims = [1, 0] {result_layout = dense<[0, 1]> : tensor<2xindex>, xla_shape = "f32[4096,4096]{0,1}"} : (tensor<4096x4096xf32>) -> tensor<4096x4096xf32>
    %532 = stablehlo.dot %530, %531, precision = [DEFAULT, DEFAULT] : (tensor<1x4096xf32>, tensor<4096x4096xf32>) -> tensor<1x4096xf32>
    %533 = stablehlo.reshape %532 : (tensor<1x4096xf32>) -> tensor<1x32x64x2xf32>
    %534 = stablehlo.slice %533 [0:1, 0:32, 0:64, 0:1] : (tensor<1x32x64x2xf32>) -> tensor<1x32x64x1xf32>
    %535 = stablehlo.reshape %534 : (tensor<1x32x64x1xf32>) -> tensor<1x32x64xf32>
    %536 = stablehlo.slice %533 [0:1, 0:32, 0:64, 1:2] : (tensor<1x32x64x2xf32>) -> tensor<1x32x64x1xf32>
    %537 = stablehlo.reshape %536 : (tensor<1x32x64x1xf32>) -> tensor<1x32x64xf32>
    %538 = stablehlo.complex %535, %537 : tensor<1x32x64xcomplex<f32>>
    %539 = stablehlo.broadcast_in_dim %28, dims = [0, 2] : (tensor<1x64xcomplex<f32>>) -> tensor<1x32x64xcomplex<f32>>
    %540 = stablehlo.multiply %538, %539 : tensor<1x32x64xcomplex<f32>>
    %541 = stablehlo.real %540 : (tensor<1x32x64xcomplex<f32>>) -> tensor<1x32x64xf32>
    %542 = stablehlo.reshape %541 : (tensor<1x32x64xf32>) -> tensor<1x32x64x1xf32>
    %543 = stablehlo.imag %540 : (tensor<1x32x64xcomplex<f32>>) -> tensor<1x32x64xf32>
    %544 = stablehlo.reshape %543 : (tensor<1x32x64xf32>) -> tensor<1x32x64x1xf32>
    %545 = stablehlo.concatenate %542, %544, dim = 3 : (tensor<1x32x64x1xf32>, tensor<1x32x64x1xf32>) -> tensor<1x32x64x2xf32>
    %546 = stablehlo.reshape %545 : (tensor<1x32x64x2xf32>) -> tensor<32x1x128xf32>
    %547 = stablehlo.compare  LT, %arg198, %2 : (tensor<1xi64>, tensor<1xi64>) -> tensor<1xi1>
    %548 = stablehlo.reshape %arg199 : (tensor<i64>) -> tensor<1xi64>
    %549 = stablehlo.add %arg198, %548 : tensor<1xi64>
    %550 = stablehlo.select %547, %549, %arg198 : tensor<1xi1>, tensor<1xi64>
    %551 = stablehlo.reshape %550 : (tensor<1xi64>) -> tensor<1x1xi64>
    %552 = stablehlo.transpose %arg228, dims = [1, 0] {result_layout = dense<[0, 1]> : tensor<2xindex>, xla_shape = "f32[4096,4096]{0,1}"} : (tensor<4096x4096xf32>) -> tensor<4096x4096xf32>
    %553 = stablehlo.dot %530, %552, precision = [DEFAULT, DEFAULT] : (tensor<1x4096xf32>, tensor<4096x4096xf32>) -> tensor<1x4096xf32>
    %554 = stablehlo.reshape %553 : (tensor<1x4096xf32>) -> tensor<1x32x64x2xf32>
    %555 = stablehlo.slice %554 [0:1, 0:32, 0:64, 0:1] : (tensor<1x32x64x2xf32>) -> tensor<1x32x64x1xf32>
    %556 = stablehlo.reshape %555 : (tensor<1x32x64x1xf32>) -> tensor<1x32x64xf32>
    %557 = stablehlo.slice %554 [0:1, 0:32, 0:64, 1:2] : (tensor<1x32x64x2xf32>) -> tensor<1x32x64x1xf32>
    %558 = stablehlo.reshape %557 : (tensor<1x32x64x1xf32>) -> tensor<1x32x64xf32>
    %559 = stablehlo.complex %556, %558 : tensor<1x32x64xcomplex<f32>>
    %560 = stablehlo.broadcast_in_dim %28, dims = [0, 2] : (tensor<1x64xcomplex<f32>>) -> tensor<1x32x64xcomplex<f32>>
    %561 = stablehlo.multiply %559, %560 : tensor<1x32x64xcomplex<f32>>
    %562 = stablehlo.real %561 : (tensor<1x32x64xcomplex<f32>>) -> tensor<1x32x64xf32>
    %563 = stablehlo.reshape %562 : (tensor<1x32x64xf32>) -> tensor<1x32x64x1xf32>
    %564 = stablehlo.imag %561 : (tensor<1x32x64xcomplex<f32>>) -> tensor<1x32x64xf32>
    %565 = stablehlo.reshape %564 : (tensor<1x32x64xf32>) -> tensor<1x32x64x1xf32>
    %566 = stablehlo.concatenate %563, %565, dim = 3 : (tensor<1x32x64x1xf32>, tensor<1x32x64x1xf32>) -> tensor<1x32x64x2xf32>
    %567 = stablehlo.reshape %566 : (tensor<1x32x64x2xf32>) -> tensor<1x32x128xf32>
    %568 = "stablehlo.scatter"(%arg229, %551, %567) ({
    ^bb0(%arg362: tensor<f32>, %arg363: tensor<f32>):
      stablehlo.return %arg363 : tensor<f32>
    }) {indices_are_sorted = false, scatter_dimension_numbers = #stablehlo.scatter<update_window_dims = [1, 2], inserted_window_dims = [0], scatter_dims_to_operand_dims = [0], index_vector_dim = 1>, unique_indices = false} : (tensor<2304x32x128xf32>, tensor<1x1xi64>, tensor<1x32x128xf32>) -> tensor<2304x32x128xf32>
    %569 = stablehlo.convert %arg7 : (tensor<2049xi64>) -> tensor<2049xui32>
    %570 = "stablehlo.gather"(%568, %569) {dimension_numbers = #stablehlo.gather<offset_dims = [1, 2], collapsed_slice_dims = [0], start_index_map = [0], index_vector_dim = 1>, indices_are_sorted = false, slice_sizes = dense<[1, 32, 128]> : tensor<3xi64>} : (tensor<2304x32x128xf32>, tensor<2049xui32>) -> tensor<2049x32x128xf32>
    %571 = stablehlo.transpose %570, dims = [1, 2, 0] : (tensor<2049x32x128xf32>) -> tensor<32x128x2049xf32>
    %572 = stablehlo.dot_general %546, %571, batching_dims = [0] x [0], contracting_dims = [2] x [1], precision = [DEFAULT, DEFAULT] : (tensor<32x1x128xf32>, tensor<32x128x2049xf32>) -> tensor<32x1x2049xf32>
    %573 = stablehlo.broadcast_in_dim %arg201, dims = [] : (tensor<f32>) -> tensor<32x1x2049xf32>
    %574 = stablehlo.divide %572, %573 : tensor<32x1x2049xf32>
    %575 = stablehlo.reduce(%574 init: %3) across dimensions = [2] : (tensor<32x1x2049xf32>, tensor<f32>) -> tensor<32x1xf32>
     reducer(%arg362: tensor<f32>, %arg363: tensor<f32>)  {
      %3287 = stablehlo.maximum %arg362, %arg363 : tensor<f32>
      stablehlo.return %3287 : tensor<f32>
    }
    %576 = stablehlo.broadcast_in_dim %575, dims = [0, 1] : (tensor<32x1xf32>) -> tensor<32x1x2049xf32>
    %577 = stablehlo.subtract %574, %576 : tensor<32x1x2049xf32>
    %578 = stablehlo.exponential %577 : tensor<32x1x2049xf32>
    %579 = stablehlo.reduce(%578 init: %4) across dimensions = [2] : (tensor<32x1x2049xf32>, tensor<f32>) -> tensor<32x1xf32>
     reducer(%arg362: tensor<f32>, %arg363: tensor<f32>)  {
      %3287 = stablehlo.add %arg362, %arg363 : tensor<f32>
      stablehlo.return %3287 : tensor<f32>
    }
    %580 = stablehlo.broadcast_in_dim %579, dims = [0, 1] : (tensor<32x1xf32>) -> tensor<32x1x2049xf32>
    %581 = stablehlo.divide %578, %580 : tensor<32x1x2049xf32>
    %582 = stablehlo.compare  LT, %arg198, %2 : (tensor<1xi64>, tensor<1xi64>) -> tensor<1xi1>
    %583 = stablehlo.reshape %arg199 : (tensor<i64>) -> tensor<1xi64>
    %584 = stablehlo.add %arg198, %583 : tensor<1xi64>
    %585 = stablehlo.select %582, %584, %arg198 : tensor<1xi1>, tensor<1xi64>
    %586 = stablehlo.reshape %585 : (tensor<1xi64>) -> tensor<1x1xi64>
    %587 = stablehlo.transpose %arg164, dims = [1, 0] {result_layout = dense<[0, 1]> : tensor<2xindex>, xla_shape = "f32[4096,4096]{0,1}"} : (tensor<4096x4096xf32>) -> tensor<4096x4096xf32>
    %588 = stablehlo.dot %530, %587, precision = [DEFAULT, DEFAULT] : (tensor<1x4096xf32>, tensor<4096x4096xf32>) -> tensor<1x4096xf32>
    %589 = stablehlo.reshape %588 : (tensor<1x4096xf32>) -> tensor<1x32x128xf32>
    %590 = "stablehlo.scatter"(%arg227, %586, %589) ({
    ^bb0(%arg362: tensor<f32>, %arg363: tensor<f32>):
      stablehlo.return %arg363 : tensor<f32>
    }) {indices_are_sorted = false, scatter_dimension_numbers = #stablehlo.scatter<update_window_dims = [1, 2], inserted_window_dims = [0], scatter_dims_to_operand_dims = [0], index_vector_dim = 1>, unique_indices = false} : (tensor<2304x32x128xf32>, tensor<1x1xi64>, tensor<1x32x128xf32>) -> tensor<2304x32x128xf32>
    %591 = stablehlo.convert %arg7 : (tensor<2049xi64>) -> tensor<2049xui32>
    %592 = "stablehlo.gather"(%590, %591) {dimension_numbers = #stablehlo.gather<offset_dims = [1, 2], collapsed_slice_dims = [0], start_index_map = [0], index_vector_dim = 1>, indices_are_sorted = false, slice_sizes = dense<[1, 32, 128]> : tensor<3xi64>} : (tensor<2304x32x128xf32>, tensor<2049xui32>) -> tensor<2049x32x128xf32>
    %593 = stablehlo.transpose %592, dims = [1, 0, 2] {result_layout = dense<[2, 0, 1]> : tensor<3xindex>, xla_shape = "f32[32,2049,128]{2,0,1}"} : (tensor<2049x32x128xf32>) -> tensor<32x2049x128xf32>
    %594 = stablehlo.dot_general %581, %593, batching_dims = [0] x [0], contracting_dims = [2] x [1], precision = [DEFAULT, DEFAULT] : (tensor<32x1x2049xf32>, tensor<32x2049x128xf32>) -> tensor<32x1x128xf32>
    %595 = stablehlo.reshape %594 : (tensor<32x1x128xf32>) -> tensor<1x4096xf32>
    %596 = stablehlo.transpose %arg163, dims = [1, 0] {result_layout = dense<[0, 1]> : tensor<2xindex>, xla_shape = "f32[4096,4096]{0,1}"} : (tensor<4096x4096xf32>) -> tensor<4096x4096xf32>
    %597 = stablehlo.dot %595, %596, precision = [DEFAULT, DEFAULT] : (tensor<1x4096xf32>, tensor<4096x4096xf32>) -> tensor<1x4096xf32>
    %598 = stablehlo.add %518, %597 : tensor<1x4096xf32>
    %599 = stablehlo.power %598, %1 : tensor<1x4096xf32>
    %600 = stablehlo.reduce(%599 init: %4) across dimensions = [1] : (tensor<1x4096xf32>, tensor<f32>) -> tensor<1xf32>
     reducer(%arg362: tensor<f32>, %arg363: tensor<f32>)  {
      %3287 = stablehlo.add %arg362, %arg363 : tensor<f32>
      stablehlo.return %3287 : tensor<f32>
    }
    %601 = stablehlo.multiply %600, %0 : tensor<1xf32>
    %602 = stablehlo.reshape %601 : (tensor<1xf32>) -> tensor<1x1xf32>
    %603 = stablehlo.reshape %arg2 : (tensor<f32>) -> tensor<1x1xf32>
    %604 = stablehlo.add %602, %603 : tensor<1x1xf32>
    %605 = stablehlo.rsqrt %604 : tensor<1x1xf32>
    %606 = stablehlo.reshape %605 : (tensor<1x1xf32>) -> tensor<1xf32>
    %607 = stablehlo.broadcast_in_dim %606, dims = [0] : (tensor<1xf32>) -> tensor<1x4096xf32>
    %608 = stablehlo.multiply %598, %607 : tensor<1x4096xf32>
    %609 = stablehlo.reshape %arg162 : (tensor<4096xf32>) -> tensor<1x4096xf32>
    %610 = stablehlo.multiply %608, %609 : tensor<1x4096xf32>
    %611 = stablehlo.transpose %arg231, dims = [1, 0] {result_layout = dense<[0, 1]> : tensor<2xindex>, xla_shape = "f32[4096,11008]{0,1}"} : (tensor<11008x4096xf32>) -> tensor<4096x11008xf32>
    %612 = stablehlo.dot %610, %611, precision = [DEFAULT, DEFAULT] : (tensor<1x4096xf32>, tensor<4096x11008xf32>) -> tensor<1x11008xf32>
    %613 = stablehlo.logistic %612 : tensor<1x11008xf32>
    %614 = stablehlo.multiply %612, %613 : tensor<1x11008xf32>
    %615 = stablehlo.transpose %arg161, dims = [1, 0] {result_layout = dense<[0, 1]> : tensor<2xindex>, xla_shape = "f32[4096,11008]{0,1}"} : (tensor<11008x4096xf32>) -> tensor<4096x11008xf32>
    %616 = stablehlo.dot %610, %615, precision = [DEFAULT, DEFAULT] : (tensor<1x4096xf32>, tensor<4096x11008xf32>) -> tensor<1x11008xf32>
    %617 = stablehlo.multiply %614, %616 : tensor<1x11008xf32>
    %618 = stablehlo.transpose %arg160, dims = [1, 0] {result_layout = dense<[0, 1]> : tensor<2xindex>, xla_shape = "f32[11008,4096]{0,1}"} : (tensor<4096x11008xf32>) -> tensor<11008x4096xf32>
    %619 = stablehlo.dot %617, %618, precision = [DEFAULT, DEFAULT] : (tensor<1x11008xf32>, tensor<11008x4096xf32>) -> tensor<1x4096xf32>
    %620 = stablehlo.add %598, %619 : tensor<1x4096xf32>
    %621 = stablehlo.power %620, %1 : tensor<1x4096xf32>
    %622 = stablehlo.reduce(%621 init: %4) across dimensions = [1] : (tensor<1x4096xf32>, tensor<f32>) -> tensor<1xf32>
     reducer(%arg362: tensor<f32>, %arg363: tensor<f32>)  {
      %3287 = stablehlo.add %arg362, %arg363 : tensor<f32>
      stablehlo.return %3287 : tensor<f32>
    }
    %623 = stablehlo.multiply %622, %0 : tensor<1xf32>
    %624 = stablehlo.reshape %623 : (tensor<1xf32>) -> tensor<1x1xf32>
    %625 = stablehlo.reshape %arg2 : (tensor<f32>) -> tensor<1x1xf32>
    %626 = stablehlo.add %624, %625 : tensor<1x1xf32>
    %627 = stablehlo.rsqrt %626 : tensor<1x1xf32>
    %628 = stablehlo.reshape %627 : (tensor<1x1xf32>) -> tensor<1xf32>
    %629 = stablehlo.broadcast_in_dim %628, dims = [0] : (tensor<1xf32>) -> tensor<1x4096xf32>
    %630 = stablehlo.multiply %620, %629 : tensor<1x4096xf32>
    %631 = stablehlo.reshape %arg159 : (tensor<4096xf32>) -> tensor<1x4096xf32>
    %632 = stablehlo.multiply %630, %631 : tensor<1x4096xf32>
    %633 = stablehlo.transpose %arg235, dims = [1, 0] {result_layout = dense<[0, 1]> : tensor<2xindex>, xla_shape = "f32[4096,4096]{0,1}"} : (tensor<4096x4096xf32>) -> tensor<4096x4096xf32>
    %634 = stablehlo.dot %632, %633, precision = [DEFAULT, DEFAULT] : (tensor<1x4096xf32>, tensor<4096x4096xf32>) -> tensor<1x4096xf32>
    %635 = stablehlo.reshape %634 : (tensor<1x4096xf32>) -> tensor<1x32x64x2xf32>
    %636 = stablehlo.slice %635 [0:1, 0:32, 0:64, 0:1] : (tensor<1x32x64x2xf32>) -> tensor<1x32x64x1xf32>
    %637 = stablehlo.reshape %636 : (tensor<1x32x64x1xf32>) -> tensor<1x32x64xf32>
    %638 = stablehlo.slice %635 [0:1, 0:32, 0:64, 1:2] : (tensor<1x32x64x2xf32>) -> tensor<1x32x64x1xf32>
    %639 = stablehlo.reshape %638 : (tensor<1x32x64x1xf32>) -> tensor<1x32x64xf32>
    %640 = stablehlo.complex %637, %639 : tensor<1x32x64xcomplex<f32>>
    %641 = stablehlo.broadcast_in_dim %28, dims = [0, 2] : (tensor<1x64xcomplex<f32>>) -> tensor<1x32x64xcomplex<f32>>
    %642 = stablehlo.multiply %640, %641 : tensor<1x32x64xcomplex<f32>>
    %643 = stablehlo.real %642 : (tensor<1x32x64xcomplex<f32>>) -> tensor<1x32x64xf32>
    %644 = stablehlo.reshape %643 : (tensor<1x32x64xf32>) -> tensor<1x32x64x1xf32>
    %645 = stablehlo.imag %642 : (tensor<1x32x64xcomplex<f32>>) -> tensor<1x32x64xf32>
    %646 = stablehlo.reshape %645 : (tensor<1x32x64xf32>) -> tensor<1x32x64x1xf32>
    %647 = stablehlo.concatenate %644, %646, dim = 3 : (tensor<1x32x64x1xf32>, tensor<1x32x64x1xf32>) -> tensor<1x32x64x2xf32>
    %648 = stablehlo.reshape %647 : (tensor<1x32x64x2xf32>) -> tensor<32x1x128xf32>
    %649 = stablehlo.compare  LT, %arg198, %2 : (tensor<1xi64>, tensor<1xi64>) -> tensor<1xi1>
    %650 = stablehlo.reshape %arg199 : (tensor<i64>) -> tensor<1xi64>
    %651 = stablehlo.add %arg198, %650 : tensor<1xi64>
    %652 = stablehlo.select %649, %651, %arg198 : tensor<1xi1>, tensor<1xi64>
    %653 = stablehlo.reshape %652 : (tensor<1xi64>) -> tensor<1x1xi64>
    %654 = stablehlo.transpose %arg233, dims = [1, 0] {result_layout = dense<[0, 1]> : tensor<2xindex>, xla_shape = "f32[4096,4096]{0,1}"} : (tensor<4096x4096xf32>) -> tensor<4096x4096xf32>
    %655 = stablehlo.dot %632, %654, precision = [DEFAULT, DEFAULT] : (tensor<1x4096xf32>, tensor<4096x4096xf32>) -> tensor<1x4096xf32>
    %656 = stablehlo.reshape %655 : (tensor<1x4096xf32>) -> tensor<1x32x64x2xf32>
    %657 = stablehlo.slice %656 [0:1, 0:32, 0:64, 0:1] : (tensor<1x32x64x2xf32>) -> tensor<1x32x64x1xf32>
    %658 = stablehlo.reshape %657 : (tensor<1x32x64x1xf32>) -> tensor<1x32x64xf32>
    %659 = stablehlo.slice %656 [0:1, 0:32, 0:64, 1:2] : (tensor<1x32x64x2xf32>) -> tensor<1x32x64x1xf32>
    %660 = stablehlo.reshape %659 : (tensor<1x32x64x1xf32>) -> tensor<1x32x64xf32>
    %661 = stablehlo.complex %658, %660 : tensor<1x32x64xcomplex<f32>>
    %662 = stablehlo.broadcast_in_dim %28, dims = [0, 2] : (tensor<1x64xcomplex<f32>>) -> tensor<1x32x64xcomplex<f32>>
    %663 = stablehlo.multiply %661, %662 : tensor<1x32x64xcomplex<f32>>
    %664 = stablehlo.real %663 : (tensor<1x32x64xcomplex<f32>>) -> tensor<1x32x64xf32>
    %665 = stablehlo.reshape %664 : (tensor<1x32x64xf32>) -> tensor<1x32x64x1xf32>
    %666 = stablehlo.imag %663 : (tensor<1x32x64xcomplex<f32>>) -> tensor<1x32x64xf32>
    %667 = stablehlo.reshape %666 : (tensor<1x32x64xf32>) -> tensor<1x32x64x1xf32>
    %668 = stablehlo.concatenate %665, %667, dim = 3 : (tensor<1x32x64x1xf32>, tensor<1x32x64x1xf32>) -> tensor<1x32x64x2xf32>
    %669 = stablehlo.reshape %668 : (tensor<1x32x64x2xf32>) -> tensor<1x32x128xf32>
    %670 = "stablehlo.scatter"(%arg234, %653, %669) ({
    ^bb0(%arg362: tensor<f32>, %arg363: tensor<f32>):
      stablehlo.return %arg363 : tensor<f32>
    }) {indices_are_sorted = false, scatter_dimension_numbers = #stablehlo.scatter<update_window_dims = [1, 2], inserted_window_dims = [0], scatter_dims_to_operand_dims = [0], index_vector_dim = 1>, unique_indices = false} : (tensor<2304x32x128xf32>, tensor<1x1xi64>, tensor<1x32x128xf32>) -> tensor<2304x32x128xf32>
    %671 = stablehlo.convert %arg7 : (tensor<2049xi64>) -> tensor<2049xui32>
    %672 = "stablehlo.gather"(%670, %671) {dimension_numbers = #stablehlo.gather<offset_dims = [1, 2], collapsed_slice_dims = [0], start_index_map = [0], index_vector_dim = 1>, indices_are_sorted = false, slice_sizes = dense<[1, 32, 128]> : tensor<3xi64>} : (tensor<2304x32x128xf32>, tensor<2049xui32>) -> tensor<2049x32x128xf32>
    %673 = stablehlo.transpose %672, dims = [1, 2, 0] : (tensor<2049x32x128xf32>) -> tensor<32x128x2049xf32>
    %674 = stablehlo.dot_general %648, %673, batching_dims = [0] x [0], contracting_dims = [2] x [1], precision = [DEFAULT, DEFAULT] : (tensor<32x1x128xf32>, tensor<32x128x2049xf32>) -> tensor<32x1x2049xf32>
    %675 = stablehlo.broadcast_in_dim %arg201, dims = [] : (tensor<f32>) -> tensor<32x1x2049xf32>
    %676 = stablehlo.divide %674, %675 : tensor<32x1x2049xf32>
    %677 = stablehlo.reduce(%676 init: %3) across dimensions = [2] : (tensor<32x1x2049xf32>, tensor<f32>) -> tensor<32x1xf32>
     reducer(%arg362: tensor<f32>, %arg363: tensor<f32>)  {
      %3287 = stablehlo.maximum %arg362, %arg363 : tensor<f32>
      stablehlo.return %3287 : tensor<f32>
    }
    %678 = stablehlo.broadcast_in_dim %677, dims = [0, 1] : (tensor<32x1xf32>) -> tensor<32x1x2049xf32>
    %679 = stablehlo.subtract %676, %678 : tensor<32x1x2049xf32>
    %680 = stablehlo.exponential %679 : tensor<32x1x2049xf32>
    %681 = stablehlo.reduce(%680 init: %4) across dimensions = [2] : (tensor<32x1x2049xf32>, tensor<f32>) -> tensor<32x1xf32>
     reducer(%arg362: tensor<f32>, %arg363: tensor<f32>)  {
      %3287 = stablehlo.add %arg362, %arg363 : tensor<f32>
      stablehlo.return %3287 : tensor<f32>
    }
    %682 = stablehlo.broadcast_in_dim %681, dims = [0, 1] : (tensor<32x1xf32>) -> tensor<32x1x2049xf32>
    %683 = stablehlo.divide %680, %682 : tensor<32x1x2049xf32>
    %684 = stablehlo.compare  LT, %arg198, %2 : (tensor<1xi64>, tensor<1xi64>) -> tensor<1xi1>
    %685 = stablehlo.reshape %arg199 : (tensor<i64>) -> tensor<1xi64>
    %686 = stablehlo.add %arg198, %685 : tensor<1xi64>
    %687 = stablehlo.select %684, %686, %arg198 : tensor<1xi1>, tensor<1xi64>
    %688 = stablehlo.reshape %687 : (tensor<1xi64>) -> tensor<1x1xi64>
    %689 = stablehlo.transpose %arg158, dims = [1, 0] {result_layout = dense<[0, 1]> : tensor<2xindex>, xla_shape = "f32[4096,4096]{0,1}"} : (tensor<4096x4096xf32>) -> tensor<4096x4096xf32>
    %690 = stablehlo.dot %632, %689, precision = [DEFAULT, DEFAULT] : (tensor<1x4096xf32>, tensor<4096x4096xf32>) -> tensor<1x4096xf32>
    %691 = stablehlo.reshape %690 : (tensor<1x4096xf32>) -> tensor<1x32x128xf32>
    %692 = "stablehlo.scatter"(%arg232, %688, %691) ({
    ^bb0(%arg362: tensor<f32>, %arg363: tensor<f32>):
      stablehlo.return %arg363 : tensor<f32>
    }) {indices_are_sorted = false, scatter_dimension_numbers = #stablehlo.scatter<update_window_dims = [1, 2], inserted_window_dims = [0], scatter_dims_to_operand_dims = [0], index_vector_dim = 1>, unique_indices = false} : (tensor<2304x32x128xf32>, tensor<1x1xi64>, tensor<1x32x128xf32>) -> tensor<2304x32x128xf32>
    %693 = stablehlo.convert %arg7 : (tensor<2049xi64>) -> tensor<2049xui32>
    %694 = "stablehlo.gather"(%692, %693) {dimension_numbers = #stablehlo.gather<offset_dims = [1, 2], collapsed_slice_dims = [0], start_index_map = [0], index_vector_dim = 1>, indices_are_sorted = false, slice_sizes = dense<[1, 32, 128]> : tensor<3xi64>} : (tensor<2304x32x128xf32>, tensor<2049xui32>) -> tensor<2049x32x128xf32>
    %695 = stablehlo.transpose %694, dims = [1, 0, 2] {result_layout = dense<[2, 0, 1]> : tensor<3xindex>, xla_shape = "f32[32,2049,128]{2,0,1}"} : (tensor<2049x32x128xf32>) -> tensor<32x2049x128xf32>
    %696 = stablehlo.dot_general %683, %695, batching_dims = [0] x [0], contracting_dims = [2] x [1], precision = [DEFAULT, DEFAULT] : (tensor<32x1x2049xf32>, tensor<32x2049x128xf32>) -> tensor<32x1x128xf32>
    %697 = stablehlo.reshape %696 : (tensor<32x1x128xf32>) -> tensor<1x4096xf32>
    %698 = stablehlo.transpose %arg157, dims = [1, 0] {result_layout = dense<[0, 1]> : tensor<2xindex>, xla_shape = "f32[4096,4096]{0,1}"} : (tensor<4096x4096xf32>) -> tensor<4096x4096xf32>
    %699 = stablehlo.dot %697, %698, precision = [DEFAULT, DEFAULT] : (tensor<1x4096xf32>, tensor<4096x4096xf32>) -> tensor<1x4096xf32>
    %700 = stablehlo.add %620, %699 : tensor<1x4096xf32>
    %701 = stablehlo.power %700, %1 : tensor<1x4096xf32>
    %702 = stablehlo.reduce(%701 init: %4) across dimensions = [1] : (tensor<1x4096xf32>, tensor<f32>) -> tensor<1xf32>
     reducer(%arg362: tensor<f32>, %arg363: tensor<f32>)  {
      %3287 = stablehlo.add %arg362, %arg363 : tensor<f32>
      stablehlo.return %3287 : tensor<f32>
    }
    %703 = stablehlo.multiply %702, %0 : tensor<1xf32>
    %704 = stablehlo.reshape %703 : (tensor<1xf32>) -> tensor<1x1xf32>
    %705 = stablehlo.reshape %arg2 : (tensor<f32>) -> tensor<1x1xf32>
    %706 = stablehlo.add %704, %705 : tensor<1x1xf32>
    %707 = stablehlo.rsqrt %706 : tensor<1x1xf32>
    %708 = stablehlo.reshape %707 : (tensor<1x1xf32>) -> tensor<1xf32>
    %709 = stablehlo.broadcast_in_dim %708, dims = [0] : (tensor<1xf32>) -> tensor<1x4096xf32>
    %710 = stablehlo.multiply %700, %709 : tensor<1x4096xf32>
    %711 = stablehlo.reshape %arg156 : (tensor<4096xf32>) -> tensor<1x4096xf32>
    %712 = stablehlo.multiply %710, %711 : tensor<1x4096xf32>
    %713 = stablehlo.transpose %arg236, dims = [1, 0] {result_layout = dense<[0, 1]> : tensor<2xindex>, xla_shape = "f32[4096,11008]{0,1}"} : (tensor<11008x4096xf32>) -> tensor<4096x11008xf32>
    %714 = stablehlo.dot %712, %713, precision = [DEFAULT, DEFAULT] : (tensor<1x4096xf32>, tensor<4096x11008xf32>) -> tensor<1x11008xf32>
    %715 = stablehlo.logistic %714 : tensor<1x11008xf32>
    %716 = stablehlo.multiply %714, %715 : tensor<1x11008xf32>
    %717 = stablehlo.transpose %arg155, dims = [1, 0] {result_layout = dense<[0, 1]> : tensor<2xindex>, xla_shape = "f32[4096,11008]{0,1}"} : (tensor<11008x4096xf32>) -> tensor<4096x11008xf32>
    %718 = stablehlo.dot %712, %717, precision = [DEFAULT, DEFAULT] : (tensor<1x4096xf32>, tensor<4096x11008xf32>) -> tensor<1x11008xf32>
    %719 = stablehlo.multiply %716, %718 : tensor<1x11008xf32>
    %720 = stablehlo.transpose %arg154, dims = [1, 0] {result_layout = dense<[0, 1]> : tensor<2xindex>, xla_shape = "f32[11008,4096]{0,1}"} : (tensor<4096x11008xf32>) -> tensor<11008x4096xf32>
    %721 = stablehlo.dot %719, %720, precision = [DEFAULT, DEFAULT] : (tensor<1x11008xf32>, tensor<11008x4096xf32>) -> tensor<1x4096xf32>
    %722 = stablehlo.add %700, %721 : tensor<1x4096xf32>
    %723 = stablehlo.power %722, %1 : tensor<1x4096xf32>
    %724 = stablehlo.reduce(%723 init: %4) across dimensions = [1] : (tensor<1x4096xf32>, tensor<f32>) -> tensor<1xf32>
     reducer(%arg362: tensor<f32>, %arg363: tensor<f32>)  {
      %3287 = stablehlo.add %arg362, %arg363 : tensor<f32>
      stablehlo.return %3287 : tensor<f32>
    }
    %725 = stablehlo.multiply %724, %0 : tensor<1xf32>
    %726 = stablehlo.reshape %725 : (tensor<1xf32>) -> tensor<1x1xf32>
    %727 = stablehlo.reshape %arg2 : (tensor<f32>) -> tensor<1x1xf32>
    %728 = stablehlo.add %726, %727 : tensor<1x1xf32>
    %729 = stablehlo.rsqrt %728 : tensor<1x1xf32>
    %730 = stablehlo.reshape %729 : (tensor<1x1xf32>) -> tensor<1xf32>
    %731 = stablehlo.broadcast_in_dim %730, dims = [0] : (tensor<1xf32>) -> tensor<1x4096xf32>
    %732 = stablehlo.multiply %722, %731 : tensor<1x4096xf32>
    %733 = stablehlo.reshape %arg153 : (tensor<4096xf32>) -> tensor<1x4096xf32>
    %734 = stablehlo.multiply %732, %733 : tensor<1x4096xf32>
    %735 = stablehlo.transpose %arg240, dims = [1, 0] {result_layout = dense<[0, 1]> : tensor<2xindex>, xla_shape = "f32[4096,4096]{0,1}"} : (tensor<4096x4096xf32>) -> tensor<4096x4096xf32>
    %736 = stablehlo.dot %734, %735, precision = [DEFAULT, DEFAULT] : (tensor<1x4096xf32>, tensor<4096x4096xf32>) -> tensor<1x4096xf32>
    %737 = stablehlo.reshape %736 : (tensor<1x4096xf32>) -> tensor<1x32x64x2xf32>
    %738 = stablehlo.slice %737 [0:1, 0:32, 0:64, 0:1] : (tensor<1x32x64x2xf32>) -> tensor<1x32x64x1xf32>
    %739 = stablehlo.reshape %738 : (tensor<1x32x64x1xf32>) -> tensor<1x32x64xf32>
    %740 = stablehlo.slice %737 [0:1, 0:32, 0:64, 1:2] : (tensor<1x32x64x2xf32>) -> tensor<1x32x64x1xf32>
    %741 = stablehlo.reshape %740 : (tensor<1x32x64x1xf32>) -> tensor<1x32x64xf32>
    %742 = stablehlo.complex %739, %741 : tensor<1x32x64xcomplex<f32>>
    %743 = stablehlo.broadcast_in_dim %28, dims = [0, 2] : (tensor<1x64xcomplex<f32>>) -> tensor<1x32x64xcomplex<f32>>
    %744 = stablehlo.multiply %742, %743 : tensor<1x32x64xcomplex<f32>>
    %745 = stablehlo.real %744 : (tensor<1x32x64xcomplex<f32>>) -> tensor<1x32x64xf32>
    %746 = stablehlo.reshape %745 : (tensor<1x32x64xf32>) -> tensor<1x32x64x1xf32>
    %747 = stablehlo.imag %744 : (tensor<1x32x64xcomplex<f32>>) -> tensor<1x32x64xf32>
    %748 = stablehlo.reshape %747 : (tensor<1x32x64xf32>) -> tensor<1x32x64x1xf32>
    %749 = stablehlo.concatenate %746, %748, dim = 3 : (tensor<1x32x64x1xf32>, tensor<1x32x64x1xf32>) -> tensor<1x32x64x2xf32>
    %750 = stablehlo.reshape %749 : (tensor<1x32x64x2xf32>) -> tensor<32x1x128xf32>
    %751 = stablehlo.compare  LT, %arg198, %2 : (tensor<1xi64>, tensor<1xi64>) -> tensor<1xi1>
    %752 = stablehlo.reshape %arg199 : (tensor<i64>) -> tensor<1xi64>
    %753 = stablehlo.add %arg198, %752 : tensor<1xi64>
    %754 = stablehlo.select %751, %753, %arg198 : tensor<1xi1>, tensor<1xi64>
    %755 = stablehlo.reshape %754 : (tensor<1xi64>) -> tensor<1x1xi64>
    %756 = stablehlo.transpose %arg238, dims = [1, 0] {result_layout = dense<[0, 1]> : tensor<2xindex>, xla_shape = "f32[4096,4096]{0,1}"} : (tensor<4096x4096xf32>) -> tensor<4096x4096xf32>
    %757 = stablehlo.dot %734, %756, precision = [DEFAULT, DEFAULT] : (tensor<1x4096xf32>, tensor<4096x4096xf32>) -> tensor<1x4096xf32>
    %758 = stablehlo.reshape %757 : (tensor<1x4096xf32>) -> tensor<1x32x64x2xf32>
    %759 = stablehlo.slice %758 [0:1, 0:32, 0:64, 0:1] : (tensor<1x32x64x2xf32>) -> tensor<1x32x64x1xf32>
    %760 = stablehlo.reshape %759 : (tensor<1x32x64x1xf32>) -> tensor<1x32x64xf32>
    %761 = stablehlo.slice %758 [0:1, 0:32, 0:64, 1:2] : (tensor<1x32x64x2xf32>) -> tensor<1x32x64x1xf32>
    %762 = stablehlo.reshape %761 : (tensor<1x32x64x1xf32>) -> tensor<1x32x64xf32>
    %763 = stablehlo.complex %760, %762 : tensor<1x32x64xcomplex<f32>>
    %764 = stablehlo.broadcast_in_dim %28, dims = [0, 2] : (tensor<1x64xcomplex<f32>>) -> tensor<1x32x64xcomplex<f32>>
    %765 = stablehlo.multiply %763, %764 : tensor<1x32x64xcomplex<f32>>
    %766 = stablehlo.real %765 : (tensor<1x32x64xcomplex<f32>>) -> tensor<1x32x64xf32>
    %767 = stablehlo.reshape %766 : (tensor<1x32x64xf32>) -> tensor<1x32x64x1xf32>
    %768 = stablehlo.imag %765 : (tensor<1x32x64xcomplex<f32>>) -> tensor<1x32x64xf32>
    %769 = stablehlo.reshape %768 : (tensor<1x32x64xf32>) -> tensor<1x32x64x1xf32>
    %770 = stablehlo.concatenate %767, %769, dim = 3 : (tensor<1x32x64x1xf32>, tensor<1x32x64x1xf32>) -> tensor<1x32x64x2xf32>
    %771 = stablehlo.reshape %770 : (tensor<1x32x64x2xf32>) -> tensor<1x32x128xf32>
    %772 = "stablehlo.scatter"(%arg239, %755, %771) ({
    ^bb0(%arg362: tensor<f32>, %arg363: tensor<f32>):
      stablehlo.return %arg363 : tensor<f32>
    }) {indices_are_sorted = false, scatter_dimension_numbers = #stablehlo.scatter<update_window_dims = [1, 2], inserted_window_dims = [0], scatter_dims_to_operand_dims = [0], index_vector_dim = 1>, unique_indices = false} : (tensor<2304x32x128xf32>, tensor<1x1xi64>, tensor<1x32x128xf32>) -> tensor<2304x32x128xf32>
    %773 = stablehlo.convert %arg7 : (tensor<2049xi64>) -> tensor<2049xui32>
    %774 = "stablehlo.gather"(%772, %773) {dimension_numbers = #stablehlo.gather<offset_dims = [1, 2], collapsed_slice_dims = [0], start_index_map = [0], index_vector_dim = 1>, indices_are_sorted = false, slice_sizes = dense<[1, 32, 128]> : tensor<3xi64>} : (tensor<2304x32x128xf32>, tensor<2049xui32>) -> tensor<2049x32x128xf32>
    %775 = stablehlo.transpose %774, dims = [1, 2, 0] : (tensor<2049x32x128xf32>) -> tensor<32x128x2049xf32>
    %776 = stablehlo.dot_general %750, %775, batching_dims = [0] x [0], contracting_dims = [2] x [1], precision = [DEFAULT, DEFAULT] : (tensor<32x1x128xf32>, tensor<32x128x2049xf32>) -> tensor<32x1x2049xf32>
    %777 = stablehlo.broadcast_in_dim %arg201, dims = [] : (tensor<f32>) -> tensor<32x1x2049xf32>
    %778 = stablehlo.divide %776, %777 : tensor<32x1x2049xf32>
    %779 = stablehlo.reduce(%778 init: %3) across dimensions = [2] : (tensor<32x1x2049xf32>, tensor<f32>) -> tensor<32x1xf32>
     reducer(%arg362: tensor<f32>, %arg363: tensor<f32>)  {
      %3287 = stablehlo.maximum %arg362, %arg363 : tensor<f32>
      stablehlo.return %3287 : tensor<f32>
    }
    %780 = stablehlo.broadcast_in_dim %779, dims = [0, 1] : (tensor<32x1xf32>) -> tensor<32x1x2049xf32>
    %781 = stablehlo.subtract %778, %780 : tensor<32x1x2049xf32>
    %782 = stablehlo.exponential %781 : tensor<32x1x2049xf32>
    %783 = stablehlo.reduce(%782 init: %4) across dimensions = [2] : (tensor<32x1x2049xf32>, tensor<f32>) -> tensor<32x1xf32>
     reducer(%arg362: tensor<f32>, %arg363: tensor<f32>)  {
      %3287 = stablehlo.add %arg362, %arg363 : tensor<f32>
      stablehlo.return %3287 : tensor<f32>
    }
    %784 = stablehlo.broadcast_in_dim %783, dims = [0, 1] : (tensor<32x1xf32>) -> tensor<32x1x2049xf32>
    %785 = stablehlo.divide %782, %784 : tensor<32x1x2049xf32>
    %786 = stablehlo.compare  LT, %arg198, %2 : (tensor<1xi64>, tensor<1xi64>) -> tensor<1xi1>
    %787 = stablehlo.reshape %arg199 : (tensor<i64>) -> tensor<1xi64>
    %788 = stablehlo.add %arg198, %787 : tensor<1xi64>
    %789 = stablehlo.select %786, %788, %arg198 : tensor<1xi1>, tensor<1xi64>
    %790 = stablehlo.reshape %789 : (tensor<1xi64>) -> tensor<1x1xi64>
    %791 = stablehlo.transpose %arg152, dims = [1, 0] {result_layout = dense<[0, 1]> : tensor<2xindex>, xla_shape = "f32[4096,4096]{0,1}"} : (tensor<4096x4096xf32>) -> tensor<4096x4096xf32>
    %792 = stablehlo.dot %734, %791, precision = [DEFAULT, DEFAULT] : (tensor<1x4096xf32>, tensor<4096x4096xf32>) -> tensor<1x4096xf32>
    %793 = stablehlo.reshape %792 : (tensor<1x4096xf32>) -> tensor<1x32x128xf32>
    %794 = "stablehlo.scatter"(%arg237, %790, %793) ({
    ^bb0(%arg362: tensor<f32>, %arg363: tensor<f32>):
      stablehlo.return %arg363 : tensor<f32>
    }) {indices_are_sorted = false, scatter_dimension_numbers = #stablehlo.scatter<update_window_dims = [1, 2], inserted_window_dims = [0], scatter_dims_to_operand_dims = [0], index_vector_dim = 1>, unique_indices = false} : (tensor<2304x32x128xf32>, tensor<1x1xi64>, tensor<1x32x128xf32>) -> tensor<2304x32x128xf32>
    %795 = stablehlo.convert %arg7 : (tensor<2049xi64>) -> tensor<2049xui32>
    %796 = "stablehlo.gather"(%794, %795) {dimension_numbers = #stablehlo.gather<offset_dims = [1, 2], collapsed_slice_dims = [0], start_index_map = [0], index_vector_dim = 1>, indices_are_sorted = false, slice_sizes = dense<[1, 32, 128]> : tensor<3xi64>} : (tensor<2304x32x128xf32>, tensor<2049xui32>) -> tensor<2049x32x128xf32>
    %797 = stablehlo.transpose %796, dims = [1, 0, 2] {result_layout = dense<[2, 0, 1]> : tensor<3xindex>, xla_shape = "f32[32,2049,128]{2,0,1}"} : (tensor<2049x32x128xf32>) -> tensor<32x2049x128xf32>
    %798 = stablehlo.dot_general %785, %797, batching_dims = [0] x [0], contracting_dims = [2] x [1], precision = [DEFAULT, DEFAULT] : (tensor<32x1x2049xf32>, tensor<32x2049x128xf32>) -> tensor<32x1x128xf32>
    %799 = stablehlo.reshape %798 : (tensor<32x1x128xf32>) -> tensor<1x4096xf32>
    %800 = stablehlo.transpose %arg151, dims = [1, 0] {result_layout = dense<[0, 1]> : tensor<2xindex>, xla_shape = "f32[4096,4096]{0,1}"} : (tensor<4096x4096xf32>) -> tensor<4096x4096xf32>
    %801 = stablehlo.dot %799, %800, precision = [DEFAULT, DEFAULT] : (tensor<1x4096xf32>, tensor<4096x4096xf32>) -> tensor<1x4096xf32>
    %802 = stablehlo.add %722, %801 : tensor<1x4096xf32>
    %803 = stablehlo.power %802, %1 : tensor<1x4096xf32>
    %804 = stablehlo.reduce(%803 init: %4) across dimensions = [1] : (tensor<1x4096xf32>, tensor<f32>) -> tensor<1xf32>
     reducer(%arg362: tensor<f32>, %arg363: tensor<f32>)  {
      %3287 = stablehlo.add %arg362, %arg363 : tensor<f32>
      stablehlo.return %3287 : tensor<f32>
    }
    %805 = stablehlo.multiply %804, %0 : tensor<1xf32>
    %806 = stablehlo.reshape %805 : (tensor<1xf32>) -> tensor<1x1xf32>
    %807 = stablehlo.reshape %arg2 : (tensor<f32>) -> tensor<1x1xf32>
    %808 = stablehlo.add %806, %807 : tensor<1x1xf32>
    %809 = stablehlo.rsqrt %808 : tensor<1x1xf32>
    %810 = stablehlo.reshape %809 : (tensor<1x1xf32>) -> tensor<1xf32>
    %811 = stablehlo.broadcast_in_dim %810, dims = [0] : (tensor<1xf32>) -> tensor<1x4096xf32>
    %812 = stablehlo.multiply %802, %811 : tensor<1x4096xf32>
    %813 = stablehlo.reshape %arg150 : (tensor<4096xf32>) -> tensor<1x4096xf32>
    %814 = stablehlo.multiply %812, %813 : tensor<1x4096xf32>
    %815 = stablehlo.transpose %arg241, dims = [1, 0] {result_layout = dense<[0, 1]> : tensor<2xindex>, xla_shape = "f32[4096,11008]{0,1}"} : (tensor<11008x4096xf32>) -> tensor<4096x11008xf32>
    %816 = stablehlo.dot %814, %815, precision = [DEFAULT, DEFAULT] : (tensor<1x4096xf32>, tensor<4096x11008xf32>) -> tensor<1x11008xf32>
    %817 = stablehlo.logistic %816 : tensor<1x11008xf32>
    %818 = stablehlo.multiply %816, %817 : tensor<1x11008xf32>
    %819 = stablehlo.transpose %arg149, dims = [1, 0] {result_layout = dense<[0, 1]> : tensor<2xindex>, xla_shape = "f32[4096,11008]{0,1}"} : (tensor<11008x4096xf32>) -> tensor<4096x11008xf32>
    %820 = stablehlo.dot %814, %819, precision = [DEFAULT, DEFAULT] : (tensor<1x4096xf32>, tensor<4096x11008xf32>) -> tensor<1x11008xf32>
    %821 = stablehlo.multiply %818, %820 : tensor<1x11008xf32>
    %822 = stablehlo.transpose %arg148, dims = [1, 0] {result_layout = dense<[0, 1]> : tensor<2xindex>, xla_shape = "f32[11008,4096]{0,1}"} : (tensor<4096x11008xf32>) -> tensor<11008x4096xf32>
    %823 = stablehlo.dot %821, %822, precision = [DEFAULT, DEFAULT] : (tensor<1x11008xf32>, tensor<11008x4096xf32>) -> tensor<1x4096xf32>
    %824 = stablehlo.add %802, %823 : tensor<1x4096xf32>
    %825 = stablehlo.power %824, %1 : tensor<1x4096xf32>
    %826 = stablehlo.reduce(%825 init: %4) across dimensions = [1] : (tensor<1x4096xf32>, tensor<f32>) -> tensor<1xf32>
     reducer(%arg362: tensor<f32>, %arg363: tensor<f32>)  {
      %3287 = stablehlo.add %arg362, %arg363 : tensor<f32>
      stablehlo.return %3287 : tensor<f32>
    }
    %827 = stablehlo.multiply %826, %0 : tensor<1xf32>
    %828 = stablehlo.reshape %827 : (tensor<1xf32>) -> tensor<1x1xf32>
    %829 = stablehlo.reshape %arg2 : (tensor<f32>) -> tensor<1x1xf32>
    %830 = stablehlo.add %828, %829 : tensor<1x1xf32>
    %831 = stablehlo.rsqrt %830 : tensor<1x1xf32>
    %832 = stablehlo.reshape %831 : (tensor<1x1xf32>) -> tensor<1xf32>
    %833 = stablehlo.broadcast_in_dim %832, dims = [0] : (tensor<1xf32>) -> tensor<1x4096xf32>
    %834 = stablehlo.multiply %824, %833 : tensor<1x4096xf32>
    %835 = stablehlo.reshape %arg147 : (tensor<4096xf32>) -> tensor<1x4096xf32>
    %836 = stablehlo.multiply %834, %835 : tensor<1x4096xf32>
    %837 = stablehlo.transpose %arg245, dims = [1, 0] {result_layout = dense<[0, 1]> : tensor<2xindex>, xla_shape = "f32[4096,4096]{0,1}"} : (tensor<4096x4096xf32>) -> tensor<4096x4096xf32>
    %838 = stablehlo.dot %836, %837, precision = [DEFAULT, DEFAULT] : (tensor<1x4096xf32>, tensor<4096x4096xf32>) -> tensor<1x4096xf32>
    %839 = stablehlo.reshape %838 : (tensor<1x4096xf32>) -> tensor<1x32x64x2xf32>
    %840 = stablehlo.slice %839 [0:1, 0:32, 0:64, 0:1] : (tensor<1x32x64x2xf32>) -> tensor<1x32x64x1xf32>
    %841 = stablehlo.reshape %840 : (tensor<1x32x64x1xf32>) -> tensor<1x32x64xf32>
    %842 = stablehlo.slice %839 [0:1, 0:32, 0:64, 1:2] : (tensor<1x32x64x2xf32>) -> tensor<1x32x64x1xf32>
    %843 = stablehlo.reshape %842 : (tensor<1x32x64x1xf32>) -> tensor<1x32x64xf32>
    %844 = stablehlo.complex %841, %843 : tensor<1x32x64xcomplex<f32>>
    %845 = stablehlo.broadcast_in_dim %28, dims = [0, 2] : (tensor<1x64xcomplex<f32>>) -> tensor<1x32x64xcomplex<f32>>
    %846 = stablehlo.multiply %844, %845 : tensor<1x32x64xcomplex<f32>>
    %847 = stablehlo.real %846 : (tensor<1x32x64xcomplex<f32>>) -> tensor<1x32x64xf32>
    %848 = stablehlo.reshape %847 : (tensor<1x32x64xf32>) -> tensor<1x32x64x1xf32>
    %849 = stablehlo.imag %846 : (tensor<1x32x64xcomplex<f32>>) -> tensor<1x32x64xf32>
    %850 = stablehlo.reshape %849 : (tensor<1x32x64xf32>) -> tensor<1x32x64x1xf32>
    %851 = stablehlo.concatenate %848, %850, dim = 3 : (tensor<1x32x64x1xf32>, tensor<1x32x64x1xf32>) -> tensor<1x32x64x2xf32>
    %852 = stablehlo.reshape %851 : (tensor<1x32x64x2xf32>) -> tensor<32x1x128xf32>
    %853 = stablehlo.compare  LT, %arg198, %2 : (tensor<1xi64>, tensor<1xi64>) -> tensor<1xi1>
    %854 = stablehlo.reshape %arg199 : (tensor<i64>) -> tensor<1xi64>
    %855 = stablehlo.add %arg198, %854 : tensor<1xi64>
    %856 = stablehlo.select %853, %855, %arg198 : tensor<1xi1>, tensor<1xi64>
    %857 = stablehlo.reshape %856 : (tensor<1xi64>) -> tensor<1x1xi64>
    %858 = stablehlo.transpose %arg243, dims = [1, 0] {result_layout = dense<[0, 1]> : tensor<2xindex>, xla_shape = "f32[4096,4096]{0,1}"} : (tensor<4096x4096xf32>) -> tensor<4096x4096xf32>
    %859 = stablehlo.dot %836, %858, precision = [DEFAULT, DEFAULT] : (tensor<1x4096xf32>, tensor<4096x4096xf32>) -> tensor<1x4096xf32>
    %860 = stablehlo.reshape %859 : (tensor<1x4096xf32>) -> tensor<1x32x64x2xf32>
    %861 = stablehlo.slice %860 [0:1, 0:32, 0:64, 0:1] : (tensor<1x32x64x2xf32>) -> tensor<1x32x64x1xf32>
    %862 = stablehlo.reshape %861 : (tensor<1x32x64x1xf32>) -> tensor<1x32x64xf32>
    %863 = stablehlo.slice %860 [0:1, 0:32, 0:64, 1:2] : (tensor<1x32x64x2xf32>) -> tensor<1x32x64x1xf32>
    %864 = stablehlo.reshape %863 : (tensor<1x32x64x1xf32>) -> tensor<1x32x64xf32>
    %865 = stablehlo.complex %862, %864 : tensor<1x32x64xcomplex<f32>>
    %866 = stablehlo.broadcast_in_dim %28, dims = [0, 2] : (tensor<1x64xcomplex<f32>>) -> tensor<1x32x64xcomplex<f32>>
    %867 = stablehlo.multiply %865, %866 : tensor<1x32x64xcomplex<f32>>
    %868 = stablehlo.real %867 : (tensor<1x32x64xcomplex<f32>>) -> tensor<1x32x64xf32>
    %869 = stablehlo.reshape %868 : (tensor<1x32x64xf32>) -> tensor<1x32x64x1xf32>
    %870 = stablehlo.imag %867 : (tensor<1x32x64xcomplex<f32>>) -> tensor<1x32x64xf32>
    %871 = stablehlo.reshape %870 : (tensor<1x32x64xf32>) -> tensor<1x32x64x1xf32>
    %872 = stablehlo.concatenate %869, %871, dim = 3 : (tensor<1x32x64x1xf32>, tensor<1x32x64x1xf32>) -> tensor<1x32x64x2xf32>
    %873 = stablehlo.reshape %872 : (tensor<1x32x64x2xf32>) -> tensor<1x32x128xf32>
    %874 = "stablehlo.scatter"(%arg244, %857, %873) ({
    ^bb0(%arg362: tensor<f32>, %arg363: tensor<f32>):
      stablehlo.return %arg363 : tensor<f32>
    }) {indices_are_sorted = false, scatter_dimension_numbers = #stablehlo.scatter<update_window_dims = [1, 2], inserted_window_dims = [0], scatter_dims_to_operand_dims = [0], index_vector_dim = 1>, unique_indices = false} : (tensor<2304x32x128xf32>, tensor<1x1xi64>, tensor<1x32x128xf32>) -> tensor<2304x32x128xf32>
    %875 = stablehlo.convert %arg7 : (tensor<2049xi64>) -> tensor<2049xui32>
    %876 = "stablehlo.gather"(%874, %875) {dimension_numbers = #stablehlo.gather<offset_dims = [1, 2], collapsed_slice_dims = [0], start_index_map = [0], index_vector_dim = 1>, indices_are_sorted = false, slice_sizes = dense<[1, 32, 128]> : tensor<3xi64>} : (tensor<2304x32x128xf32>, tensor<2049xui32>) -> tensor<2049x32x128xf32>
    %877 = stablehlo.transpose %876, dims = [1, 2, 0] : (tensor<2049x32x128xf32>) -> tensor<32x128x2049xf32>
    %878 = stablehlo.dot_general %852, %877, batching_dims = [0] x [0], contracting_dims = [2] x [1], precision = [DEFAULT, DEFAULT] : (tensor<32x1x128xf32>, tensor<32x128x2049xf32>) -> tensor<32x1x2049xf32>
    %879 = stablehlo.broadcast_in_dim %arg201, dims = [] : (tensor<f32>) -> tensor<32x1x2049xf32>
    %880 = stablehlo.divide %878, %879 : tensor<32x1x2049xf32>
    %881 = stablehlo.reduce(%880 init: %3) across dimensions = [2] : (tensor<32x1x2049xf32>, tensor<f32>) -> tensor<32x1xf32>
     reducer(%arg362: tensor<f32>, %arg363: tensor<f32>)  {
      %3287 = stablehlo.maximum %arg362, %arg363 : tensor<f32>
      stablehlo.return %3287 : tensor<f32>
    }
    %882 = stablehlo.broadcast_in_dim %881, dims = [0, 1] : (tensor<32x1xf32>) -> tensor<32x1x2049xf32>
    %883 = stablehlo.subtract %880, %882 : tensor<32x1x2049xf32>
    %884 = stablehlo.exponential %883 : tensor<32x1x2049xf32>
    %885 = stablehlo.reduce(%884 init: %4) across dimensions = [2] : (tensor<32x1x2049xf32>, tensor<f32>) -> tensor<32x1xf32>
     reducer(%arg362: tensor<f32>, %arg363: tensor<f32>)  {
      %3287 = stablehlo.add %arg362, %arg363 : tensor<f32>
      stablehlo.return %3287 : tensor<f32>
    }
    %886 = stablehlo.broadcast_in_dim %885, dims = [0, 1] : (tensor<32x1xf32>) -> tensor<32x1x2049xf32>
    %887 = stablehlo.divide %884, %886 : tensor<32x1x2049xf32>
    %888 = stablehlo.compare  LT, %arg198, %2 : (tensor<1xi64>, tensor<1xi64>) -> tensor<1xi1>
    %889 = stablehlo.reshape %arg199 : (tensor<i64>) -> tensor<1xi64>
    %890 = stablehlo.add %arg198, %889 : tensor<1xi64>
    %891 = stablehlo.select %888, %890, %arg198 : tensor<1xi1>, tensor<1xi64>
    %892 = stablehlo.reshape %891 : (tensor<1xi64>) -> tensor<1x1xi64>
    %893 = stablehlo.transpose %arg146, dims = [1, 0] {result_layout = dense<[0, 1]> : tensor<2xindex>, xla_shape = "f32[4096,4096]{0,1}"} : (tensor<4096x4096xf32>) -> tensor<4096x4096xf32>
    %894 = stablehlo.dot %836, %893, precision = [DEFAULT, DEFAULT] : (tensor<1x4096xf32>, tensor<4096x4096xf32>) -> tensor<1x4096xf32>
    %895 = stablehlo.reshape %894 : (tensor<1x4096xf32>) -> tensor<1x32x128xf32>
    %896 = "stablehlo.scatter"(%arg242, %892, %895) ({
    ^bb0(%arg362: tensor<f32>, %arg363: tensor<f32>):
      stablehlo.return %arg363 : tensor<f32>
    }) {indices_are_sorted = false, scatter_dimension_numbers = #stablehlo.scatter<update_window_dims = [1, 2], inserted_window_dims = [0], scatter_dims_to_operand_dims = [0], index_vector_dim = 1>, unique_indices = false} : (tensor<2304x32x128xf32>, tensor<1x1xi64>, tensor<1x32x128xf32>) -> tensor<2304x32x128xf32>
    %897 = stablehlo.convert %arg7 : (tensor<2049xi64>) -> tensor<2049xui32>
    %898 = "stablehlo.gather"(%896, %897) {dimension_numbers = #stablehlo.gather<offset_dims = [1, 2], collapsed_slice_dims = [0], start_index_map = [0], index_vector_dim = 1>, indices_are_sorted = false, slice_sizes = dense<[1, 32, 128]> : tensor<3xi64>} : (tensor<2304x32x128xf32>, tensor<2049xui32>) -> tensor<2049x32x128xf32>
    %899 = stablehlo.transpose %898, dims = [1, 0, 2] {result_layout = dense<[2, 0, 1]> : tensor<3xindex>, xla_shape = "f32[32,2049,128]{2,0,1}"} : (tensor<2049x32x128xf32>) -> tensor<32x2049x128xf32>
    %900 = stablehlo.dot_general %887, %899, batching_dims = [0] x [0], contracting_dims = [2] x [1], precision = [DEFAULT, DEFAULT] : (tensor<32x1x2049xf32>, tensor<32x2049x128xf32>) -> tensor<32x1x128xf32>
    %901 = stablehlo.reshape %900 : (tensor<32x1x128xf32>) -> tensor<1x4096xf32>
    %902 = stablehlo.transpose %arg145, dims = [1, 0] {result_layout = dense<[0, 1]> : tensor<2xindex>, xla_shape = "f32[4096,4096]{0,1}"} : (tensor<4096x4096xf32>) -> tensor<4096x4096xf32>
    %903 = stablehlo.dot %901, %902, precision = [DEFAULT, DEFAULT] : (tensor<1x4096xf32>, tensor<4096x4096xf32>) -> tensor<1x4096xf32>
    %904 = stablehlo.add %824, %903 : tensor<1x4096xf32>
    %905 = stablehlo.power %904, %1 : tensor<1x4096xf32>
    %906 = stablehlo.reduce(%905 init: %4) across dimensions = [1] : (tensor<1x4096xf32>, tensor<f32>) -> tensor<1xf32>
     reducer(%arg362: tensor<f32>, %arg363: tensor<f32>)  {
      %3287 = stablehlo.add %arg362, %arg363 : tensor<f32>
      stablehlo.return %3287 : tensor<f32>
    }
    %907 = stablehlo.multiply %906, %0 : tensor<1xf32>
    %908 = stablehlo.reshape %907 : (tensor<1xf32>) -> tensor<1x1xf32>
    %909 = stablehlo.reshape %arg2 : (tensor<f32>) -> tensor<1x1xf32>
    %910 = stablehlo.add %908, %909 : tensor<1x1xf32>
    %911 = stablehlo.rsqrt %910 : tensor<1x1xf32>
    %912 = stablehlo.reshape %911 : (tensor<1x1xf32>) -> tensor<1xf32>
    %913 = stablehlo.broadcast_in_dim %912, dims = [0] : (tensor<1xf32>) -> tensor<1x4096xf32>
    %914 = stablehlo.multiply %904, %913 : tensor<1x4096xf32>
    %915 = stablehlo.reshape %arg144 : (tensor<4096xf32>) -> tensor<1x4096xf32>
    %916 = stablehlo.multiply %914, %915 : tensor<1x4096xf32>
    %917 = stablehlo.transpose %arg246, dims = [1, 0] {result_layout = dense<[0, 1]> : tensor<2xindex>, xla_shape = "f32[4096,11008]{0,1}"} : (tensor<11008x4096xf32>) -> tensor<4096x11008xf32>
    %918 = stablehlo.dot %916, %917, precision = [DEFAULT, DEFAULT] : (tensor<1x4096xf32>, tensor<4096x11008xf32>) -> tensor<1x11008xf32>
    %919 = stablehlo.logistic %918 : tensor<1x11008xf32>
    %920 = stablehlo.multiply %918, %919 : tensor<1x11008xf32>
    %921 = stablehlo.transpose %arg143, dims = [1, 0] {result_layout = dense<[0, 1]> : tensor<2xindex>, xla_shape = "f32[4096,11008]{0,1}"} : (tensor<11008x4096xf32>) -> tensor<4096x11008xf32>
    %922 = stablehlo.dot %916, %921, precision = [DEFAULT, DEFAULT] : (tensor<1x4096xf32>, tensor<4096x11008xf32>) -> tensor<1x11008xf32>
    %923 = stablehlo.multiply %920, %922 : tensor<1x11008xf32>
    %924 = stablehlo.transpose %arg142, dims = [1, 0] {result_layout = dense<[0, 1]> : tensor<2xindex>, xla_shape = "f32[11008,4096]{0,1}"} : (tensor<4096x11008xf32>) -> tensor<11008x4096xf32>
    %925 = stablehlo.dot %923, %924, precision = [DEFAULT, DEFAULT] : (tensor<1x11008xf32>, tensor<11008x4096xf32>) -> tensor<1x4096xf32>
    %926 = stablehlo.add %904, %925 : tensor<1x4096xf32>
    %927 = stablehlo.power %926, %1 : tensor<1x4096xf32>
    %928 = stablehlo.reduce(%927 init: %4) across dimensions = [1] : (tensor<1x4096xf32>, tensor<f32>) -> tensor<1xf32>
     reducer(%arg362: tensor<f32>, %arg363: tensor<f32>)  {
      %3287 = stablehlo.add %arg362, %arg363 : tensor<f32>
      stablehlo.return %3287 : tensor<f32>
    }
    %929 = stablehlo.multiply %928, %0 : tensor<1xf32>
    %930 = stablehlo.reshape %929 : (tensor<1xf32>) -> tensor<1x1xf32>
    %931 = stablehlo.reshape %arg2 : (tensor<f32>) -> tensor<1x1xf32>
    %932 = stablehlo.add %930, %931 : tensor<1x1xf32>
    %933 = stablehlo.rsqrt %932 : tensor<1x1xf32>
    %934 = stablehlo.reshape %933 : (tensor<1x1xf32>) -> tensor<1xf32>
    %935 = stablehlo.broadcast_in_dim %934, dims = [0] : (tensor<1xf32>) -> tensor<1x4096xf32>
    %936 = stablehlo.multiply %926, %935 : tensor<1x4096xf32>
    %937 = stablehlo.reshape %arg141 : (tensor<4096xf32>) -> tensor<1x4096xf32>
    %938 = stablehlo.multiply %936, %937 : tensor<1x4096xf32>
    %939 = stablehlo.transpose %arg250, dims = [1, 0] {result_layout = dense<[0, 1]> : tensor<2xindex>, xla_shape = "f32[4096,4096]{0,1}"} : (tensor<4096x4096xf32>) -> tensor<4096x4096xf32>
    %940 = stablehlo.dot %938, %939, precision = [DEFAULT, DEFAULT] : (tensor<1x4096xf32>, tensor<4096x4096xf32>) -> tensor<1x4096xf32>
    %941 = stablehlo.reshape %940 : (tensor<1x4096xf32>) -> tensor<1x32x64x2xf32>
    %942 = stablehlo.slice %941 [0:1, 0:32, 0:64, 0:1] : (tensor<1x32x64x2xf32>) -> tensor<1x32x64x1xf32>
    %943 = stablehlo.reshape %942 : (tensor<1x32x64x1xf32>) -> tensor<1x32x64xf32>
    %944 = stablehlo.slice %941 [0:1, 0:32, 0:64, 1:2] : (tensor<1x32x64x2xf32>) -> tensor<1x32x64x1xf32>
    %945 = stablehlo.reshape %944 : (tensor<1x32x64x1xf32>) -> tensor<1x32x64xf32>
    %946 = stablehlo.complex %943, %945 : tensor<1x32x64xcomplex<f32>>
    %947 = stablehlo.broadcast_in_dim %28, dims = [0, 2] : (tensor<1x64xcomplex<f32>>) -> tensor<1x32x64xcomplex<f32>>
    %948 = stablehlo.multiply %946, %947 : tensor<1x32x64xcomplex<f32>>
    %949 = stablehlo.real %948 : (tensor<1x32x64xcomplex<f32>>) -> tensor<1x32x64xf32>
    %950 = stablehlo.reshape %949 : (tensor<1x32x64xf32>) -> tensor<1x32x64x1xf32>
    %951 = stablehlo.imag %948 : (tensor<1x32x64xcomplex<f32>>) -> tensor<1x32x64xf32>
    %952 = stablehlo.reshape %951 : (tensor<1x32x64xf32>) -> tensor<1x32x64x1xf32>
    %953 = stablehlo.concatenate %950, %952, dim = 3 : (tensor<1x32x64x1xf32>, tensor<1x32x64x1xf32>) -> tensor<1x32x64x2xf32>
    %954 = stablehlo.reshape %953 : (tensor<1x32x64x2xf32>) -> tensor<32x1x128xf32>
    %955 = stablehlo.compare  LT, %arg198, %2 : (tensor<1xi64>, tensor<1xi64>) -> tensor<1xi1>
    %956 = stablehlo.reshape %arg199 : (tensor<i64>) -> tensor<1xi64>
    %957 = stablehlo.add %arg198, %956 : tensor<1xi64>
    %958 = stablehlo.select %955, %957, %arg198 : tensor<1xi1>, tensor<1xi64>
    %959 = stablehlo.reshape %958 : (tensor<1xi64>) -> tensor<1x1xi64>
    %960 = stablehlo.transpose %arg248, dims = [1, 0] {result_layout = dense<[0, 1]> : tensor<2xindex>, xla_shape = "f32[4096,4096]{0,1}"} : (tensor<4096x4096xf32>) -> tensor<4096x4096xf32>
    %961 = stablehlo.dot %938, %960, precision = [DEFAULT, DEFAULT] : (tensor<1x4096xf32>, tensor<4096x4096xf32>) -> tensor<1x4096xf32>
    %962 = stablehlo.reshape %961 : (tensor<1x4096xf32>) -> tensor<1x32x64x2xf32>
    %963 = stablehlo.slice %962 [0:1, 0:32, 0:64, 0:1] : (tensor<1x32x64x2xf32>) -> tensor<1x32x64x1xf32>
    %964 = stablehlo.reshape %963 : (tensor<1x32x64x1xf32>) -> tensor<1x32x64xf32>
    %965 = stablehlo.slice %962 [0:1, 0:32, 0:64, 1:2] : (tensor<1x32x64x2xf32>) -> tensor<1x32x64x1xf32>
    %966 = stablehlo.reshape %965 : (tensor<1x32x64x1xf32>) -> tensor<1x32x64xf32>
    %967 = stablehlo.complex %964, %966 : tensor<1x32x64xcomplex<f32>>
    %968 = stablehlo.broadcast_in_dim %28, dims = [0, 2] : (tensor<1x64xcomplex<f32>>) -> tensor<1x32x64xcomplex<f32>>
    %969 = stablehlo.multiply %967, %968 : tensor<1x32x64xcomplex<f32>>
    %970 = stablehlo.real %969 : (tensor<1x32x64xcomplex<f32>>) -> tensor<1x32x64xf32>
    %971 = stablehlo.reshape %970 : (tensor<1x32x64xf32>) -> tensor<1x32x64x1xf32>
    %972 = stablehlo.imag %969 : (tensor<1x32x64xcomplex<f32>>) -> tensor<1x32x64xf32>
    %973 = stablehlo.reshape %972 : (tensor<1x32x64xf32>) -> tensor<1x32x64x1xf32>
    %974 = stablehlo.concatenate %971, %973, dim = 3 : (tensor<1x32x64x1xf32>, tensor<1x32x64x1xf32>) -> tensor<1x32x64x2xf32>
    %975 = stablehlo.reshape %974 : (tensor<1x32x64x2xf32>) -> tensor<1x32x128xf32>
    %976 = "stablehlo.scatter"(%arg249, %959, %975) ({
    ^bb0(%arg362: tensor<f32>, %arg363: tensor<f32>):
      stablehlo.return %arg363 : tensor<f32>
    }) {indices_are_sorted = false, scatter_dimension_numbers = #stablehlo.scatter<update_window_dims = [1, 2], inserted_window_dims = [0], scatter_dims_to_operand_dims = [0], index_vector_dim = 1>, unique_indices = false} : (tensor<2304x32x128xf32>, tensor<1x1xi64>, tensor<1x32x128xf32>) -> tensor<2304x32x128xf32>
    %977 = stablehlo.convert %arg7 : (tensor<2049xi64>) -> tensor<2049xui32>
    %978 = "stablehlo.gather"(%976, %977) {dimension_numbers = #stablehlo.gather<offset_dims = [1, 2], collapsed_slice_dims = [0], start_index_map = [0], index_vector_dim = 1>, indices_are_sorted = false, slice_sizes = dense<[1, 32, 128]> : tensor<3xi64>} : (tensor<2304x32x128xf32>, tensor<2049xui32>) -> tensor<2049x32x128xf32>
    %979 = stablehlo.transpose %978, dims = [1, 2, 0] : (tensor<2049x32x128xf32>) -> tensor<32x128x2049xf32>
    %980 = stablehlo.dot_general %954, %979, batching_dims = [0] x [0], contracting_dims = [2] x [1], precision = [DEFAULT, DEFAULT] : (tensor<32x1x128xf32>, tensor<32x128x2049xf32>) -> tensor<32x1x2049xf32>
    %981 = stablehlo.broadcast_in_dim %arg201, dims = [] : (tensor<f32>) -> tensor<32x1x2049xf32>
    %982 = stablehlo.divide %980, %981 : tensor<32x1x2049xf32>
    %983 = stablehlo.reduce(%982 init: %3) across dimensions = [2] : (tensor<32x1x2049xf32>, tensor<f32>) -> tensor<32x1xf32>
     reducer(%arg362: tensor<f32>, %arg363: tensor<f32>)  {
      %3287 = stablehlo.maximum %arg362, %arg363 : tensor<f32>
      stablehlo.return %3287 : tensor<f32>
    }
    %984 = stablehlo.broadcast_in_dim %983, dims = [0, 1] : (tensor<32x1xf32>) -> tensor<32x1x2049xf32>
    %985 = stablehlo.subtract %982, %984 : tensor<32x1x2049xf32>
    %986 = stablehlo.exponential %985 : tensor<32x1x2049xf32>
    %987 = stablehlo.reduce(%986 init: %4) across dimensions = [2] : (tensor<32x1x2049xf32>, tensor<f32>) -> tensor<32x1xf32>
     reducer(%arg362: tensor<f32>, %arg363: tensor<f32>)  {
      %3287 = stablehlo.add %arg362, %arg363 : tensor<f32>
      stablehlo.return %3287 : tensor<f32>
    }
    %988 = stablehlo.broadcast_in_dim %987, dims = [0, 1] : (tensor<32x1xf32>) -> tensor<32x1x2049xf32>
    %989 = stablehlo.divide %986, %988 : tensor<32x1x2049xf32>
    %990 = stablehlo.compare  LT, %arg198, %2 : (tensor<1xi64>, tensor<1xi64>) -> tensor<1xi1>
    %991 = stablehlo.reshape %arg199 : (tensor<i64>) -> tensor<1xi64>
    %992 = stablehlo.add %arg198, %991 : tensor<1xi64>
    %993 = stablehlo.select %990, %992, %arg198 : tensor<1xi1>, tensor<1xi64>
    %994 = stablehlo.reshape %993 : (tensor<1xi64>) -> tensor<1x1xi64>
    %995 = stablehlo.transpose %arg140, dims = [1, 0] {result_layout = dense<[0, 1]> : tensor<2xindex>, xla_shape = "f32[4096,4096]{0,1}"} : (tensor<4096x4096xf32>) -> tensor<4096x4096xf32>
    %996 = stablehlo.dot %938, %995, precision = [DEFAULT, DEFAULT] : (tensor<1x4096xf32>, tensor<4096x4096xf32>) -> tensor<1x4096xf32>
    %997 = stablehlo.reshape %996 : (tensor<1x4096xf32>) -> tensor<1x32x128xf32>
    %998 = "stablehlo.scatter"(%arg247, %994, %997) ({
    ^bb0(%arg362: tensor<f32>, %arg363: tensor<f32>):
      stablehlo.return %arg363 : tensor<f32>
    }) {indices_are_sorted = false, scatter_dimension_numbers = #stablehlo.scatter<update_window_dims = [1, 2], inserted_window_dims = [0], scatter_dims_to_operand_dims = [0], index_vector_dim = 1>, unique_indices = false} : (tensor<2304x32x128xf32>, tensor<1x1xi64>, tensor<1x32x128xf32>) -> tensor<2304x32x128xf32>
    %999 = stablehlo.convert %arg7 : (tensor<2049xi64>) -> tensor<2049xui32>
    %1000 = "stablehlo.gather"(%998, %999) {dimension_numbers = #stablehlo.gather<offset_dims = [1, 2], collapsed_slice_dims = [0], start_index_map = [0], index_vector_dim = 1>, indices_are_sorted = false, slice_sizes = dense<[1, 32, 128]> : tensor<3xi64>} : (tensor<2304x32x128xf32>, tensor<2049xui32>) -> tensor<2049x32x128xf32>
    %1001 = stablehlo.transpose %1000, dims = [1, 0, 2] {result_layout = dense<[2, 0, 1]> : tensor<3xindex>, xla_shape = "f32[32,2049,128]{2,0,1}"} : (tensor<2049x32x128xf32>) -> tensor<32x2049x128xf32>
    %1002 = stablehlo.dot_general %989, %1001, batching_dims = [0] x [0], contracting_dims = [2] x [1], precision = [DEFAULT, DEFAULT] : (tensor<32x1x2049xf32>, tensor<32x2049x128xf32>) -> tensor<32x1x128xf32>
    %1003 = stablehlo.reshape %1002 : (tensor<32x1x128xf32>) -> tensor<1x4096xf32>
    %1004 = stablehlo.transpose %arg139, dims = [1, 0] {result_layout = dense<[0, 1]> : tensor<2xindex>, xla_shape = "f32[4096,4096]{0,1}"} : (tensor<4096x4096xf32>) -> tensor<4096x4096xf32>
    %1005 = stablehlo.dot %1003, %1004, precision = [DEFAULT, DEFAULT] : (tensor<1x4096xf32>, tensor<4096x4096xf32>) -> tensor<1x4096xf32>
    %1006 = stablehlo.add %926, %1005 : tensor<1x4096xf32>
    %1007 = stablehlo.power %1006, %1 : tensor<1x4096xf32>
    %1008 = stablehlo.reduce(%1007 init: %4) across dimensions = [1] : (tensor<1x4096xf32>, tensor<f32>) -> tensor<1xf32>
     reducer(%arg362: tensor<f32>, %arg363: tensor<f32>)  {
      %3287 = stablehlo.add %arg362, %arg363 : tensor<f32>
      stablehlo.return %3287 : tensor<f32>
    }
    %1009 = stablehlo.multiply %1008, %0 : tensor<1xf32>
    %1010 = stablehlo.reshape %1009 : (tensor<1xf32>) -> tensor<1x1xf32>
    %1011 = stablehlo.reshape %arg2 : (tensor<f32>) -> tensor<1x1xf32>
    %1012 = stablehlo.add %1010, %1011 : tensor<1x1xf32>
    %1013 = stablehlo.rsqrt %1012 : tensor<1x1xf32>
    %1014 = stablehlo.reshape %1013 : (tensor<1x1xf32>) -> tensor<1xf32>
    %1015 = stablehlo.broadcast_in_dim %1014, dims = [0] : (tensor<1xf32>) -> tensor<1x4096xf32>
    %1016 = stablehlo.multiply %1006, %1015 : tensor<1x4096xf32>
    %1017 = stablehlo.reshape %arg138 : (tensor<4096xf32>) -> tensor<1x4096xf32>
    %1018 = stablehlo.multiply %1016, %1017 : tensor<1x4096xf32>
    %1019 = stablehlo.transpose %arg251, dims = [1, 0] {result_layout = dense<[0, 1]> : tensor<2xindex>, xla_shape = "f32[4096,11008]{0,1}"} : (tensor<11008x4096xf32>) -> tensor<4096x11008xf32>
    %1020 = stablehlo.dot %1018, %1019, precision = [DEFAULT, DEFAULT] : (tensor<1x4096xf32>, tensor<4096x11008xf32>) -> tensor<1x11008xf32>
    %1021 = stablehlo.logistic %1020 : tensor<1x11008xf32>
    %1022 = stablehlo.multiply %1020, %1021 : tensor<1x11008xf32>
    %1023 = stablehlo.transpose %arg137, dims = [1, 0] {result_layout = dense<[0, 1]> : tensor<2xindex>, xla_shape = "f32[4096,11008]{0,1}"} : (tensor<11008x4096xf32>) -> tensor<4096x11008xf32>
    %1024 = stablehlo.dot %1018, %1023, precision = [DEFAULT, DEFAULT] : (tensor<1x4096xf32>, tensor<4096x11008xf32>) -> tensor<1x11008xf32>
    %1025 = stablehlo.multiply %1022, %1024 : tensor<1x11008xf32>
    %1026 = stablehlo.transpose %arg136, dims = [1, 0] {result_layout = dense<[0, 1]> : tensor<2xindex>, xla_shape = "f32[11008,4096]{0,1}"} : (tensor<4096x11008xf32>) -> tensor<11008x4096xf32>
    %1027 = stablehlo.dot %1025, %1026, precision = [DEFAULT, DEFAULT] : (tensor<1x11008xf32>, tensor<11008x4096xf32>) -> tensor<1x4096xf32>
    %1028 = stablehlo.add %1006, %1027 : tensor<1x4096xf32>
    %1029 = stablehlo.power %1028, %1 : tensor<1x4096xf32>
    %1030 = stablehlo.reduce(%1029 init: %4) across dimensions = [1] : (tensor<1x4096xf32>, tensor<f32>) -> tensor<1xf32>
     reducer(%arg362: tensor<f32>, %arg363: tensor<f32>)  {
      %3287 = stablehlo.add %arg362, %arg363 : tensor<f32>
      stablehlo.return %3287 : tensor<f32>
    }
    %1031 = stablehlo.multiply %1030, %0 : tensor<1xf32>
    %1032 = stablehlo.reshape %1031 : (tensor<1xf32>) -> tensor<1x1xf32>
    %1033 = stablehlo.reshape %arg2 : (tensor<f32>) -> tensor<1x1xf32>
    %1034 = stablehlo.add %1032, %1033 : tensor<1x1xf32>
    %1035 = stablehlo.rsqrt %1034 : tensor<1x1xf32>
    %1036 = stablehlo.reshape %1035 : (tensor<1x1xf32>) -> tensor<1xf32>
    %1037 = stablehlo.broadcast_in_dim %1036, dims = [0] : (tensor<1xf32>) -> tensor<1x4096xf32>
    %1038 = stablehlo.multiply %1028, %1037 : tensor<1x4096xf32>
    %1039 = stablehlo.reshape %arg135 : (tensor<4096xf32>) -> tensor<1x4096xf32>
    %1040 = stablehlo.multiply %1038, %1039 : tensor<1x4096xf32>
    %1041 = stablehlo.transpose %arg255, dims = [1, 0] {result_layout = dense<[0, 1]> : tensor<2xindex>, xla_shape = "f32[4096,4096]{0,1}"} : (tensor<4096x4096xf32>) -> tensor<4096x4096xf32>
    %1042 = stablehlo.dot %1040, %1041, precision = [DEFAULT, DEFAULT] : (tensor<1x4096xf32>, tensor<4096x4096xf32>) -> tensor<1x4096xf32>
    %1043 = stablehlo.reshape %1042 : (tensor<1x4096xf32>) -> tensor<1x32x64x2xf32>
    %1044 = stablehlo.slice %1043 [0:1, 0:32, 0:64, 0:1] : (tensor<1x32x64x2xf32>) -> tensor<1x32x64x1xf32>
    %1045 = stablehlo.reshape %1044 : (tensor<1x32x64x1xf32>) -> tensor<1x32x64xf32>
    %1046 = stablehlo.slice %1043 [0:1, 0:32, 0:64, 1:2] : (tensor<1x32x64x2xf32>) -> tensor<1x32x64x1xf32>
    %1047 = stablehlo.reshape %1046 : (tensor<1x32x64x1xf32>) -> tensor<1x32x64xf32>
    %1048 = stablehlo.complex %1045, %1047 : tensor<1x32x64xcomplex<f32>>
    %1049 = stablehlo.broadcast_in_dim %28, dims = [0, 2] : (tensor<1x64xcomplex<f32>>) -> tensor<1x32x64xcomplex<f32>>
    %1050 = stablehlo.multiply %1048, %1049 : tensor<1x32x64xcomplex<f32>>
    %1051 = stablehlo.real %1050 : (tensor<1x32x64xcomplex<f32>>) -> tensor<1x32x64xf32>
    %1052 = stablehlo.reshape %1051 : (tensor<1x32x64xf32>) -> tensor<1x32x64x1xf32>
    %1053 = stablehlo.imag %1050 : (tensor<1x32x64xcomplex<f32>>) -> tensor<1x32x64xf32>
    %1054 = stablehlo.reshape %1053 : (tensor<1x32x64xf32>) -> tensor<1x32x64x1xf32>
    %1055 = stablehlo.concatenate %1052, %1054, dim = 3 : (tensor<1x32x64x1xf32>, tensor<1x32x64x1xf32>) -> tensor<1x32x64x2xf32>
    %1056 = stablehlo.reshape %1055 : (tensor<1x32x64x2xf32>) -> tensor<32x1x128xf32>
    %1057 = stablehlo.compare  LT, %arg198, %2 : (tensor<1xi64>, tensor<1xi64>) -> tensor<1xi1>
    %1058 = stablehlo.reshape %arg199 : (tensor<i64>) -> tensor<1xi64>
    %1059 = stablehlo.add %arg198, %1058 : tensor<1xi64>
    %1060 = stablehlo.select %1057, %1059, %arg198 : tensor<1xi1>, tensor<1xi64>
    %1061 = stablehlo.reshape %1060 : (tensor<1xi64>) -> tensor<1x1xi64>
    %1062 = stablehlo.transpose %arg253, dims = [1, 0] {result_layout = dense<[0, 1]> : tensor<2xindex>, xla_shape = "f32[4096,4096]{0,1}"} : (tensor<4096x4096xf32>) -> tensor<4096x4096xf32>
    %1063 = stablehlo.dot %1040, %1062, precision = [DEFAULT, DEFAULT] : (tensor<1x4096xf32>, tensor<4096x4096xf32>) -> tensor<1x4096xf32>
    %1064 = stablehlo.reshape %1063 : (tensor<1x4096xf32>) -> tensor<1x32x64x2xf32>
    %1065 = stablehlo.slice %1064 [0:1, 0:32, 0:64, 0:1] : (tensor<1x32x64x2xf32>) -> tensor<1x32x64x1xf32>
    %1066 = stablehlo.reshape %1065 : (tensor<1x32x64x1xf32>) -> tensor<1x32x64xf32>
    %1067 = stablehlo.slice %1064 [0:1, 0:32, 0:64, 1:2] : (tensor<1x32x64x2xf32>) -> tensor<1x32x64x1xf32>
    %1068 = stablehlo.reshape %1067 : (tensor<1x32x64x1xf32>) -> tensor<1x32x64xf32>
    %1069 = stablehlo.complex %1066, %1068 : tensor<1x32x64xcomplex<f32>>
    %1070 = stablehlo.broadcast_in_dim %28, dims = [0, 2] : (tensor<1x64xcomplex<f32>>) -> tensor<1x32x64xcomplex<f32>>
    %1071 = stablehlo.multiply %1069, %1070 : tensor<1x32x64xcomplex<f32>>
    %1072 = stablehlo.real %1071 : (tensor<1x32x64xcomplex<f32>>) -> tensor<1x32x64xf32>
    %1073 = stablehlo.reshape %1072 : (tensor<1x32x64xf32>) -> tensor<1x32x64x1xf32>
    %1074 = stablehlo.imag %1071 : (tensor<1x32x64xcomplex<f32>>) -> tensor<1x32x64xf32>
    %1075 = stablehlo.reshape %1074 : (tensor<1x32x64xf32>) -> tensor<1x32x64x1xf32>
    %1076 = stablehlo.concatenate %1073, %1075, dim = 3 : (tensor<1x32x64x1xf32>, tensor<1x32x64x1xf32>) -> tensor<1x32x64x2xf32>
    %1077 = stablehlo.reshape %1076 : (tensor<1x32x64x2xf32>) -> tensor<1x32x128xf32>
    %1078 = "stablehlo.scatter"(%arg254, %1061, %1077) ({
    ^bb0(%arg362: tensor<f32>, %arg363: tensor<f32>):
      stablehlo.return %arg363 : tensor<f32>
    }) {indices_are_sorted = false, scatter_dimension_numbers = #stablehlo.scatter<update_window_dims = [1, 2], inserted_window_dims = [0], scatter_dims_to_operand_dims = [0], index_vector_dim = 1>, unique_indices = false} : (tensor<2304x32x128xf32>, tensor<1x1xi64>, tensor<1x32x128xf32>) -> tensor<2304x32x128xf32>
    %1079 = stablehlo.convert %arg7 : (tensor<2049xi64>) -> tensor<2049xui32>
    %1080 = "stablehlo.gather"(%1078, %1079) {dimension_numbers = #stablehlo.gather<offset_dims = [1, 2], collapsed_slice_dims = [0], start_index_map = [0], index_vector_dim = 1>, indices_are_sorted = false, slice_sizes = dense<[1, 32, 128]> : tensor<3xi64>} : (tensor<2304x32x128xf32>, tensor<2049xui32>) -> tensor<2049x32x128xf32>
    %1081 = stablehlo.transpose %1080, dims = [1, 2, 0] : (tensor<2049x32x128xf32>) -> tensor<32x128x2049xf32>
    %1082 = stablehlo.dot_general %1056, %1081, batching_dims = [0] x [0], contracting_dims = [2] x [1], precision = [DEFAULT, DEFAULT] : (tensor<32x1x128xf32>, tensor<32x128x2049xf32>) -> tensor<32x1x2049xf32>
    %1083 = stablehlo.broadcast_in_dim %arg201, dims = [] : (tensor<f32>) -> tensor<32x1x2049xf32>
    %1084 = stablehlo.divide %1082, %1083 : tensor<32x1x2049xf32>
    %1085 = stablehlo.reduce(%1084 init: %3) across dimensions = [2] : (tensor<32x1x2049xf32>, tensor<f32>) -> tensor<32x1xf32>
     reducer(%arg362: tensor<f32>, %arg363: tensor<f32>)  {
      %3287 = stablehlo.maximum %arg362, %arg363 : tensor<f32>
      stablehlo.return %3287 : tensor<f32>
    }
    %1086 = stablehlo.broadcast_in_dim %1085, dims = [0, 1] : (tensor<32x1xf32>) -> tensor<32x1x2049xf32>
    %1087 = stablehlo.subtract %1084, %1086 : tensor<32x1x2049xf32>
    %1088 = stablehlo.exponential %1087 : tensor<32x1x2049xf32>
    %1089 = stablehlo.reduce(%1088 init: %4) across dimensions = [2] : (tensor<32x1x2049xf32>, tensor<f32>) -> tensor<32x1xf32>
     reducer(%arg362: tensor<f32>, %arg363: tensor<f32>)  {
      %3287 = stablehlo.add %arg362, %arg363 : tensor<f32>
      stablehlo.return %3287 : tensor<f32>
    }
    %1090 = stablehlo.broadcast_in_dim %1089, dims = [0, 1] : (tensor<32x1xf32>) -> tensor<32x1x2049xf32>
    %1091 = stablehlo.divide %1088, %1090 : tensor<32x1x2049xf32>
    %1092 = stablehlo.compare  LT, %arg198, %2 : (tensor<1xi64>, tensor<1xi64>) -> tensor<1xi1>
    %1093 = stablehlo.reshape %arg199 : (tensor<i64>) -> tensor<1xi64>
    %1094 = stablehlo.add %arg198, %1093 : tensor<1xi64>
    %1095 = stablehlo.select %1092, %1094, %arg198 : tensor<1xi1>, tensor<1xi64>
    %1096 = stablehlo.reshape %1095 : (tensor<1xi64>) -> tensor<1x1xi64>
    %1097 = stablehlo.transpose %arg134, dims = [1, 0] {result_layout = dense<[0, 1]> : tensor<2xindex>, xla_shape = "f32[4096,4096]{0,1}"} : (tensor<4096x4096xf32>) -> tensor<4096x4096xf32>
    %1098 = stablehlo.dot %1040, %1097, precision = [DEFAULT, DEFAULT] : (tensor<1x4096xf32>, tensor<4096x4096xf32>) -> tensor<1x4096xf32>
    %1099 = stablehlo.reshape %1098 : (tensor<1x4096xf32>) -> tensor<1x32x128xf32>
    %1100 = "stablehlo.scatter"(%arg252, %1096, %1099) ({
    ^bb0(%arg362: tensor<f32>, %arg363: tensor<f32>):
      stablehlo.return %arg363 : tensor<f32>
    }) {indices_are_sorted = false, scatter_dimension_numbers = #stablehlo.scatter<update_window_dims = [1, 2], inserted_window_dims = [0], scatter_dims_to_operand_dims = [0], index_vector_dim = 1>, unique_indices = false} : (tensor<2304x32x128xf32>, tensor<1x1xi64>, tensor<1x32x128xf32>) -> tensor<2304x32x128xf32>
    %1101 = stablehlo.convert %arg7 : (tensor<2049xi64>) -> tensor<2049xui32>
    %1102 = "stablehlo.gather"(%1100, %1101) {dimension_numbers = #stablehlo.gather<offset_dims = [1, 2], collapsed_slice_dims = [0], start_index_map = [0], index_vector_dim = 1>, indices_are_sorted = false, slice_sizes = dense<[1, 32, 128]> : tensor<3xi64>} : (tensor<2304x32x128xf32>, tensor<2049xui32>) -> tensor<2049x32x128xf32>
    %1103 = stablehlo.transpose %1102, dims = [1, 0, 2] {result_layout = dense<[2, 0, 1]> : tensor<3xindex>, xla_shape = "f32[32,2049,128]{2,0,1}"} : (tensor<2049x32x128xf32>) -> tensor<32x2049x128xf32>
    %1104 = stablehlo.dot_general %1091, %1103, batching_dims = [0] x [0], contracting_dims = [2] x [1], precision = [DEFAULT, DEFAULT] : (tensor<32x1x2049xf32>, tensor<32x2049x128xf32>) -> tensor<32x1x128xf32>
    %1105 = stablehlo.reshape %1104 : (tensor<32x1x128xf32>) -> tensor<1x4096xf32>
    %1106 = stablehlo.transpose %arg133, dims = [1, 0] {result_layout = dense<[0, 1]> : tensor<2xindex>, xla_shape = "f32[4096,4096]{0,1}"} : (tensor<4096x4096xf32>) -> tensor<4096x4096xf32>
    %1107 = stablehlo.dot %1105, %1106, precision = [DEFAULT, DEFAULT] : (tensor<1x4096xf32>, tensor<4096x4096xf32>) -> tensor<1x4096xf32>
    %1108 = stablehlo.add %1028, %1107 : tensor<1x4096xf32>
    %1109 = stablehlo.power %1108, %1 : tensor<1x4096xf32>
    %1110 = stablehlo.reduce(%1109 init: %4) across dimensions = [1] : (tensor<1x4096xf32>, tensor<f32>) -> tensor<1xf32>
     reducer(%arg362: tensor<f32>, %arg363: tensor<f32>)  {
      %3287 = stablehlo.add %arg362, %arg363 : tensor<f32>
      stablehlo.return %3287 : tensor<f32>
    }
    %1111 = stablehlo.multiply %1110, %0 : tensor<1xf32>
    %1112 = stablehlo.reshape %1111 : (tensor<1xf32>) -> tensor<1x1xf32>
    %1113 = stablehlo.reshape %arg2 : (tensor<f32>) -> tensor<1x1xf32>
    %1114 = stablehlo.add %1112, %1113 : tensor<1x1xf32>
    %1115 = stablehlo.rsqrt %1114 : tensor<1x1xf32>
    %1116 = stablehlo.reshape %1115 : (tensor<1x1xf32>) -> tensor<1xf32>
    %1117 = stablehlo.broadcast_in_dim %1116, dims = [0] : (tensor<1xf32>) -> tensor<1x4096xf32>
    %1118 = stablehlo.multiply %1108, %1117 : tensor<1x4096xf32>
    %1119 = stablehlo.reshape %arg132 : (tensor<4096xf32>) -> tensor<1x4096xf32>
    %1120 = stablehlo.multiply %1118, %1119 : tensor<1x4096xf32>
    %1121 = stablehlo.transpose %arg256, dims = [1, 0] {result_layout = dense<[0, 1]> : tensor<2xindex>, xla_shape = "f32[4096,11008]{0,1}"} : (tensor<11008x4096xf32>) -> tensor<4096x11008xf32>
    %1122 = stablehlo.dot %1120, %1121, precision = [DEFAULT, DEFAULT] : (tensor<1x4096xf32>, tensor<4096x11008xf32>) -> tensor<1x11008xf32>
    %1123 = stablehlo.logistic %1122 : tensor<1x11008xf32>
    %1124 = stablehlo.multiply %1122, %1123 : tensor<1x11008xf32>
    %1125 = stablehlo.transpose %arg131, dims = [1, 0] {result_layout = dense<[0, 1]> : tensor<2xindex>, xla_shape = "f32[4096,11008]{0,1}"} : (tensor<11008x4096xf32>) -> tensor<4096x11008xf32>
    %1126 = stablehlo.dot %1120, %1125, precision = [DEFAULT, DEFAULT] : (tensor<1x4096xf32>, tensor<4096x11008xf32>) -> tensor<1x11008xf32>
    %1127 = stablehlo.multiply %1124, %1126 : tensor<1x11008xf32>
    %1128 = stablehlo.transpose %arg130, dims = [1, 0] {result_layout = dense<[0, 1]> : tensor<2xindex>, xla_shape = "f32[11008,4096]{0,1}"} : (tensor<4096x11008xf32>) -> tensor<11008x4096xf32>
    %1129 = stablehlo.dot %1127, %1128, precision = [DEFAULT, DEFAULT] : (tensor<1x11008xf32>, tensor<11008x4096xf32>) -> tensor<1x4096xf32>
    %1130 = stablehlo.add %1108, %1129 : tensor<1x4096xf32>
    %1131 = stablehlo.power %1130, %1 : tensor<1x4096xf32>
    %1132 = stablehlo.reduce(%1131 init: %4) across dimensions = [1] : (tensor<1x4096xf32>, tensor<f32>) -> tensor<1xf32>
     reducer(%arg362: tensor<f32>, %arg363: tensor<f32>)  {
      %3287 = stablehlo.add %arg362, %arg363 : tensor<f32>
      stablehlo.return %3287 : tensor<f32>
    }
    %1133 = stablehlo.multiply %1132, %0 : tensor<1xf32>
    %1134 = stablehlo.reshape %1133 : (tensor<1xf32>) -> tensor<1x1xf32>
    %1135 = stablehlo.reshape %arg2 : (tensor<f32>) -> tensor<1x1xf32>
    %1136 = stablehlo.add %1134, %1135 : tensor<1x1xf32>
    %1137 = stablehlo.rsqrt %1136 : tensor<1x1xf32>
    %1138 = stablehlo.reshape %1137 : (tensor<1x1xf32>) -> tensor<1xf32>
    %1139 = stablehlo.broadcast_in_dim %1138, dims = [0] : (tensor<1xf32>) -> tensor<1x4096xf32>
    %1140 = stablehlo.multiply %1130, %1139 : tensor<1x4096xf32>
    %1141 = stablehlo.reshape %arg129 : (tensor<4096xf32>) -> tensor<1x4096xf32>
    %1142 = stablehlo.multiply %1140, %1141 : tensor<1x4096xf32>
    %1143 = stablehlo.transpose %arg260, dims = [1, 0] {result_layout = dense<[0, 1]> : tensor<2xindex>, xla_shape = "f32[4096,4096]{0,1}"} : (tensor<4096x4096xf32>) -> tensor<4096x4096xf32>
    %1144 = stablehlo.dot %1142, %1143, precision = [DEFAULT, DEFAULT] : (tensor<1x4096xf32>, tensor<4096x4096xf32>) -> tensor<1x4096xf32>
    %1145 = stablehlo.reshape %1144 : (tensor<1x4096xf32>) -> tensor<1x32x64x2xf32>
    %1146 = stablehlo.slice %1145 [0:1, 0:32, 0:64, 0:1] : (tensor<1x32x64x2xf32>) -> tensor<1x32x64x1xf32>
    %1147 = stablehlo.reshape %1146 : (tensor<1x32x64x1xf32>) -> tensor<1x32x64xf32>
    %1148 = stablehlo.slice %1145 [0:1, 0:32, 0:64, 1:2] : (tensor<1x32x64x2xf32>) -> tensor<1x32x64x1xf32>
    %1149 = stablehlo.reshape %1148 : (tensor<1x32x64x1xf32>) -> tensor<1x32x64xf32>
    %1150 = stablehlo.complex %1147, %1149 : tensor<1x32x64xcomplex<f32>>
    %1151 = stablehlo.broadcast_in_dim %28, dims = [0, 2] : (tensor<1x64xcomplex<f32>>) -> tensor<1x32x64xcomplex<f32>>
    %1152 = stablehlo.multiply %1150, %1151 : tensor<1x32x64xcomplex<f32>>
    %1153 = stablehlo.real %1152 : (tensor<1x32x64xcomplex<f32>>) -> tensor<1x32x64xf32>
    %1154 = stablehlo.reshape %1153 : (tensor<1x32x64xf32>) -> tensor<1x32x64x1xf32>
    %1155 = stablehlo.imag %1152 : (tensor<1x32x64xcomplex<f32>>) -> tensor<1x32x64xf32>
    %1156 = stablehlo.reshape %1155 : (tensor<1x32x64xf32>) -> tensor<1x32x64x1xf32>
    %1157 = stablehlo.concatenate %1154, %1156, dim = 3 : (tensor<1x32x64x1xf32>, tensor<1x32x64x1xf32>) -> tensor<1x32x64x2xf32>
    %1158 = stablehlo.reshape %1157 : (tensor<1x32x64x2xf32>) -> tensor<32x1x128xf32>
    %1159 = stablehlo.compare  LT, %arg198, %2 : (tensor<1xi64>, tensor<1xi64>) -> tensor<1xi1>
    %1160 = stablehlo.reshape %arg199 : (tensor<i64>) -> tensor<1xi64>
    %1161 = stablehlo.add %arg198, %1160 : tensor<1xi64>
    %1162 = stablehlo.select %1159, %1161, %arg198 : tensor<1xi1>, tensor<1xi64>
    %1163 = stablehlo.reshape %1162 : (tensor<1xi64>) -> tensor<1x1xi64>
    %1164 = stablehlo.transpose %arg258, dims = [1, 0] {result_layout = dense<[0, 1]> : tensor<2xindex>, xla_shape = "f32[4096,4096]{0,1}"} : (tensor<4096x4096xf32>) -> tensor<4096x4096xf32>
    %1165 = stablehlo.dot %1142, %1164, precision = [DEFAULT, DEFAULT] : (tensor<1x4096xf32>, tensor<4096x4096xf32>) -> tensor<1x4096xf32>
    %1166 = stablehlo.reshape %1165 : (tensor<1x4096xf32>) -> tensor<1x32x64x2xf32>
    %1167 = stablehlo.slice %1166 [0:1, 0:32, 0:64, 0:1] : (tensor<1x32x64x2xf32>) -> tensor<1x32x64x1xf32>
    %1168 = stablehlo.reshape %1167 : (tensor<1x32x64x1xf32>) -> tensor<1x32x64xf32>
    %1169 = stablehlo.slice %1166 [0:1, 0:32, 0:64, 1:2] : (tensor<1x32x64x2xf32>) -> tensor<1x32x64x1xf32>
    %1170 = stablehlo.reshape %1169 : (tensor<1x32x64x1xf32>) -> tensor<1x32x64xf32>
    %1171 = stablehlo.complex %1168, %1170 : tensor<1x32x64xcomplex<f32>>
    %1172 = stablehlo.broadcast_in_dim %28, dims = [0, 2] : (tensor<1x64xcomplex<f32>>) -> tensor<1x32x64xcomplex<f32>>
    %1173 = stablehlo.multiply %1171, %1172 : tensor<1x32x64xcomplex<f32>>
    %1174 = stablehlo.real %1173 : (tensor<1x32x64xcomplex<f32>>) -> tensor<1x32x64xf32>
    %1175 = stablehlo.reshape %1174 : (tensor<1x32x64xf32>) -> tensor<1x32x64x1xf32>
    %1176 = stablehlo.imag %1173 : (tensor<1x32x64xcomplex<f32>>) -> tensor<1x32x64xf32>
    %1177 = stablehlo.reshape %1176 : (tensor<1x32x64xf32>) -> tensor<1x32x64x1xf32>
    %1178 = stablehlo.concatenate %1175, %1177, dim = 3 : (tensor<1x32x64x1xf32>, tensor<1x32x64x1xf32>) -> tensor<1x32x64x2xf32>
    %1179 = stablehlo.reshape %1178 : (tensor<1x32x64x2xf32>) -> tensor<1x32x128xf32>
    %1180 = "stablehlo.scatter"(%arg259, %1163, %1179) ({
    ^bb0(%arg362: tensor<f32>, %arg363: tensor<f32>):
      stablehlo.return %arg363 : tensor<f32>
    }) {indices_are_sorted = false, scatter_dimension_numbers = #stablehlo.scatter<update_window_dims = [1, 2], inserted_window_dims = [0], scatter_dims_to_operand_dims = [0], index_vector_dim = 1>, unique_indices = false} : (tensor<2304x32x128xf32>, tensor<1x1xi64>, tensor<1x32x128xf32>) -> tensor<2304x32x128xf32>
    %1181 = stablehlo.convert %arg7 : (tensor<2049xi64>) -> tensor<2049xui32>
    %1182 = "stablehlo.gather"(%1180, %1181) {dimension_numbers = #stablehlo.gather<offset_dims = [1, 2], collapsed_slice_dims = [0], start_index_map = [0], index_vector_dim = 1>, indices_are_sorted = false, slice_sizes = dense<[1, 32, 128]> : tensor<3xi64>} : (tensor<2304x32x128xf32>, tensor<2049xui32>) -> tensor<2049x32x128xf32>
    %1183 = stablehlo.transpose %1182, dims = [1, 2, 0] : (tensor<2049x32x128xf32>) -> tensor<32x128x2049xf32>
    %1184 = stablehlo.dot_general %1158, %1183, batching_dims = [0] x [0], contracting_dims = [2] x [1], precision = [DEFAULT, DEFAULT] : (tensor<32x1x128xf32>, tensor<32x128x2049xf32>) -> tensor<32x1x2049xf32>
    %1185 = stablehlo.broadcast_in_dim %arg201, dims = [] : (tensor<f32>) -> tensor<32x1x2049xf32>
    %1186 = stablehlo.divide %1184, %1185 : tensor<32x1x2049xf32>
    %1187 = stablehlo.reduce(%1186 init: %3) across dimensions = [2] : (tensor<32x1x2049xf32>, tensor<f32>) -> tensor<32x1xf32>
     reducer(%arg362: tensor<f32>, %arg363: tensor<f32>)  {
      %3287 = stablehlo.maximum %arg362, %arg363 : tensor<f32>
      stablehlo.return %3287 : tensor<f32>
    }
    %1188 = stablehlo.broadcast_in_dim %1187, dims = [0, 1] : (tensor<32x1xf32>) -> tensor<32x1x2049xf32>
    %1189 = stablehlo.subtract %1186, %1188 : tensor<32x1x2049xf32>
    %1190 = stablehlo.exponential %1189 : tensor<32x1x2049xf32>
    %1191 = stablehlo.reduce(%1190 init: %4) across dimensions = [2] : (tensor<32x1x2049xf32>, tensor<f32>) -> tensor<32x1xf32>
     reducer(%arg362: tensor<f32>, %arg363: tensor<f32>)  {
      %3287 = stablehlo.add %arg362, %arg363 : tensor<f32>
      stablehlo.return %3287 : tensor<f32>
    }
…
    %2877 = stablehlo.transpose %arg345, dims = [1, 0] {result_layout = dense<[0, 1]> : tensor<2xindex>, xla_shape = "f32[4096,4096]{0,1}"} : (tensor<4096x4096xf32>) -> tensor<4096x4096xf32>
    %2878 = stablehlo.dot %2876, %2877, precision = [DEFAULT, DEFAULT] : (tensor<1x4096xf32>, tensor<4096x4096xf32>) -> tensor<1x4096xf32>
    %2879 = stablehlo.reshape %2878 : (tensor<1x4096xf32>) -> tensor<1x32x64x2xf32>
    %2880 = stablehlo.slice %2879 [0:1, 0:32, 0:64, 0:1] : (tensor<1x32x64x2xf32>) -> tensor<1x32x64x1xf32>
    %2881 = stablehlo.reshape %2880 : (tensor<1x32x64x1xf32>) -> tensor<1x32x64xf32>
    %2882 = stablehlo.slice %2879 [0:1, 0:32, 0:64, 1:2] : (tensor<1x32x64x2xf32>) -> tensor<1x32x64x1xf32>
    %2883 = stablehlo.reshape %2882 : (tensor<1x32x64x1xf32>) -> tensor<1x32x64xf32>
    %2884 = stablehlo.complex %2881, %2883 : tensor<1x32x64xcomplex<f32>>
    %2885 = stablehlo.broadcast_in_dim %28, dims = [0, 2] : (tensor<1x64xcomplex<f32>>) -> tensor<1x32x64xcomplex<f32>>
    %2886 = stablehlo.multiply %2884, %2885 : tensor<1x32x64xcomplex<f32>>
    %2887 = stablehlo.real %2886 : (tensor<1x32x64xcomplex<f32>>) -> tensor<1x32x64xf32>
    %2888 = stablehlo.reshape %2887 : (tensor<1x32x64xf32>) -> tensor<1x32x64x1xf32>
    %2889 = stablehlo.imag %2886 : (tensor<1x32x64xcomplex<f32>>) -> tensor<1x32x64xf32>
    %2890 = stablehlo.reshape %2889 : (tensor<1x32x64xf32>) -> tensor<1x32x64x1xf32>
    %2891 = stablehlo.concatenate %2888, %2890, dim = 3 : (tensor<1x32x64x1xf32>, tensor<1x32x64x1xf32>) -> tensor<1x32x64x2xf32>
    %2892 = stablehlo.reshape %2891 : (tensor<1x32x64x2xf32>) -> tensor<32x1x128xf32>
    %2893 = stablehlo.compare  LT, %arg198, %2 : (tensor<1xi64>, tensor<1xi64>) -> tensor<1xi1>
    %2894 = stablehlo.reshape %arg199 : (tensor<i64>) -> tensor<1xi64>
    %2895 = stablehlo.add %arg198, %2894 : tensor<1xi64>
    %2896 = stablehlo.select %2893, %2895, %arg198 : tensor<1xi1>, tensor<1xi64>
    %2897 = stablehlo.reshape %2896 : (tensor<1xi64>) -> tensor<1x1xi64>
    %2898 = stablehlo.transpose %arg343, dims = [1, 0] {result_layout = dense<[0, 1]> : tensor<2xindex>, xla_shape = "f32[4096,4096]{0,1}"} : (tensor<4096x4096xf32>) -> tensor<4096x4096xf32>
    %2899 = stablehlo.dot %2876, %2898, precision = [DEFAULT, DEFAULT] : (tensor<1x4096xf32>, tensor<4096x4096xf32>) -> tensor<1x4096xf32>
    %2900 = stablehlo.reshape %2899 : (tensor<1x4096xf32>) -> tensor<1x32x64x2xf32>
    %2901 = stablehlo.slice %2900 [0:1, 0:32, 0:64, 0:1] : (tensor<1x32x64x2xf32>) -> tensor<1x32x64x1xf32>
    %2902 = stablehlo.reshape %2901 : (tensor<1x32x64x1xf32>) -> tensor<1x32x64xf32>
    %2903 = stablehlo.slice %2900 [0:1, 0:32, 0:64, 1:2] : (tensor<1x32x64x2xf32>) -> tensor<1x32x64x1xf32>
    %2904 = stablehlo.reshape %2903 : (tensor<1x32x64x1xf32>) -> tensor<1x32x64xf32>
    %2905 = stablehlo.complex %2902, %2904 : tensor<1x32x64xcomplex<f32>>
    %2906 = stablehlo.broadcast_in_dim %28, dims = [0, 2] : (tensor<1x64xcomplex<f32>>) -> tensor<1x32x64xcomplex<f32>>
    %2907 = stablehlo.multiply %2905, %2906 : tensor<1x32x64xcomplex<f32>>
    %2908 = stablehlo.real %2907 : (tensor<1x32x64xcomplex<f32>>) -> tensor<1x32x64xf32>
    %2909 = stablehlo.reshape %2908 : (tensor<1x32x64xf32>) -> tensor<1x32x64x1xf32>
    %2910 = stablehlo.imag %2907 : (tensor<1x32x64xcomplex<f32>>) -> tensor<1x32x64xf32>
    %2911 = stablehlo.reshape %2910 : (tensor<1x32x64xf32>) -> tensor<1x32x64x1xf32>
    %2912 = stablehlo.concatenate %2909, %2911, dim = 3 : (tensor<1x32x64x1xf32>, tensor<1x32x64x1xf32>) -> tensor<1x32x64x2xf32>
    %2913 = stablehlo.reshape %2912 : (tensor<1x32x64x2xf32>) -> tensor<1x32x128xf32>
    %2914 = "stablehlo.scatter"(%arg344, %2897, %2913) ({
    ^bb0(%arg362: tensor<f32>, %arg363: tensor<f32>):
      stablehlo.return %arg363 : tensor<f32>
    }) {indices_are_sorted = false, scatter_dimension_numbers = #stablehlo.scatter<update_window_dims = [1, 2], inserted_window_dims = [0], scatter_dims_to_operand_dims = [0], index_vector_dim = 1>, unique_indices = false} : (tensor<2304x32x128xf32>, tensor<1x1xi64>, tensor<1x32x128xf32>) -> tensor<2304x32x128xf32>
    %2915 = stablehlo.convert %arg7 : (tensor<2049xi64>) -> tensor<2049xui32>
    %2916 = "stablehlo.gather"(%2914, %2915) {dimension_numbers = #stablehlo.gather<offset_dims = [1, 2], collapsed_slice_dims = [0], start_index_map = [0], index_vector_dim = 1>, indices_are_sorted = false, slice_sizes = dense<[1, 32, 128]> : tensor<3xi64>} : (tensor<2304x32x128xf32>, tensor<2049xui32>) -> tensor<2049x32x128xf32>
    %2917 = stablehlo.transpose %2916, dims = [1, 2, 0] : (tensor<2049x32x128xf32>) -> tensor<32x128x2049xf32>
    %2918 = stablehlo.dot_general %2892, %2917, batching_dims = [0] x [0], contracting_dims = [2] x [1], precision = [DEFAULT, DEFAULT] : (tensor<32x1x128xf32>, tensor<32x128x2049xf32>) -> tensor<32x1x2049xf32>
    %2919 = stablehlo.broadcast_in_dim %arg201, dims = [] : (tensor<f32>) -> tensor<32x1x2049xf32>
    %2920 = stablehlo.divide %2918, %2919 : tensor<32x1x2049xf32>
    %2921 = stablehlo.reduce(%2920 init: %3) across dimensions = [2] : (tensor<32x1x2049xf32>, tensor<f32>) -> tensor<32x1xf32>
     reducer(%arg362: tensor<f32>, %arg363: tensor<f32>)  {
      %3287 = stablehlo.maximum %arg362, %arg363 : tensor<f32>
      stablehlo.return %3287 : tensor<f32>
    }
    %2922 = stablehlo.broadcast_in_dim %2921, dims = [0, 1] : (tensor<32x1xf32>) -> tensor<32x1x2049xf32>
    %2923 = stablehlo.subtract %2920, %2922 : tensor<32x1x2049xf32>
    %2924 = stablehlo.exponential %2923 : tensor<32x1x2049xf32>
    %2925 = stablehlo.reduce(%2924 init: %4) across dimensions = [2] : (tensor<32x1x2049xf32>, tensor<f32>) -> tensor<32x1xf32>
     reducer(%arg362: tensor<f32>, %arg363: tensor<f32>)  {
      %3287 = stablehlo.add %arg362, %arg363 : tensor<f32>
      stablehlo.return %3287 : tensor<f32>
    }
    %2926 = stablehlo.broadcast_in_dim %2925, dims = [0, 1] : (tensor<32x1xf32>) -> tensor<32x1x2049xf32>
    %2927 = stablehlo.divide %2924, %2926 : tensor<32x1x2049xf32>
    %2928 = stablehlo.compare  LT, %arg198, %2 : (tensor<1xi64>, tensor<1xi64>) -> tensor<1xi1>
    %2929 = stablehlo.reshape %arg199 : (tensor<i64>) -> tensor<1xi64>
    %2930 = stablehlo.add %arg198, %2929 : tensor<1xi64>
    %2931 = stablehlo.select %2928, %2930, %arg198 : tensor<1xi1>, tensor<1xi64>
    %2932 = stablehlo.reshape %2931 : (tensor<1xi64>) -> tensor<1x1xi64>
    %2933 = stablehlo.transpose %arg26, dims = [1, 0] {result_layout = dense<[0, 1]> : tensor<2xindex>, xla_shape = "f32[4096,4096]{0,1}"} : (tensor<4096x4096xf32>) -> tensor<4096x4096xf32>
    %2934 = stablehlo.dot %2876, %2933, precision = [DEFAULT, DEFAULT] : (tensor<1x4096xf32>, tensor<4096x4096xf32>) -> tensor<1x4096xf32>
    %2935 = stablehlo.reshape %2934 : (tensor<1x4096xf32>) -> tensor<1x32x128xf32>
    %2936 = "stablehlo.scatter"(%arg342, %2932, %2935) ({
    ^bb0(%arg362: tensor<f32>, %arg363: tensor<f32>):
      stablehlo.return %arg363 : tensor<f32>
    }) {indices_are_sorted = false, scatter_dimension_numbers = #stablehlo.scatter<update_window_dims = [1, 2], inserted_window_dims = [0], scatter_dims_to_operand_dims = [0], index_vector_dim = 1>, unique_indices = false} : (tensor<2304x32x128xf32>, tensor<1x1xi64>, tensor<1x32x128xf32>) -> tensor<2304x32x128xf32>
    %2937 = stablehlo.convert %arg7 : (tensor<2049xi64>) -> tensor<2049xui32>
    %2938 = "stablehlo.gather"(%2936, %2937) {dimension_numbers = #stablehlo.gather<offset_dims = [1, 2], collapsed_slice_dims = [0], start_index_map = [0], index_vector_dim = 1>, indices_are_sorted = false, slice_sizes = dense<[1, 32, 128]> : tensor<3xi64>} : (tensor<2304x32x128xf32>, tensor<2049xui32>) -> tensor<2049x32x128xf32>
    %2939 = stablehlo.transpose %2938, dims = [1, 0, 2] {result_layout = dense<[2, 0, 1]> : tensor<3xindex>, xla_shape = "f32[32,2049,128]{2,0,1}"} : (tensor<2049x32x128xf32>) -> tensor<32x2049x128xf32>
    %2940 = stablehlo.dot_general %2927, %2939, batching_dims = [0] x [0], contracting_dims = [2] x [1], precision = [DEFAULT, DEFAULT] : (tensor<32x1x2049xf32>, tensor<32x2049x128xf32>) -> tensor<32x1x128xf32>
    %2941 = stablehlo.reshape %2940 : (tensor<32x1x128xf32>) -> tensor<1x4096xf32>
    %2942 = stablehlo.transpose %arg25, dims = [1, 0] {result_layout = dense<[0, 1]> : tensor<2xindex>, xla_shape = "f32[4096,4096]{0,1}"} : (tensor<4096x4096xf32>) -> tensor<4096x4096xf32>
    %2943 = stablehlo.dot %2941, %2942, precision = [DEFAULT, DEFAULT] : (tensor<1x4096xf32>, tensor<4096x4096xf32>) -> tensor<1x4096xf32>
    %2944 = stablehlo.add %2864, %2943 : tensor<1x4096xf32>
    %2945 = stablehlo.power %2944, %1 : tensor<1x4096xf32>
    %2946 = stablehlo.reduce(%2945 init: %4) across dimensions = [1] : (tensor<1x4096xf32>, tensor<f32>) -> tensor<1xf32>
     reducer(%arg362: tensor<f32>, %arg363: tensor<f32>)  {
      %3287 = stablehlo.add %arg362, %arg363 : tensor<f32>
      stablehlo.return %3287 : tensor<f32>
    }
    %2947 = stablehlo.multiply %2946, %0 : tensor<1xf32>
    %2948 = stablehlo.reshape %2947 : (tensor<1xf32>) -> tensor<1x1xf32>
    %2949 = stablehlo.reshape %arg2 : (tensor<f32>) -> tensor<1x1xf32>
    %2950 = stablehlo.add %2948, %2949 : tensor<1x1xf32>
    %2951 = stablehlo.rsqrt %2950 : tensor<1x1xf32>
    %2952 = stablehlo.reshape %2951 : (tensor<1x1xf32>) -> tensor<1xf32>
    %2953 = stablehlo.broadcast_in_dim %2952, dims = [0] : (tensor<1xf32>) -> tensor<1x4096xf32>
    %2954 = stablehlo.multiply %2944, %2953 : tensor<1x4096xf32>
    %2955 = stablehlo.reshape %arg24 : (tensor<4096xf32>) -> tensor<1x4096xf32>
    %2956 = stablehlo.multiply %2954, %2955 : tensor<1x4096xf32>
    %2957 = stablehlo.transpose %arg346, dims = [1, 0] {result_layout = dense<[0, 1]> : tensor<2xindex>, xla_shape = "f32[4096,11008]{0,1}"} : (tensor<11008x4096xf32>) -> tensor<4096x11008xf32>
    %2958 = stablehlo.dot %2956, %2957, precision = [DEFAULT, DEFAULT] : (tensor<1x4096xf32>, tensor<4096x11008xf32>) -> tensor<1x11008xf32>
    %2959 = stablehlo.logistic %2958 : tensor<1x11008xf32>
    %2960 = stablehlo.multiply %2958, %2959 : tensor<1x11008xf32>
    %2961 = stablehlo.transpose %arg23, dims = [1, 0] {result_layout = dense<[0, 1]> : tensor<2xindex>, xla_shape = "f32[4096,11008]{0,1}"} : (tensor<11008x4096xf32>) -> tensor<4096x11008xf32>
    %2962 = stablehlo.dot %2956, %2961, precision = [DEFAULT, DEFAULT] : (tensor<1x4096xf32>, tensor<4096x11008xf32>) -> tensor<1x11008xf32>
    %2963 = stablehlo.multiply %2960, %2962 : tensor<1x11008xf32>
    %2964 = stablehlo.transpose %arg22, dims = [1, 0] {result_layout = dense<[0, 1]> : tensor<2xindex>, xla_shape = "f32[11008,4096]{0,1}"} : (tensor<4096x11008xf32>) -> tensor<11008x4096xf32>
    %2965 = stablehlo.dot %2963, %2964, precision = [DEFAULT, DEFAULT] : (tensor<1x11008xf32>, tensor<11008x4096xf32>) -> tensor<1x4096xf32>
    %2966 = stablehlo.add %2944, %2965 : tensor<1x4096xf32>
    %2967 = stablehlo.power %2966, %1 : tensor<1x4096xf32>
    %2968 = stablehlo.reduce(%2967 init: %4) across dimensions = [1] : (tensor<1x4096xf32>, tensor<f32>) -> tensor<1xf32>
     reducer(%arg362: tensor<f32>, %arg363: tensor<f32>)  {
      %3287 = stablehlo.add %arg362, %arg363 : tensor<f32>
      stablehlo.return %3287 : tensor<f32>
    }
    %2969 = stablehlo.multiply %2968, %0 : tensor<1xf32>
    %2970 = stablehlo.reshape %2969 : (tensor<1xf32>) -> tensor<1x1xf32>
    %2971 = stablehlo.reshape %arg2 : (tensor<f32>) -> tensor<1x1xf32>
    %2972 = stablehlo.add %2970, %2971 : tensor<1x1xf32>
    %2973 = stablehlo.rsqrt %2972 : tensor<1x1xf32>
    %2974 = stablehlo.reshape %2973 : (tensor<1x1xf32>) -> tensor<1xf32>
    %2975 = stablehlo.broadcast_in_dim %2974, dims = [0] : (tensor<1xf32>) -> tensor<1x4096xf32>
    %2976 = stablehlo.multiply %2966, %2975 : tensor<1x4096xf32>
    %2977 = stablehlo.reshape %arg21 : (tensor<4096xf32>) -> tensor<1x4096xf32>
    %2978 = stablehlo.multiply %2976, %2977 : tensor<1x4096xf32>
    %2979 = stablehlo.transpose %arg350, dims = [1, 0] {result_layout = dense<[0, 1]> : tensor<2xindex>, xla_shape = "f32[4096,4096]{0,1}"} : (tensor<4096x4096xf32>) -> tensor<4096x4096xf32>
    %2980 = stablehlo.dot %2978, %2979, precision = [DEFAULT, DEFAULT] : (tensor<1x4096xf32>, tensor<4096x4096xf32>) -> tensor<1x4096xf32>
    %2981 = stablehlo.reshape %2980 : (tensor<1x4096xf32>) -> tensor<1x32x64x2xf32>
    %2982 = stablehlo.slice %2981 [0:1, 0:32, 0:64, 0:1] : (tensor<1x32x64x2xf32>) -> tensor<1x32x64x1xf32>
    %2983 = stablehlo.reshape %2982 : (tensor<1x32x64x1xf32>) -> tensor<1x32x64xf32>
    %2984 = stablehlo.slice %2981 [0:1, 0:32, 0:64, 1:2] : (tensor<1x32x64x2xf32>) -> tensor<1x32x64x1xf32>
    %2985 = stablehlo.reshape %2984 : (tensor<1x32x64x1xf32>) -> tensor<1x32x64xf32>
    %2986 = stablehlo.complex %2983, %2985 : tensor<1x32x64xcomplex<f32>>
    %2987 = stablehlo.broadcast_in_dim %28, dims = [0, 2] : (tensor<1x64xcomplex<f32>>) -> tensor<1x32x64xcomplex<f32>>
    %2988 = stablehlo.multiply %2986, %2987 : tensor<1x32x64xcomplex<f32>>
    %2989 = stablehlo.real %2988 : (tensor<1x32x64xcomplex<f32>>) -> tensor<1x32x64xf32>
    %2990 = stablehlo.reshape %2989 : (tensor<1x32x64xf32>) -> tensor<1x32x64x1xf32>
    %2991 = stablehlo.imag %2988 : (tensor<1x32x64xcomplex<f32>>) -> tensor<1x32x64xf32>
    %2992 = stablehlo.reshape %2991 : (tensor<1x32x64xf32>) -> tensor<1x32x64x1xf32>
    %2993 = stablehlo.concatenate %2990, %2992, dim = 3 : (tensor<1x32x64x1xf32>, tensor<1x32x64x1xf32>) -> tensor<1x32x64x2xf32>
    %2994 = stablehlo.reshape %2993 : (tensor<1x32x64x2xf32>) -> tensor<32x1x128xf32>
    %2995 = stablehlo.compare  LT, %arg198, %2 : (tensor<1xi64>, tensor<1xi64>) -> tensor<1xi1>
    %2996 = stablehlo.reshape %arg199 : (tensor<i64>) -> tensor<1xi64>
    %2997 = stablehlo.add %arg198, %2996 : tensor<1xi64>
    %2998 = stablehlo.select %2995, %2997, %arg198 : tensor<1xi1>, tensor<1xi64>
    %2999 = stablehlo.reshape %2998 : (tensor<1xi64>) -> tensor<1x1xi64>
    %3000 = stablehlo.transpose %arg348, dims = [1, 0] {result_layout = dense<[0, 1]> : tensor<2xindex>, xla_shape = "f32[4096,4096]{0,1}"} : (tensor<4096x4096xf32>) -> tensor<4096x4096xf32>
    %3001 = stablehlo.dot %2978, %3000, precision = [DEFAULT, DEFAULT] : (tensor<1x4096xf32>, tensor<4096x4096xf32>) -> tensor<1x4096xf32>
    %3002 = stablehlo.reshape %3001 : (tensor<1x4096xf32>) -> tensor<1x32x64x2xf32>
    %3003 = stablehlo.slice %3002 [0:1, 0:32, 0:64, 0:1] : (tensor<1x32x64x2xf32>) -> tensor<1x32x64x1xf32>
    %3004 = stablehlo.reshape %3003 : (tensor<1x32x64x1xf32>) -> tensor<1x32x64xf32>
    %3005 = stablehlo.slice %3002 [0:1, 0:32, 0:64, 1:2] : (tensor<1x32x64x2xf32>) -> tensor<1x32x64x1xf32>
    %3006 = stablehlo.reshape %3005 : (tensor<1x32x64x1xf32>) -> tensor<1x32x64xf32>
    %3007 = stablehlo.complex %3004, %3006 : tensor<1x32x64xcomplex<f32>>
    %3008 = stablehlo.broadcast_in_dim %28, dims = [0, 2] : (tensor<1x64xcomplex<f32>>) -> tensor<1x32x64xcomplex<f32>>
    %3009 = stablehlo.multiply %3007, %3008 : tensor<1x32x64xcomplex<f32>>
    %3010 = stablehlo.real %3009 : (tensor<1x32x64xcomplex<f32>>) -> tensor<1x32x64xf32>
    %3011 = stablehlo.reshape %3010 : (tensor<1x32x64xf32>) -> tensor<1x32x64x1xf32>
    %3012 = stablehlo.imag %3009 : (tensor<1x32x64xcomplex<f32>>) -> tensor<1x32x64xf32>
    %3013 = stablehlo.reshape %3012 : (tensor<1x32x64xf32>) -> tensor<1x32x64x1xf32>
    %3014 = stablehlo.concatenate %3011, %3013, dim = 3 : (tensor<1x32x64x1xf32>, tensor<1x32x64x1xf32>) -> tensor<1x32x64x2xf32>
    %3015 = stablehlo.reshape %3014 : (tensor<1x32x64x2xf32>) -> tensor<1x32x128xf32>
    %3016 = "stablehlo.scatter"(%arg349, %2999, %3015) ({
    ^bb0(%arg362: tensor<f32>, %arg363: tensor<f32>):
      stablehlo.return %arg363 : tensor<f32>
    }) {indices_are_sorted = false, scatter_dimension_numbers = #stablehlo.scatter<update_window_dims = [1, 2], inserted_window_dims = [0], scatter_dims_to_operand_dims = [0], index_vector_dim = 1>, unique_indices = false} : (tensor<2304x32x128xf32>, tensor<1x1xi64>, tensor<1x32x128xf32>) -> tensor<2304x32x128xf32>
    %3017 = stablehlo.convert %arg7 : (tensor<2049xi64>) -> tensor<2049xui32>
    %3018 = "stablehlo.gather"(%3016, %3017) {dimension_numbers = #stablehlo.gather<offset_dims = [1, 2], collapsed_slice_dims = [0], start_index_map = [0], index_vector_dim = 1>, indices_are_sorted = false, slice_sizes = dense<[1, 32, 128]> : tensor<3xi64>} : (tensor<2304x32x128xf32>, tensor<2049xui32>) -> tensor<2049x32x128xf32>
    %3019 = stablehlo.transpose %3018, dims = [1, 2, 0] : (tensor<2049x32x128xf32>) -> tensor<32x128x2049xf32>
    %3020 = stablehlo.dot_general %2994, %3019, batching_dims = [0] x [0], contracting_dims = [2] x [1], precision = [DEFAULT, DEFAULT] : (tensor<32x1x128xf32>, tensor<32x128x2049xf32>) -> tensor<32x1x2049xf32>
    %3021 = stablehlo.broadcast_in_dim %arg201, dims = [] : (tensor<f32>) -> tensor<32x1x2049xf32>
    %3022 = stablehlo.divide %3020, %3021 : tensor<32x1x2049xf32>
    %3023 = stablehlo.reduce(%3022 init: %3) across dimensions = [2] : (tensor<32x1x2049xf32>, tensor<f32>) -> tensor<32x1xf32>
     reducer(%arg362: tensor<f32>, %arg363: tensor<f32>)  {
      %3287 = stablehlo.maximum %arg362, %arg363 : tensor<f32>
      stablehlo.return %3287 : tensor<f32>
    }
    %3024 = stablehlo.broadcast_in_dim %3023, dims = [0, 1] : (tensor<32x1xf32>) -> tensor<32x1x2049xf32>
    %3025 = stablehlo.subtract %3022, %3024 : tensor<32x1x2049xf32>
    %3026 = stablehlo.exponential %3025 : tensor<32x1x2049xf32>
    %3027 = stablehlo.reduce(%3026 init: %4) across dimensions = [2] : (tensor<32x1x2049xf32>, tensor<f32>) -> tensor<32x1xf32>
     reducer(%arg362: tensor<f32>, %arg363: tensor<f32>)  {
      %3287 = stablehlo.add %arg362, %arg363 : tensor<f32>
      stablehlo.return %3287 : tensor<f32>
    }
    %3028 = stablehlo.broadcast_in_dim %3027, dims = [0, 1] : (tensor<32x1xf32>) -> tensor<32x1x2049xf32>
    %3029 = stablehlo.divide %3026, %3028 : tensor<32x1x2049xf32>
    %3030 = stablehlo.compare  LT, %arg198, %2 : (tensor<1xi64>, tensor<1xi64>) -> tensor<1xi1>
    %3031 = stablehlo.reshape %arg199 : (tensor<i64>) -> tensor<1xi64>
    %3032 = stablehlo.add %arg198, %3031 : tensor<1xi64>
    %3033 = stablehlo.select %3030, %3032, %arg198 : tensor<1xi1>, tensor<1xi64>
    %3034 = stablehlo.reshape %3033 : (tensor<1xi64>) -> tensor<1x1xi64>
    %3035 = stablehlo.transpose %arg20, dims = [1, 0] {result_layout = dense<[0, 1]> : tensor<2xindex>, xla_shape = "f32[4096,4096]{0,1}"} : (tensor<4096x4096xf32>) -> tensor<4096x4096xf32>
    %3036 = stablehlo.dot %2978, %3035, precision = [DEFAULT, DEFAULT] : (tensor<1x4096xf32>, tensor<4096x4096xf32>) -> tensor<1x4096xf32>
    %3037 = stablehlo.reshape %3036 : (tensor<1x4096xf32>) -> tensor<1x32x128xf32>
    %3038 = "stablehlo.scatter"(%arg347, %3034, %3037) ({
    ^bb0(%arg362: tensor<f32>, %arg363: tensor<f32>):
      stablehlo.return %arg363 : tensor<f32>
    }) {indices_are_sorted = false, scatter_dimension_numbers = #stablehlo.scatter<update_window_dims = [1, 2], inserted_window_dims = [0], scatter_dims_to_operand_dims = [0], index_vector_dim = 1>, unique_indices = false} : (tensor<2304x32x128xf32>, tensor<1x1xi64>, tensor<1x32x128xf32>) -> tensor<2304x32x128xf32>
    %3039 = stablehlo.convert %arg7 : (tensor<2049xi64>) -> tensor<2049xui32>
    %3040 = "stablehlo.gather"(%3038, %3039) {dimension_numbers = #stablehlo.gather<offset_dims = [1, 2], collapsed_slice_dims = [0], start_index_map = [0], index_vector_dim = 1>, indices_are_sorted = false, slice_sizes = dense<[1, 32, 128]> : tensor<3xi64>} : (tensor<2304x32x128xf32>, tensor<2049xui32>) -> tensor<2049x32x128xf32>
    %3041 = stablehlo.transpose %3040, dims = [1, 0, 2] {result_layout = dense<[2, 0, 1]> : tensor<3xindex>, xla_shape = "f32[32,2049,128]{2,0,1}"} : (tensor<2049x32x128xf32>) -> tensor<32x2049x128xf32>
    %3042 = stablehlo.dot_general %3029, %3041, batching_dims = [0] x [0], contracting_dims = [2] x [1], precision = [DEFAULT, DEFAULT] : (tensor<32x1x2049xf32>, tensor<32x2049x128xf32>) -> tensor<32x1x128xf32>
    %3043 = stablehlo.reshape %3042 : (tensor<32x1x128xf32>) -> tensor<1x4096xf32>
    %3044 = stablehlo.transpose %arg19, dims = [1, 0] {result_layout = dense<[0, 1]> : tensor<2xindex>, xla_shape = "f32[4096,4096]{0,1}"} : (tensor<4096x4096xf32>) -> tensor<4096x4096xf32>
    %3045 = stablehlo.dot %3043, %3044, precision = [DEFAULT, DEFAULT] : (tensor<1x4096xf32>, tensor<4096x4096xf32>) -> tensor<1x4096xf32>
    %3046 = stablehlo.add %2966, %3045 : tensor<1x4096xf32>
    %3047 = stablehlo.power %3046, %1 : tensor<1x4096xf32>
    %3048 = stablehlo.reduce(%3047 init: %4) across dimensions = [1] : (tensor<1x4096xf32>, tensor<f32>) -> tensor<1xf32>
     reducer(%arg362: tensor<f32>, %arg363: tensor<f32>)  {
      %3287 = stablehlo.add %arg362, %arg363 : tensor<f32>
      stablehlo.return %3287 : tensor<f32>
    }
    %3049 = stablehlo.multiply %3048, %0 : tensor<1xf32>
    %3050 = stablehlo.reshape %3049 : (tensor<1xf32>) -> tensor<1x1xf32>
    %3051 = stablehlo.reshape %arg2 : (tensor<f32>) -> tensor<1x1xf32>
    %3052 = stablehlo.add %3050, %3051 : tensor<1x1xf32>
    %3053 = stablehlo.rsqrt %3052 : tensor<1x1xf32>
    %3054 = stablehlo.reshape %3053 : (tensor<1x1xf32>) -> tensor<1xf32>
    %3055 = stablehlo.broadcast_in_dim %3054, dims = [0] : (tensor<1xf32>) -> tensor<1x4096xf32>
    %3056 = stablehlo.multiply %3046, %3055 : tensor<1x4096xf32>
    %3057 = stablehlo.reshape %arg18 : (tensor<4096xf32>) -> tensor<1x4096xf32>
    %3058 = stablehlo.multiply %3056, %3057 : tensor<1x4096xf32>
    %3059 = stablehlo.transpose %arg351, dims = [1, 0] {result_layout = dense<[0, 1]> : tensor<2xindex>, xla_shape = "f32[4096,11008]{0,1}"} : (tensor<11008x4096xf32>) -> tensor<4096x11008xf32>
    %3060 = stablehlo.dot %3058, %3059, precision = [DEFAULT, DEFAULT] : (tensor<1x4096xf32>, tensor<4096x11008xf32>) -> tensor<1x11008xf32>
    %3061 = stablehlo.logistic %3060 : tensor<1x11008xf32>
    %3062 = stablehlo.multiply %3060, %3061 : tensor<1x11008xf32>
    %3063 = stablehlo.transpose %arg17, dims = [1, 0] {result_layout = dense<[0, 1]> : tensor<2xindex>, xla_shape = "f32[4096,11008]{0,1}"} : (tensor<11008x4096xf32>) -> tensor<4096x11008xf32>
    %3064 = stablehlo.dot %3058, %3063, precision = [DEFAULT, DEFAULT] : (tensor<1x4096xf32>, tensor<4096x11008xf32>) -> tensor<1x11008xf32>
    %3065 = stablehlo.multiply %3062, %3064 : tensor<1x11008xf32>
    %3066 = stablehlo.transpose %arg16, dims = [1, 0] {result_layout = dense<[0, 1]> : tensor<2xindex>, xla_shape = "f32[11008,4096]{0,1}"} : (tensor<4096x11008xf32>) -> tensor<11008x4096xf32>
    %3067 = stablehlo.dot %3065, %3066, precision = [DEFAULT, DEFAULT] : (tensor<1x11008xf32>, tensor<11008x4096xf32>) -> tensor<1x4096xf32>
    %3068 = stablehlo.add %3046, %3067 : tensor<1x4096xf32>
    %3069 = stablehlo.power %3068, %1 : tensor<1x4096xf32>
    %3070 = stablehlo.reduce(%3069 init: %4) across dimensions = [1] : (tensor<1x4096xf32>, tensor<f32>) -> tensor<1xf32>
     reducer(%arg362: tensor<f32>, %arg363: tensor<f32>)  {
      %3287 = stablehlo.add %arg362, %arg363 : tensor<f32>
      stablehlo.return %3287 : tensor<f32>
    }
    %3071 = stablehlo.multiply %3070, %0 : tensor<1xf32>
    %3072 = stablehlo.reshape %3071 : (tensor<1xf32>) -> tensor<1x1xf32>
    %3073 = stablehlo.reshape %arg2 : (tensor<f32>) -> tensor<1x1xf32>
    %3074 = stablehlo.add %3072, %3073 : tensor<1x1xf32>
    %3075 = stablehlo.rsqrt %3074 : tensor<1x1xf32>
    %3076 = stablehlo.reshape %3075 : (tensor<1x1xf32>) -> tensor<1xf32>
    %3077 = stablehlo.broadcast_in_dim %3076, dims = [0] : (tensor<1xf32>) -> tensor<1x4096xf32>
    %3078 = stablehlo.multiply %3068, %3077 : tensor<1x4096xf32>
    %3079 = stablehlo.reshape %arg15 : (tensor<4096xf32>) -> tensor<1x4096xf32>
    %3080 = stablehlo.multiply %3078, %3079 : tensor<1x4096xf32>
    %3081 = stablehlo.transpose %arg355, dims = [1, 0] {result_layout = dense<[0, 1]> : tensor<2xindex>, xla_shape = "f32[4096,4096]{0,1}"} : (tensor<4096x4096xf32>) -> tensor<4096x4096xf32>
    %3082 = stablehlo.dot %3080, %3081, precision = [DEFAULT, DEFAULT] : (tensor<1x4096xf32>, tensor<4096x4096xf32>) -> tensor<1x4096xf32>
    %3083 = stablehlo.reshape %3082 : (tensor<1x4096xf32>) -> tensor<1x32x64x2xf32>
    %3084 = stablehlo.slice %3083 [0:1, 0:32, 0:64, 0:1] : (tensor<1x32x64x2xf32>) -> tensor<1x32x64x1xf32>
    %3085 = stablehlo.reshape %3084 : (tensor<1x32x64x1xf32>) -> tensor<1x32x64xf32>
    %3086 = stablehlo.slice %3083 [0:1, 0:32, 0:64, 1:2] : (tensor<1x32x64x2xf32>) -> tensor<1x32x64x1xf32>
    %3087 = stablehlo.reshape %3086 : (tensor<1x32x64x1xf32>) -> tensor<1x32x64xf32>
    %3088 = stablehlo.complex %3085, %3087 : tensor<1x32x64xcomplex<f32>>
    %3089 = stablehlo.broadcast_in_dim %28, dims = [0, 2] : (tensor<1x64xcomplex<f32>>) -> tensor<1x32x64xcomplex<f32>>
    %3090 = stablehlo.multiply %3088, %3089 : tensor<1x32x64xcomplex<f32>>
    %3091 = stablehlo.real %3090 : (tensor<1x32x64xcomplex<f32>>) -> tensor<1x32x64xf32>
    %3092 = stablehlo.reshape %3091 : (tensor<1x32x64xf32>) -> tensor<1x32x64x1xf32>
    %3093 = stablehlo.imag %3090 : (tensor<1x32x64xcomplex<f32>>) -> tensor<1x32x64xf32>
    %3094 = stablehlo.reshape %3093 : (tensor<1x32x64xf32>) -> tensor<1x32x64x1xf32>
    %3095 = stablehlo.concatenate %3092, %3094, dim = 3 : (tensor<1x32x64x1xf32>, tensor<1x32x64x1xf32>) -> tensor<1x32x64x2xf32>
    %3096 = stablehlo.reshape %3095 : (tensor<1x32x64x2xf32>) -> tensor<32x1x128xf32>
    %3097 = stablehlo.compare  LT, %arg198, %2 : (tensor<1xi64>, tensor<1xi64>) -> tensor<1xi1>
    %3098 = stablehlo.reshape %arg199 : (tensor<i64>) -> tensor<1xi64>
    %3099 = stablehlo.add %arg198, %3098 : tensor<1xi64>
    %3100 = stablehlo.select %3097, %3099, %arg198 : tensor<1xi1>, tensor<1xi64>
    %3101 = stablehlo.reshape %3100 : (tensor<1xi64>) -> tensor<1x1xi64>
    %3102 = stablehlo.transpose %arg353, dims = [1, 0] {result_layout = dense<[0, 1]> : tensor<2xindex>, xla_shape = "f32[4096,4096]{0,1}"} : (tensor<4096x4096xf32>) -> tensor<4096x4096xf32>
    %3103 = stablehlo.dot %3080, %3102, precision = [DEFAULT, DEFAULT] : (tensor<1x4096xf32>, tensor<4096x4096xf32>) -> tensor<1x4096xf32>
    %3104 = stablehlo.reshape %3103 : (tensor<1x4096xf32>) -> tensor<1x32x64x2xf32>
    %3105 = stablehlo.slice %3104 [0:1, 0:32, 0:64, 0:1] : (tensor<1x32x64x2xf32>) -> tensor<1x32x64x1xf32>
    %3106 = stablehlo.reshape %3105 : (tensor<1x32x64x1xf32>) -> tensor<1x32x64xf32>
    %3107 = stablehlo.slice %3104 [0:1, 0:32, 0:64, 1:2] : (tensor<1x32x64x2xf32>) -> tensor<1x32x64x1xf32>
    %3108 = stablehlo.reshape %3107 : (tensor<1x32x64x1xf32>) -> tensor<1x32x64xf32>
    %3109 = stablehlo.complex %3106, %3108 : tensor<1x32x64xcomplex<f32>>
    %3110 = stablehlo.broadcast_in_dim %28, dims = [0, 2] : (tensor<1x64xcomplex<f32>>) -> tensor<1x32x64xcomplex<f32>>
    %3111 = stablehlo.multiply %3109, %3110 : tensor<1x32x64xcomplex<f32>>
    %3112 = stablehlo.real %3111 : (tensor<1x32x64xcomplex<f32>>) -> tensor<1x32x64xf32>
    %3113 = stablehlo.reshape %3112 : (tensor<1x32x64xf32>) -> tensor<1x32x64x1xf32>
    %3114 = stablehlo.imag %3111 : (tensor<1x32x64xcomplex<f32>>) -> tensor<1x32x64xf32>
    %3115 = stablehlo.reshape %3114 : (tensor<1x32x64xf32>) -> tensor<1x32x64x1xf32>
    %3116 = stablehlo.concatenate %3113, %3115, dim = 3 : (tensor<1x32x64x1xf32>, tensor<1x32x64x1xf32>) -> tensor<1x32x64x2xf32>
    %3117 = stablehlo.reshape %3116 : (tensor<1x32x64x2xf32>) -> tensor<1x32x128xf32>
    %3118 = "stablehlo.scatter"(%arg354, %3101, %3117) ({
    ^bb0(%arg362: tensor<f32>, %arg363: tensor<f32>):
      stablehlo.return %arg363 : tensor<f32>
    }) {indices_are_sorted = false, scatter_dimension_numbers = #stablehlo.scatter<update_window_dims = [1, 2], inserted_window_dims = [0], scatter_dims_to_operand_dims = [0], index_vector_dim = 1>, unique_indices = false} : (tensor<2304x32x128xf32>, tensor<1x1xi64>, tensor<1x32x128xf32>) -> tensor<2304x32x128xf32>
    %3119 = stablehlo.convert %arg7 : (tensor<2049xi64>) -> tensor<2049xui32>
    %3120 = "stablehlo.gather"(%3118, %3119) {dimension_numbers = #stablehlo.gather<offset_dims = [1, 2], collapsed_slice_dims = [0], start_index_map = [0], index_vector_dim = 1>, indices_are_sorted = false, slice_sizes = dense<[1, 32, 128]> : tensor<3xi64>} : (tensor<2304x32x128xf32>, tensor<2049xui32>) -> tensor<2049x32x128xf32>
    %3121 = stablehlo.transpose %3120, dims = [1, 2, 0] : (tensor<2049x32x128xf32>) -> tensor<32x128x2049xf32>
    %3122 = stablehlo.dot_general %3096, %3121, batching_dims = [0] x [0], contracting_dims = [2] x [1], precision = [DEFAULT, DEFAULT] : (tensor<32x1x128xf32>, tensor<32x128x2049xf32>) -> tensor<32x1x2049xf32>
    %3123 = stablehlo.broadcast_in_dim %arg201, dims = [] : (tensor<f32>) -> tensor<32x1x2049xf32>
    %3124 = stablehlo.divide %3122, %3123 : tensor<32x1x2049xf32>
    %3125 = stablehlo.reduce(%3124 init: %3) across dimensions = [2] : (tensor<32x1x2049xf32>, tensor<f32>) -> tensor<32x1xf32>
     reducer(%arg362: tensor<f32>, %arg363: tensor<f32>)  {
      %3287 = stablehlo.maximum %arg362, %arg363 : tensor<f32>
      stablehlo.return %3287 : tensor<f32>
    }
    %3126 = stablehlo.broadcast_in_dim %3125, dims = [0, 1] : (tensor<32x1xf32>) -> tensor<32x1x2049xf32>
    %3127 = stablehlo.subtract %3124, %3126 : tensor<32x1x2049xf32>
    %3128 = stablehlo.exponential %3127 : tensor<32x1x2049xf32>
    %3129 = stablehlo.reduce(%3128 init: %4) across dimensions = [2] : (tensor<32x1x2049xf32>, tensor<f32>) -> tensor<32x1xf32>
     reducer(%arg362: tensor<f32>, %arg363: tensor<f32>)  {
      %3287 = stablehlo.add %arg362, %arg363 : tensor<f32>
      stablehlo.return %3287 : tensor<f32>
    }
    %3130 = stablehlo.broadcast_in_dim %3129, dims = [0, 1] : (tensor<32x1xf32>) -> tensor<32x1x2049xf32>
    %3131 = stablehlo.divide %3128, %3130 : tensor<32x1x2049xf32>
    %3132 = stablehlo.compare  LT, %arg198, %2 : (tensor<1xi64>, tensor<1xi64>) -> tensor<1xi1>
    %3133 = stablehlo.reshape %arg199 : (tensor<i64>) -> tensor<1xi64>
    %3134 = stablehlo.add %arg198, %3133 : tensor<1xi64>
    %3135 = stablehlo.select %3132, %3134, %arg198 : tensor<1xi1>, tensor<1xi64>
    %3136 = stablehlo.reshape %3135 : (tensor<1xi64>) -> tensor<1x1xi64>
    %3137 = stablehlo.transpose %arg14, dims = [1, 0] {result_layout = dense<[0, 1]> : tensor<2xindex>, xla_shape = "f32[4096,4096]{0,1}"} : (tensor<4096x4096xf32>) -> tensor<4096x4096xf32>
    %3138 = stablehlo.dot %3080, %3137, precision = [DEFAULT, DEFAULT] : (tensor<1x4096xf32>, tensor<4096x4096xf32>) -> tensor<1x4096xf32>
    %3139 = stablehlo.reshape %3138 : (tensor<1x4096xf32>) -> tensor<1x32x128xf32>
    %3140 = "stablehlo.scatter"(%arg352, %3136, %3139) ({
    ^bb0(%arg362: tensor<f32>, %arg363: tensor<f32>):
      stablehlo.return %arg363 : tensor<f32>
    }) {indices_are_sorted = false, scatter_dimension_numbers = #stablehlo.scatter<update_window_dims = [1, 2], inserted_window_dims = [0], scatter_dims_to_operand_dims = [0], index_vector_dim = 1>, unique_indices = false} : (tensor<2304x32x128xf32>, tensor<1x1xi64>, tensor<1x32x128xf32>) -> tensor<2304x32x128xf32>
    %3141 = stablehlo.convert %arg7 : (tensor<2049xi64>) -> tensor<2049xui32>
    %3142 = "stablehlo.gather"(%3140, %3141) {dimension_numbers = #stablehlo.gather<offset_dims = [1, 2], collapsed_slice_dims = [0], start_index_map = [0], index_vector_dim = 1>, indices_are_sorted = false, slice_sizes = dense<[1, 32, 128]> : tensor<3xi64>} : (tensor<2304x32x128xf32>, tensor<2049xui32>) -> tensor<2049x32x128xf32>
    %3143 = stablehlo.transpose %3142, dims = [1, 0, 2] {result_layout = dense<[2, 0, 1]> : tensor<3xindex>, xla_shape = "f32[32,2049,128]{2,0,1}"} : (tensor<2049x32x128xf32>) -> tensor<32x2049x128xf32>
    %3144 = stablehlo.dot_general %3131, %3143, batching_dims = [0] x [0], contracting_dims = [2] x [1], precision = [DEFAULT, DEFAULT] : (tensor<32x1x2049xf32>, tensor<32x2049x128xf32>) -> tensor<32x1x128xf32>
    %3145 = stablehlo.reshape %3144 : (tensor<32x1x128xf32>) -> tensor<1x4096xf32>
    %3146 = stablehlo.transpose %arg13, dims = [1, 0] {result_layout = dense<[0, 1]> : tensor<2xindex>, xla_shape = "f32[4096,4096]{0,1}"} : (tensor<4096x4096xf32>) -> tensor<4096x4096xf32>
    %3147 = stablehlo.dot %3145, %3146, precision = [DEFAULT, DEFAULT] : (tensor<1x4096xf32>, tensor<4096x4096xf32>) -> tensor<1x4096xf32>
    %3148 = stablehlo.add %3068, %3147 : tensor<1x4096xf32>
    %3149 = stablehlo.power %3148, %1 : tensor<1x4096xf32>
    %3150 = stablehlo.reduce(%3149 init: %4) across dimensions = [1] : (tensor<1x4096xf32>, tensor<f32>) -> tensor<1xf32>
     reducer(%arg362: tensor<f32>, %arg363: tensor<f32>)  {
      %3287 = stablehlo.add %arg362, %arg363 : tensor<f32>
      stablehlo.return %3287 : tensor<f32>
    }
    %3151 = stablehlo.multiply %3150, %0 : tensor<1xf32>
    %3152 = stablehlo.reshape %3151 : (tensor<1xf32>) -> tensor<1x1xf32>
    %3153 = stablehlo.reshape %arg2 : (tensor<f32>) -> tensor<1x1xf32>
    %3154 = stablehlo.add %3152, %3153 : tensor<1x1xf32>
    %3155 = stablehlo.rsqrt %3154 : tensor<1x1xf32>
    %3156 = stablehlo.reshape %3155 : (tensor<1x1xf32>) -> tensor<1xf32>
    %3157 = stablehlo.broadcast_in_dim %3156, dims = [0] : (tensor<1xf32>) -> tensor<1x4096xf32>
    %3158 = stablehlo.multiply %3148, %3157 : tensor<1x4096xf32>
    %3159 = stablehlo.reshape %arg12 : (tensor<4096xf32>) -> tensor<1x4096xf32>
    %3160 = stablehlo.multiply %3158, %3159 : tensor<1x4096xf32>
    %3161 = stablehlo.transpose %arg356, dims = [1, 0] {result_layout = dense<[0, 1]> : tensor<2xindex>, xla_shape = "f32[4096,11008]{0,1}"} : (tensor<11008x4096xf32>) -> tensor<4096x11008xf32>
    %3162 = stablehlo.dot %3160, %3161, precision = [DEFAULT, DEFAULT] : (tensor<1x4096xf32>, tensor<4096x11008xf32>) -> tensor<1x11008xf32>
    %3163 = stablehlo.logistic %3162 : tensor<1x11008xf32>
    %3164 = stablehlo.multiply %3162, %3163 : tensor<1x11008xf32>
    %3165 = stablehlo.transpose %arg11, dims = [1, 0] {result_layout = dense<[0, 1]> : tensor<2xindex>, xla_shape = "f32[4096,11008]{0,1}"} : (tensor<11008x4096xf32>) -> tensor<4096x11008xf32>
    %3166 = stablehlo.dot %3160, %3165, precision = [DEFAULT, DEFAULT] : (tensor<1x4096xf32>, tensor<4096x11008xf32>) -> tensor<1x11008xf32>
    %3167 = stablehlo.multiply %3164, %3166 : tensor<1x11008xf32>
    %3168 = stablehlo.transpose %arg10, dims = [1, 0] {result_layout = dense<[0, 1]> : tensor<2xindex>, xla_shape = "f32[11008,4096]{0,1}"} : (tensor<4096x11008xf32>) -> tensor<11008x4096xf32>
    %3169 = stablehlo.dot %3167, %3168, precision = [DEFAULT, DEFAULT] : (tensor<1x11008xf32>, tensor<11008x4096xf32>) -> tensor<1x4096xf32>
    %3170 = stablehlo.add %3148, %3169 : tensor<1x4096xf32>
    %3171 = stablehlo.power %3170, %1 : tensor<1x4096xf32>
    %3172 = stablehlo.reduce(%3171 init: %4) across dimensions = [1] : (tensor<1x4096xf32>, tensor<f32>) -> tensor<1xf32>
     reducer(%arg362: tensor<f32>, %arg363: tensor<f32>)  {
      %3287 = stablehlo.add %arg362, %arg363 : tensor<f32>
      stablehlo.return %3287 : tensor<f32>
    }
    %3173 = stablehlo.multiply %3172, %0 : tensor<1xf32>
    %3174 = stablehlo.reshape %3173 : (tensor<1xf32>) -> tensor<1x1xf32>
    %3175 = stablehlo.reshape %arg2 : (tensor<f32>) -> tensor<1x1xf32>
    %3176 = stablehlo.add %3174, %3175 : tensor<1x1xf32>
    %3177 = stablehlo.rsqrt %3176 : tensor<1x1xf32>
    %3178 = stablehlo.reshape %3177 : (tensor<1x1xf32>) -> tensor<1xf32>
    %3179 = stablehlo.broadcast_in_dim %3178, dims = [0] : (tensor<1xf32>) -> tensor<1x4096xf32>
    %3180 = stablehlo.multiply %3170, %3179 : tensor<1x4096xf32>
    %3181 = stablehlo.reshape %arg9 : (tensor<4096xf32>) -> tensor<1x4096xf32>
    %3182 = stablehlo.multiply %3180, %3181 : tensor<1x4096xf32>
    %3183 = stablehlo.transpose %arg360, dims = [1, 0] {result_layout = dense<[0, 1]> : tensor<2xindex>, xla_shape = "f32[4096,4096]{0,1}"} : (tensor<4096x4096xf32>) -> tensor<4096x4096xf32>
    %3184 = stablehlo.dot %3182, %3183, precision = [DEFAULT, DEFAULT] : (tensor<1x4096xf32>, tensor<4096x4096xf32>) -> tensor<1x4096xf32>
    %3185 = stablehlo.reshape %3184 : (tensor<1x4096xf32>) -> tensor<1x32x64x2xf32>
    %3186 = stablehlo.slice %3185 [0:1, 0:32, 0:64, 0:1] : (tensor<1x32x64x2xf32>) -> tensor<1x32x64x1xf32>
    %3187 = stablehlo.reshape %3186 : (tensor<1x32x64x1xf32>) -> tensor<1x32x64xf32>
    %3188 = stablehlo.slice %3185 [0:1, 0:32, 0:64, 1:2] : (tensor<1x32x64x2xf32>) -> tensor<1x32x64x1xf32>
    %3189 = stablehlo.reshape %3188 : (tensor<1x32x64x1xf32>) -> tensor<1x32x64xf32>
    %3190 = stablehlo.complex %3187, %3189 : tensor<1x32x64xcomplex<f32>>
    %3191 = stablehlo.broadcast_in_dim %28, dims = [0, 2] : (tensor<1x64xcomplex<f32>>) -> tensor<1x32x64xcomplex<f32>>
    %3192 = stablehlo.multiply %3190, %3191 : tensor<1x32x64xcomplex<f32>>
    %3193 = stablehlo.real %3192 : (tensor<1x32x64xcomplex<f32>>) -> tensor<1x32x64xf32>
    %3194 = stablehlo.reshape %3193 : (tensor<1x32x64xf32>) -> tensor<1x32x64x1xf32>
    %3195 = stablehlo.imag %3192 : (tensor<1x32x64xcomplex<f32>>) -> tensor<1x32x64xf32>
    %3196 = stablehlo.reshape %3195 : (tensor<1x32x64xf32>) -> tensor<1x32x64x1xf32>
    %3197 = stablehlo.concatenate %3194, %3196, dim = 3 : (tensor<1x32x64x1xf32>, tensor<1x32x64x1xf32>) -> tensor<1x32x64x2xf32>
    %3198 = stablehlo.reshape %3197 : (tensor<1x32x64x2xf32>) -> tensor<32x1x128xf32>
    %3199 = stablehlo.compare  LT, %arg198, %2 : (tensor<1xi64>, tensor<1xi64>) -> tensor<1xi1>
    %3200 = stablehlo.reshape %arg199 : (tensor<i64>) -> tensor<1xi64>
    %3201 = stablehlo.add %arg198, %3200 : tensor<1xi64>
    %3202 = stablehlo.select %3199, %3201, %arg198 : tensor<1xi1>, tensor<1xi64>
    %3203 = stablehlo.reshape %3202 : (tensor<1xi64>) -> tensor<1x1xi64>
    %3204 = stablehlo.transpose %arg358, dims = [1, 0] {result_layout = dense<[0, 1]> : tensor<2xindex>, xla_shape = "f32[4096,4096]{0,1}"} : (tensor<4096x4096xf32>) -> tensor<4096x4096xf32>
    %3205 = stablehlo.dot %3182, %3204, precision = [DEFAULT, DEFAULT] : (tensor<1x4096xf32>, tensor<4096x4096xf32>) -> tensor<1x4096xf32>
    %3206 = stablehlo.reshape %3205 : (tensor<1x4096xf32>) -> tensor<1x32x64x2xf32>
    %3207 = stablehlo.slice %3206 [0:1, 0:32, 0:64, 0:1] : (tensor<1x32x64x2xf32>) -> tensor<1x32x64x1xf32>
    %3208 = stablehlo.reshape %3207 : (tensor<1x32x64x1xf32>) -> tensor<1x32x64xf32>
    %3209 = stablehlo.slice %3206 [0:1, 0:32, 0:64, 1:2] : (tensor<1x32x64x2xf32>) -> tensor<1x32x64x1xf32>
    %3210 = stablehlo.reshape %3209 : (tensor<1x32x64x1xf32>) -> tensor<1x32x64xf32>
    %3211 = stablehlo.complex %3208, %3210 : tensor<1x32x64xcomplex<f32>>
    %3212 = stablehlo.broadcast_in_dim %28, dims = [0, 2] : (tensor<1x64xcomplex<f32>>) -> tensor<1x32x64xcomplex<f32>>
    %3213 = stablehlo.multiply %3211, %3212 : tensor<1x32x64xcomplex<f32>>
    %3214 = stablehlo.real %3213 : (tensor<1x32x64xcomplex<f32>>) -> tensor<1x32x64xf32>
    %3215 = stablehlo.reshape %3214 : (tensor<1x32x64xf32>) -> tensor<1x32x64x1xf32>
    %3216 = stablehlo.imag %3213 : (tensor<1x32x64xcomplex<f32>>) -> tensor<1x32x64xf32>
    %3217 = stablehlo.reshape %3216 : (tensor<1x32x64xf32>) -> tensor<1x32x64x1xf32>
    %3218 = stablehlo.concatenate %3215, %3217, dim = 3 : (tensor<1x32x64x1xf32>, tensor<1x32x64x1xf32>) -> tensor<1x32x64x2xf32>
    %3219 = stablehlo.reshape %3218 : (tensor<1x32x64x2xf32>) -> tensor<1x32x128xf32>
    %3220 = "stablehlo.scatter"(%arg359, %3203, %3219) ({
    ^bb0(%arg362: tensor<f32>, %arg363: tensor<f32>):
      stablehlo.return %arg363 : tensor<f32>
    }) {indices_are_sorted = false, scatter_dimension_numbers = #stablehlo.scatter<update_window_dims = [1, 2], inserted_window_dims = [0], scatter_dims_to_operand_dims = [0], index_vector_dim = 1>, unique_indices = false} : (tensor<2304x32x128xf32>, tensor<1x1xi64>, tensor<1x32x128xf32>) -> tensor<2304x32x128xf32>
    %3221 = stablehlo.convert %arg7 : (tensor<2049xi64>) -> tensor<2049xui32>
    %3222 = "stablehlo.gather"(%3220, %3221) {dimension_numbers = #stablehlo.gather<offset_dims = [1, 2], collapsed_slice_dims = [0], start_index_map = [0], index_vector_dim = 1>, indices_are_sorted = false, slice_sizes = dense<[1, 32, 128]> : tensor<3xi64>} : (tensor<2304x32x128xf32>, tensor<2049xui32>) -> tensor<2049x32x128xf32>
    %3223 = stablehlo.transpose %3222, dims = [1, 2, 0] : (tensor<2049x32x128xf32>) -> tensor<32x128x2049xf32>
    %3224 = stablehlo.dot_general %3198, %3223, batching_dims = [0] x [0], contracting_dims = [2] x [1], precision = [DEFAULT, DEFAULT] : (tensor<32x1x128xf32>, tensor<32x128x2049xf32>) -> tensor<32x1x2049xf32>
    %3225 = stablehlo.broadcast_in_dim %arg201, dims = [] : (tensor<f32>) -> tensor<32x1x2049xf32>
    %3226 = stablehlo.divide %3224, %3225 : tensor<32x1x2049xf32>
    %3227 = stablehlo.reduce(%3226 init: %3) across dimensions = [2] : (tensor<32x1x2049xf32>, tensor<f32>) -> tensor<32x1xf32>
     reducer(%arg362: tensor<f32>, %arg363: tensor<f32>)  {
      %3287 = stablehlo.maximum %arg362, %arg363 : tensor<f32>
      stablehlo.return %3287 : tensor<f32>
    }
    %3228 = stablehlo.broadcast_in_dim %3227, dims = [0, 1] : (tensor<32x1xf32>) -> tensor<32x1x2049xf32>
    %3229 = stablehlo.subtract %3226, %3228 : tensor<32x1x2049xf32>
    %3230 = stablehlo.exponential %3229 : tensor<32x1x2049xf32>
    %3231 = stablehlo.reduce(%3230 init: %4) across dimensions = [2] : (tensor<32x1x2049xf32>, tensor<f32>) -> tensor<32x1xf32>
     reducer(%arg362: tensor<f32>, %arg363: tensor<f32>)  {
      %3287 = stablehlo.add %arg362, %arg363 : tensor<f32>
      stablehlo.return %3287 : tensor<f32>
    }
    %3232 = stablehlo.broadcast_in_dim %3231, dims = [0, 1] : (tensor<32x1xf32>) -> tensor<32x1x2049xf32>
    %3233 = stablehlo.divide %3230, %3232 : tensor<32x1x2049xf32>
    %3234 = stablehlo.compare  LT, %arg198, %2 : (tensor<1xi64>, tensor<1xi64>) -> tensor<1xi1>
    %3235 = stablehlo.reshape %arg199 : (tensor<i64>) -> tensor<1xi64>
    %3236 = stablehlo.add %arg198, %3235 : tensor<1xi64>
    %3237 = stablehlo.select %3234, %3236, %arg198 : tensor<1xi1>, tensor<1xi64>
    %3238 = stablehlo.reshape %3237 : (tensor<1xi64>) -> tensor<1x1xi64>
    %3239 = stablehlo.transpose %arg8, dims = [1, 0] {result_layout = dense<[0, 1]> : tensor<2xindex>, xla_shape = "f32[4096,4096]{0,1}"} : (tensor<4096x4096xf32>) -> tensor<4096x4096xf32>
    %3240 = stablehlo.dot %3182, %3239, precision = [DEFAULT, DEFAULT] : (tensor<1x4096xf32>, tensor<4096x4096xf32>) -> tensor<1x4096xf32>
    %3241 = stablehlo.reshape %3240 : (tensor<1x4096xf32>) -> tensor<1x32x128xf32>
    %3242 = "stablehlo.scatter"(%arg357, %3238, %3241) ({
    ^bb0(%arg362: tensor<f32>, %arg363: tensor<f32>):
      stablehlo.return %arg363 : tensor<f32>
    }) {indices_are_sorted = false, scatter_dimension_numbers = #stablehlo.scatter<update_window_dims = [1, 2], inserted_window_dims = [0], scatter_dims_to_operand_dims = [0], index_vector_dim = 1>, unique_indices = false} : (tensor<2304x32x128xf32>, tensor<1x1xi64>, tensor<1x32x128xf32>) -> tensor<2304x32x128xf32>
    %3243 = stablehlo.convert %arg7 : (tensor<2049xi64>) -> tensor<2049xui32>
    %3244 = "stablehlo.gather"(%3242, %3243) {dimension_numbers = #stablehlo.gather<offset_dims = [1, 2], collapsed_slice_dims = [0], start_index_map = [0], index_vector_dim = 1>, indices_are_sorted = false, slice_sizes = dense<[1, 32, 128]> : tensor<3xi64>} : (tensor<2304x32x128xf32>, tensor<2049xui32>) -> tensor<2049x32x128xf32>
    %3245 = stablehlo.transpose %3244, dims = [1, 0, 2] {result_layout = dense<[2, 0, 1]> : tensor<3xindex>, xla_shape = "f32[32,2049,128]{2,0,1}"} : (tensor<2049x32x128xf32>) -> tensor<32x2049x128xf32>
    %3246 = stablehlo.dot_general %3233, %3245, batching_dims = [0] x [0], contracting_dims = [2] x [1], precision = [DEFAULT, DEFAULT] : (tensor<32x1x2049xf32>, tensor<32x2049x128xf32>) -> tensor<32x1x128xf32>
    %3247 = stablehlo.reshape %3246 : (tensor<32x1x128xf32>) -> tensor<1x4096xf32>
    %3248 = stablehlo.transpose %arg6, dims = [1, 0] {result_layout = dense<[0, 1]> : tensor<2xindex>, xla_shape = "f32[4096,4096]{0,1}"} : (tensor<4096x4096xf32>) -> tensor<4096x4096xf32>
    %3249 = stablehlo.dot %3247, %3248, precision = [DEFAULT, DEFAULT] : (tensor<1x4096xf32>, tensor<4096x4096xf32>) -> tensor<1x4096xf32>
    %3250 = stablehlo.add %3170, %3249 : tensor<1x4096xf32>
    %3251 = stablehlo.power %3250, %1 : tensor<1x4096xf32>
    %3252 = stablehlo.reduce(%3251 init: %4) across dimensions = [1] : (tensor<1x4096xf32>, tensor<f32>) -> tensor<1xf32>
     reducer(%arg362: tensor<f32>, %arg363: tensor<f32>)  {
      %3287 = stablehlo.add %arg362, %arg363 : tensor<f32>
      stablehlo.return %3287 : tensor<f32>
    }
    %3253 = stablehlo.multiply %3252, %0 : tensor<1xf32>
    %3254 = stablehlo.reshape %3253 : (tensor<1xf32>) -> tensor<1x1xf32>
    %3255 = stablehlo.reshape %arg2 : (tensor<f32>) -> tensor<1x1xf32>
    %3256 = stablehlo.add %3254, %3255 : tensor<1x1xf32>
    %3257 = stablehlo.rsqrt %3256 : tensor<1x1xf32>
    %3258 = stablehlo.reshape %3257 : (tensor<1x1xf32>) -> tensor<1xf32>
    %3259 = stablehlo.broadcast_in_dim %3258, dims = [0] : (tensor<1xf32>) -> tensor<1x4096xf32>
    %3260 = stablehlo.multiply %3250, %3259 : tensor<1x4096xf32>
    %3261 = stablehlo.reshape %arg5 : (tensor<4096xf32>) -> tensor<1x4096xf32>
    %3262 = stablehlo.multiply %3260, %3261 : tensor<1x4096xf32>
    %3263 = stablehlo.transpose %arg361, dims = [1, 0] {result_layout = dense<[0, 1]> : tensor<2xindex>, xla_shape = "f32[4096,11008]{0,1}"} : (tensor<11008x4096xf32>) -> tensor<4096x11008xf32>
    %3264 = stablehlo.dot %3262, %3263, precision = [DEFAULT, DEFAULT] : (tensor<1x4096xf32>, tensor<4096x11008xf32>) -> tensor<1x11008xf32>
    %3265 = stablehlo.logistic %3264 : tensor<1x11008xf32>
    %3266 = stablehlo.multiply %3264, %3265 : tensor<1x11008xf32>
    %3267 = stablehlo.transpose %arg4, dims = [1, 0] {result_layout = dense<[0, 1]> : tensor<2xindex>, xla_shape = "f32[4096,11008]{0,1}"} : (tensor<11008x4096xf32>) -> tensor<4096x11008xf32>
    %3268 = stablehlo.dot %3262, %3267, precision = [DEFAULT, DEFAULT] : (tensor<1x4096xf32>, tensor<4096x11008xf32>) -> tensor<1x11008xf32>
    %3269 = stablehlo.multiply %3266, %3268 : tensor<1x11008xf32>
    %3270 = stablehlo.transpose %arg3, dims = [1, 0] {result_layout = dense<[0, 1]> : tensor<2xindex>, xla_shape = "f32[11008,4096]{0,1}"} : (tensor<4096x11008xf32>) -> tensor<11008x4096xf32>
    %3271 = stablehlo.dot %3269, %3270, precision = [DEFAULT, DEFAULT] : (tensor<1x11008xf32>, tensor<11008x4096xf32>) -> tensor<1x4096xf32>
    %3272 = stablehlo.add %3250, %3271 : tensor<1x4096xf32>
    %3273 = stablehlo.power %3272, %1 : tensor<1x4096xf32>
    %3274 = stablehlo.reduce(%3273 init: %4) across dimensions = [1] : (tensor<1x4096xf32>, tensor<f32>) -> tensor<1xf32>
     reducer(%arg362: tensor<f32>, %arg363: tensor<f32>)  {
      %3287 = stablehlo.add %arg362, %arg363 : tensor<f32>
      stablehlo.return %3287 : tensor<f32>
    }
    %3275 = stablehlo.multiply %3274, %0 : tensor<1xf32>
    %3276 = stablehlo.reshape %3275 : (tensor<1xf32>) -> tensor<1x1xf32>
    %3277 = stablehlo.reshape %arg2 : (tensor<f32>) -> tensor<1x1xf32>
    %3278 = stablehlo.add %3276, %3277 : tensor<1x1xf32>
    %3279 = stablehlo.rsqrt %3278 : tensor<1x1xf32>
    %3280 = stablehlo.reshape %3279 : (tensor<1x1xf32>) -> tensor<1xf32>
    %3281 = stablehlo.broadcast_in_dim %3280, dims = [0] : (tensor<1xf32>) -> tensor<1x4096xf32>
    %3282 = stablehlo.multiply %3272, %3281 : tensor<1x4096xf32>
    %3283 = stablehlo.reshape %arg1 : (tensor<4096xf32>) -> tensor<1x4096xf32>
    %3284 = stablehlo.multiply %3282, %3283 : tensor<1x4096xf32>
    %3285 = stablehlo.transpose %arg0, dims = [1, 0] {result_layout = dense<[0, 1]> : tensor<2xindex>, xla_shape = "f32[4096,32000]{0,1}"} : (tensor<32000x4096xf32>) -> tensor<4096x32000xf32>
    %3286 = stablehlo.dot %3284, %3285, precision = [DEFAULT, DEFAULT] : (tensor<1x4096xf32>, tensor<4096x32000xf32>) -> tensor<1x32000xf32>
    return %3286, %58, %80, %160, %182, %262, %284, %364, %386, %466, %488, %568, %590, %670, %692, %772, %794, %874, %896, %976, %998, %1078, %1100, %1180, %1202, %1282, %1304, %1384, %1406, %1486, %1508, %1588, %1610, %1690, %1712, %1792, %1814, %1894, %1916, %1996, %2018, %2098, %2120, %2200, %2222, %2302, %2324, %2404, %2426, %2506, %2528, %2608, %2630, %2710, %2732, %2812, %2834, %2914, %2936, %3016, %3038, %3118, %3140, %3220, %3242 : tensor<1x32000xf32>, tensor<2304x32x128xf32>, tensor<2304x32x128xf32>, tensor<2304x32x128xf32>, tensor<2304x32x128xf32>, tensor<2304x32x128xf32>, tensor<2304x32x128xf32>, tensor<2304x32x128xf32>, tensor<2304x32x128xf32>, tensor<2304x32x128xf32>, tensor<2304x32x128xf32>, tensor<2304x32x128xf32>, tensor<2304x32x128xf32>, tensor<2304x32x128xf32>, tensor<2304x32x128xf32>, tensor<2304x32x128xf32>, tensor<2304x32x128xf32>, tensor<2304x32x128xf32>, tensor<2304x32x128xf32>, tensor<2304x32x128xf32>, tensor<2304x32x128xf32>, tensor<2304x32x128xf32>, tensor<2304x32x128xf32>, tensor<2304x32x128xf32>, tensor<2304x32x128xf32>, tensor<2304x32x128xf32>, tensor<2304x32x128xf32>, tensor<2304x32x128xf32>, tensor<2304x32x128xf32>, tensor<2304x32x128xf32>, tensor<2304x32x128xf32>, tensor<2304x32x128xf32>, tensor<2304x32x128xf32>, tensor<2304x32x128xf32>, tensor<2304x32x128xf32>, tensor<2304x32x128xf32>, tensor<2304x32x128xf32>, tensor<2304x32x128xf32>, tensor<2304x32x128xf32>, tensor<2304x32x128xf32>, tensor<2304x32x128xf32>, tensor<2304x32x128xf32>, tensor<2304x32x128xf32>, tensor<2304x32x128xf32>, tensor<2304x32x128xf32>, tensor<2304x32x128xf32>, tensor<2304x32x128xf32>, tensor<2304x32x128xf32>, tensor<2304x32x128xf32>, tensor<2304x32x128xf32>, tensor<2304x32x128xf32>, tensor<2304x32x128xf32>, tensor<2304x32x128xf32>, tensor<2304x32x128xf32>, tensor<2304x32x128xf32>, tensor<2304x32x128xf32>, tensor<2304x32x128xf32>, tensor<2304x32x128xf32>, tensor<2304x32x128xf32>, tensor<2304x32x128xf32>, tensor<2304x32x128xf32>, tensor<2304x32x128xf32>, tensor<2304x32x128xf32>, tensor<2304x32x128xf32>, tensor<2304x32x128xf32>
  }
}
