module @IrToHlo.7522 attributes {mhlo.cross_program_prefetches = [], mhlo.is_dynamic = false, mhlo.use_auto_spmd_partitioning = false} {
  func.func @main(%arg0: tensor<32000x4096xf32>, %arg1: tensor<4096xf32>, %arg2: tensor<f32>, %arg3: tensor<4096x11008xf32>, %arg4: tensor<11008x4096xf32>, %arg5: tensor<4096xf32>, %arg6: tensor<4096x4096xf32>, %arg7: tensor<2048xi64>, %arg8: tensor<4096x4096xf32>, %arg9: tensor<4096xf32>, %arg10: tensor<4096x11008xf32>, %arg11: tensor<11008x4096xf32>, %arg12: tensor<4096xf32>, %arg13: tensor<4096x4096xf32>, %arg14: tensor<4096x4096xf32>, %arg15: tensor<4096xf32>, %arg16: tensor<4096x11008xf32>, %arg17: tensor<11008x4096xf32>, %arg18: tensor<4096xf32>, %arg19: tensor<4096x4096xf32>, %arg20: tensor<4096x4096xf32>, %arg21: tensor<4096xf32>, %arg22: tensor<4096x11008xf32>, %arg23: tensor<11008x4096xf32>, %arg24: tensor<4096xf32>, %arg25: tensor<4096x4096xf32>, %arg26: tensor<4096x4096xf32>, %arg27: tensor<4096xf32>, %arg28: tensor<4096x11008xf32>, %arg29: tensor<11008x4096xf32>, %arg30: tensor<4096xf32>, %arg31: tensor<4096x4096xf32>, %arg32: tensor<4096x4096xf32>, %arg33: tensor<4096xf32>, %arg34: tensor<4096x11008xf32>, %arg35: tensor<11008x4096xf32>, %arg36: tensor<4096xf32>, %arg37: tensor<4096x4096xf32>, %arg38: tensor<4096x4096xf32>, %arg39: tensor<4096xf32>, %arg40: tensor<4096x11008xf32>, %arg41: tensor<11008x4096xf32>, %arg42: tensor<4096xf32>, %arg43: tensor<4096x4096xf32>, %arg44: tensor<4096x4096xf32>, %arg45: tensor<4096xf32>, %arg46: tensor<4096x11008xf32>, %arg47: tensor<11008x4096xf32>, %arg48: tensor<4096xf32>, %arg49: tensor<4096x4096xf32>, %arg50: tensor<4096x4096xf32>, %arg51: tensor<4096xf32>, %arg52: tensor<4096x11008xf32>, %arg53: tensor<11008x4096xf32>, %arg54: tensor<4096xf32>, %arg55: tensor<4096x4096xf32>, %arg56: tensor<4096x4096xf32>, %arg57: tensor<4096xf32>, %arg58: tensor<4096x11008xf32>, %arg59: tensor<11008x4096xf32>, %arg60: tensor<4096xf32>, %arg61: tensor<4096x4096xf32>, %arg62: tensor<4096x4096xf32>, %arg63: tensor<4096xf32>, %arg64: tensor<4096x11008xf32>, %arg65: tensor<11008x4096xf32>, %arg66: tensor<4096xf32>, %arg67: tensor<4096x4096xf32>, %arg68: tensor<4096x4096xf32>, %arg69: tensor<4096xf32>, %arg70: tensor<4096x11008xf32>, %arg71: tensor<11008x4096xf32>, %arg72: tensor<4096xf32>, %arg73: tensor<4096x4096xf32>, %arg74: tensor<4096x4096xf32>, %arg75: tensor<4096xf32>, %arg76: tensor<4096x11008xf32>, %arg77: tensor<11008x4096xf32>, %arg78: tensor<4096xf32>, %arg79: tensor<4096x4096xf32>, %arg80: tensor<4096x4096xf32>, %arg81: tensor<4096xf32>, %arg82: tensor<4096x11008xf32>, %arg83: tensor<11008x4096xf32>, %arg84: tensor<4096xf32>, %arg85: tensor<4096x4096xf32>, %arg86: tensor<4096x4096xf32>, %arg87: tensor<4096xf32>, %arg88: tensor<4096x11008xf32>, %arg89: tensor<11008x4096xf32>, %arg90: tensor<4096xf32>, %arg91: tensor<4096x4096xf32>, %arg92: tensor<4096x4096xf32>, %arg93: tensor<4096xf32>, %arg94: tensor<4096x11008xf32>, %arg95: tensor<11008x4096xf32>, %arg96: tensor<4096xf32>, %arg97: tensor<4096x4096xf32>, %arg98: tensor<4096x4096xf32>, %arg99: tensor<4096xf32>, %arg100: tensor<4096x11008xf32>, %arg101: tensor<11008x4096xf32>, %arg102: tensor<4096xf32>, %arg103: tensor<4096x4096xf32>, %arg104: tensor<4096x4096xf32>, %arg105: tensor<4096xf32>, %arg106: tensor<4096x11008xf32>, %arg107: tensor<11008x4096xf32>, %arg108: tensor<4096xf32>, %arg109: tensor<4096x4096xf32>, %arg110: tensor<4096x4096xf32>, %arg111: tensor<4096xf32>, %arg112: tensor<4096x11008xf32>, %arg113: tensor<11008x4096xf32>, %arg114: tensor<4096xf32>, %arg115: tensor<4096x4096xf32>, %arg116: tensor<4096x4096xf32>, %arg117: tensor<4096xf32>, %arg118: tensor<4096x11008xf32>, %arg119: tensor<11008x4096xf32>, %arg120: tensor<4096xf32>, %arg121: tensor<4096x4096xf32>, %arg122: tensor<4096x4096xf32>, %arg123: tensor<4096xf32>, %arg124: tensor<4096x11008xf32>, %arg125: tensor<11008x4096xf32>, %arg126: tensor<4096xf32>, %arg127: tensor<4096x4096xf32>, %arg128: tensor<4096x4096xf32>, %arg129: tensor<4096xf32>, %arg130: tensor<4096x11008xf32>, %arg131: tensor<11008x4096xf32>, %arg132: tensor<4096xf32>, %arg133: tensor<4096x4096xf32>, %arg134: tensor<4096x4096xf32>, %arg135: tensor<4096xf32>, %arg136: tensor<4096x11008xf32>, %arg137: tensor<11008x4096xf32>, %arg138: tensor<4096xf32>, %arg139: tensor<4096x4096xf32>, %arg140: tensor<4096x4096xf32>, %arg141: tensor<4096xf32>, %arg142: tensor<4096x11008xf32>, %arg143: tensor<11008x4096xf32>, %arg144: tensor<4096xf32>, %arg145: tensor<4096x4096xf32>, %arg146: tensor<4096x4096xf32>, %arg147: tensor<4096xf32>, %arg148: tensor<4096x11008xf32>, %arg149: tensor<11008x4096xf32>, %arg150: tensor<4096xf32>, %arg151: tensor<4096x4096xf32>, %arg152: tensor<4096x4096xf32>, %arg153: tensor<4096xf32>, %arg154: tensor<4096x11008xf32>, %arg155: tensor<11008x4096xf32>, %arg156: tensor<4096xf32>, %arg157: tensor<4096x4096xf32>, %arg158: tensor<4096x4096xf32>, %arg159: tensor<4096xf32>, %arg160: tensor<4096x11008xf32>, %arg161: tensor<11008x4096xf32>, %arg162: tensor<4096xf32>, %arg163: tensor<4096x4096xf32>, %arg164: tensor<4096x4096xf32>, %arg165: tensor<4096xf32>, %arg166: tensor<4096x11008xf32>, %arg167: tensor<11008x4096xf32>, %arg168: tensor<4096xf32>, %arg169: tensor<4096x4096xf32>, %arg170: tensor<4096x4096xf32>, %arg171: tensor<4096xf32>, %arg172: tensor<4096x11008xf32>, %arg173: tensor<11008x4096xf32>, %arg174: tensor<4096xf32>, %arg175: tensor<4096x4096xf32>, %arg176: tensor<4096x4096xf32>, %arg177: tensor<4096xf32>, %arg178: tensor<4096x11008xf32>, %arg179: tensor<11008x4096xf32>, %arg180: tensor<4096xf32>, %arg181: tensor<4096x4096xf32>, %arg182: tensor<4096x4096xf32>, %arg183: tensor<4096xf32>, %arg184: tensor<4096x11008xf32>, %arg185: tensor<11008x4096xf32>, %arg186: tensor<4096xf32>, %arg187: tensor<4096x4096xf32>, %arg188: tensor<4096x4096xf32>, %arg189: tensor<4096xf32>, %arg190: tensor<4096x11008xf32>, %arg191: tensor<11008x4096xf32>, %arg192: tensor<4096xf32>, %arg193: tensor<4096x4096xf32>, %arg194: tensor<4096x4096xf32>, %arg195: tensor<4096xf32>, %arg196: tensor<2x1xi64>, %arg197: tensor<i64>, %arg198: tensor<32000x4096xf32>, %arg199: tensor<1xi64>, %arg200: tensor<i64>, %arg201: tensor<2x2304x32x128xf32>, %arg202: tensor<f32>, %arg203: tensor<4608x64xcomplex<f32>>, %arg204: tensor<4096x4096xf32>, %arg205: tensor<2x2304x32x128xf32>, %arg206: tensor<4096x4096xf32>, %arg207: tensor<11008x4096xf32>, %arg208: tensor<2x2304x32x128xf32>, %arg209: tensor<4096x4096xf32>, %arg210: tensor<2x2304x32x128xf32>, %arg211: tensor<4096x4096xf32>, %arg212: tensor<11008x4096xf32>, %arg213: tensor<2x2304x32x128xf32>, %arg214: tensor<4096x4096xf32>, %arg215: tensor<2x2304x32x128xf32>, %arg216: tensor<4096x4096xf32>, %arg217: tensor<11008x4096xf32>, %arg218: tensor<2x2304x32x128xf32>, %arg219: tensor<4096x4096xf32>, %arg220: tensor<2x2304x32x128xf32>, %arg221: tensor<4096x4096xf32>, %arg222: tensor<11008x4096xf32>, %arg223: tensor<2x2304x32x128xf32>, %arg224: tensor<4096x4096xf32>, %arg225: tensor<2x2304x32x128xf32>, %arg226: tensor<4096x4096xf32>, %arg227: tensor<11008x4096xf32>, %arg228: tensor<2x2304x32x128xf32>, %arg229: tensor<4096x4096xf32>, %arg230: tensor<2x2304x32x128xf32>, %arg231: tensor<4096x4096xf32>, %arg232: tensor<11008x4096xf32>, %arg233: tensor<2x2304x32x128xf32>, %arg234: tensor<4096x4096xf32>, %arg235: tensor<2x2304x32x128xf32>, %arg236: tensor<4096x4096xf32>, %arg237: tensor<11008x4096xf32>, %arg238: tensor<2x2304x32x128xf32>, %arg239: tensor<4096x4096xf32>, %arg240: tensor<2x2304x32x128xf32>, %arg241: tensor<4096x4096xf32>, %arg242: tensor<11008x4096xf32>, %arg243: tensor<2x2304x32x128xf32>, %arg244: tensor<4096x4096xf32>, %arg245: tensor<2x2304x32x128xf32>, %arg246: tensor<4096x4096xf32>, %arg247: tensor<11008x4096xf32>, %arg248: tensor<2x2304x32x128xf32>, %arg249: tensor<4096x4096xf32>, %arg250: tensor<2x2304x32x128xf32>, %arg251: tensor<4096x4096xf32>, %arg252: tensor<11008x4096xf32>, %arg253: tensor<2x2304x32x128xf32>, %arg254: tensor<4096x4096xf32>, %arg255: tensor<2x2304x32x128xf32>, %arg256: tensor<4096x4096xf32>, %arg257: tensor<11008x4096xf32>, %arg258: tensor<2x2304x32x128xf32>, %arg259: tensor<4096x4096xf32>, %arg260: tensor<2x2304x32x128xf32>, %arg261: tensor<4096x4096xf32>, %arg262: tensor<11008x4096xf32>, %arg263: tensor<2x2304x32x128xf32>, %arg264: tensor<4096x4096xf32>, %arg265: tensor<2x2304x32x128xf32>, %arg266: tensor<4096x4096xf32>, %arg267: tensor<11008x4096xf32>, %arg268: tensor<2x2304x32x128xf32>, %arg269: tensor<4096x4096xf32>, %arg270: tensor<2x2304x32x128xf32>, %arg271: tensor<4096x4096xf32>, %arg272: tensor<11008x4096xf32>, %arg273: tensor<2x2304x32x128xf32>, %arg274: tensor<4096x4096xf32>, %arg275: tensor<2x2304x32x128xf32>, %arg276: tensor<4096x4096xf32>, %arg277: tensor<11008x4096xf32>, %arg278: tensor<2x2304x32x128xf32>, %arg279: tensor<4096x4096xf32>, %arg280: tensor<2x2304x32x128xf32>, %arg281: tensor<4096x4096xf32>, %arg282: tensor<11008x4096xf32>, %arg283: tensor<2x2304x32x128xf32>, %arg284: tensor<4096x4096xf32>, %arg285: tensor<2x2304x32x128xf32>, %arg286: tensor<4096x4096xf32>, %arg287: tensor<11008x4096xf32>, %arg288: tensor<2x2304x32x128xf32>, %arg289: tensor<4096x4096xf32>, %arg290: tensor<2x2304x32x128xf32>, %arg291: tensor<4096x4096xf32>, %arg292: tensor<11008x4096xf32>, %arg293: tensor<2x2304x32x128xf32>, %arg294: tensor<4096x4096xf32>, %arg295: tensor<2x2304x32x128xf32>, %arg296: tensor<4096x4096xf32>, %arg297: tensor<11008x4096xf32>, %arg298: tensor<2x2304x32x128xf32>, %arg299: tensor<4096x4096xf32>, %arg300: tensor<2x2304x32x128xf32>, %arg301: tensor<4096x4096xf32>, %arg302: tensor<11008x4096xf32>, %arg303: tensor<2x2304x32x128xf32>, %arg304: tensor<4096x4096xf32>, %arg305: tensor<2x2304x32x128xf32>, %arg306: tensor<4096x4096xf32>, %arg307: tensor<11008x4096xf32>, %arg308: tensor<2x2304x32x128xf32>, %arg309: tensor<4096x4096xf32>, %arg310: tensor<2x2304x32x128xf32>, %arg311: tensor<4096x4096xf32>, %arg312: tensor<11008x4096xf32>, %arg313: tensor<2x2304x32x128xf32>, %arg314: tensor<4096x4096xf32>, %arg315: tensor<2x2304x32x128xf32>, %arg316: tensor<4096x4096xf32>, %arg317: tensor<11008x4096xf32>, %arg318: tensor<2x2304x32x128xf32>, %arg319: tensor<4096x4096xf32>, %arg320: tensor<2x2304x32x128xf32>, %arg321: tensor<4096x4096xf32>, %arg322: tensor<11008x4096xf32>, %arg323: tensor<2x2304x32x128xf32>, %arg324: tensor<4096x4096xf32>, %arg325: tensor<2x2304x32x128xf32>, %arg326: tensor<4096x4096xf32>, %arg327: tensor<11008x4096xf32>, %arg328: tensor<2x2304x32x128xf32>, %arg329: tensor<4096x4096xf32>, %arg330: tensor<2x2304x32x128xf32>, %arg331: tensor<4096x4096xf32>, %arg332: tensor<11008x4096xf32>, %arg333: tensor<2x2304x32x128xf32>, %arg334: tensor<4096x4096xf32>, %arg335: tensor<2x2304x32x128xf32>, %arg336: tensor<4096x4096xf32>, %arg337: tensor<11008x4096xf32>, %arg338: tensor<2x2304x32x128xf32>, %arg339: tensor<4096x4096xf32>, %arg340: tensor<2x2304x32x128xf32>, %arg341: tensor<4096x4096xf32>, %arg342: tensor<11008x4096xf32>, %arg343: tensor<2x2304x32x128xf32>, %arg344: tensor<4096x4096xf32>, %arg345: tensor<2x2304x32x128xf32>, %arg346: tensor<4096x4096xf32>, %arg347: tensor<11008x4096xf32>, %arg348: tensor<2x2304x32x128xf32>, %arg349: tensor<4096x4096xf32>, %arg350: tensor<2x2304x32x128xf32>, %arg351: tensor<4096x4096xf32>, %arg352: tensor<11008x4096xf32>, %arg353: tensor<2x2304x32x128xf32>, %arg354: tensor<4096x4096xf32>, %arg355: tensor<2x2304x32x128xf32>, %arg356: tensor<4096x4096xf32>, %arg357: tensor<11008x4096xf32>, %arg358: tensor<2x2304x32x128xf32>, %arg359: tensor<4096x4096xf32>, %arg360: tensor<2x2304x32x128xf32>, %arg361: tensor<4096x4096xf32>, %arg362: tensor<11008x4096xf32>) -> (tensor<2x1x32000xf32>, tensor<2x2304x32x128xf32>, tensor<2x2304x32x128xf32>, tensor<2x2304x32x128xf32>, tensor<2x2304x32x128xf32>, tensor<2x2304x32x128xf32>, tensor<2x2304x32x128xf32>, tensor<2x2304x32x128xf32>, tensor<2x2304x32x128xf32>, tensor<2x2304x32x128xf32>, tensor<2x2304x32x128xf32>, tensor<2x2304x32x128xf32>, tensor<2x2304x32x128xf32>, tensor<2x2304x32x128xf32>, tensor<2x2304x32x128xf32>, tensor<2x2304x32x128xf32>, tensor<2x2304x32x128xf32>, tensor<2x2304x32x128xf32>, tensor<2x2304x32x128xf32>, tensor<2x2304x32x128xf32>, tensor<2x2304x32x128xf32>, tensor<2x2304x32x128xf32>, tensor<2x2304x32x128xf32>, tensor<2x2304x32x128xf32>, tensor<2x2304x32x128xf32>, tensor<2x2304x32x128xf32>, tensor<2x2304x32x128xf32>, tensor<2x2304x32x128xf32>, tensor<2x2304x32x128xf32>, tensor<2x2304x32x128xf32>, tensor<2x2304x32x128xf32>, tensor<2x2304x32x128xf32>, tensor<2x2304x32x128xf32>, tensor<2x2304x32x128xf32>, tensor<2x2304x32x128xf32>, tensor<2x2304x32x128xf32>, tensor<2x2304x32x128xf32>, tensor<2x2304x32x128xf32>, tensor<2x2304x32x128xf32>, tensor<2x2304x32x128xf32>, tensor<2x2304x32x128xf32>, tensor<2x2304x32x128xf32>, tensor<2x2304x32x128xf32>, tensor<2x2304x32x128xf32>, tensor<2x2304x32x128xf32>, tensor<2x2304x32x128xf32>, tensor<2x2304x32x128xf32>, tensor<2x2304x32x128xf32>, tensor<2x2304x32x128xf32>, tensor<2x2304x32x128xf32>, tensor<2x2304x32x128xf32>, tensor<2x2304x32x128xf32>, tensor<2x2304x32x128xf32>, tensor<2x2304x32x128xf32>, tensor<2x2304x32x128xf32>, tensor<2x2304x32x128xf32>, tensor<2x2304x32x128xf32>, tensor<2x2304x32x128xf32>, tensor<2x2304x32x128xf32>, tensor<2x2304x32x128xf32>, tensor<2x2304x32x128xf32>, tensor<2x2304x32x128xf32>, tensor<2x2304x32x128xf32>, tensor<2x2304x32x128xf32>, tensor<2x2304x32x128xf32>) {
    %0 = stablehlo.constant dense<2.44140625E-4> : tensor<2x1xf32>
    %1 = stablehlo.constant dense<2.000000e+00> : tensor<2x1x4096xf32>
    %2 = stablehlo.constant dense<0> : tensor<1xi64>
    %3 = stablehlo.constant dense<0> : tensor<2x1xi64>
    %4 = stablehlo.constant dense<0xFF800000> : tensor<f32>
    %5 = stablehlo.constant dense<0.000000e+00> : tensor<f32>
    %6 = stablehlo.compare  LT, %arg196, %3 : (tensor<2x1xi64>, tensor<2x1xi64>) -> tensor<2x1xi1>
    %7 = stablehlo.reshape %arg197 : (tensor<i64>) -> tensor<1xi64>
    %8 = stablehlo.broadcast_in_dim %7, dims = [1] : (tensor<1xi64>) -> tensor<2x1xi64>
    %9 = stablehlo.add %arg196, %8 : tensor<2x1xi64>
    %10 = stablehlo.select %6, %9, %arg196 : tensor<2x1xi1>, tensor<2x1xi64>
    %11 = stablehlo.reshape %10 : (tensor<2x1xi64>) -> tensor<2x1x1xi64>
    %12 = "stablehlo.gather"(%arg198, %11) {dimension_numbers = #stablehlo.gather<offset_dims = [2], collapsed_slice_dims = [0], start_index_map = [0], index_vector_dim = 2>, indices_are_sorted = false, slice_sizes = dense<[1, 4096]> : tensor<2xi64>} : (tensor<32000x4096xf32>, tensor<2x1x1xi64>) -> tensor<2x1x4096xf32>
    %13 = stablehlo.power %12, %1 : tensor<2x1x4096xf32>
    %14 = stablehlo.reduce(%13 init: %5) across dimensions = [2] : (tensor<2x1x4096xf32>, tensor<f32>) -> tensor<2x1xf32>
     reducer(%arg363: tensor<f32>, %arg364: tensor<f32>)  {
      %3743 = stablehlo.add %arg363, %arg364 : tensor<f32>
      stablehlo.return %3743 : tensor<f32>
    }
    %15 = stablehlo.multiply %14, %0 : tensor<2x1xf32>
    %16 = stablehlo.reshape %15 : (tensor<2x1xf32>) -> tensor<2x1x1xf32>
    %17 = stablehlo.broadcast_in_dim %arg2, dims = [] : (tensor<f32>) -> tensor<2x1x1xf32>
    %18 = stablehlo.add %16, %17 : tensor<2x1x1xf32>
    %19 = stablehlo.rsqrt %18 : tensor<2x1x1xf32>
    %20 = stablehlo.reshape %19 : (tensor<2x1x1xf32>) -> tensor<2x1xf32>
    %21 = stablehlo.broadcast_in_dim %20, dims = [0, 1] : (tensor<2x1xf32>) -> tensor<2x1x4096xf32>
    %22 = stablehlo.multiply %12, %21 : tensor<2x1x4096xf32>
    %23 = stablehlo.broadcast_in_dim %arg195, dims = [2] : (tensor<4096xf32>) -> tensor<2x1x4096xf32>
    %24 = stablehlo.multiply %22, %23 : tensor<2x1x4096xf32>
    %25 = stablehlo.reshape %24 : (tensor<2x1x4096xf32>) -> tensor<2x4096xf32>
    %26 = stablehlo.transpose %arg206, dims = [1, 0] {result_layout = dense<[0, 1]> : tensor<2xindex>, xla_shape = "f32[4096,4096]{0,1}"} : (tensor<4096x4096xf32>) -> tensor<4096x4096xf32>
    %27 = stablehlo.dot %25, %26, precision = [DEFAULT, DEFAULT] : (tensor<2x4096xf32>, tensor<4096x4096xf32>) -> tensor<2x4096xf32>
    %28 = stablehlo.reshape %27 : (tensor<2x4096xf32>) -> tensor<2x1x32x64x2xf32>
    %29 = stablehlo.slice %28 [0:2, 0:1, 0:32, 0:64, 0:1] : (tensor<2x1x32x64x2xf32>) -> tensor<2x1x32x64x1xf32>
    %30 = stablehlo.reshape %29 : (tensor<2x1x32x64x1xf32>) -> tensor<2x1x32x64xf32>
    %31 = stablehlo.slice %28 [0:2, 0:1, 0:32, 0:64, 1:2] : (tensor<2x1x32x64x2xf32>) -> tensor<2x1x32x64x1xf32>
    %32 = stablehlo.reshape %31 : (tensor<2x1x32x64x1xf32>) -> tensor<2x1x32x64xf32>
    %33 = stablehlo.complex %30, %32 : tensor<2x1x32x64xcomplex<f32>>
    %34 = stablehlo.convert %arg199 : (tensor<1xi64>) -> tensor<1xui32>
    %35 = "stablehlo.gather"(%arg203, %34) {dimension_numbers = #stablehlo.gather<offset_dims = [1], collapsed_slice_dims = [0], start_index_map = [0], index_vector_dim = 1>, indices_are_sorted = false, slice_sizes = dense<[1, 64]> : tensor<2xi64>} : (tensor<4608x64xcomplex<f32>>, tensor<1xui32>) -> tensor<1x64xcomplex<f32>>
    %36 = stablehlo.broadcast_in_dim %35, dims = [1, 3] : (tensor<1x64xcomplex<f32>>) -> tensor<2x1x32x64xcomplex<f32>>
    %37 = stablehlo.multiply %33, %36 : tensor<2x1x32x64xcomplex<f32>>
    %38 = stablehlo.real %37 : (tensor<2x1x32x64xcomplex<f32>>) -> tensor<2x1x32x64xf32>
    %39 = stablehlo.reshape %38 : (tensor<2x1x32x64xf32>) -> tensor<2x1x32x64x1xf32>
    %40 = stablehlo.imag %37 : (tensor<2x1x32x64xcomplex<f32>>) -> tensor<2x1x32x64xf32>
    %41 = stablehlo.reshape %40 : (tensor<2x1x32x64xf32>) -> tensor<2x1x32x64x1xf32>
    %42 = stablehlo.concatenate %39, %41, dim = 4 : (tensor<2x1x32x64x1xf32>, tensor<2x1x32x64x1xf32>) -> tensor<2x1x32x64x2xf32>
    %43 = stablehlo.reshape %42 : (tensor<2x1x32x64x2xf32>) -> tensor<64x1x128xf32>
    %44 = stablehlo.compare  LT, %arg199, %2 : (tensor<1xi64>, tensor<1xi64>) -> tensor<1xi1>
    %45 = stablehlo.reshape %arg200 : (tensor<i64>) -> tensor<1xi64>
    %46 = stablehlo.add %arg199, %45 : tensor<1xi64>
    %47 = stablehlo.select %44, %46, %arg199 : tensor<1xi1>, tensor<1xi64>
    %48 = stablehlo.reshape %47 : (tensor<1xi64>) -> tensor<1x1xi64>
    %49 = stablehlo.reshape %24 : (tensor<2x1x4096xf32>) -> tensor<2x4096xf32>
    %50 = stablehlo.transpose %arg204, dims = [1, 0] {result_layout = dense<[0, 1]> : tensor<2xindex>, xla_shape = "f32[4096,4096]{0,1}"} : (tensor<4096x4096xf32>) -> tensor<4096x4096xf32>
    %51 = stablehlo.dot %49, %50, precision = [DEFAULT, DEFAULT] : (tensor<2x4096xf32>, tensor<4096x4096xf32>) -> tensor<2x4096xf32>
    %52 = stablehlo.reshape %51 : (tensor<2x4096xf32>) -> tensor<2x1x32x64x2xf32>
    %53 = stablehlo.slice %52 [0:2, 0:1, 0:32, 0:64, 0:1] : (tensor<2x1x32x64x2xf32>) -> tensor<2x1x32x64x1xf32>
    %54 = stablehlo.reshape %53 : (tensor<2x1x32x64x1xf32>) -> tensor<2x1x32x64xf32>
    %55 = stablehlo.slice %52 [0:2, 0:1, 0:32, 0:64, 1:2] : (tensor<2x1x32x64x2xf32>) -> tensor<2x1x32x64x1xf32>
    %56 = stablehlo.reshape %55 : (tensor<2x1x32x64x1xf32>) -> tensor<2x1x32x64xf32>
    %57 = stablehlo.complex %54, %56 : tensor<2x1x32x64xcomplex<f32>>
    %58 = stablehlo.broadcast_in_dim %35, dims = [1, 3] : (tensor<1x64xcomplex<f32>>) -> tensor<2x1x32x64xcomplex<f32>>
    %59 = stablehlo.multiply %57, %58 : tensor<2x1x32x64xcomplex<f32>>
    %60 = stablehlo.real %59 : (tensor<2x1x32x64xcomplex<f32>>) -> tensor<2x1x32x64xf32>
    %61 = stablehlo.reshape %60 : (tensor<2x1x32x64xf32>) -> tensor<2x1x32x64x1xf32>
    %62 = stablehlo.imag %59 : (tensor<2x1x32x64xcomplex<f32>>) -> tensor<2x1x32x64xf32>
    %63 = stablehlo.reshape %62 : (tensor<2x1x32x64xf32>) -> tensor<2x1x32x64x1xf32>
    %64 = stablehlo.concatenate %61, %63, dim = 4 : (tensor<2x1x32x64x1xf32>, tensor<2x1x32x64x1xf32>) -> tensor<2x1x32x64x2xf32>
    %65 = stablehlo.reshape %64 : (tensor<2x1x32x64x2xf32>) -> tensor<2x1x32x128xf32>
    %66 = "stablehlo.scatter"(%arg205, %48, %65) ({
    ^bb0(%arg363: tensor<f32>, %arg364: tensor<f32>):
      stablehlo.return %arg364 : tensor<f32>
    }) {indices_are_sorted = false, scatter_dimension_numbers = #stablehlo.scatter<update_window_dims = [0, 2, 3], inserted_window_dims = [1], scatter_dims_to_operand_dims = [1], index_vector_dim = 1>, unique_indices = false} : (tensor<2x2304x32x128xf32>, tensor<1x1xi64>, tensor<2x1x32x128xf32>) -> tensor<2x2304x32x128xf32>
    %67 = stablehlo.convert %arg7 : (tensor<2048xi64>) -> tensor<2048xui32>
    %68 = "stablehlo.gather"(%66, %67) {dimension_numbers = #stablehlo.gather<offset_dims = [0, 2, 3], collapsed_slice_dims = [1], start_index_map = [1], index_vector_dim = 1>, indices_are_sorted = false, slice_sizes = dense<[2, 1, 32, 128]> : tensor<4xi64>} : (tensor<2x2304x32x128xf32>, tensor<2048xui32>) -> tensor<2x2048x32x128xf32>
    %69 = stablehlo.transpose %68, dims = [0, 2, 3, 1] : (tensor<2x2048x32x128xf32>) -> tensor<2x32x128x2048xf32>
    %70 = stablehlo.reshape %69 : (tensor<2x32x128x2048xf32>) -> tensor<64x128x2048xf32>
    %71 = stablehlo.dot_general %43, %70, batching_dims = [0] x [0], contracting_dims = [2] x [1], precision = [DEFAULT, DEFAULT] : (tensor<64x1x128xf32>, tensor<64x128x2048xf32>) -> tensor<64x1x2048xf32>
    %72 = stablehlo.reshape %71 : (tensor<64x1x2048xf32>) -> tensor<2x32x1x2048xf32>
    %73 = stablehlo.broadcast_in_dim %arg202, dims = [] : (tensor<f32>) -> tensor<2x32x1x2048xf32>
    %74 = stablehlo.divide %72, %73 : tensor<2x32x1x2048xf32>
    %75 = stablehlo.reduce(%74 init: %4) across dimensions = [3] : (tensor<2x32x1x2048xf32>, tensor<f32>) -> tensor<2x32x1xf32>
     reducer(%arg363: tensor<f32>, %arg364: tensor<f32>)  {
      %3743 = stablehlo.maximum %arg363, %arg364 : tensor<f32>
      stablehlo.return %3743 : tensor<f32>
    }
    %76 = stablehlo.broadcast_in_dim %75, dims = [0, 1, 2] : (tensor<2x32x1xf32>) -> tensor<2x32x1x2048xf32>
    %77 = stablehlo.subtract %74, %76 : tensor<2x32x1x2048xf32>
    %78 = stablehlo.exponential %77 : tensor<2x32x1x2048xf32>
    %79 = stablehlo.reduce(%78 init: %5) across dimensions = [3] : (tensor<2x32x1x2048xf32>, tensor<f32>) -> tensor<2x32x1xf32>
     reducer(%arg363: tensor<f32>, %arg364: tensor<f32>)  {
      %3743 = stablehlo.add %arg363, %arg364 : tensor<f32>
      stablehlo.return %3743 : tensor<f32>
    }
    %80 = stablehlo.broadcast_in_dim %79, dims = [0, 1, 2] : (tensor<2x32x1xf32>) -> tensor<2x32x1x2048xf32>
    %81 = stablehlo.divide %78, %80 : tensor<2x32x1x2048xf32>
    %82 = stablehlo.reshape %81 : (tensor<2x32x1x2048xf32>) -> tensor<64x1x2048xf32>
    %83 = stablehlo.compare  LT, %arg199, %2 : (tensor<1xi64>, tensor<1xi64>) -> tensor<1xi1>
    %84 = stablehlo.reshape %arg200 : (tensor<i64>) -> tensor<1xi64>
    %85 = stablehlo.add %arg199, %84 : tensor<1xi64>
    %86 = stablehlo.select %83, %85, %arg199 : tensor<1xi1>, tensor<1xi64>
    %87 = stablehlo.reshape %86 : (tensor<1xi64>) -> tensor<1x1xi64>
    %88 = stablehlo.reshape %24 : (tensor<2x1x4096xf32>) -> tensor<2x4096xf32>
    %89 = stablehlo.transpose %arg194, dims = [1, 0] {result_layout = dense<[0, 1]> : tensor<2xindex>, xla_shape = "f32[4096,4096]{0,1}"} : (tensor<4096x4096xf32>) -> tensor<4096x4096xf32>
    %90 = stablehlo.dot %88, %89, precision = [DEFAULT, DEFAULT] : (tensor<2x4096xf32>, tensor<4096x4096xf32>) -> tensor<2x4096xf32>
    %91 = stablehlo.reshape %90 : (tensor<2x4096xf32>) -> tensor<2x1x32x128xf32>
    %92 = "stablehlo.scatter"(%arg201, %87, %91) ({
    ^bb0(%arg363: tensor<f32>, %arg364: tensor<f32>):
      stablehlo.return %arg364 : tensor<f32>
    }) {indices_are_sorted = false, scatter_dimension_numbers = #stablehlo.scatter<update_window_dims = [0, 2, 3], inserted_window_dims = [1], scatter_dims_to_operand_dims = [1], index_vector_dim = 1>, unique_indices = false} : (tensor<2x2304x32x128xf32>, tensor<1x1xi64>, tensor<2x1x32x128xf32>) -> tensor<2x2304x32x128xf32>
    %93 = stablehlo.convert %arg7 : (tensor<2048xi64>) -> tensor<2048xui32>
    %94 = "stablehlo.gather"(%92, %93) {dimension_numbers = #stablehlo.gather<offset_dims = [0, 2, 3], collapsed_slice_dims = [1], start_index_map = [1], index_vector_dim = 1>, indices_are_sorted = false, slice_sizes = dense<[2, 1, 32, 128]> : tensor<4xi64>} : (tensor<2x2304x32x128xf32>, tensor<2048xui32>) -> tensor<2x2048x32x128xf32>
    %95 = stablehlo.transpose %94, dims = [0, 2, 1, 3] {result_layout = dense<[3, 1, 2, 0]> : tensor<4xindex>, xla_shape = "f32[2,32,2048,128]{3,1,2,0}"} : (tensor<2x2048x32x128xf32>) -> tensor<2x32x2048x128xf32>
    %96 = stablehlo.reshape %95 : (tensor<2x32x2048x128xf32>) -> tensor<64x2048x128xf32>
    %97 = stablehlo.dot_general %82, %96, batching_dims = [0] x [0], contracting_dims = [2] x [1], precision = [DEFAULT, DEFAULT] : (tensor<64x1x2048xf32>, tensor<64x2048x128xf32>) -> tensor<64x1x128xf32>
    %98 = stablehlo.reshape %97 : (tensor<64x1x128xf32>) -> tensor<2x4096xf32>
    %99 = stablehlo.transpose %arg193, dims = [1, 0] {result_layout = dense<[0, 1]> : tensor<2xindex>, xla_shape = "f32[4096,4096]{0,1}"} : (tensor<4096x4096xf32>) -> tensor<4096x4096xf32>
    %100 = stablehlo.dot %98, %99, precision = [DEFAULT, DEFAULT] : (tensor<2x4096xf32>, tensor<4096x4096xf32>) -> tensor<2x4096xf32>
    %101 = stablehlo.reshape %100 : (tensor<2x4096xf32>) -> tensor<2x1x4096xf32>
    %102 = stablehlo.add %12, %101 : tensor<2x1x4096xf32>
    %103 = stablehlo.power %102, %1 : tensor<2x1x4096xf32>
    %104 = stablehlo.reduce(%103 init: %5) across dimensions = [2] : (tensor<2x1x4096xf32>, tensor<f32>) -> tensor<2x1xf32>
     reducer(%arg363: tensor<f32>, %arg364: tensor<f32>)  {
      %3743 = stablehlo.add %arg363, %arg364 : tensor<f32>
      stablehlo.return %3743 : tensor<f32>
    }
    %105 = stablehlo.multiply %104, %0 : tensor<2x1xf32>
    %106 = stablehlo.reshape %105 : (tensor<2x1xf32>) -> tensor<2x1x1xf32>
    %107 = stablehlo.broadcast_in_dim %arg2, dims = [] : (tensor<f32>) -> tensor<2x1x1xf32>
    %108 = stablehlo.add %106, %107 : tensor<2x1x1xf32>
    %109 = stablehlo.rsqrt %108 : tensor<2x1x1xf32>
    %110 = stablehlo.reshape %109 : (tensor<2x1x1xf32>) -> tensor<2x1xf32>
    %111 = stablehlo.broadcast_in_dim %110, dims = [0, 1] : (tensor<2x1xf32>) -> tensor<2x1x4096xf32>
    %112 = stablehlo.multiply %102, %111 : tensor<2x1x4096xf32>
    %113 = stablehlo.broadcast_in_dim %arg192, dims = [2] : (tensor<4096xf32>) -> tensor<2x1x4096xf32>
    %114 = stablehlo.multiply %112, %113 : tensor<2x1x4096xf32>
    %115 = stablehlo.reshape %114 : (tensor<2x1x4096xf32>) -> tensor<2x4096xf32>
    %116 = stablehlo.transpose %arg207, dims = [1, 0] {result_layout = dense<[0, 1]> : tensor<2xindex>, xla_shape = "f32[4096,11008]{0,1}"} : (tensor<11008x4096xf32>) -> tensor<4096x11008xf32>
    %117 = stablehlo.dot %115, %116, precision = [DEFAULT, DEFAULT] : (tensor<2x4096xf32>, tensor<4096x11008xf32>) -> tensor<2x11008xf32>
    %118 = stablehlo.reshape %117 : (tensor<2x11008xf32>) -> tensor<2x1x11008xf32>
    %119 = stablehlo.logistic %118 : tensor<2x1x11008xf32>
    %120 = stablehlo.multiply %118, %119 : tensor<2x1x11008xf32>
    %121 = stablehlo.reshape %114 : (tensor<2x1x4096xf32>) -> tensor<2x4096xf32>
    %122 = stablehlo.transpose %arg191, dims = [1, 0] {result_layout = dense<[0, 1]> : tensor<2xindex>, xla_shape = "f32[4096,11008]{0,1}"} : (tensor<11008x4096xf32>) -> tensor<4096x11008xf32>
    %123 = stablehlo.dot %121, %122, precision = [DEFAULT, DEFAULT] : (tensor<2x4096xf32>, tensor<4096x11008xf32>) -> tensor<2x11008xf32>
    %124 = stablehlo.reshape %123 : (tensor<2x11008xf32>) -> tensor<2x1x11008xf32>
    %125 = stablehlo.multiply %120, %124 : tensor<2x1x11008xf32>
    %126 = stablehlo.reshape %125 : (tensor<2x1x11008xf32>) -> tensor<2x11008xf32>
    %127 = stablehlo.transpose %arg190, dims = [1, 0] {result_layout = dense<[0, 1]> : tensor<2xindex>, xla_shape = "f32[11008,4096]{0,1}"} : (tensor<4096x11008xf32>) -> tensor<11008x4096xf32>
    %128 = stablehlo.dot %126, %127, precision = [DEFAULT, DEFAULT] : (tensor<2x11008xf32>, tensor<11008x4096xf32>) -> tensor<2x4096xf32>
    %129 = stablehlo.reshape %128 : (tensor<2x4096xf32>) -> tensor<2x1x4096xf32>
    %130 = stablehlo.add %102, %129 : tensor<2x1x4096xf32>
    %131 = stablehlo.power %130, %1 : tensor<2x1x4096xf32>
    %132 = stablehlo.reduce(%131 init: %5) across dimensions = [2] : (tensor<2x1x4096xf32>, tensor<f32>) -> tensor<2x1xf32>
     reducer(%arg363: tensor<f32>, %arg364: tensor<f32>)  {
      %3743 = stablehlo.add %arg363, %arg364 : tensor<f32>
      stablehlo.return %3743 : tensor<f32>
    }
    %133 = stablehlo.multiply %132, %0 : tensor<2x1xf32>
    %134 = stablehlo.reshape %133 : (tensor<2x1xf32>) -> tensor<2x1x1xf32>
    %135 = stablehlo.broadcast_in_dim %arg2, dims = [] : (tensor<f32>) -> tensor<2x1x1xf32>
    %136 = stablehlo.add %134, %135 : tensor<2x1x1xf32>
    %137 = stablehlo.rsqrt %136 : tensor<2x1x1xf32>
    %138 = stablehlo.reshape %137 : (tensor<2x1x1xf32>) -> tensor<2x1xf32>
    %139 = stablehlo.broadcast_in_dim %138, dims = [0, 1] : (tensor<2x1xf32>) -> tensor<2x1x4096xf32>
    %140 = stablehlo.multiply %130, %139 : tensor<2x1x4096xf32>
    %141 = stablehlo.broadcast_in_dim %arg189, dims = [2] : (tensor<4096xf32>) -> tensor<2x1x4096xf32>
    %142 = stablehlo.multiply %140, %141 : tensor<2x1x4096xf32>
    %143 = stablehlo.reshape %142 : (tensor<2x1x4096xf32>) -> tensor<2x4096xf32>
    %144 = stablehlo.transpose %arg211, dims = [1, 0] {result_layout = dense<[0, 1]> : tensor<2xindex>, xla_shape = "f32[4096,4096]{0,1}"} : (tensor<4096x4096xf32>) -> tensor<4096x4096xf32>
    %145 = stablehlo.dot %143, %144, precision = [DEFAULT, DEFAULT] : (tensor<2x4096xf32>, tensor<4096x4096xf32>) -> tensor<2x4096xf32>
    %146 = stablehlo.reshape %145 : (tensor<2x4096xf32>) -> tensor<2x1x32x64x2xf32>
    %147 = stablehlo.slice %146 [0:2, 0:1, 0:32, 0:64, 0:1] : (tensor<2x1x32x64x2xf32>) -> tensor<2x1x32x64x1xf32>
    %148 = stablehlo.reshape %147 : (tensor<2x1x32x64x1xf32>) -> tensor<2x1x32x64xf32>
    %149 = stablehlo.slice %146 [0:2, 0:1, 0:32, 0:64, 1:2] : (tensor<2x1x32x64x2xf32>) -> tensor<2x1x32x64x1xf32>
    %150 = stablehlo.reshape %149 : (tensor<2x1x32x64x1xf32>) -> tensor<2x1x32x64xf32>
    %151 = stablehlo.complex %148, %150 : tensor<2x1x32x64xcomplex<f32>>
    %152 = stablehlo.broadcast_in_dim %35, dims = [1, 3] : (tensor<1x64xcomplex<f32>>) -> tensor<2x1x32x64xcomplex<f32>>
    %153 = stablehlo.multiply %151, %152 : tensor<2x1x32x64xcomplex<f32>>
    %154 = stablehlo.real %153 : (tensor<2x1x32x64xcomplex<f32>>) -> tensor<2x1x32x64xf32>
    %155 = stablehlo.reshape %154 : (tensor<2x1x32x64xf32>) -> tensor<2x1x32x64x1xf32>
    %156 = stablehlo.imag %153 : (tensor<2x1x32x64xcomplex<f32>>) -> tensor<2x1x32x64xf32>
    %157 = stablehlo.reshape %156 : (tensor<2x1x32x64xf32>) -> tensor<2x1x32x64x1xf32>
    %158 = stablehlo.concatenate %155, %157, dim = 4 : (tensor<2x1x32x64x1xf32>, tensor<2x1x32x64x1xf32>) -> tensor<2x1x32x64x2xf32>
    %159 = stablehlo.reshape %158 : (tensor<2x1x32x64x2xf32>) -> tensor<64x1x128xf32>
    %160 = stablehlo.compare  LT, %arg199, %2 : (tensor<1xi64>, tensor<1xi64>) -> tensor<1xi1>
    %161 = stablehlo.reshape %arg200 : (tensor<i64>) -> tensor<1xi64>
    %162 = stablehlo.add %arg199, %161 : tensor<1xi64>
    %163 = stablehlo.select %160, %162, %arg199 : tensor<1xi1>, tensor<1xi64>
    %164 = stablehlo.reshape %163 : (tensor<1xi64>) -> tensor<1x1xi64>
    %165 = stablehlo.reshape %142 : (tensor<2x1x4096xf32>) -> tensor<2x4096xf32>
    %166 = stablehlo.transpose %arg209, dims = [1, 0] {result_layout = dense<[0, 1]> : tensor<2xindex>, xla_shape = "f32[4096,4096]{0,1}"} : (tensor<4096x4096xf32>) -> tensor<4096x4096xf32>
    %167 = stablehlo.dot %165, %166, precision = [DEFAULT, DEFAULT] : (tensor<2x4096xf32>, tensor<4096x4096xf32>) -> tensor<2x4096xf32>
    %168 = stablehlo.reshape %167 : (tensor<2x4096xf32>) -> tensor<2x1x32x64x2xf32>
    %169 = stablehlo.slice %168 [0:2, 0:1, 0:32, 0:64, 0:1] : (tensor<2x1x32x64x2xf32>) -> tensor<2x1x32x64x1xf32>
    %170 = stablehlo.reshape %169 : (tensor<2x1x32x64x1xf32>) -> tensor<2x1x32x64xf32>
    %171 = stablehlo.slice %168 [0:2, 0:1, 0:32, 0:64, 1:2] : (tensor<2x1x32x64x2xf32>) -> tensor<2x1x32x64x1xf32>
    %172 = stablehlo.reshape %171 : (tensor<2x1x32x64x1xf32>) -> tensor<2x1x32x64xf32>
    %173 = stablehlo.complex %170, %172 : tensor<2x1x32x64xcomplex<f32>>
    %174 = stablehlo.broadcast_in_dim %35, dims = [1, 3] : (tensor<1x64xcomplex<f32>>) -> tensor<2x1x32x64xcomplex<f32>>
    %175 = stablehlo.multiply %173, %174 : tensor<2x1x32x64xcomplex<f32>>
    %176 = stablehlo.real %175 : (tensor<2x1x32x64xcomplex<f32>>) -> tensor<2x1x32x64xf32>
    %177 = stablehlo.reshape %176 : (tensor<2x1x32x64xf32>) -> tensor<2x1x32x64x1xf32>
    %178 = stablehlo.imag %175 : (tensor<2x1x32x64xcomplex<f32>>) -> tensor<2x1x32x64xf32>
    %179 = stablehlo.reshape %178 : (tensor<2x1x32x64xf32>) -> tensor<2x1x32x64x1xf32>
    %180 = stablehlo.concatenate %177, %179, dim = 4 : (tensor<2x1x32x64x1xf32>, tensor<2x1x32x64x1xf32>) -> tensor<2x1x32x64x2xf32>
    %181 = stablehlo.reshape %180 : (tensor<2x1x32x64x2xf32>) -> tensor<2x1x32x128xf32>
    %182 = "stablehlo.scatter"(%arg210, %164, %181) ({
    ^bb0(%arg363: tensor<f32>, %arg364: tensor<f32>):
      stablehlo.return %arg364 : tensor<f32>
    }) {indices_are_sorted = false, scatter_dimension_numbers = #stablehlo.scatter<update_window_dims = [0, 2, 3], inserted_window_dims = [1], scatter_dims_to_operand_dims = [1], index_vector_dim = 1>, unique_indices = false} : (tensor<2x2304x32x128xf32>, tensor<1x1xi64>, tensor<2x1x32x128xf32>) -> tensor<2x2304x32x128xf32>
    %183 = stablehlo.convert %arg7 : (tensor<2048xi64>) -> tensor<2048xui32>
    %184 = "stablehlo.gather"(%182, %183) {dimension_numbers = #stablehlo.gather<offset_dims = [0, 2, 3], collapsed_slice_dims = [1], start_index_map = [1], index_vector_dim = 1>, indices_are_sorted = false, slice_sizes = dense<[2, 1, 32, 128]> : tensor<4xi64>} : (tensor<2x2304x32x128xf32>, tensor<2048xui32>) -> tensor<2x2048x32x128xf32>
    %185 = stablehlo.transpose %184, dims = [0, 2, 3, 1] : (tensor<2x2048x32x128xf32>) -> tensor<2x32x128x2048xf32>
    %186 = stablehlo.reshape %185 : (tensor<2x32x128x2048xf32>) -> tensor<64x128x2048xf32>
    %187 = stablehlo.dot_general %159, %186, batching_dims = [0] x [0], contracting_dims = [2] x [1], precision = [DEFAULT, DEFAULT] : (tensor<64x1x128xf32>, tensor<64x128x2048xf32>) -> tensor<64x1x2048xf32>
    %188 = stablehlo.reshape %187 : (tensor<64x1x2048xf32>) -> tensor<2x32x1x2048xf32>
    %189 = stablehlo.broadcast_in_dim %arg202, dims = [] : (tensor<f32>) -> tensor<2x32x1x2048xf32>
    %190 = stablehlo.divide %188, %189 : tensor<2x32x1x2048xf32>
    %191 = stablehlo.reduce(%190 init: %4) across dimensions = [3] : (tensor<2x32x1x2048xf32>, tensor<f32>) -> tensor<2x32x1xf32>
     reducer(%arg363: tensor<f32>, %arg364: tensor<f32>)  {
      %3743 = stablehlo.maximum %arg363, %arg364 : tensor<f32>
      stablehlo.return %3743 : tensor<f32>
    }
    %192 = stablehlo.broadcast_in_dim %191, dims = [0, 1, 2] : (tensor<2x32x1xf32>) -> tensor<2x32x1x2048xf32>
    %193 = stablehlo.subtract %190, %192 : tensor<2x32x1x2048xf32>
    %194 = stablehlo.exponential %193 : tensor<2x32x1x2048xf32>
    %195 = stablehlo.reduce(%194 init: %5) across dimensions = [3] : (tensor<2x32x1x2048xf32>, tensor<f32>) -> tensor<2x32x1xf32>
     reducer(%arg363: tensor<f32>, %arg364: tensor<f32>)  {
      %3743 = stablehlo.add %arg363, %arg364 : tensor<f32>
      stablehlo.return %3743 : tensor<f32>
    }
    %196 = stablehlo.broadcast_in_dim %195, dims = [0, 1, 2] : (tensor<2x32x1xf32>) -> tensor<2x32x1x2048xf32>
    %197 = stablehlo.divide %194, %196 : tensor<2x32x1x2048xf32>
    %198 = stablehlo.reshape %197 : (tensor<2x32x1x2048xf32>) -> tensor<64x1x2048xf32>
    %199 = stablehlo.compare  LT, %arg199, %2 : (tensor<1xi64>, tensor<1xi64>) -> tensor<1xi1>
    %200 = stablehlo.reshape %arg200 : (tensor<i64>) -> tensor<1xi64>
    %201 = stablehlo.add %arg199, %200 : tensor<1xi64>
    %202 = stablehlo.select %199, %201, %arg199 : tensor<1xi1>, tensor<1xi64>
    %203 = stablehlo.reshape %202 : (tensor<1xi64>) -> tensor<1x1xi64>
    %204 = stablehlo.reshape %142 : (tensor<2x1x4096xf32>) -> tensor<2x4096xf32>
    %205 = stablehlo.transpose %arg188, dims = [1, 0] {result_layout = dense<[0, 1]> : tensor<2xindex>, xla_shape = "f32[4096,4096]{0,1}"} : (tensor<4096x4096xf32>) -> tensor<4096x4096xf32>
    %206 = stablehlo.dot %204, %205, precision = [DEFAULT, DEFAULT] : (tensor<2x4096xf32>, tensor<4096x4096xf32>) -> tensor<2x4096xf32>
    %207 = stablehlo.reshape %206 : (tensor<2x4096xf32>) -> tensor<2x1x32x128xf32>
    %208 = "stablehlo.scatter"(%arg208, %203, %207) ({
    ^bb0(%arg363: tensor<f32>, %arg364: tensor<f32>):
      stablehlo.return %arg364 : tensor<f32>
    }) {indices_are_sorted = false, scatter_dimension_numbers = #stablehlo.scatter<update_window_dims = [0, 2, 3], inserted_window_dims = [1], scatter_dims_to_operand_dims = [1], index_vector_dim = 1>, unique_indices = false} : (tensor<2x2304x32x128xf32>, tensor<1x1xi64>, tensor<2x1x32x128xf32>) -> tensor<2x2304x32x128xf32>
    %209 = stablehlo.convert %arg7 : (tensor<2048xi64>) -> tensor<2048xui32>
    %210 = "stablehlo.gather"(%208, %209) {dimension_numbers = #stablehlo.gather<offset_dims = [0, 2, 3], collapsed_slice_dims = [1], start_index_map = [1], index_vector_dim = 1>, indices_are_sorted = false, slice_sizes = dense<[2, 1, 32, 128]> : tensor<4xi64>} : (tensor<2x2304x32x128xf32>, tensor<2048xui32>) -> tensor<2x2048x32x128xf32>
    %211 = stablehlo.transpose %210, dims = [0, 2, 1, 3] {result_layout = dense<[3, 1, 2, 0]> : tensor<4xindex>, xla_shape = "f32[2,32,2048,128]{3,1,2,0}"} : (tensor<2x2048x32x128xf32>) -> tensor<2x32x2048x128xf32>
    %212 = stablehlo.reshape %211 : (tensor<2x32x2048x128xf32>) -> tensor<64x2048x128xf32>
    %213 = stablehlo.dot_general %198, %212, batching_dims = [0] x [0], contracting_dims = [2] x [1], precision = [DEFAULT, DEFAULT] : (tensor<64x1x2048xf32>, tensor<64x2048x128xf32>) -> tensor<64x1x128xf32>
    %214 = stablehlo.reshape %213 : (tensor<64x1x128xf32>) -> tensor<2x4096xf32>
    %215 = stablehlo.transpose %arg187, dims = [1, 0] {result_layout = dense<[0, 1]> : tensor<2xindex>, xla_shape = "f32[4096,4096]{0,1}"} : (tensor<4096x4096xf32>) -> tensor<4096x4096xf32>
    %216 = stablehlo.dot %214, %215, precision = [DEFAULT, DEFAULT] : (tensor<2x4096xf32>, tensor<4096x4096xf32>) -> tensor<2x4096xf32>
    %217 = stablehlo.reshape %216 : (tensor<2x4096xf32>) -> tensor<2x1x4096xf32>
    %218 = stablehlo.add %130, %217 : tensor<2x1x4096xf32>
    %219 = stablehlo.power %218, %1 : tensor<2x1x4096xf32>
    %220 = stablehlo.reduce(%219 init: %5) across dimensions = [2] : (tensor<2x1x4096xf32>, tensor<f32>) -> tensor<2x1xf32>
     reducer(%arg363: tensor<f32>, %arg364: tensor<f32>)  {
      %3743 = stablehlo.add %arg363, %arg364 : tensor<f32>
      stablehlo.return %3743 : tensor<f32>
    }
    %221 = stablehlo.multiply %220, %0 : tensor<2x1xf32>
    %222 = stablehlo.reshape %221 : (tensor<2x1xf32>) -> tensor<2x1x1xf32>
    %223 = stablehlo.broadcast_in_dim %arg2, dims = [] : (tensor<f32>) -> tensor<2x1x1xf32>
    %224 = stablehlo.add %222, %223 : tensor<2x1x1xf32>
    %225 = stablehlo.rsqrt %224 : tensor<2x1x1xf32>
    %226 = stablehlo.reshape %225 : (tensor<2x1x1xf32>) -> tensor<2x1xf32>
    %227 = stablehlo.broadcast_in_dim %226, dims = [0, 1] : (tensor<2x1xf32>) -> tensor<2x1x4096xf32>
    %228 = stablehlo.multiply %218, %227 : tensor<2x1x4096xf32>
    %229 = stablehlo.broadcast_in_dim %arg186, dims = [2] : (tensor<4096xf32>) -> tensor<2x1x4096xf32>
    %230 = stablehlo.multiply %228, %229 : tensor<2x1x4096xf32>
    %231 = stablehlo.reshape %230 : (tensor<2x1x4096xf32>) -> tensor<2x4096xf32>
    %232 = stablehlo.transpose %arg212, dims = [1, 0] {result_layout = dense<[0, 1]> : tensor<2xindex>, xla_shape = "f32[4096,11008]{0,1}"} : (tensor<11008x4096xf32>) -> tensor<4096x11008xf32>
    %233 = stablehlo.dot %231, %232, precision = [DEFAULT, DEFAULT] : (tensor<2x4096xf32>, tensor<4096x11008xf32>) -> tensor<2x11008xf32>
    %234 = stablehlo.reshape %233 : (tensor<2x11008xf32>) -> tensor<2x1x11008xf32>
    %235 = stablehlo.logistic %234 : tensor<2x1x11008xf32>
    %236 = stablehlo.multiply %234, %235 : tensor<2x1x11008xf32>
    %237 = stablehlo.reshape %230 : (tensor<2x1x4096xf32>) -> tensor<2x4096xf32>
    %238 = stablehlo.transpose %arg185, dims = [1, 0] {result_layout = dense<[0, 1]> : tensor<2xindex>, xla_shape = "f32[4096,11008]{0,1}"} : (tensor<11008x4096xf32>) -> tensor<4096x11008xf32>
    %239 = stablehlo.dot %237, %238, precision = [DEFAULT, DEFAULT] : (tensor<2x4096xf32>, tensor<4096x11008xf32>) -> tensor<2x11008xf32>
    %240 = stablehlo.reshape %239 : (tensor<2x11008xf32>) -> tensor<2x1x11008xf32>
    %241 = stablehlo.multiply %236, %240 : tensor<2x1x11008xf32>
    %242 = stablehlo.reshape %241 : (tensor<2x1x11008xf32>) -> tensor<2x11008xf32>
    %243 = stablehlo.transpose %arg184, dims = [1, 0] {result_layout = dense<[0, 1]> : tensor<2xindex>, xla_shape = "f32[11008,4096]{0,1}"} : (tensor<4096x11008xf32>) -> tensor<11008x4096xf32>
    %244 = stablehlo.dot %242, %243, precision = [DEFAULT, DEFAULT] : (tensor<2x11008xf32>, tensor<11008x4096xf32>) -> tensor<2x4096xf32>
    %245 = stablehlo.reshape %244 : (tensor<2x4096xf32>) -> tensor<2x1x4096xf32>
    %246 = stablehlo.add %218, %245 : tensor<2x1x4096xf32>
    %247 = stablehlo.power %246, %1 : tensor<2x1x4096xf32>
    %248 = stablehlo.reduce(%247 init: %5) across dimensions = [2] : (tensor<2x1x4096xf32>, tensor<f32>) -> tensor<2x1xf32>
     reducer(%arg363: tensor<f32>, %arg364: tensor<f32>)  {
      %3743 = stablehlo.add %arg363, %arg364 : tensor<f32>
      stablehlo.return %3743 : tensor<f32>
    }
    %249 = stablehlo.multiply %248, %0 : tensor<2x1xf32>
    %250 = stablehlo.reshape %249 : (tensor<2x1xf32>) -> tensor<2x1x1xf32>
    %251 = stablehlo.broadcast_in_dim %arg2, dims = [] : (tensor<f32>) -> tensor<2x1x1xf32>
    %252 = stablehlo.add %250, %251 : tensor<2x1x1xf32>
    %253 = stablehlo.rsqrt %252 : tensor<2x1x1xf32>
    %254 = stablehlo.reshape %253 : (tensor<2x1x1xf32>) -> tensor<2x1xf32>
    %255 = stablehlo.broadcast_in_dim %254, dims = [0, 1] : (tensor<2x1xf32>) -> tensor<2x1x4096xf32>
    %256 = stablehlo.multiply %246, %255 : tensor<2x1x4096xf32>
    %257 = stablehlo.broadcast_in_dim %arg183, dims = [2] : (tensor<4096xf32>) -> tensor<2x1x4096xf32>
    %258 = stablehlo.multiply %256, %257 : tensor<2x1x4096xf32>
    %259 = stablehlo.reshape %258 : (tensor<2x1x4096xf32>) -> tensor<2x4096xf32>
    %260 = stablehlo.transpose %arg216, dims = [1, 0] {result_layout = dense<[0, 1]> : tensor<2xindex>, xla_shape = "f32[4096,4096]{0,1}"} : (tensor<4096x4096xf32>) -> tensor<4096x4096xf32>
    %261 = stablehlo.dot %259, %260, precision = [DEFAULT, DEFAULT] : (tensor<2x4096xf32>, tensor<4096x4096xf32>) -> tensor<2x4096xf32>
    %262 = stablehlo.reshape %261 : (tensor<2x4096xf32>) -> tensor<2x1x32x64x2xf32>
    %263 = stablehlo.slice %262 [0:2, 0:1, 0:32, 0:64, 0:1] : (tensor<2x1x32x64x2xf32>) -> tensor<2x1x32x64x1xf32>
    %264 = stablehlo.reshape %263 : (tensor<2x1x32x64x1xf32>) -> tensor<2x1x32x64xf32>
    %265 = stablehlo.slice %262 [0:2, 0:1, 0:32, 0:64, 1:2] : (tensor<2x1x32x64x2xf32>) -> tensor<2x1x32x64x1xf32>
    %266 = stablehlo.reshape %265 : (tensor<2x1x32x64x1xf32>) -> tensor<2x1x32x64xf32>
    %267 = stablehlo.complex %264, %266 : tensor<2x1x32x64xcomplex<f32>>
    %268 = stablehlo.broadcast_in_dim %35, dims = [1, 3] : (tensor<1x64xcomplex<f32>>) -> tensor<2x1x32x64xcomplex<f32>>
    %269 = stablehlo.multiply %267, %268 : tensor<2x1x32x64xcomplex<f32>>
    %270 = stablehlo.real %269 : (tensor<2x1x32x64xcomplex<f32>>) -> tensor<2x1x32x64xf32>
    %271 = stablehlo.reshape %270 : (tensor<2x1x32x64xf32>) -> tensor<2x1x32x64x1xf32>
    %272 = stablehlo.imag %269 : (tensor<2x1x32x64xcomplex<f32>>) -> tensor<2x1x32x64xf32>
    %273 = stablehlo.reshape %272 : (tensor<2x1x32x64xf32>) -> tensor<2x1x32x64x1xf32>
    %274 = stablehlo.concatenate %271, %273, dim = 4 : (tensor<2x1x32x64x1xf32>, tensor<2x1x32x64x1xf32>) -> tensor<2x1x32x64x2xf32>
    %275 = stablehlo.reshape %274 : (tensor<2x1x32x64x2xf32>) -> tensor<64x1x128xf32>
    %276 = stablehlo.compare  LT, %arg199, %2 : (tensor<1xi64>, tensor<1xi64>) -> tensor<1xi1>
    %277 = stablehlo.reshape %arg200 : (tensor<i64>) -> tensor<1xi64>
    %278 = stablehlo.add %arg199, %277 : tensor<1xi64>
    %279 = stablehlo.select %276, %278, %arg199 : tensor<1xi1>, tensor<1xi64>
    %280 = stablehlo.reshape %279 : (tensor<1xi64>) -> tensor<1x1xi64>
    %281 = stablehlo.reshape %258 : (tensor<2x1x4096xf32>) -> tensor<2x4096xf32>
    %282 = stablehlo.transpose %arg214, dims = [1, 0] {result_layout = dense<[0, 1]> : tensor<2xindex>, xla_shape = "f32[4096,4096]{0,1}"} : (tensor<4096x4096xf32>) -> tensor<4096x4096xf32>
    %283 = stablehlo.dot %281, %282, precision = [DEFAULT, DEFAULT] : (tensor<2x4096xf32>, tensor<4096x4096xf32>) -> tensor<2x4096xf32>
    %284 = stablehlo.reshape %283 : (tensor<2x4096xf32>) -> tensor<2x1x32x64x2xf32>
    %285 = stablehlo.slice %284 [0:2, 0:1, 0:32, 0:64, 0:1] : (tensor<2x1x32x64x2xf32>) -> tensor<2x1x32x64x1xf32>
    %286 = stablehlo.reshape %285 : (tensor<2x1x32x64x1xf32>) -> tensor<2x1x32x64xf32>
    %287 = stablehlo.slice %284 [0:2, 0:1, 0:32, 0:64, 1:2] : (tensor<2x1x32x64x2xf32>) -> tensor<2x1x32x64x1xf32>
    %288 = stablehlo.reshape %287 : (tensor<2x1x32x64x1xf32>) -> tensor<2x1x32x64xf32>
    %289 = stablehlo.complex %286, %288 : tensor<2x1x32x64xcomplex<f32>>
    %290 = stablehlo.broadcast_in_dim %35, dims = [1, 3] : (tensor<1x64xcomplex<f32>>) -> tensor<2x1x32x64xcomplex<f32>>
    %291 = stablehlo.multiply %289, %290 : tensor<2x1x32x64xcomplex<f32>>
    %292 = stablehlo.real %291 : (tensor<2x1x32x64xcomplex<f32>>) -> tensor<2x1x32x64xf32>
    %293 = stablehlo.reshape %292 : (tensor<2x1x32x64xf32>) -> tensor<2x1x32x64x1xf32>
    %294 = stablehlo.imag %291 : (tensor<2x1x32x64xcomplex<f32>>) -> tensor<2x1x32x64xf32>
    %295 = stablehlo.reshape %294 : (tensor<2x1x32x64xf32>) -> tensor<2x1x32x64x1xf32>
    %296 = stablehlo.concatenate %293, %295, dim = 4 : (tensor<2x1x32x64x1xf32>, tensor<2x1x32x64x1xf32>) -> tensor<2x1x32x64x2xf32>
    %297 = stablehlo.reshape %296 : (tensor<2x1x32x64x2xf32>) -> tensor<2x1x32x128xf32>
    %298 = "stablehlo.scatter"(%arg215, %280, %297) ({
    ^bb0(%arg363: tensor<f32>, %arg364: tensor<f32>):
      stablehlo.return %arg364 : tensor<f32>
    }) {indices_are_sorted = false, scatter_dimension_numbers = #stablehlo.scatter<update_window_dims = [0, 2, 3], inserted_window_dims = [1], scatter_dims_to_operand_dims = [1], index_vector_dim = 1>, unique_indices = false} : (tensor<2x2304x32x128xf32>, tensor<1x1xi64>, tensor<2x1x32x128xf32>) -> tensor<2x2304x32x128xf32>
    %299 = stablehlo.convert %arg7 : (tensor<2048xi64>) -> tensor<2048xui32>
    %300 = "stablehlo.gather"(%298, %299) {dimension_numbers = #stablehlo.gather<offset_dims = [0, 2, 3], collapsed_slice_dims = [1], start_index_map = [1], index_vector_dim = 1>, indices_are_sorted = false, slice_sizes = dense<[2, 1, 32, 128]> : tensor<4xi64>} : (tensor<2x2304x32x128xf32>, tensor<2048xui32>) -> tensor<2x2048x32x128xf32>
    %301 = stablehlo.transpose %300, dims = [0, 2, 3, 1] : (tensor<2x2048x32x128xf32>) -> tensor<2x32x128x2048xf32>
    %302 = stablehlo.reshape %301 : (tensor<2x32x128x2048xf32>) -> tensor<64x128x2048xf32>
    %303 = stablehlo.dot_general %275, %302, batching_dims = [0] x [0], contracting_dims = [2] x [1], precision = [DEFAULT, DEFAULT] : (tensor<64x1x128xf32>, tensor<64x128x2048xf32>) -> tensor<64x1x2048xf32>
    %304 = stablehlo.reshape %303 : (tensor<64x1x2048xf32>) -> tensor<2x32x1x2048xf32>
    %305 = stablehlo.broadcast_in_dim %arg202, dims = [] : (tensor<f32>) -> tensor<2x32x1x2048xf32>
    %306 = stablehlo.divide %304, %305 : tensor<2x32x1x2048xf32>
    %307 = stablehlo.reduce(%306 init: %4) across dimensions = [3] : (tensor<2x32x1x2048xf32>, tensor<f32>) -> tensor<2x32x1xf32>
     reducer(%arg363: tensor<f32>, %arg364: tensor<f32>)  {
      %3743 = stablehlo.maximum %arg363, %arg364 : tensor<f32>
      stablehlo.return %3743 : tensor<f32>
    }
    %308 = stablehlo.broadcast_in_dim %307, dims = [0, 1, 2] : (tensor<2x32x1xf32>) -> tensor<2x32x1x2048xf32>
    %309 = stablehlo.subtract %306, %308 : tensor<2x32x1x2048xf32>
    %310 = stablehlo.exponential %309 : tensor<2x32x1x2048xf32>
    %311 = stablehlo.reduce(%310 init: %5) across dimensions = [3] : (tensor<2x32x1x2048xf32>, tensor<f32>) -> tensor<2x32x1xf32>
     reducer(%arg363: tensor<f32>, %arg364: tensor<f32>)  {
      %3743 = stablehlo.add %arg363, %arg364 : tensor<f32>
      stablehlo.return %3743 : tensor<f32>
    }
    %312 = stablehlo.broadcast_in_dim %311, dims = [0, 1, 2] : (tensor<2x32x1xf32>) -> tensor<2x32x1x2048xf32>
    %313 = stablehlo.divide %310, %312 : tensor<2x32x1x2048xf32>
    %314 = stablehlo.reshape %313 : (tensor<2x32x1x2048xf32>) -> tensor<64x1x2048xf32>
    %315 = stablehlo.compare  LT, %arg199, %2 : (tensor<1xi64>, tensor<1xi64>) -> tensor<1xi1>
    %316 = stablehlo.reshape %arg200 : (tensor<i64>) -> tensor<1xi64>
    %317 = stablehlo.add %arg199, %316 : tensor<1xi64>
    %318 = stablehlo.select %315, %317, %arg199 : tensor<1xi1>, tensor<1xi64>
    %319 = stablehlo.reshape %318 : (tensor<1xi64>) -> tensor<1x1xi64>
    %320 = stablehlo.reshape %258 : (tensor<2x1x4096xf32>) -> tensor<2x4096xf32>
    %321 = stablehlo.transpose %arg182, dims = [1, 0] {result_layout = dense<[0, 1]> : tensor<2xindex>, xla_shape = "f32[4096,4096]{0,1}"} : (tensor<4096x4096xf32>) -> tensor<4096x4096xf32>
    %322 = stablehlo.dot %320, %321, precision = [DEFAULT, DEFAULT] : (tensor<2x4096xf32>, tensor<4096x4096xf32>) -> tensor<2x4096xf32>
    %323 = stablehlo.reshape %322 : (tensor<2x4096xf32>) -> tensor<2x1x32x128xf32>
    %324 = "stablehlo.scatter"(%arg213, %319, %323) ({
    ^bb0(%arg363: tensor<f32>, %arg364: tensor<f32>):
      stablehlo.return %arg364 : tensor<f32>
    }) {indices_are_sorted = false, scatter_dimension_numbers = #stablehlo.scatter<update_window_dims = [0, 2, 3], inserted_window_dims = [1], scatter_dims_to_operand_dims = [1], index_vector_dim = 1>, unique_indices = false} : (tensor<2x2304x32x128xf32>, tensor<1x1xi64>, tensor<2x1x32x128xf32>) -> tensor<2x2304x32x128xf32>
    %325 = stablehlo.convert %arg7 : (tensor<2048xi64>) -> tensor<2048xui32>
    %326 = "stablehlo.gather"(%324, %325) {dimension_numbers = #stablehlo.gather<offset_dims = [0, 2, 3], collapsed_slice_dims = [1], start_index_map = [1], index_vector_dim = 1>, indices_are_sorted = false, slice_sizes = dense<[2, 1, 32, 128]> : tensor<4xi64>} : (tensor<2x2304x32x128xf32>, tensor<2048xui32>) -> tensor<2x2048x32x128xf32>
    %327 = stablehlo.transpose %326, dims = [0, 2, 1, 3] {result_layout = dense<[3, 1, 2, 0]> : tensor<4xindex>, xla_shape = "f32[2,32,2048,128]{3,1,2,0}"} : (tensor<2x2048x32x128xf32>) -> tensor<2x32x2048x128xf32>
    %328 = stablehlo.reshape %327 : (tensor<2x32x2048x128xf32>) -> tensor<64x2048x128xf32>
    %329 = stablehlo.dot_general %314, %328, batching_dims = [0] x [0], contracting_dims = [2] x [1], precision = [DEFAULT, DEFAULT] : (tensor<64x1x2048xf32>, tensor<64x2048x128xf32>) -> tensor<64x1x128xf32>
    %330 = stablehlo.reshape %329 : (tensor<64x1x128xf32>) -> tensor<2x4096xf32>
    %331 = stablehlo.transpose %arg181, dims = [1, 0] {result_layout = dense<[0, 1]> : tensor<2xindex>, xla_shape = "f32[4096,4096]{0,1}"} : (tensor<4096x4096xf32>) -> tensor<4096x4096xf32>
    %332 = stablehlo.dot %330, %331, precision = [DEFAULT, DEFAULT] : (tensor<2x4096xf32>, tensor<4096x4096xf32>) -> tensor<2x4096xf32>
    %333 = stablehlo.reshape %332 : (tensor<2x4096xf32>) -> tensor<2x1x4096xf32>
    %334 = stablehlo.add %246, %333 : tensor<2x1x4096xf32>
    %335 = stablehlo.power %334, %1 : tensor<2x1x4096xf32>
    %336 = stablehlo.reduce(%335 init: %5) across dimensions = [2] : (tensor<2x1x4096xf32>, tensor<f32>) -> tensor<2x1xf32>
     reducer(%arg363: tensor<f32>, %arg364: tensor<f32>)  {
      %3743 = stablehlo.add %arg363, %arg364 : tensor<f32>
      stablehlo.return %3743 : tensor<f32>
    }
    %337 = stablehlo.multiply %336, %0 : tensor<2x1xf32>
    %338 = stablehlo.reshape %337 : (tensor<2x1xf32>) -> tensor<2x1x1xf32>
    %339 = stablehlo.broadcast_in_dim %arg2, dims = [] : (tensor<f32>) -> tensor<2x1x1xf32>
    %340 = stablehlo.add %338, %339 : tensor<2x1x1xf32>
    %341 = stablehlo.rsqrt %340 : tensor<2x1x1xf32>
    %342 = stablehlo.reshape %341 : (tensor<2x1x1xf32>) -> tensor<2x1xf32>
    %343 = stablehlo.broadcast_in_dim %342, dims = [0, 1] : (tensor<2x1xf32>) -> tensor<2x1x4096xf32>
    %344 = stablehlo.multiply %334, %343 : tensor<2x1x4096xf32>
    %345 = stablehlo.broadcast_in_dim %arg180, dims = [2] : (tensor<4096xf32>) -> tensor<2x1x4096xf32>
    %346 = stablehlo.multiply %344, %345 : tensor<2x1x4096xf32>
    %347 = stablehlo.reshape %346 : (tensor<2x1x4096xf32>) -> tensor<2x4096xf32>
    %348 = stablehlo.transpose %arg217, dims = [1, 0] {result_layout = dense<[0, 1]> : tensor<2xindex>, xla_shape = "f32[4096,11008]{0,1}"} : (tensor<11008x4096xf32>) -> tensor<4096x11008xf32>
    %349 = stablehlo.dot %347, %348, precision = [DEFAULT, DEFAULT] : (tensor<2x4096xf32>, tensor<4096x11008xf32>) -> tensor<2x11008xf32>
    %350 = stablehlo.reshape %349 : (tensor<2x11008xf32>) -> tensor<2x1x11008xf32>
    %351 = stablehlo.logistic %350 : tensor<2x1x11008xf32>
    %352 = stablehlo.multiply %350, %351 : tensor<2x1x11008xf32>
    %353 = stablehlo.reshape %346 : (tensor<2x1x4096xf32>) -> tensor<2x4096xf32>
    %354 = stablehlo.transpose %arg179, dims = [1, 0] {result_layout = dense<[0, 1]> : tensor<2xindex>, xla_shape = "f32[4096,11008]{0,1}"} : (tensor<11008x4096xf32>) -> tensor<4096x11008xf32>
    %355 = stablehlo.dot %353, %354, precision = [DEFAULT, DEFAULT] : (tensor<2x4096xf32>, tensor<4096x11008xf32>) -> tensor<2x11008xf32>
    %356 = stablehlo.reshape %355 : (tensor<2x11008xf32>) -> tensor<2x1x11008xf32>
    %357 = stablehlo.multiply %352, %356 : tensor<2x1x11008xf32>
    %358 = stablehlo.reshape %357 : (tensor<2x1x11008xf32>) -> tensor<2x11008xf32>
    %359 = stablehlo.transpose %arg178, dims = [1, 0] {result_layout = dense<[0, 1]> : tensor<2xindex>, xla_shape = "f32[11008,4096]{0,1}"} : (tensor<4096x11008xf32>) -> tensor<11008x4096xf32>
    %360 = stablehlo.dot %358, %359, precision = [DEFAULT, DEFAULT] : (tensor<2x11008xf32>, tensor<11008x4096xf32>) -> tensor<2x4096xf32>
    %361 = stablehlo.reshape %360 : (tensor<2x4096xf32>) -> tensor<2x1x4096xf32>
    %362 = stablehlo.add %334, %361 : tensor<2x1x4096xf32>
    %363 = stablehlo.power %362, %1 : tensor<2x1x4096xf32>
    %364 = stablehlo.reduce(%363 init: %5) across dimensions = [2] : (tensor<2x1x4096xf32>, tensor<f32>) -> tensor<2x1xf32>
     reducer(%arg363: tensor<f32>, %arg364: tensor<f32>)  {
      %3743 = stablehlo.add %arg363, %arg364 : tensor<f32>
      stablehlo.return %3743 : tensor<f32>
    }
    %365 = stablehlo.multiply %364, %0 : tensor<2x1xf32>
    %366 = stablehlo.reshape %365 : (tensor<2x1xf32>) -> tensor<2x1x1xf32>
    %367 = stablehlo.broadcast_in_dim %arg2, dims = [] : (tensor<f32>) -> tensor<2x1x1xf32>
    %368 = stablehlo.add %366, %367 : tensor<2x1x1xf32>
    %369 = stablehlo.rsqrt %368 : tensor<2x1x1xf32>
    %370 = stablehlo.reshape %369 : (tensor<2x1x1xf32>) -> tensor<2x1xf32>
    %371 = stablehlo.broadcast_in_dim %370, dims = [0, 1] : (tensor<2x1xf32>) -> tensor<2x1x4096xf32>
    %372 = stablehlo.multiply %362, %371 : tensor<2x1x4096xf32>
    %373 = stablehlo.broadcast_in_dim %arg177, dims = [2] : (tensor<4096xf32>) -> tensor<2x1x4096xf32>
    %374 = stablehlo.multiply %372, %373 : tensor<2x1x4096xf32>
    %375 = stablehlo.reshape %374 : (tensor<2x1x4096xf32>) -> tensor<2x4096xf32>
    %376 = stablehlo.transpose %arg221, dims = [1, 0] {result_layout = dense<[0, 1]> : tensor<2xindex>, xla_shape = "f32[4096,4096]{0,1}"} : (tensor<4096x4096xf32>) -> tensor<4096x4096xf32>
    %377 = stablehlo.dot %375, %376, precision = [DEFAULT, DEFAULT] : (tensor<2x4096xf32>, tensor<4096x4096xf32>) -> tensor<2x4096xf32>
    %378 = stablehlo.reshape %377 : (tensor<2x4096xf32>) -> tensor<2x1x32x64x2xf32>
    %379 = stablehlo.slice %378 [0:2, 0:1, 0:32, 0:64, 0:1] : (tensor<2x1x32x64x2xf32>) -> tensor<2x1x32x64x1xf32>
    %380 = stablehlo.reshape %379 : (tensor<2x1x32x64x1xf32>) -> tensor<2x1x32x64xf32>
    %381 = stablehlo.slice %378 [0:2, 0:1, 0:32, 0:64, 1:2] : (tensor<2x1x32x64x2xf32>) -> tensor<2x1x32x64x1xf32>
    %382 = stablehlo.reshape %381 : (tensor<2x1x32x64x1xf32>) -> tensor<2x1x32x64xf32>
    %383 = stablehlo.complex %380, %382 : tensor<2x1x32x64xcomplex<f32>>
    %384 = stablehlo.broadcast_in_dim %35, dims = [1, 3] : (tensor<1x64xcomplex<f32>>) -> tensor<2x1x32x64xcomplex<f32>>
    %385 = stablehlo.multiply %383, %384 : tensor<2x1x32x64xcomplex<f32>>
    %386 = stablehlo.real %385 : (tensor<2x1x32x64xcomplex<f32>>) -> tensor<2x1x32x64xf32>
    %387 = stablehlo.reshape %386 : (tensor<2x1x32x64xf32>) -> tensor<2x1x32x64x1xf32>
    %388 = stablehlo.imag %385 : (tensor<2x1x32x64xcomplex<f32>>) -> tensor<2x1x32x64xf32>
    %389 = stablehlo.reshape %388 : (tensor<2x1x32x64xf32>) -> tensor<2x1x32x64x1xf32>
    %390 = stablehlo.concatenate %387, %389, dim = 4 : (tensor<2x1x32x64x1xf32>, tensor<2x1x32x64x1xf32>) -> tensor<2x1x32x64x2xf32>
    %391 = stablehlo.reshape %390 : (tensor<2x1x32x64x2xf32>) -> tensor<64x1x128xf32>
    %392 = stablehlo.compare  LT, %arg199, %2 : (tensor<1xi64>, tensor<1xi64>) -> tensor<1xi1>
    %393 = stablehlo.reshape %arg200 : (tensor<i64>) -> tensor<1xi64>
    %394 = stablehlo.add %arg199, %393 : tensor<1xi64>
    %395 = stablehlo.select %392, %394, %arg199 : tensor<1xi1>, tensor<1xi64>
    %396 = stablehlo.reshape %395 : (tensor<1xi64>) -> tensor<1x1xi64>
    %397 = stablehlo.reshape %374 : (tensor<2x1x4096xf32>) -> tensor<2x4096xf32>
    %398 = stablehlo.transpose %arg219, dims = [1, 0] {result_layout = dense<[0, 1]> : tensor<2xindex>, xla_shape = "f32[4096,4096]{0,1}"} : (tensor<4096x4096xf32>) -> tensor<4096x4096xf32>
    %399 = stablehlo.dot %397, %398, precision = [DEFAULT, DEFAULT] : (tensor<2x4096xf32>, tensor<4096x4096xf32>) -> tensor<2x4096xf32>
    %400 = stablehlo.reshape %399 : (tensor<2x4096xf32>) -> tensor<2x1x32x64x2xf32>
    %401 = stablehlo.slice %400 [0:2, 0:1, 0:32, 0:64, 0:1] : (tensor<2x1x32x64x2xf32>) -> tensor<2x1x32x64x1xf32>
    %402 = stablehlo.reshape %401 : (tensor<2x1x32x64x1xf32>) -> tensor<2x1x32x64xf32>
    %403 = stablehlo.slice %400 [0:2, 0:1, 0:32, 0:64, 1:2] : (tensor<2x1x32x64x2xf32>) -> tensor<2x1x32x64x1xf32>
    %404 = stablehlo.reshape %403 : (tensor<2x1x32x64x1xf32>) -> tensor<2x1x32x64xf32>
    %405 = stablehlo.complex %402, %404 : tensor<2x1x32x64xcomplex<f32>>
    %406 = stablehlo.broadcast_in_dim %35, dims = [1, 3] : (tensor<1x64xcomplex<f32>>) -> tensor<2x1x32x64xcomplex<f32>>
    %407 = stablehlo.multiply %405, %406 : tensor<2x1x32x64xcomplex<f32>>
    %408 = stablehlo.real %407 : (tensor<2x1x32x64xcomplex<f32>>) -> tensor<2x1x32x64xf32>
    %409 = stablehlo.reshape %408 : (tensor<2x1x32x64xf32>) -> tensor<2x1x32x64x1xf32>
    %410 = stablehlo.imag %407 : (tensor<2x1x32x64xcomplex<f32>>) -> tensor<2x1x32x64xf32>
    %411 = stablehlo.reshape %410 : (tensor<2x1x32x64xf32>) -> tensor<2x1x32x64x1xf32>
    %412 = stablehlo.concatenate %409, %411, dim = 4 : (tensor<2x1x32x64x1xf32>, tensor<2x1x32x64x1xf32>) -> tensor<2x1x32x64x2xf32>
    %413 = stablehlo.reshape %412 : (tensor<2x1x32x64x2xf32>) -> tensor<2x1x32x128xf32>
    %414 = "stablehlo.scatter"(%arg220, %396, %413) ({
    ^bb0(%arg363: tensor<f32>, %arg364: tensor<f32>):
      stablehlo.return %arg364 : tensor<f32>
    }) {indices_are_sorted = false, scatter_dimension_numbers = #stablehlo.scatter<update_window_dims = [0, 2, 3], inserted_window_dims = [1], scatter_dims_to_operand_dims = [1], index_vector_dim = 1>, unique_indices = false} : (tensor<2x2304x32x128xf32>, tensor<1x1xi64>, tensor<2x1x32x128xf32>) -> tensor<2x2304x32x128xf32>
    %415 = stablehlo.convert %arg7 : (tensor<2048xi64>) -> tensor<2048xui32>
    %416 = "stablehlo.gather"(%414, %415) {dimension_numbers = #stablehlo.gather<offset_dims = [0, 2, 3], collapsed_slice_dims = [1], start_index_map = [1], index_vector_dim = 1>, indices_are_sorted = false, slice_sizes = dense<[2, 1, 32, 128]> : tensor<4xi64>} : (tensor<2x2304x32x128xf32>, tensor<2048xui32>) -> tensor<2x2048x32x128xf32>
    %417 = stablehlo.transpose %416, dims = [0, 2, 3, 1] : (tensor<2x2048x32x128xf32>) -> tensor<2x32x128x2048xf32>
    %418 = stablehlo.reshape %417 : (tensor<2x32x128x2048xf32>) -> tensor<64x128x2048xf32>
    %419 = stablehlo.dot_general %391, %418, batching_dims = [0] x [0], contracting_dims = [2] x [1], precision = [DEFAULT, DEFAULT] : (tensor<64x1x128xf32>, tensor<64x128x2048xf32>) -> tensor<64x1x2048xf32>
    %420 = stablehlo.reshape %419 : (tensor<64x1x2048xf32>) -> tensor<2x32x1x2048xf32>
    %421 = stablehlo.broadcast_in_dim %arg202, dims = [] : (tensor<f32>) -> tensor<2x32x1x2048xf32>
    %422 = stablehlo.divide %420, %421 : tensor<2x32x1x2048xf32>
    %423 = stablehlo.reduce(%422 init: %4) across dimensions = [3] : (tensor<2x32x1x2048xf32>, tensor<f32>) -> tensor<2x32x1xf32>
     reducer(%arg363: tensor<f32>, %arg364: tensor<f32>)  {
      %3743 = stablehlo.maximum %arg363, %arg364 : tensor<f32>
      stablehlo.return %3743 : tensor<f32>
    }
    %424 = stablehlo.broadcast_in_dim %423, dims = [0, 1, 2] : (tensor<2x32x1xf32>) -> tensor<2x32x1x2048xf32>
    %425 = stablehlo.subtract %422, %424 : tensor<2x32x1x2048xf32>
    %426 = stablehlo.exponential %425 : tensor<2x32x1x2048xf32>
    %427 = stablehlo.reduce(%426 init: %5) across dimensions = [3] : (tensor<2x32x1x2048xf32>, tensor<f32>) -> tensor<2x32x1xf32>
     reducer(%arg363: tensor<f32>, %arg364: tensor<f32>)  {
      %3743 = stablehlo.add %arg363, %arg364 : tensor<f32>
      stablehlo.return %3743 : tensor<f32>
    }
    %428 = stablehlo.broadcast_in_dim %427, dims = [0, 1, 2] : (tensor<2x32x1xf32>) -> tensor<2x32x1x2048xf32>
    %429 = stablehlo.divide %426, %428 : tensor<2x32x1x2048xf32>
    %430 = stablehlo.reshape %429 : (tensor<2x32x1x2048xf32>) -> tensor<64x1x2048xf32>
    %431 = stablehlo.compare  LT, %arg199, %2 : (tensor<1xi64>, tensor<1xi64>) -> tensor<1xi1>
    %432 = stablehlo.reshape %arg200 : (tensor<i64>) -> tensor<1xi64>
    %433 = stablehlo.add %arg199, %432 : tensor<1xi64>
    %434 = stablehlo.select %431, %433, %arg199 : tensor<1xi1>, tensor<1xi64>
    %435 = stablehlo.reshape %434 : (tensor<1xi64>) -> tensor<1x1xi64>
    %436 = stablehlo.reshape %374 : (tensor<2x1x4096xf32>) -> tensor<2x4096xf32>
    %437 = stablehlo.transpose %arg176, dims = [1, 0] {result_layout = dense<[0, 1]> : tensor<2xindex>, xla_shape = "f32[4096,4096]{0,1}"} : (tensor<4096x4096xf32>) -> tensor<4096x4096xf32>
    %438 = stablehlo.dot %436, %437, precision = [DEFAULT, DEFAULT] : (tensor<2x4096xf32>, tensor<4096x4096xf32>) -> tensor<2x4096xf32>
    %439 = stablehlo.reshape %438 : (tensor<2x4096xf32>) -> tensor<2x1x32x128xf32>
    %440 = "stablehlo.scatter"(%arg218, %435, %439) ({
    ^bb0(%arg363: tensor<f32>, %arg364: tensor<f32>):
      stablehlo.return %arg364 : tensor<f32>
    }) {indices_are_sorted = false, scatter_dimension_numbers = #stablehlo.scatter<update_window_dims = [0, 2, 3], inserted_window_dims = [1], scatter_dims_to_operand_dims = [1], index_vector_dim = 1>, unique_indices = false} : (tensor<2x2304x32x128xf32>, tensor<1x1xi64>, tensor<2x1x32x128xf32>) -> tensor<2x2304x32x128xf32>
    %441 = stablehlo.convert %arg7 : (tensor<2048xi64>) -> tensor<2048xui32>
    %442 = "stablehlo.gather"(%440, %441) {dimension_numbers = #stablehlo.gather<offset_dims = [0, 2, 3], collapsed_slice_dims = [1], start_index_map = [1], index_vector_dim = 1>, indices_are_sorted = false, slice_sizes = dense<[2, 1, 32, 128]> : tensor<4xi64>} : (tensor<2x2304x32x128xf32>, tensor<2048xui32>) -> tensor<2x2048x32x128xf32>
    %443 = stablehlo.transpose %442, dims = [0, 2, 1, 3] {result_layout = dense<[3, 1, 2, 0]> : tensor<4xindex>, xla_shape = "f32[2,32,2048,128]{3,1,2,0}"} : (tensor<2x2048x32x128xf32>) -> tensor<2x32x2048x128xf32>
    %444 = stablehlo.reshape %443 : (tensor<2x32x2048x128xf32>) -> tensor<64x2048x128xf32>
    %445 = stablehlo.dot_general %430, %444, batching_dims = [0] x [0], contracting_dims = [2] x [1], precision = [DEFAULT, DEFAULT] : (tensor<64x1x2048xf32>, tensor<64x2048x128xf32>) -> tensor<64x1x128xf32>
    %446 = stablehlo.reshape %445 : (tensor<64x1x128xf32>) -> tensor<2x4096xf32>
    %447 = stablehlo.transpose %arg175, dims = [1, 0] {result_layout = dense<[0, 1]> : tensor<2xindex>, xla_shape = "f32[4096,4096]{0,1}"} : (tensor<4096x4096xf32>) -> tensor<4096x4096xf32>
    %448 = stablehlo.dot %446, %447, precision = [DEFAULT, DEFAULT] : (tensor<2x4096xf32>, tensor<4096x4096xf32>) -> tensor<2x4096xf32>
    %449 = stablehlo.reshape %448 : (tensor<2x4096xf32>) -> tensor<2x1x4096xf32>
    %450 = stablehlo.add %362, %449 : tensor<2x1x4096xf32>
    %451 = stablehlo.power %450, %1 : tensor<2x1x4096xf32>
    %452 = stablehlo.reduce(%451 init: %5) across dimensions = [2] : (tensor<2x1x4096xf32>, tensor<f32>) -> tensor<2x1xf32>
     reducer(%arg363: tensor<f32>, %arg364: tensor<f32>)  {
      %3743 = stablehlo.add %arg363, %arg364 : tensor<f32>
      stablehlo.return %3743 : tensor<f32>
    }
    %453 = stablehlo.multiply %452, %0 : tensor<2x1xf32>
    %454 = stablehlo.reshape %453 : (tensor<2x1xf32>) -> tensor<2x1x1xf32>
    %455 = stablehlo.broadcast_in_dim %arg2, dims = [] : (tensor<f32>) -> tensor<2x1x1xf32>
    %456 = stablehlo.add %454, %455 : tensor<2x1x1xf32>
    %457 = stablehlo.rsqrt %456 : tensor<2x1x1xf32>
    %458 = stablehlo.reshape %457 : (tensor<2x1x1xf32>) -> tensor<2x1xf32>
    %459 = stablehlo.broadcast_in_dim %458, dims = [0, 1] : (tensor<2x1xf32>) -> tensor<2x1x4096xf32>
    %460 = stablehlo.multiply %450, %459 : tensor<2x1x4096xf32>
    %461 = stablehlo.broadcast_in_dim %arg174, dims = [2] : (tensor<4096xf32>) -> tensor<2x1x4096xf32>
    %462 = stablehlo.multiply %460, %461 : tensor<2x1x4096xf32>
    %463 = stablehlo.reshape %462 : (tensor<2x1x4096xf32>) -> tensor<2x4096xf32>
    %464 = stablehlo.transpose %arg222, dims = [1, 0] {result_layout = dense<[0, 1]> : tensor<2xindex>, xla_shape = "f32[4096,11008]{0,1}"} : (tensor<11008x4096xf32>) -> tensor<4096x11008xf32>
    %465 = stablehlo.dot %463, %464, precision = [DEFAULT, DEFAULT] : (tensor<2x4096xf32>, tensor<4096x11008xf32>) -> tensor<2x11008xf32>
    %466 = stablehlo.reshape %465 : (tensor<2x11008xf32>) -> tensor<2x1x11008xf32>
    %467 = stablehlo.logistic %466 : tensor<2x1x11008xf32>
    %468 = stablehlo.multiply %466, %467 : tensor<2x1x11008xf32>
    %469 = stablehlo.reshape %462 : (tensor<2x1x4096xf32>) -> tensor<2x4096xf32>
    %470 = stablehlo.transpose %arg173, dims = [1, 0] {result_layout = dense<[0, 1]> : tensor<2xindex>, xla_shape = "f32[4096,11008]{0,1}"} : (tensor<11008x4096xf32>) -> tensor<4096x11008xf32>
    %471 = stablehlo.dot %469, %470, precision = [DEFAULT, DEFAULT] : (tensor<2x4096xf32>, tensor<4096x11008xf32>) -> tensor<2x11008xf32>
    %472 = stablehlo.reshape %471 : (tensor<2x11008xf32>) -> tensor<2x1x11008xf32>
    %473 = stablehlo.multiply %468, %472 : tensor<2x1x11008xf32>
    %474 = stablehlo.reshape %473 : (tensor<2x1x11008xf32>) -> tensor<2x11008xf32>
    %475 = stablehlo.transpose %arg172, dims = [1, 0] {result_layout = dense<[0, 1]> : tensor<2xindex>, xla_shape = "f32[11008,4096]{0,1}"} : (tensor<4096x11008xf32>) -> tensor<11008x4096xf32>
    %476 = stablehlo.dot %474, %475, precision = [DEFAULT, DEFAULT] : (tensor<2x11008xf32>, tensor<11008x4096xf32>) -> tensor<2x4096xf32>
    %477 = stablehlo.reshape %476 : (tensor<2x4096xf32>) -> tensor<2x1x4096xf32>
    %478 = stablehlo.add %450, %477 : tensor<2x1x4096xf32>
    %479 = stablehlo.power %478, %1 : tensor<2x1x4096xf32>
    %480 = stablehlo.reduce(%479 init: %5) across dimensions = [2] : (tensor<2x1x4096xf32>, tensor<f32>) -> tensor<2x1xf32>
     reducer(%arg363: tensor<f32>, %arg364: tensor<f32>)  {
      %3743 = stablehlo.add %arg363, %arg364 : tensor<f32>
      stablehlo.return %3743 : tensor<f32>
    }
    %481 = stablehlo.multiply %480, %0 : tensor<2x1xf32>
    %482 = stablehlo.reshape %481 : (tensor<2x1xf32>) -> tensor<2x1x1xf32>
    %483 = stablehlo.broadcast_in_dim %arg2, dims = [] : (tensor<f32>) -> tensor<2x1x1xf32>
    %484 = stablehlo.add %482, %483 : tensor<2x1x1xf32>
    %485 = stablehlo.rsqrt %484 : tensor<2x1x1xf32>
    %486 = stablehlo.reshape %485 : (tensor<2x1x1xf32>) -> tensor<2x1xf32>
    %487 = stablehlo.broadcast_in_dim %486, dims = [0, 1] : (tensor<2x1xf32>) -> tensor<2x1x4096xf32>
    %488 = stablehlo.multiply %478, %487 : tensor<2x1x4096xf32>
    %489 = stablehlo.broadcast_in_dim %arg171, dims = [2] : (tensor<4096xf32>) -> tensor<2x1x4096xf32>
    %490 = stablehlo.multiply %488, %489 : tensor<2x1x4096xf32>
    %491 = stablehlo.reshape %490 : (tensor<2x1x4096xf32>) -> tensor<2x4096xf32>
    %492 = stablehlo.transpose %arg226, dims = [1, 0] {result_layout = dense<[0, 1]> : tensor<2xindex>, xla_shape = "f32[4096,4096]{0,1}"} : (tensor<4096x4096xf32>) -> tensor<4096x4096xf32>
    %493 = stablehlo.dot %491, %492, precision = [DEFAULT, DEFAULT] : (tensor<2x4096xf32>, tensor<4096x4096xf32>) -> tensor<2x4096xf32>
    %494 = stablehlo.reshape %493 : (tensor<2x4096xf32>) -> tensor<2x1x32x64x2xf32>
    %495 = stablehlo.slice %494 [0:2, 0:1, 0:32, 0:64, 0:1] : (tensor<2x1x32x64x2xf32>) -> tensor<2x1x32x64x1xf32>
    %496 = stablehlo.reshape %495 : (tensor<2x1x32x64x1xf32>) -> tensor<2x1x32x64xf32>
    %497 = stablehlo.slice %494 [0:2, 0:1, 0:32, 0:64, 1:2] : (tensor<2x1x32x64x2xf32>) -> tensor<2x1x32x64x1xf32>
    %498 = stablehlo.reshape %497 : (tensor<2x1x32x64x1xf32>) -> tensor<2x1x32x64xf32>
    %499 = stablehlo.complex %496, %498 : tensor<2x1x32x64xcomplex<f32>>
    %500 = stablehlo.broadcast_in_dim %35, dims = [1, 3] : (tensor<1x64xcomplex<f32>>) -> tensor<2x1x32x64xcomplex<f32>>
    %501 = stablehlo.multiply %499, %500 : tensor<2x1x32x64xcomplex<f32>>
    %502 = stablehlo.real %501 : (tensor<2x1x32x64xcomplex<f32>>) -> tensor<2x1x32x64xf32>
    %503 = stablehlo.reshape %502 : (tensor<2x1x32x64xf32>) -> tensor<2x1x32x64x1xf32>
    %504 = stablehlo.imag %501 : (tensor<2x1x32x64xcomplex<f32>>) -> tensor<2x1x32x64xf32>
    %505 = stablehlo.reshape %504 : (tensor<2x1x32x64xf32>) -> tensor<2x1x32x64x1xf32>
    %506 = stablehlo.concatenate %503, %505, dim = 4 : (tensor<2x1x32x64x1xf32>, tensor<2x1x32x64x1xf32>) -> tensor<2x1x32x64x2xf32>
    %507 = stablehlo.reshape %506 : (tensor<2x1x32x64x2xf32>) -> tensor<64x1x128xf32>
    %508 = stablehlo.compare  LT, %arg199, %2 : (tensor<1xi64>, tensor<1xi64>) -> tensor<1xi1>
    %509 = stablehlo.reshape %arg200 : (tensor<i64>) -> tensor<1xi64>
    %510 = stablehlo.add %arg199, %509 : tensor<1xi64>
    %511 = stablehlo.select %508, %510, %arg199 : tensor<1xi1>, tensor<1xi64>
    %512 = stablehlo.reshape %511 : (tensor<1xi64>) -> tensor<1x1xi64>
    %513 = stablehlo.reshape %490 : (tensor<2x1x4096xf32>) -> tensor<2x4096xf32>
    %514 = stablehlo.transpose %arg224, dims = [1, 0] {result_layout = dense<[0, 1]> : tensor<2xindex>, xla_shape = "f32[4096,4096]{0,1}"} : (tensor<4096x4096xf32>) -> tensor<4096x4096xf32>
    %515 = stablehlo.dot %513, %514, precision = [DEFAULT, DEFAULT] : (tensor<2x4096xf32>, tensor<4096x4096xf32>) -> tensor<2x4096xf32>
    %516 = stablehlo.reshape %515 : (tensor<2x4096xf32>) -> tensor<2x1x32x64x2xf32>
    %517 = stablehlo.slice %516 [0:2, 0:1, 0:32, 0:64, 0:1] : (tensor<2x1x32x64x2xf32>) -> tensor<2x1x32x64x1xf32>
    %518 = stablehlo.reshape %517 : (tensor<2x1x32x64x1xf32>) -> tensor<2x1x32x64xf32>
    %519 = stablehlo.slice %516 [0:2, 0:1, 0:32, 0:64, 1:2] : (tensor<2x1x32x64x2xf32>) -> tensor<2x1x32x64x1xf32>
    %520 = stablehlo.reshape %519 : (tensor<2x1x32x64x1xf32>) -> tensor<2x1x32x64xf32>
    %521 = stablehlo.complex %518, %520 : tensor<2x1x32x64xcomplex<f32>>
    %522 = stablehlo.broadcast_in_dim %35, dims = [1, 3] : (tensor<1x64xcomplex<f32>>) -> tensor<2x1x32x64xcomplex<f32>>
    %523 = stablehlo.multiply %521, %522 : tensor<2x1x32x64xcomplex<f32>>
    %524 = stablehlo.real %523 : (tensor<2x1x32x64xcomplex<f32>>) -> tensor<2x1x32x64xf32>
    %525 = stablehlo.reshape %524 : (tensor<2x1x32x64xf32>) -> tensor<2x1x32x64x1xf32>
    %526 = stablehlo.imag %523 : (tensor<2x1x32x64xcomplex<f32>>) -> tensor<2x1x32x64xf32>
    %527 = stablehlo.reshape %526 : (tensor<2x1x32x64xf32>) -> tensor<2x1x32x64x1xf32>
    %528 = stablehlo.concatenate %525, %527, dim = 4 : (tensor<2x1x32x64x1xf32>, tensor<2x1x32x64x1xf32>) -> tensor<2x1x32x64x2xf32>
    %529 = stablehlo.reshape %528 : (tensor<2x1x32x64x2xf32>) -> tensor<2x1x32x128xf32>
    %530 = "stablehlo.scatter"(%arg225, %512, %529) ({
    ^bb0(%arg363: tensor<f32>, %arg364: tensor<f32>):
      stablehlo.return %arg364 : tensor<f32>
    }) {indices_are_sorted = false, scatter_dimension_numbers = #stablehlo.scatter<update_window_dims = [0, 2, 3], inserted_window_dims = [1], scatter_dims_to_operand_dims = [1], index_vector_dim = 1>, unique_indices = false} : (tensor<2x2304x32x128xf32>, tensor<1x1xi64>, tensor<2x1x32x128xf32>) -> tensor<2x2304x32x128xf32>
    %531 = stablehlo.convert %arg7 : (tensor<2048xi64>) -> tensor<2048xui32>
    %532 = "stablehlo.gather"(%530, %531) {dimension_numbers = #stablehlo.gather<offset_dims = [0, 2, 3], collapsed_slice_dims = [1], start_index_map = [1], index_vector_dim = 1>, indices_are_sorted = false, slice_sizes = dense<[2, 1, 32, 128]> : tensor<4xi64>} : (tensor<2x2304x32x128xf32>, tensor<2048xui32>) -> tensor<2x2048x32x128xf32>
    %533 = stablehlo.transpose %532, dims = [0, 2, 3, 1] : (tensor<2x2048x32x128xf32>) -> tensor<2x32x128x2048xf32>
    %534 = stablehlo.reshape %533 : (tensor<2x32x128x2048xf32>) -> tensor<64x128x2048xf32>
    %535 = stablehlo.dot_general %507, %534, batching_dims = [0] x [0], contracting_dims = [2] x [1], precision = [DEFAULT, DEFAULT] : (tensor<64x1x128xf32>, tensor<64x128x2048xf32>) -> tensor<64x1x2048xf32>
    %536 = stablehlo.reshape %535 : (tensor<64x1x2048xf32>) -> tensor<2x32x1x2048xf32>
    %537 = stablehlo.broadcast_in_dim %arg202, dims = [] : (tensor<f32>) -> tensor<2x32x1x2048xf32>
    %538 = stablehlo.divide %536, %537 : tensor<2x32x1x2048xf32>
    %539 = stablehlo.reduce(%538 init: %4) across dimensions = [3] : (tensor<2x32x1x2048xf32>, tensor<f32>) -> tensor<2x32x1xf32>
     reducer(%arg363: tensor<f32>, %arg364: tensor<f32>)  {
      %3743 = stablehlo.maximum %arg363, %arg364 : tensor<f32>
      stablehlo.return %3743 : tensor<f32>
    }
    %540 = stablehlo.broadcast_in_dim %539, dims = [0, 1, 2] : (tensor<2x32x1xf32>) -> tensor<2x32x1x2048xf32>
    %541 = stablehlo.subtract %538, %540 : tensor<2x32x1x2048xf32>
    %542 = stablehlo.exponential %541 : tensor<2x32x1x2048xf32>
    %543 = stablehlo.reduce(%542 init: %5) across dimensions = [3] : (tensor<2x32x1x2048xf32>, tensor<f32>) -> tensor<2x32x1xf32>
     reducer(%arg363: tensor<f32>, %arg364: tensor<f32>)  {
      %3743 = stablehlo.add %arg363, %arg364 : tensor<f32>
      stablehlo.return %3743 : tensor<f32>
    }
    %544 = stablehlo.broadcast_in_dim %543, dims = [0, 1, 2] : (tensor<2x32x1xf32>) -> tensor<2x32x1x2048xf32>
    %545 = stablehlo.divide %542, %544 : tensor<2x32x1x2048xf32>
    %546 = stablehlo.reshape %545 : (tensor<2x32x1x2048xf32>) -> tensor<64x1x2048xf32>
    %547 = stablehlo.compare  LT, %arg199, %2 : (tensor<1xi64>, tensor<1xi64>) -> tensor<1xi1>
    %548 = stablehlo.reshape %arg200 : (tensor<i64>) -> tensor<1xi64>
    %549 = stablehlo.add %arg199, %548 : tensor<1xi64>
    %550 = stablehlo.select %547, %549, %arg199 : tensor<1xi1>, tensor<1xi64>
    %551 = stablehlo.reshape %550 : (tensor<1xi64>) -> tensor<1x1xi64>
    %552 = stablehlo.reshape %490 : (tensor<2x1x4096xf32>) -> tensor<2x4096xf32>
    %553 = stablehlo.transpose %arg170, dims = [1, 0] {result_layout = dense<[0, 1]> : tensor<2xindex>, xla_shape = "f32[4096,4096]{0,1}"} : (tensor<4096x4096xf32>) -> tensor<4096x4096xf32>
    %554 = stablehlo.dot %552, %553, precision = [DEFAULT, DEFAULT] : (tensor<2x4096xf32>, tensor<4096x4096xf32>) -> tensor<2x4096xf32>
    %555 = stablehlo.reshape %554 : (tensor<2x4096xf32>) -> tensor<2x1x32x128xf32>
    %556 = "stablehlo.scatter"(%arg223, %551, %555) ({
    ^bb0(%arg363: tensor<f32>, %arg364: tensor<f32>):
      stablehlo.return %arg364 : tensor<f32>
    }) {indices_are_sorted = false, scatter_dimension_numbers = #stablehlo.scatter<update_window_dims = [0, 2, 3], inserted_window_dims = [1], scatter_dims_to_operand_dims = [1], index_vector_dim = 1>, unique_indices = false} : (tensor<2x2304x32x128xf32>, tensor<1x1xi64>, tensor<2x1x32x128xf32>) -> tensor<2x2304x32x128xf32>
    %557 = stablehlo.convert %arg7 : (tensor<2048xi64>) -> tensor<2048xui32>
    %558 = "stablehlo.gather"(%556, %557) {dimension_numbers = #stablehlo.gather<offset_dims = [0, 2, 3], collapsed_slice_dims = [1], start_index_map = [1], index_vector_dim = 1>, indices_are_sorted = false, slice_sizes = dense<[2, 1, 32, 128]> : tensor<4xi64>} : (tensor<2x2304x32x128xf32>, tensor<2048xui32>) -> tensor<2x2048x32x128xf32>
    %559 = stablehlo.transpose %558, dims = [0, 2, 1, 3] {result_layout = dense<[3, 1, 2, 0]> : tensor<4xindex>, xla_shape = "f32[2,32,2048,128]{3,1,2,0}"} : (tensor<2x2048x32x128xf32>) -> tensor<2x32x2048x128xf32>
    %560 = stablehlo.reshape %559 : (tensor<2x32x2048x128xf32>) -> tensor<64x2048x128xf32>
    %561 = stablehlo.dot_general %546, %560, batching_dims = [0] x [0], contracting_dims = [2] x [1], precision = [DEFAULT, DEFAULT] : (tensor<64x1x2048xf32>, tensor<64x2048x128xf32>) -> tensor<64x1x128xf32>
    %562 = stablehlo.reshape %561 : (tensor<64x1x128xf32>) -> tensor<2x4096xf32>
    %563 = stablehlo.transpose %arg169, dims = [1, 0] {result_layout = dense<[0, 1]> : tensor<2xindex>, xla_shape = "f32[4096,4096]{0,1}"} : (tensor<4096x4096xf32>) -> tensor<4096x4096xf32>
    %564 = stablehlo.dot %562, %563, precision = [DEFAULT, DEFAULT] : (tensor<2x4096xf32>, tensor<4096x4096xf32>) -> tensor<2x4096xf32>
    %565 = stablehlo.reshape %564 : (tensor<2x4096xf32>) -> tensor<2x1x4096xf32>
    %566 = stablehlo.add %478, %565 : tensor<2x1x4096xf32>
    %567 = stablehlo.power %566, %1 : tensor<2x1x4096xf32>
    %568 = stablehlo.reduce(%567 init: %5) across dimensions = [2] : (tensor<2x1x4096xf32>, tensor<f32>) -> tensor<2x1xf32>
     reducer(%arg363: tensor<f32>, %arg364: tensor<f32>)  {
      %3743 = stablehlo.add %arg363, %arg364 : tensor<f32>
      stablehlo.return %3743 : tensor<f32>
    }
    %569 = stablehlo.multiply %568, %0 : tensor<2x1xf32>
    %570 = stablehlo.reshape %569 : (tensor<2x1xf32>) -> tensor<2x1x1xf32>
    %571 = stablehlo.broadcast_in_dim %arg2, dims = [] : (tensor<f32>) -> tensor<2x1x1xf32>
    %572 = stablehlo.add %570, %571 : tensor<2x1x1xf32>
    %573 = stablehlo.rsqrt %572 : tensor<2x1x1xf32>
    %574 = stablehlo.reshape %573 : (tensor<2x1x1xf32>) -> tensor<2x1xf32>
    %575 = stablehlo.broadcast_in_dim %574, dims = [0, 1] : (tensor<2x1xf32>) -> tensor<2x1x4096xf32>
    %576 = stablehlo.multiply %566, %575 : tensor<2x1x4096xf32>
    %577 = stablehlo.broadcast_in_dim %arg168, dims = [2] : (tensor<4096xf32>) -> tensor<2x1x4096xf32>
    %578 = stablehlo.multiply %576, %577 : tensor<2x1x4096xf32>
    %579 = stablehlo.reshape %578 : (tensor<2x1x4096xf32>) -> tensor<2x4096xf32>
    %580 = stablehlo.transpose %arg227, dims = [1, 0] {result_layout = dense<[0, 1]> : tensor<2xindex>, xla_shape = "f32[4096,11008]{0,1}"} : (tensor<11008x4096xf32>) -> tensor<4096x11008xf32>
    %581 = stablehlo.dot %579, %580, precision = [DEFAULT, DEFAULT] : (tensor<2x4096xf32>, tensor<4096x11008xf32>) -> tensor<2x11008xf32>
    %582 = stablehlo.reshape %581 : (tensor<2x11008xf32>) -> tensor<2x1x11008xf32>
    %583 = stablehlo.logistic %582 : tensor<2x1x11008xf32>
    %584 = stablehlo.multiply %582, %583 : tensor<2x1x11008xf32>
    %585 = stablehlo.reshape %578 : (tensor<2x1x4096xf32>) -> tensor<2x4096xf32>
    %586 = stablehlo.transpose %arg167, dims = [1, 0] {result_layout = dense<[0, 1]> : tensor<2xindex>, xla_shape = "f32[4096,11008]{0,1}"} : (tensor<11008x4096xf32>) -> tensor<4096x11008xf32>
    %587 = stablehlo.dot %585, %586, precision = [DEFAULT, DEFAULT] : (tensor<2x4096xf32>, tensor<4096x11008xf32>) -> tensor<2x11008xf32>
    %588 = stablehlo.reshape %587 : (tensor<2x11008xf32>) -> tensor<2x1x11008xf32>
    %589 = stablehlo.multiply %584, %588 : tensor<2x1x11008xf32>
    %590 = stablehlo.reshape %589 : (tensor<2x1x11008xf32>) -> tensor<2x11008xf32>
    %591 = stablehlo.transpose %arg166, dims = [1, 0] {result_layout = dense<[0, 1]> : tensor<2xindex>, xla_shape = "f32[11008,4096]{0,1}"} : (tensor<4096x11008xf32>) -> tensor<11008x4096xf32>
    %592 = stablehlo.dot %590, %591, precision = [DEFAULT, DEFAULT] : (tensor<2x11008xf32>, tensor<11008x4096xf32>) -> tensor<2x4096xf32>
    %593 = stablehlo.reshape %592 : (tensor<2x4096xf32>) -> tensor<2x1x4096xf32>
    %594 = stablehlo.add %566, %593 : tensor<2x1x4096xf32>
    %595 = stablehlo.power %594, %1 : tensor<2x1x4096xf32>
    %596 = stablehlo.reduce(%595 init: %5) across dimensions = [2] : (tensor<2x1x4096xf32>, tensor<f32>) -> tensor<2x1xf32>
     reducer(%arg363: tensor<f32>, %arg364: tensor<f32>)  {
      %3743 = stablehlo.add %arg363, %arg364 : tensor<f32>
      stablehlo.return %3743 : tensor<f32>
    }
    %597 = stablehlo.multiply %596, %0 : tensor<2x1xf32>
    %598 = stablehlo.reshape %597 : (tensor<2x1xf32>) -> tensor<2x1x1xf32>
    %599 = stablehlo.broadcast_in_dim %arg2, dims = [] : (tensor<f32>) -> tensor<2x1x1xf32>
    %600 = stablehlo.add %598, %599 : tensor<2x1x1xf32>
    %601 = stablehlo.rsqrt %600 : tensor<2x1x1xf32>
    %602 = stablehlo.reshape %601 : (tensor<2x1x1xf32>) -> tensor<2x1xf32>
    %603 = stablehlo.broadcast_in_dim %602, dims = [0, 1] : (tensor<2x1xf32>) -> tensor<2x1x4096xf32>
    %604 = stablehlo.multiply %594, %603 : tensor<2x1x4096xf32>
    %605 = stablehlo.broadcast_in_dim %arg165, dims = [2] : (tensor<4096xf32>) -> tensor<2x1x4096xf32>
    %606 = stablehlo.multiply %604, %605 : tensor<2x1x4096xf32>
    %607 = stablehlo.reshape %606 : (tensor<2x1x4096xf32>) -> tensor<2x4096xf32>
    %608 = stablehlo.transpose %arg231, dims = [1, 0] {result_layout = dense<[0, 1]> : tensor<2xindex>, xla_shape = "f32[4096,4096]{0,1}"} : (tensor<4096x4096xf32>) -> tensor<4096x4096xf32>
    %609 = stablehlo.dot %607, %608, precision = [DEFAULT, DEFAULT] : (tensor<2x4096xf32>, tensor<4096x4096xf32>) -> tensor<2x4096xf32>
    %610 = stablehlo.reshape %609 : (tensor<2x4096xf32>) -> tensor<2x1x32x64x2xf32>
    %611 = stablehlo.slice %610 [0:2, 0:1, 0:32, 0:64, 0:1] : (tensor<2x1x32x64x2xf32>) -> tensor<2x1x32x64x1xf32>
    %612 = stablehlo.reshape %611 : (tensor<2x1x32x64x1xf32>) -> tensor<2x1x32x64xf32>
    %613 = stablehlo.slice %610 [0:2, 0:1, 0:32, 0:64, 1:2] : (tensor<2x1x32x64x2xf32>) -> tensor<2x1x32x64x1xf32>
    %614 = stablehlo.reshape %613 : (tensor<2x1x32x64x1xf32>) -> tensor<2x1x32x64xf32>
    %615 = stablehlo.complex %612, %614 : tensor<2x1x32x64xcomplex<f32>>
    %616 = stablehlo.broadcast_in_dim %35, dims = [1, 3] : (tensor<1x64xcomplex<f32>>) -> tensor<2x1x32x64xcomplex<f32>>
    %617 = stablehlo.multiply %615, %616 : tensor<2x1x32x64xcomplex<f32>>
    %618 = stablehlo.real %617 : (tensor<2x1x32x64xcomplex<f32>>) -> tensor<2x1x32x64xf32>
    %619 = stablehlo.reshape %618 : (tensor<2x1x32x64xf32>) -> tensor<2x1x32x64x1xf32>
    %620 = stablehlo.imag %617 : (tensor<2x1x32x64xcomplex<f32>>) -> tensor<2x1x32x64xf32>
    %621 = stablehlo.reshape %620 : (tensor<2x1x32x64xf32>) -> tensor<2x1x32x64x1xf32>
    %622 = stablehlo.concatenate %619, %621, dim = 4 : (tensor<2x1x32x64x1xf32>, tensor<2x1x32x64x1xf32>) -> tensor<2x1x32x64x2xf32>
    %623 = stablehlo.reshape %622 : (tensor<2x1x32x64x2xf32>) -> tensor<64x1x128xf32>
    %624 = stablehlo.compare  LT, %arg199, %2 : (tensor<1xi64>, tensor<1xi64>) -> tensor<1xi1>
    %625 = stablehlo.reshape %arg200 : (tensor<i64>) -> tensor<1xi64>
    %626 = stablehlo.add %arg199, %625 : tensor<1xi64>
    %627 = stablehlo.select %624, %626, %arg199 : tensor<1xi1>, tensor<1xi64>
    %628 = stablehlo.reshape %627 : (tensor<1xi64>) -> tensor<1x1xi64>
    %629 = stablehlo.reshape %606 : (tensor<2x1x4096xf32>) -> tensor<2x4096xf32>
    %630 = stablehlo.transpose %arg229, dims = [1, 0] {result_layout = dense<[0, 1]> : tensor<2xindex>, xla_shape = "f32[4096,4096]{0,1}"} : (tensor<4096x4096xf32>) -> tensor<4096x4096xf32>
    %631 = stablehlo.dot %629, %630, precision = [DEFAULT, DEFAULT] : (tensor<2x4096xf32>, tensor<4096x4096xf32>) -> tensor<2x4096xf32>
    %632 = stablehlo.reshape %631 : (tensor<2x4096xf32>) -> tensor<2x1x32x64x2xf32>
    %633 = stablehlo.slice %632 [0:2, 0:1, 0:32, 0:64, 0:1] : (tensor<2x1x32x64x2xf32>) -> tensor<2x1x32x64x1xf32>
    %634 = stablehlo.reshape %633 : (tensor<2x1x32x64x1xf32>) -> tensor<2x1x32x64xf32>
    %635 = stablehlo.slice %632 [0:2, 0:1, 0:32, 0:64, 1:2] : (tensor<2x1x32x64x2xf32>) -> tensor<2x1x32x64x1xf32>
    %636 = stablehlo.reshape %635 : (tensor<2x1x32x64x1xf32>) -> tensor<2x1x32x64xf32>
    %637 = stablehlo.complex %634, %636 : tensor<2x1x32x64xcomplex<f32>>
    %638 = stablehlo.broadcast_in_dim %35, dims = [1, 3] : (tensor<1x64xcomplex<f32>>) -> tensor<2x1x32x64xcomplex<f32>>
    %639 = stablehlo.multiply %637, %638 : tensor<2x1x32x64xcomplex<f32>>
    %640 = stablehlo.real %639 : (tensor<2x1x32x64xcomplex<f32>>) -> tensor<2x1x32x64xf32>
    %641 = stablehlo.reshape %640 : (tensor<2x1x32x64xf32>) -> tensor<2x1x32x64x1xf32>
    %642 = stablehlo.imag %639 : (tensor<2x1x32x64xcomplex<f32>>) -> tensor<2x1x32x64xf32>
    %643 = stablehlo.reshape %642 : (tensor<2x1x32x64xf32>) -> tensor<2x1x32x64x1xf32>
    %644 = stablehlo.concatenate %641, %643, dim = 4 : (tensor<2x1x32x64x1xf32>, tensor<2x1x32x64x1xf32>) -> tensor<2x1x32x64x2xf32>
    %645 = stablehlo.reshape %644 : (tensor<2x1x32x64x2xf32>) -> tensor<2x1x32x128xf32>
    %646 = "stablehlo.scatter"(%arg230, %628, %645) ({
    ^bb0(%arg363: tensor<f32>, %arg364: tensor<f32>):
      stablehlo.return %arg364 : tensor<f32>
    }) {indices_are_sorted = false, scatter_dimension_numbers = #stablehlo.scatter<update_window_dims = [0, 2, 3], inserted_window_dims = [1], scatter_dims_to_operand_dims = [1], index_vector_dim = 1>, unique_indices = false} : (tensor<2x2304x32x128xf32>, tensor<1x1xi64>, tensor<2x1x32x128xf32>) -> tensor<2x2304x32x128xf32>
    %647 = stablehlo.convert %arg7 : (tensor<2048xi64>) -> tensor<2048xui32>
    %648 = "stablehlo.gather"(%646, %647) {dimension_numbers = #stablehlo.gather<offset_dims = [0, 2, 3], collapsed_slice_dims = [1], start_index_map = [1], index_vector_dim = 1>, indices_are_sorted = false, slice_sizes = dense<[2, 1, 32, 128]> : tensor<4xi64>} : (tensor<2x2304x32x128xf32>, tensor<2048xui32>) -> tensor<2x2048x32x128xf32>
    %649 = stablehlo.transpose %648, dims = [0, 2, 3, 1] : (tensor<2x2048x32x128xf32>) -> tensor<2x32x128x2048xf32>
    %650 = stablehlo.reshape %649 : (tensor<2x32x128x2048xf32>) -> tensor<64x128x2048xf32>
    %651 = stablehlo.dot_general %623, %650, batching_dims = [0] x [0], contracting_dims = [2] x [1], precision = [DEFAULT, DEFAULT] : (tensor<64x1x128xf32>, tensor<64x128x2048xf32>) -> tensor<64x1x2048xf32>
    %652 = stablehlo.reshape %651 : (tensor<64x1x2048xf32>) -> tensor<2x32x1x2048xf32>
    %653 = stablehlo.broadcast_in_dim %arg202, dims = [] : (tensor<f32>) -> tensor<2x32x1x2048xf32>
    %654 = stablehlo.divide %652, %653 : tensor<2x32x1x2048xf32>
    %655 = stablehlo.reduce(%654 init: %4) across dimensions = [3] : (tensor<2x32x1x2048xf32>, tensor<f32>) -> tensor<2x32x1xf32>
     reducer(%arg363: tensor<f32>, %arg364: tensor<f32>)  {
      %3743 = stablehlo.maximum %arg363, %arg364 : tensor<f32>
      stablehlo.return %3743 : tensor<f32>
    }
    %656 = stablehlo.broadcast_in_dim %655, dims = [0, 1, 2] : (tensor<2x32x1xf32>) -> tensor<2x32x1x2048xf32>
    %657 = stablehlo.subtract %654, %656 : tensor<2x32x1x2048xf32>
    %658 = stablehlo.exponential %657 : tensor<2x32x1x2048xf32>
    %659 = stablehlo.reduce(%658 init: %5) across dimensions = [3] : (tensor<2x32x1x2048xf32>, tensor<f32>) -> tensor<2x32x1xf32>
     reducer(%arg363: tensor<f32>, %arg364: tensor<f32>)  {
      %3743 = stablehlo.add %arg363, %arg364 : tensor<f32>
      stablehlo.return %3743 : tensor<f32>
    }
    %660 = stablehlo.broadcast_in_dim %659, dims = [0, 1, 2] : (tensor<2x32x1xf32>) -> tensor<2x32x1x2048xf32>
    %661 = stablehlo.divide %658, %660 : tensor<2x32x1x2048xf32>
    %662 = stablehlo.reshape %661 : (tensor<2x32x1x2048xf32>) -> tensor<64x1x2048xf32>
    %663 = stablehlo.compare  LT, %arg199, %2 : (tensor<1xi64>, tensor<1xi64>) -> tensor<1xi1>
    %664 = stablehlo.reshape %arg200 : (tensor<i64>) -> tensor<1xi64>
    %665 = stablehlo.add %arg199, %664 : tensor<1xi64>
    %666 = stablehlo.select %663, %665, %arg199 : tensor<1xi1>, tensor<1xi64>
    %667 = stablehlo.reshape %666 : (tensor<1xi64>) -> tensor<1x1xi64>
    %668 = stablehlo.reshape %606 : (tensor<2x1x4096xf32>) -> tensor<2x4096xf32>
    %669 = stablehlo.transpose %arg164, dims = [1, 0] {result_layout = dense<[0, 1]> : tensor<2xindex>, xla_shape = "f32[4096,4096]{0,1}"} : (tensor<4096x4096xf32>) -> tensor<4096x4096xf32>
    %670 = stablehlo.dot %668, %669, precision = [DEFAULT, DEFAULT] : (tensor<2x4096xf32>, tensor<4096x4096xf32>) -> tensor<2x4096xf32>
    %671 = stablehlo.reshape %670 : (tensor<2x4096xf32>) -> tensor<2x1x32x128xf32>
    %672 = "stablehlo.scatter"(%arg228, %667, %671) ({
    ^bb0(%arg363: tensor<f32>, %arg364: tensor<f32>):
      stablehlo.return %arg364 : tensor<f32>
    }) {indices_are_sorted = false, scatter_dimension_numbers = #stablehlo.scatter<update_window_dims = [0, 2, 3], inserted_window_dims = [1], scatter_dims_to_operand_dims = [1], index_vector_dim = 1>, unique_indices = false} : (tensor<2x2304x32x128xf32>, tensor<1x1xi64>, tensor<2x1x32x128xf32>) -> tensor<2x2304x32x128xf32>
    %673 = stablehlo.convert %arg7 : (tensor<2048xi64>) -> tensor<2048xui32>
    %674 = "stablehlo.gather"(%672, %673) {dimension_numbers = #stablehlo.gather<offset_dims = [0, 2, 3], collapsed_slice_dims = [1], start_index_map = [1], index_vector_dim = 1>, indices_are_sorted = false, slice_sizes = dense<[2, 1, 32, 128]> : tensor<4xi64>} : (tensor<2x2304x32x128xf32>, tensor<2048xui32>) -> tensor<2x2048x32x128xf32>
    %675 = stablehlo.transpose %674, dims = [0, 2, 1, 3] {result_layout = dense<[3, 1, 2, 0]> : tensor<4xindex>, xla_shape = "f32[2,32,2048,128]{3,1,2,0}"} : (tensor<2x2048x32x128xf32>) -> tensor<2x32x2048x128xf32>
    %676 = stablehlo.reshape %675 : (tensor<2x32x2048x128xf32>) -> tensor<64x2048x128xf32>
    %677 = stablehlo.dot_general %662, %676, batching_dims = [0] x [0], contracting_dims = [2] x [1], precision = [DEFAULT, DEFAULT] : (tensor<64x1x2048xf32>, tensor<64x2048x128xf32>) -> tensor<64x1x128xf32>
    %678 = stablehlo.reshape %677 : (tensor<64x1x128xf32>) -> tensor<2x4096xf32>
    %679 = stablehlo.transpose %arg163, dims = [1, 0] {result_layout = dense<[0, 1]> : tensor<2xindex>, xla_shape = "f32[4096,4096]{0,1}"} : (tensor<4096x4096xf32>) -> tensor<4096x4096xf32>
    %680 = stablehlo.dot %678, %679, precision = [DEFAULT, DEFAULT] : (tensor<2x4096xf32>, tensor<4096x4096xf32>) -> tensor<2x4096xf32>
    %681 = stablehlo.reshape %680 : (tensor<2x4096xf32>) -> tensor<2x1x4096xf32>
    %682 = stablehlo.add %594, %681 : tensor<2x1x4096xf32>
    %683 = stablehlo.power %682, %1 : tensor<2x1x4096xf32>
    %684 = stablehlo.reduce(%683 init: %5) across dimensions = [2] : (tensor<2x1x4096xf32>, tensor<f32>) -> tensor<2x1xf32>
     reducer(%arg363: tensor<f32>, %arg364: tensor<f32>)  {
      %3743 = stablehlo.add %arg363, %arg364 : tensor<f32>
      stablehlo.return %3743 : tensor<f32>
    }
    %685 = stablehlo.multiply %684, %0 : tensor<2x1xf32>
    %686 = stablehlo.reshape %685 : (tensor<2x1xf32>) -> tensor<2x1x1xf32>
    %687 = stablehlo.broadcast_in_dim %arg2, dims = [] : (tensor<f32>) -> tensor<2x1x1xf32>
    %688 = stablehlo.add %686, %687 : tensor<2x1x1xf32>
    %689 = stablehlo.rsqrt %688 : tensor<2x1x1xf32>
    %690 = stablehlo.reshape %689 : (tensor<2x1x1xf32>) -> tensor<2x1xf32>
    %691 = stablehlo.broadcast_in_dim %690, dims = [0, 1] : (tensor<2x1xf32>) -> tensor<2x1x4096xf32>
    %692 = stablehlo.multiply %682, %691 : tensor<2x1x4096xf32>
    %693 = stablehlo.broadcast_in_dim %arg162, dims = [2] : (tensor<4096xf32>) -> tensor<2x1x4096xf32>
    %694 = stablehlo.multiply %692, %693 : tensor<2x1x4096xf32>
    %695 = stablehlo.reshape %694 : (tensor<2x1x4096xf32>) -> tensor<2x4096xf32>
    %696 = stablehlo.transpose %arg232, dims = [1, 0] {result_layout = dense<[0, 1]> : tensor<2xindex>, xla_shape = "f32[4096,11008]{0,1}"} : (tensor<11008x4096xf32>) -> tensor<4096x11008xf32>
    %697 = stablehlo.dot %695, %696, precision = [DEFAULT, DEFAULT] : (tensor<2x4096xf32>, tensor<4096x11008xf32>) -> tensor<2x11008xf32>
    %698 = stablehlo.reshape %697 : (tensor<2x11008xf32>) -> tensor<2x1x11008xf32>
    %699 = stablehlo.logistic %698 : tensor<2x1x11008xf32>
    %700 = stablehlo.multiply %698, %699 : tensor<2x1x11008xf32>
    %701 = stablehlo.reshape %694 : (tensor<2x1x4096xf32>) -> tensor<2x4096xf32>
    %702 = stablehlo.transpose %arg161, dims = [1, 0] {result_layout = dense<[0, 1]> : tensor<2xindex>, xla_shape = "f32[4096,11008]{0,1}"} : (tensor<11008x4096xf32>) -> tensor<4096x11008xf32>
    %703 = stablehlo.dot %701, %702, precision = [DEFAULT, DEFAULT] : (tensor<2x4096xf32>, tensor<4096x11008xf32>) -> tensor<2x11008xf32>
    %704 = stablehlo.reshape %703 : (tensor<2x11008xf32>) -> tensor<2x1x11008xf32>
    %705 = stablehlo.multiply %700, %704 : tensor<2x1x11008xf32>
    %706 = stablehlo.reshape %705 : (tensor<2x1x11008xf32>) -> tensor<2x11008xf32>
    %707 = stablehlo.transpose %arg160, dims = [1, 0] {result_layout = dense<[0, 1]> : tensor<2xindex>, xla_shape = "f32[11008,4096]{0,1}"} : (tensor<4096x11008xf32>) -> tensor<11008x4096xf32>
    %708 = stablehlo.dot %706, %707, precision = [DEFAULT, DEFAULT] : (tensor<2x11008xf32>, tensor<11008x4096xf32>) -> tensor<2x4096xf32>
    %709 = stablehlo.reshape %708 : (tensor<2x4096xf32>) -> tensor<2x1x4096xf32>
    %710 = stablehlo.add %682, %709 : tensor<2x1x4096xf32>
    %711 = stablehlo.power %710, %1 : tensor<2x1x4096xf32>
    %712 = stablehlo.reduce(%711 init: %5) across dimensions = [2] : (tensor<2x1x4096xf32>, tensor<f32>) -> tensor<2x1xf32>
     reducer(%arg363: tensor<f32>, %arg364: tensor<f32>)  {
      %3743 = stablehlo.add %arg363, %arg364 : tensor<f32>
      stablehlo.return %3743 : tensor<f32>
    }
    %713 = stablehlo.multiply %712, %0 : tensor<2x1xf32>
    %714 = stablehlo.reshape %713 : (tensor<2x1xf32>) -> tensor<2x1x1xf32>
    %715 = stablehlo.broadcast_in_dim %arg2, dims = [] : (tensor<f32>) -> tensor<2x1x1xf32>
    %716 = stablehlo.add %714, %715 : tensor<2x1x1xf32>
    %717 = stablehlo.rsqrt %716 : tensor<2x1x1xf32>
    %718 = stablehlo.reshape %717 : (tensor<2x1x1xf32>) -> tensor<2x1xf32>
    %719 = stablehlo.broadcast_in_dim %718, dims = [0, 1] : (tensor<2x1xf32>) -> tensor<2x1x4096xf32>
    %720 = stablehlo.multiply %710, %719 : tensor<2x1x4096xf32>
    %721 = stablehlo.broadcast_in_dim %arg159, dims = [2] : (tensor<4096xf32>) -> tensor<2x1x4096xf32>
    %722 = stablehlo.multiply %720, %721 : tensor<2x1x4096xf32>
    %723 = stablehlo.reshape %722 : (tensor<2x1x4096xf32>) -> tensor<2x4096xf32>
    %724 = stablehlo.transpose %arg236, dims = [1, 0] {result_layout = dense<[0, 1]> : tensor<2xindex>, xla_shape = "f32[4096,4096]{0,1}"} : (tensor<4096x4096xf32>) -> tensor<4096x4096xf32>
    %725 = stablehlo.dot %723, %724, precision = [DEFAULT, DEFAULT] : (tensor<2x4096xf32>, tensor<4096x4096xf32>) -> tensor<2x4096xf32>
    %726 = stablehlo.reshape %725 : (tensor<2x4096xf32>) -> tensor<2x1x32x64x2xf32>
    %727 = stablehlo.slice %726 [0:2, 0:1, 0:32, 0:64, 0:1] : (tensor<2x1x32x64x2xf32>) -> tensor<2x1x32x64x1xf32>
    %728 = stablehlo.reshape %727 : (tensor<2x1x32x64x1xf32>) -> tensor<2x1x32x64xf32>
    %729 = stablehlo.slice %726 [0:2, 0:1, 0:32, 0:64, 1:2] : (tensor<2x1x32x64x2xf32>) -> tensor<2x1x32x64x1xf32>
    %730 = stablehlo.reshape %729 : (tensor<2x1x32x64x1xf32>) -> tensor<2x1x32x64xf32>
    %731 = stablehlo.complex %728, %730 : tensor<2x1x32x64xcomplex<f32>>
    %732 = stablehlo.broadcast_in_dim %35, dims = [1, 3] : (tensor<1x64xcomplex<f32>>) -> tensor<2x1x32x64xcomplex<f32>>
    %733 = stablehlo.multiply %731, %732 : tensor<2x1x32x64xcomplex<f32>>
    %734 = stablehlo.real %733 : (tensor<2x1x32x64xcomplex<f32>>) -> tensor<2x1x32x64xf32>
    %735 = stablehlo.reshape %734 : (tensor<2x1x32x64xf32>) -> tensor<2x1x32x64x1xf32>
    %736 = stablehlo.imag %733 : (tensor<2x1x32x64xcomplex<f32>>) -> tensor<2x1x32x64xf32>
    %737 = stablehlo.reshape %736 : (tensor<2x1x32x64xf32>) -> tensor<2x1x32x64x1xf32>
    %738 = stablehlo.concatenate %735, %737, dim = 4 : (tensor<2x1x32x64x1xf32>, tensor<2x1x32x64x1xf32>) -> tensor<2x1x32x64x2xf32>
    %739 = stablehlo.reshape %738 : (tensor<2x1x32x64x2xf32>) -> tensor<64x1x128xf32>
    %740 = stablehlo.compare  LT, %arg199, %2 : (tensor<1xi64>, tensor<1xi64>) -> tensor<1xi1>
    %741 = stablehlo.reshape %arg200 : (tensor<i64>) -> tensor<1xi64>
    %742 = stablehlo.add %arg199, %741 : tensor<1xi64>
    %743 = stablehlo.select %740, %742, %arg199 : tensor<1xi1>, tensor<1xi64>
    %744 = stablehlo.reshape %743 : (tensor<1xi64>) -> tensor<1x1xi64>
    %745 = stablehlo.reshape %722 : (tensor<2x1x4096xf32>) -> tensor<2x4096xf32>
    %746 = stablehlo.transpose %arg234, dims = [1, 0] {result_layout = dense<[0, 1]> : tensor<2xindex>, xla_shape = "f32[4096,4096]{0,1}"} : (tensor<4096x4096xf32>) -> tensor<4096x4096xf32>
    %747 = stablehlo.dot %745, %746, precision = [DEFAULT, DEFAULT] : (tensor<2x4096xf32>, tensor<4096x4096xf32>) -> tensor<2x4096xf32>
    %748 = stablehlo.reshape %747 : (tensor<2x4096xf32>) -> tensor<2x1x32x64x2xf32>
    %749 = stablehlo.slice %748 [0:2, 0:1, 0:32, 0:64, 0:1] : (tensor<2x1x32x64x2xf32>) -> tensor<2x1x32x64x1xf32>
    %750 = stablehlo.reshape %749 : (tensor<2x1x32x64x1xf32>) -> tensor<2x1x32x64xf32>
    %751 = stablehlo.slice %748 [0:2, 0:1, 0:32, 0:64, 1:2] : (tensor<2x1x32x64x2xf32>) -> tensor<2x1x32x64x1xf32>
    %752 = stablehlo.reshape %751 : (tensor<2x1x32x64x1xf32>) -> tensor<2x1x32x64xf32>
    %753 = stablehlo.complex %750, %752 : tensor<2x1x32x64xcomplex<f32>>
    %754 = stablehlo.broadcast_in_dim %35, dims = [1, 3] : (tensor<1x64xcomplex<f32>>) -> tensor<2x1x32x64xcomplex<f32>>
    %755 = stablehlo.multiply %753, %754 : tensor<2x1x32x64xcomplex<f32>>
    %756 = stablehlo.real %755 : (tensor<2x1x32x64xcomplex<f32>>) -> tensor<2x1x32x64xf32>
    %757 = stablehlo.reshape %756 : (tensor<2x1x32x64xf32>) -> tensor<2x1x32x64x1xf32>
    %758 = stablehlo.imag %755 : (tensor<2x1x32x64xcomplex<f32>>) -> tensor<2x1x32x64xf32>
    %759 = stablehlo.reshape %758 : (tensor<2x1x32x64xf32>) -> tensor<2x1x32x64x1xf32>
    %760 = stablehlo.concatenate %757, %759, dim = 4 : (tensor<2x1x32x64x1xf32>, tensor<2x1x32x64x1xf32>) -> tensor<2x1x32x64x2xf32>
    %761 = stablehlo.reshape %760 : (tensor<2x1x32x64x2xf32>) -> tensor<2x1x32x128xf32>
    %762 = "stablehlo.scatter"(%arg235, %744, %761) ({
    ^bb0(%arg363: tensor<f32>, %arg364: tensor<f32>):
      stablehlo.return %arg364 : tensor<f32>
    }) {indices_are_sorted = false, scatter_dimension_numbers = #stablehlo.scatter<update_window_dims = [0, 2, 3], inserted_window_dims = [1], scatter_dims_to_operand_dims = [1], index_vector_dim = 1>, unique_indices = false} : (tensor<2x2304x32x128xf32>, tensor<1x1xi64>, tensor<2x1x32x128xf32>) -> tensor<2x2304x32x128xf32>
    %763 = stablehlo.convert %arg7 : (tensor<2048xi64>) -> tensor<2048xui32>
    %764 = "stablehlo.gather"(%762, %763) {dimension_numbers = #stablehlo.gather<offset_dims = [0, 2, 3], collapsed_slice_dims = [1], start_index_map = [1], index_vector_dim = 1>, indices_are_sorted = false, slice_sizes = dense<[2, 1, 32, 128]> : tensor<4xi64>} : (tensor<2x2304x32x128xf32>, tensor<2048xui32>) -> tensor<2x2048x32x128xf32>
    %765 = stablehlo.transpose %764, dims = [0, 2, 3, 1] : (tensor<2x2048x32x128xf32>) -> tensor<2x32x128x2048xf32>
    %766 = stablehlo.reshape %765 : (tensor<2x32x128x2048xf32>) -> tensor<64x128x2048xf32>
    %767 = stablehlo.dot_general %739, %766, batching_dims = [0] x [0], contracting_dims = [2] x [1], precision = [DEFAULT, DEFAULT] : (tensor<64x1x128xf32>, tensor<64x128x2048xf32>) -> tensor<64x1x2048xf32>
    %768 = stablehlo.reshape %767 : (tensor<64x1x2048xf32>) -> tensor<2x32x1x2048xf32>
    %769 = stablehlo.broadcast_in_dim %arg202, dims = [] : (tensor<f32>) -> tensor<2x32x1x2048xf32>
    %770 = stablehlo.divide %768, %769 : tensor<2x32x1x2048xf32>
    %771 = stablehlo.reduce(%770 init: %4) across dimensions = [3] : (tensor<2x32x1x2048xf32>, tensor<f32>) -> tensor<2x32x1xf32>
     reducer(%arg363: tensor<f32>, %arg364: tensor<f32>)  {
      %3743 = stablehlo.maximum %arg363, %arg364 : tensor<f32>
      stablehlo.return %3743 : tensor<f32>
    }
    %772 = stablehlo.broadcast_in_dim %771, dims = [0, 1, 2] : (tensor<2x32x1xf32>) -> tensor<2x32x1x2048xf32>
    %773 = stablehlo.subtract %770, %772 : tensor<2x32x1x2048xf32>
    %774 = stablehlo.exponential %773 : tensor<2x32x1x2048xf32>
    %775 = stablehlo.reduce(%774 init: %5) across dimensions = [3] : (tensor<2x32x1x2048xf32>, tensor<f32>) -> tensor<2x32x1xf32>
     reducer(%arg363: tensor<f32>, %arg364: tensor<f32>)  {
      %3743 = stablehlo.add %arg363, %arg364 : tensor<f32>
      stablehlo.return %3743 : tensor<f32>
    }
    %776 = stablehlo.broadcast_in_dim %775, dims = [0, 1, 2] : (tensor<2x32x1xf32>) -> tensor<2x32x1x2048xf32>
    %777 = stablehlo.divide %774, %776 : tensor<2x32x1x2048xf32>
    %778 = stablehlo.reshape %777 : (tensor<2x32x1x2048xf32>) -> tensor<64x1x2048xf32>
    %779 = stablehlo.compare  LT, %arg199, %2 : (tensor<1xi64>, tensor<1xi64>) -> tensor<1xi1>
    %780 = stablehlo.reshape %arg200 : (tensor<i64>) -> tensor<1xi64>
    %781 = stablehlo.add %arg199, %780 : tensor<1xi64>
    %782 = stablehlo.select %779, %781, %arg199 : tensor<1xi1>, tensor<1xi64>
    %783 = stablehlo.reshape %782 : (tensor<1xi64>) -> tensor<1x1xi64>
    %784 = stablehlo.reshape %722 : (tensor<2x1x4096xf32>) -> tensor<2x4096xf32>
    %785 = stablehlo.transpose %arg158, dims = [1, 0] {result_layout = dense<[0, 1]> : tensor<2xindex>, xla_shape = "f32[4096,4096]{0,1}"} : (tensor<4096x4096xf32>) -> tensor<4096x4096xf32>
    %786 = stablehlo.dot %784, %785, precision = [DEFAULT, DEFAULT] : (tensor<2x4096xf32>, tensor<4096x4096xf32>) -> tensor<2x4096xf32>
    %787 = stablehlo.reshape %786 : (tensor<2x4096xf32>) -> tensor<2x1x32x128xf32>
    %788 = "stablehlo.scatter"(%arg233, %783, %787) ({
    ^bb0(%arg363: tensor<f32>, %arg364: tensor<f32>):
      stablehlo.return %arg364 : tensor<f32>
    }) {indices_are_sorted = false, scatter_dimension_numbers = #stablehlo.scatter<update_window_dims = [0, 2, 3], inserted_window_dims = [1], scatter_dims_to_operand_dims = [1], index_vector_dim = 1>, unique_indices = false} : (tensor<2x2304x32x128xf32>, tensor<1x1xi64>, tensor<2x1x32x128xf32>) -> tensor<2x2304x32x128xf32>
    %789 = stablehlo.convert %arg7 : (tensor<2048xi64>) -> tensor<2048xui32>
    %790 = "stablehlo.gather"(%788, %789) {dimension_numbers = #stablehlo.gather<offset_dims = [0, 2, 3], collapsed_slice_dims = [1], start_index_map = [1], index_vector_dim = 1>, indices_are_sorted = false, slice_sizes = dense<[2, 1, 32, 128]> : tensor<4xi64>} : (tensor<2x2304x32x128xf32>, tensor<2048xui32>) -> tensor<2x2048x32x128xf32>
    %791 = stablehlo.transpose %790, dims = [0, 2, 1, 3] {result_layout = dense<[3, 1, 2, 0]> : tensor<4xindex>, xla_shape = "f32[2,32,2048,128]{3,1,2,0}"} : (tensor<2x2048x32x128xf32>) -> tensor<2x32x2048x128xf32>
    %792 = stablehlo.reshape %791 : (tensor<2x32x2048x128xf32>) -> tensor<64x2048x128xf32>
    %793 = stablehlo.dot_general %778, %792, batching_dims = [0] x [0], contracting_dims = [2] x [1], precision = [DEFAULT, DEFAULT] : (tensor<64x1x2048xf32>, tensor<64x2048x128xf32>) -> tensor<64x1x128xf32>
    %794 = stablehlo.reshape %793 : (tensor<64x1x128xf32>) -> tensor<2x4096xf32>
    %795 = stablehlo.transpose %arg157, dims = [1, 0] {result_layout = dense<[0, 1]> : tensor<2xindex>, xla_shape = "f32[4096,4096]{0,1}"} : (tensor<4096x4096xf32>) -> tensor<4096x4096xf32>
    %796 = stablehlo.dot %794, %795, precision = [DEFAULT, DEFAULT] : (tensor<2x4096xf32>, tensor<4096x4096xf32>) -> tensor<2x4096xf32>
    %797 = stablehlo.reshape %796 : (tensor<2x4096xf32>) -> tensor<2x1x4096xf32>
    %798 = stablehlo.add %710, %797 : tensor<2x1x4096xf32>
    %799 = stablehlo.power %798, %1 : tensor<2x1x4096xf32>
    %800 = stablehlo.reduce(%799 init: %5) across dimensions = [2] : (tensor<2x1x4096xf32>, tensor<f32>) -> tensor<2x1xf32>
     reducer(%arg363: tensor<f32>, %arg364: tensor<f32>)  {
      %3743 = stablehlo.add %arg363, %arg364 : tensor<f32>
      stablehlo.return %3743 : tensor<f32>
    }
    %801 = stablehlo.multiply %800, %0 : tensor<2x1xf32>
    %802 = stablehlo.reshape %801 : (tensor<2x1xf32>) -> tensor<2x1x1xf32>
    %803 = stablehlo.broadcast_in_dim %arg2, dims = [] : (tensor<f32>) -> tensor<2x1x1xf32>
    %804 = stablehlo.add %802, %803 : tensor<2x1x1xf32>
    %805 = stablehlo.rsqrt %804 : tensor<2x1x1xf32>
    %806 = stablehlo.reshape %805 : (tensor<2x1x1xf32>) -> tensor<2x1xf32>
    %807 = stablehlo.broadcast_in_dim %806, dims = [0, 1] : (tensor<2x1xf32>) -> tensor<2x1x4096xf32>
    %808 = stablehlo.multiply %798, %807 : tensor<2x1x4096xf32>
    %809 = stablehlo.broadcast_in_dim %arg156, dims = [2] : (tensor<4096xf32>) -> tensor<2x1x4096xf32>
    %810 = stablehlo.multiply %808, %809 : tensor<2x1x4096xf32>
    %811 = stablehlo.reshape %810 : (tensor<2x1x4096xf32>) -> tensor<2x4096xf32>
    %812 = stablehlo.transpose %arg237, dims = [1, 0] {result_layout = dense<[0, 1]> : tensor<2xindex>, xla_shape = "f32[4096,11008]{0,1}"} : (tensor<11008x4096xf32>) -> tensor<4096x11008xf32>
    %813 = stablehlo.dot %811, %812, precision = [DEFAULT, DEFAULT] : (tensor<2x4096xf32>, tensor<4096x11008xf32>) -> tensor<2x11008xf32>
    %814 = stablehlo.reshape %813 : (tensor<2x11008xf32>) -> tensor<2x1x11008xf32>
    %815 = stablehlo.logistic %814 : tensor<2x1x11008xf32>
    %816 = stablehlo.multiply %814, %815 : tensor<2x1x11008xf32>
    %817 = stablehlo.reshape %810 : (tensor<2x1x4096xf32>) -> tensor<2x4096xf32>
    %818 = stablehlo.transpose %arg155, dims = [1, 0] {result_layout = dense<[0, 1]> : tensor<2xindex>, xla_shape = "f32[4096,11008]{0,1}"} : (tensor<11008x4096xf32>) -> tensor<4096x11008xf32>
    %819 = stablehlo.dot %817, %818, precision = [DEFAULT, DEFAULT] : (tensor<2x4096xf32>, tensor<4096x11008xf32>) -> tensor<2x11008xf32>
    %820 = stablehlo.reshape %819 : (tensor<2x11008xf32>) -> tensor<2x1x11008xf32>
    %821 = stablehlo.multiply %816, %820 : tensor<2x1x11008xf32>
    %822 = stablehlo.reshape %821 : (tensor<2x1x11008xf32>) -> tensor<2x11008xf32>
    %823 = stablehlo.transpose %arg154, dims = [1, 0] {result_layout = dense<[0, 1]> : tensor<2xindex>, xla_shape = "f32[11008,4096]{0,1}"} : (tensor<4096x11008xf32>) -> tensor<11008x4096xf32>
    %824 = stablehlo.dot %822, %823, precision = [DEFAULT, DEFAULT] : (tensor<2x11008xf32>, tensor<11008x4096xf32>) -> tensor<2x4096xf32>
    %825 = stablehlo.reshape %824 : (tensor<2x4096xf32>) -> tensor<2x1x4096xf32>
    %826 = stablehlo.add %798, %825 : tensor<2x1x4096xf32>
    %827 = stablehlo.power %826, %1 : tensor<2x1x4096xf32>
    %828 = stablehlo.reduce(%827 init: %5) across dimensions = [2] : (tensor<2x1x4096xf32>, tensor<f32>) -> tensor<2x1xf32>
     reducer(%arg363: tensor<f32>, %arg364: tensor<f32>)  {
      %3743 = stablehlo.add %arg363, %arg364 : tensor<f32>
      stablehlo.return %3743 : tensor<f32>
    }
    %829 = stablehlo.multiply %828, %0 : tensor<2x1xf32>
    %830 = stablehlo.reshape %829 : (tensor<2x1xf32>) -> tensor<2x1x1xf32>
    %831 = stablehlo.broadcast_in_dim %arg2, dims = [] : (tensor<f32>) -> tensor<2x1x1xf32>
    %832 = stablehlo.add %830, %831 : tensor<2x1x1xf32>
    %833 = stablehlo.rsqrt %832 : tensor<2x1x1xf32>
    %834 = stablehlo.reshape %833 : (tensor<2x1x1xf32>) -> tensor<2x1xf32>
    %835 = stablehlo.broadcast_in_dim %834, dims = [0, 1] : (tensor<2x1xf32>) -> tensor<2x1x4096xf32>
    %836 = stablehlo.multiply %826, %835 : tensor<2x1x4096xf32>
    %837 = stablehlo.broadcast_in_dim %arg153, dims = [2] : (tensor<4096xf32>) -> tensor<2x1x4096xf32>
    %838 = stablehlo.multiply %836, %837 : tensor<2x1x4096xf32>
    %839 = stablehlo.reshape %838 : (tensor<2x1x4096xf32>) -> tensor<2x4096xf32>
    %840 = stablehlo.transpose %arg241, dims = [1, 0] {result_layout = dense<[0, 1]> : tensor<2xindex>, xla_shape = "f32[4096,4096]{0,1}"} : (tensor<4096x4096xf32>) -> tensor<4096x4096xf32>
    %841 = stablehlo.dot %839, %840, precision = [DEFAULT, DEFAULT] : (tensor<2x4096xf32>, tensor<4096x4096xf32>) -> tensor<2x4096xf32>
    %842 = stablehlo.reshape %841 : (tensor<2x4096xf32>) -> tensor<2x1x32x64x2xf32>
    %843 = stablehlo.slice %842 [0:2, 0:1, 0:32, 0:64, 0:1] : (tensor<2x1x32x64x2xf32>) -> tensor<2x1x32x64x1xf32>
    %844 = stablehlo.reshape %843 : (tensor<2x1x32x64x1xf32>) -> tensor<2x1x32x64xf32>
    %845 = stablehlo.slice %842 [0:2, 0:1, 0:32, 0:64, 1:2] : (tensor<2x1x32x64x2xf32>) -> tensor<2x1x32x64x1xf32>
    %846 = stablehlo.reshape %845 : (tensor<2x1x32x64x1xf32>) -> tensor<2x1x32x64xf32>
    %847 = stablehlo.complex %844, %846 : tensor<2x1x32x64xcomplex<f32>>
    %848 = stablehlo.broadcast_in_dim %35, dims = [1, 3] : (tensor<1x64xcomplex<f32>>) -> tensor<2x1x32x64xcomplex<f32>>
    %849 = stablehlo.multiply %847, %848 : tensor<2x1x32x64xcomplex<f32>>
    %850 = stablehlo.real %849 : (tensor<2x1x32x64xcomplex<f32>>) -> tensor<2x1x32x64xf32>
    %851 = stablehlo.reshape %850 : (tensor<2x1x32x64xf32>) -> tensor<2x1x32x64x1xf32>
    %852 = stablehlo.imag %849 : (tensor<2x1x32x64xcomplex<f32>>) -> tensor<2x1x32x64xf32>
    %853 = stablehlo.reshape %852 : (tensor<2x1x32x64xf32>) -> tensor<2x1x32x64x1xf32>
    %854 = stablehlo.concatenate %851, %853, dim = 4 : (tensor<2x1x32x64x1xf32>, tensor<2x1x32x64x1xf32>) -> tensor<2x1x32x64x2xf32>
    %855 = stablehlo.reshape %854 : (tensor<2x1x32x64x2xf32>) -> tensor<64x1x128xf32>
    %856 = stablehlo.compare  LT, %arg199, %2 : (tensor<1xi64>, tensor<1xi64>) -> tensor<1xi1>
    %857 = stablehlo.reshape %arg200 : (tensor<i64>) -> tensor<1xi64>
    %858 = stablehlo.add %arg199, %857 : tensor<1xi64>
    %859 = stablehlo.select %856, %858, %arg199 : tensor<1xi1>, tensor<1xi64>
    %860 = stablehlo.reshape %859 : (tensor<1xi64>) -> tensor<1x1xi64>
    %861 = stablehlo.reshape %838 : (tensor<2x1x4096xf32>) -> tensor<2x4096xf32>
    %862 = stablehlo.transpose %arg239, dims = [1, 0] {result_layout = dense<[0, 1]> : tensor<2xindex>, xla_shape = "f32[4096,4096]{0,1}"} : (tensor<4096x4096xf32>) -> tensor<4096x4096xf32>
    %863 = stablehlo.dot %861, %862, precision = [DEFAULT, DEFAULT] : (tensor<2x4096xf32>, tensor<4096x4096xf32>) -> tensor<2x4096xf32>
    %864 = stablehlo.reshape %863 : (tensor<2x4096xf32>) -> tensor<2x1x32x64x2xf32>
    %865 = stablehlo.slice %864 [0:2, 0:1, 0:32, 0:64, 0:1] : (tensor<2x1x32x64x2xf32>) -> tensor<2x1x32x64x1xf32>
    %866 = stablehlo.reshape %865 : (tensor<2x1x32x64x1xf32>) -> tensor<2x1x32x64xf32>
    %867 = stablehlo.slice %864 [0:2, 0:1, 0:32, 0:64, 1:2] : (tensor<2x1x32x64x2xf32>) -> tensor<2x1x32x64x1xf32>
    %868 = stablehlo.reshape %867 : (tensor<2x1x32x64x1xf32>) -> tensor<2x1x32x64xf32>
    %869 = stablehlo.complex %866, %868 : tensor<2x1x32x64xcomplex<f32>>
    %870 = stablehlo.broadcast_in_dim %35, dims = [1, 3] : (tensor<1x64xcomplex<f32>>) -> tensor<2x1x32x64xcomplex<f32>>
    %871 = stablehlo.multiply %869, %870 : tensor<2x1x32x64xcomplex<f32>>
    %872 = stablehlo.real %871 : (tensor<2x1x32x64xcomplex<f32>>) -> tensor<2x1x32x64xf32>
    %873 = stablehlo.reshape %872 : (tensor<2x1x32x64xf32>) -> tensor<2x1x32x64x1xf32>
    %874 = stablehlo.imag %871 : (tensor<2x1x32x64xcomplex<f32>>) -> tensor<2x1x32x64xf32>
    %875 = stablehlo.reshape %874 : (tensor<2x1x32x64xf32>) -> tensor<2x1x32x64x1xf32>
    %876 = stablehlo.concatenate %873, %875, dim = 4 : (tensor<2x1x32x64x1xf32>, tensor<2x1x32x64x1xf32>) -> tensor<2x1x32x64x2xf32>
    %877 = stablehlo.reshape %876 : (tensor<2x1x32x64x2xf32>) -> tensor<2x1x32x128xf32>
    %878 = "stablehlo.scatter"(%arg240, %860, %877) ({
    ^bb0(%arg363: tensor<f32>, %arg364: tensor<f32>):
      stablehlo.return %arg364 : tensor<f32>
    }) {indices_are_sorted = false, scatter_dimension_numbers = #stablehlo.scatter<update_window_dims = [0, 2, 3], inserted_window_dims = [1], scatter_dims_to_operand_dims = [1], index_vector_dim = 1>, unique_indices = false} : (tensor<2x2304x32x128xf32>, tensor<1x1xi64>, tensor<2x1x32x128xf32>) -> tensor<2x2304x32x128xf32>
    %879 = stablehlo.convert %arg7 : (tensor<2048xi64>) -> tensor<2048xui32>
    %880 = "stablehlo.gather"(%878, %879) {dimension_numbers = #stablehlo.gather<offset_dims = [0, 2, 3], collapsed_slice_dims = [1], start_index_map = [1], index_vector_dim = 1>, indices_are_sorted = false, slice_sizes = dense<[2, 1, 32, 128]> : tensor<4xi64>} : (tensor<2x2304x32x128xf32>, tensor<2048xui32>) -> tensor<2x2048x32x128xf32>
    %881 = stablehlo.transpose %880, dims = [0, 2, 3, 1] : (tensor<2x2048x32x128xf32>) -> tensor<2x32x128x2048xf32>
    %882 = stablehlo.reshape %881 : (tensor<2x32x128x2048xf32>) -> tensor<64x128x2048xf32>
    %883 = stablehlo.dot_general %855, %882, batching_dims = [0] x [0], contracting_dims = [2] x [1], precision = [DEFAULT, DEFAULT] : (tensor<64x1x128xf32>, tensor<64x128x2048xf32>) -> tensor<64x1x2048xf32>
    %884 = stablehlo.reshape %883 : (tensor<64x1x2048xf32>) -> tensor<2x32x1x2048xf32>
    %885 = stablehlo.broadcast_in_dim %arg202, dims = [] : (tensor<f32>) -> tensor<2x32x1x2048xf32>
    %886 = stablehlo.divide %884, %885 : tensor<2x32x1x2048xf32>
    %887 = stablehlo.reduce(%886 init: %4) across dimensions = [3] : (tensor<2x32x1x2048xf32>, tensor<f32>) -> tensor<2x32x1xf32>
     reducer(%arg363: tensor<f32>, %arg364: tensor<f32>)  {
      %3743 = stablehlo.maximum %arg363, %arg364 : tensor<f32>
      stablehlo.return %3743 : tensor<f32>
    }
    %888 = stablehlo.broadcast_in_dim %887, dims = [0, 1, 2] : (tensor<2x32x1xf32>) -> tensor<2x32x1x2048xf32>
    %889 = stablehlo.subtract %886, %888 : tensor<2x32x1x2048xf32>
    %890 = stablehlo.exponential %889 : tensor<2x32x1x2048xf32>
    %891 = stablehlo.reduce(%890 init: %5) across dimensions = [3] : (tensor<2x32x1x2048xf32>, tensor<f32>) -> tensor<2x32x1xf32>
     reducer(%arg363: tensor<f32>, %arg364: tensor<f32>)  {
      %3743 = stablehlo.add %arg363, %arg364 : tensor<f32>
      stablehlo.return %3743 : tensor<f32>
    }
    %892 = stablehlo.broadcast_in_dim %891, dims = [0, 1, 2] : (tensor<2x32x1xf32>) -> tensor<2x32x1x2048xf32>
    %893 = stablehlo.divide %890, %892 : tensor<2x32x1x2048xf32>
    %894 = stablehlo.reshape %893 : (tensor<2x32x1x2048xf32>) -> tensor<64x1x2048xf32>
    %895 = stablehlo.compare  LT, %arg199, %2 : (tensor<1xi64>, tensor<1xi64>) -> tensor<1xi1>
    %896 = stablehlo.reshape %arg200 : (tensor<i64>) -> tensor<1xi64>
    %897 = stablehlo.add %arg199, %896 : tensor<1xi64>
    %898 = stablehlo.select %895, %897, %arg199 : tensor<1xi1>, tensor<1xi64>
    %899 = stablehlo.reshape %898 : (tensor<1xi64>) -> tensor<1x1xi64>
    %900 = stablehlo.reshape %838 : (tensor<2x1x4096xf32>) -> tensor<2x4096xf32>
    %901 = stablehlo.transpose %arg152, dims = [1, 0] {result_layout = dense<[0, 1]> : tensor<2xindex>, xla_shape = "f32[4096,4096]{0,1}"} : (tensor<4096x4096xf32>) -> tensor<4096x4096xf32>
    %902 = stablehlo.dot %900, %901, precision = [DEFAULT, DEFAULT] : (tensor<2x4096xf32>, tensor<4096x4096xf32>) -> tensor<2x4096xf32>
    %903 = stablehlo.reshape %902 : (tensor<2x4096xf32>) -> tensor<2x1x32x128xf32>
    %904 = "stablehlo.scatter"(%arg238, %899, %903) ({
    ^bb0(%arg363: tensor<f32>, %arg364: tensor<f32>):
      stablehlo.return %arg364 : tensor<f32>
    }) {indices_are_sorted = false, scatter_dimension_numbers = #stablehlo.scatter<update_window_dims = [0, 2, 3], inserted_window_dims = [1], scatter_dims_to_operand_dims = [1], index_vector_dim = 1>, unique_indices = false} : (tensor<2x2304x32x128xf32>, tensor<1x1xi64>, tensor<2x1x32x128xf32>) -> tensor<2x2304x32x128xf32>
    %905 = stablehlo.convert %arg7 : (tensor<2048xi64>) -> tensor<2048xui32>
    %906 = "stablehlo.gather"(%904, %905) {dimension_numbers = #stablehlo.gather<offset_dims = [0, 2, 3], collapsed_slice_dims = [1], start_index_map = [1], index_vector_dim = 1>, indices_are_sorted = false, slice_sizes = dense<[2, 1, 32, 128]> : tensor<4xi64>} : (tensor<2x2304x32x128xf32>, tensor<2048xui32>) -> tensor<2x2048x32x128xf32>
    %907 = stablehlo.transpose %906, dims = [0, 2, 1, 3] {result_layout = dense<[3, 1, 2, 0]> : tensor<4xindex>, xla_shape = "f32[2,32,2048,128]{3,1,2,0}"} : (tensor<2x2048x32x128xf32>) -> tensor<2x32x2048x128xf32>
    %908 = stablehlo.reshape %907 : (tensor<2x32x2048x128xf32>) -> tensor<64x2048x128xf32>
    %909 = stablehlo.dot_general %894, %908, batching_dims = [0] x [0], contracting_dims = [2] x [1], precision = [DEFAULT, DEFAULT] : (tensor<64x1x2048xf32>, tensor<64x2048x128xf32>) -> tensor<64x1x128xf32>
    %910 = stablehlo.reshape %909 : (tensor<64x1x128xf32>) -> tensor<2x4096xf32>
    %911 = stablehlo.transpose %arg151, dims = [1, 0] {result_layout = dense<[0, 1]> : tensor<2xindex>, xla_shape = "f32[4096,4096]{0,1}"} : (tensor<4096x4096xf32>) -> tensor<4096x4096xf32>
    %912 = stablehlo.dot %910, %911, precision = [DEFAULT, DEFAULT] : (tensor<2x4096xf32>, tensor<4096x4096xf32>) -> tensor<2x4096xf32>
    %913 = stablehlo.reshape %912 : (tensor<2x4096xf32>) -> tensor<2x1x4096xf32>
    %914 = stablehlo.add %826, %913 : tensor<2x1x4096xf32>
    %915 = stablehlo.power %914, %1 : tensor<2x1x4096xf32>
    %916 = stablehlo.reduce(%915 init: %5) across dimensions = [2] : (tensor<2x1x4096xf32>, tensor<f32>) -> tensor<2x1xf32>
     reducer(%arg363: tensor<f32>, %arg364: tensor<f32>)  {
      %3743 = stablehlo.add %arg363, %arg364 : tensor<f32>
      stablehlo.return %3743 : tensor<f32>
    }
    %917 = stablehlo.multiply %916, %0 : tensor<2x1xf32>
    %918 = stablehlo.reshape %917 : (tensor<2x1xf32>) -> tensor<2x1x1xf32>
    %919 = stablehlo.broadcast_in_dim %arg2, dims = [] : (tensor<f32>) -> tensor<2x1x1xf32>
    %920 = stablehlo.add %918, %919 : tensor<2x1x1xf32>
    %921 = stablehlo.rsqrt %920 : tensor<2x1x1xf32>
    %922 = stablehlo.reshape %921 : (tensor<2x1x1xf32>) -> tensor<2x1xf32>
    %923 = stablehlo.broadcast_in_dim %922, dims = [0, 1] : (tensor<2x1xf32>) -> tensor<2x1x4096xf32>
    %924 = stablehlo.multiply %914, %923 : tensor<2x1x4096xf32>
    %925 = stablehlo.broadcast_in_dim %arg150, dims = [2] : (tensor<4096xf32>) -> tensor<2x1x4096xf32>
    %926 = stablehlo.multiply %924, %925 : tensor<2x1x4096xf32>
    %927 = stablehlo.reshape %926 : (tensor<2x1x4096xf32>) -> tensor<2x4096xf32>
    %928 = stablehlo.transpose %arg242, dims = [1, 0] {result_layout = dense<[0, 1]> : tensor<2xindex>, xla_shape = "f32[4096,11008]{0,1}"} : (tensor<11008x4096xf32>) -> tensor<4096x11008xf32>
    %929 = stablehlo.dot %927, %928, precision = [DEFAULT, DEFAULT] : (tensor<2x4096xf32>, tensor<4096x11008xf32>) -> tensor<2x11008xf32>
    %930 = stablehlo.reshape %929 : (tensor<2x11008xf32>) -> tensor<2x1x11008xf32>
    %931 = stablehlo.logistic %930 : tensor<2x1x11008xf32>
    %932 = stablehlo.multiply %930, %931 : tensor<2x1x11008xf32>
    %933 = stablehlo.reshape %926 : (tensor<2x1x4096xf32>) -> tensor<2x4096xf32>
    %934 = stablehlo.transpose %arg149, dims = [1, 0] {result_layout = dense<[0, 1]> : tensor<2xindex>, xla_shape = "f32[4096,11008]{0,1}"} : (tensor<11008x4096xf32>) -> tensor<4096x11008xf32>
    %935 = stablehlo.dot %933, %934, precision = [DEFAULT, DEFAULT] : (tensor<2x4096xf32>, tensor<4096x11008xf32>) -> tensor<2x11008xf32>
    %936 = stablehlo.reshape %935 : (tensor<2x11008xf32>) -> tensor<2x1x11008xf32>
    %937 = stablehlo.multiply %932, %936 : tensor<2x1x11008xf32>
    %938 = stablehlo.reshape %937 : (tensor<2x1x11008xf32>) -> tensor<2x11008xf32>
    %939 = stablehlo.transpose %arg148, dims = [1, 0] {result_layout = dense<[0, 1]> : tensor<2xindex>, xla_shape = "f32[11008,4096]{0,1}"} : (tensor<4096x11008xf32>) -> tensor<11008x4096xf32>
    %940 = stablehlo.dot %938, %939, precision = [DEFAULT, DEFAULT] : (tensor<2x11008xf32>, tensor<11008x4096xf32>) -> tensor<2x4096xf32>
    %941 = stablehlo.reshape %940 : (tensor<2x4096xf32>) -> tensor<2x1x4096xf32>
    %942 = stablehlo.add %914, %941 : tensor<2x1x4096xf32>
    %943 = stablehlo.power %942, %1 : tensor<2x1x4096xf32>
    %944 = stablehlo.reduce(%943 init: %5) across dimensions = [2] : (tensor<2x1x4096xf32>, tensor<f32>) -> tensor<2x1xf32>
     reducer(%arg363: tensor<f32>, %arg364: tensor<f32>)  {
      %3743 = stablehlo.add %arg363, %arg364 : tensor<f32>
      stablehlo.return %3743 : tensor<f32>
    }
    %945 = stablehlo.multiply %944, %0 : tensor<2x1xf32>
    %946 = stablehlo.reshape %945 : (tensor<2x1xf32>) -> tensor<2x1x1xf32>
    %947 = stablehlo.broadcast_in_dim %arg2, dims = [] : (tensor<f32>) -> tensor<2x1x1xf32>
    %948 = stablehlo.add %946, %947 : tensor<2x1x1xf32>
    %949 = stablehlo.rsqrt %948 : tensor<2x1x1xf32>
    %950 = stablehlo.reshape %949 : (tensor<2x1x1xf32>) -> tensor<2x1xf32>
    %951 = stablehlo.broadcast_in_dim %950, dims = [0, 1] : (tensor<2x1xf32>) -> tensor<2x1x4096xf32>
    %952 = stablehlo.multiply %942, %951 : tensor<2x1x4096xf32>
    %953 = stablehlo.broadcast_in_dim %arg147, dims = [2] : (tensor<4096xf32>) -> tensor<2x1x4096xf32>
    %954 = stablehlo.multiply %952, %953 : tensor<2x1x4096xf32>
    %955 = stablehlo.reshape %954 : (tensor<2x1x4096xf32>) -> tensor<2x4096xf32>
    %956 = stablehlo.transpose %arg246, dims = [1, 0] {result_layout = dense<[0, 1]> : tensor<2xindex>, xla_shape = "f32[4096,4096]{0,1}"} : (tensor<4096x4096xf32>) -> tensor<4096x4096xf32>
    %957 = stablehlo.dot %955, %956, precision = [DEFAULT, DEFAULT] : (tensor<2x4096xf32>, tensor<4096x4096xf32>) -> tensor<2x4096xf32>
    %958 = stablehlo.reshape %957 : (tensor<2x4096xf32>) -> tensor<2x1x32x64x2xf32>
    %959 = stablehlo.slice %958 [0:2, 0:1, 0:32, 0:64, 0:1] : (tensor<2x1x32x64x2xf32>) -> tensor<2x1x32x64x1xf32>
    %960 = stablehlo.reshape %959 : (tensor<2x1x32x64x1xf32>) -> tensor<2x1x32x64xf32>
    %961 = stablehlo.slice %958 [0:2, 0:1, 0:32, 0:64, 1:2] : (tensor<2x1x32x64x2xf32>) -> tensor<2x1x32x64x1xf32>
    %962 = stablehlo.reshape %961 : (tensor<2x1x32x64x1xf32>) -> tensor<2x1x32x64xf32>
    %963 = stablehlo.complex %960, %962 : tensor<2x1x32x64xcomplex<f32>>
    %964 = stablehlo.broadcast_in_dim %35, dims = [1, 3] : (tensor<1x64xcomplex<f32>>) -> tensor<2x1x32x64xcomplex<f32>>
    %965 = stablehlo.multiply %963, %964 : tensor<2x1x32x64xcomplex<f32>>
    %966 = stablehlo.real %965 : (tensor<2x1x32x64xcomplex<f32>>) -> tensor<2x1x32x64xf32>
    %967 = stablehlo.reshape %966 : (tensor<2x1x32x64xf32>) -> tensor<2x1x32x64x1xf32>
    %968 = stablehlo.imag %965 : (tensor<2x1x32x64xcomplex<f32>>) -> tensor<2x1x32x64xf32>
    %969 = stablehlo.reshape %968 : (tensor<2x1x32x64xf32>) -> tensor<2x1x32x64x1xf32>
    %970 = stablehlo.concatenate %967, %969, dim = 4 : (tensor<2x1x32x64x1xf32>, tensor<2x1x32x64x1xf32>) -> tensor<2x1x32x64x2xf32>
    %971 = stablehlo.reshape %970 : (tensor<2x1x32x64x2xf32>) -> tensor<64x1x128xf32>
    %972 = stablehlo.compare  LT, %arg199, %2 : (tensor<1xi64>, tensor<1xi64>) -> tensor<1xi1>
    %973 = stablehlo.reshape %arg200 : (tensor<i64>) -> tensor<1xi64>
    %974 = stablehlo.add %arg199, %973 : tensor<1xi64>
    %975 = stablehlo.select %972, %974, %arg199 : tensor<1xi1>, tensor<1xi64>
    %976 = stablehlo.reshape %975 : (tensor<1xi64>) -> tensor<1x1xi64>
    %977 = stablehlo.reshape %954 : (tensor<2x1x4096xf32>) -> tensor<2x4096xf32>
    %978 = stablehlo.transpose %arg244, dims = [1, 0] {result_layout = dense<[0, 1]> : tensor<2xindex>, xla_shape = "f32[4096,4096]{0,1}"} : (tensor<4096x4096xf32>) -> tensor<4096x4096xf32>
    %979 = stablehlo.dot %977, %978, precision = [DEFAULT, DEFAULT] : (tensor<2x4096xf32>, tensor<4096x4096xf32>) -> tensor<2x4096xf32>
    %980 = stablehlo.reshape %979 : (tensor<2x4096xf32>) -> tensor<2x1x32x64x2xf32>
    %981 = stablehlo.slice %980 [0:2, 0:1, 0:32, 0:64, 0:1] : (tensor<2x1x32x64x2xf32>) -> tensor<2x1x32x64x1xf32>
    %982 = stablehlo.reshape %981 : (tensor<2x1x32x64x1xf32>) -> tensor<2x1x32x64xf32>
    %983 = stablehlo.slice %980 [0:2, 0:1, 0:32, 0:64, 1:2] : (tensor<2x1x32x64x2xf32>) -> tensor<2x1x32x64x1xf32>
    %984 = stablehlo.reshape %983 : (tensor<2x1x32x64x1xf32>) -> tensor<2x1x32x64xf32>
    %985 = stablehlo.complex %982, %984 : tensor<2x1x32x64xcomplex<f32>>
    %986 = stablehlo.broadcast_in_dim %35, dims = [1, 3] : (tensor<1x64xcomplex<f32>>) -> tensor<2x1x32x64xcomplex<f32>>
    %987 = stablehlo.multiply %985, %986 : tensor<2x1x32x64xcomplex<f32>>
    %988 = stablehlo.real %987 : (tensor<2x1x32x64xcomplex<f32>>) -> tensor<2x1x32x64xf32>
    %989 = stablehlo.reshape %988 : (tensor<2x1x32x64xf32>) -> tensor<2x1x32x64x1xf32>
    %990 = stablehlo.imag %987 : (tensor<2x1x32x64xcomplex<f32>>) -> tensor<2x1x32x64xf32>
    %991 = stablehlo.reshape %990 : (tensor<2x1x32x64xf32>) -> tensor<2x1x32x64x1xf32>
    %992 = stablehlo.concatenate %989, %991, dim = 4 : (tensor<2x1x32x64x1xf32>, tensor<2x1x32x64x1xf32>) -> tensor<2x1x32x64x2xf32>
    %993 = stablehlo.reshape %992 : (tensor<2x1x32x64x2xf32>) -> tensor<2x1x32x128xf32>
    %994 = "stablehlo.scatter"(%arg245, %976, %993) ({
    ^bb0(%arg363: tensor<f32>, %arg364: tensor<f32>):
      stablehlo.return %arg364 : tensor<f32>
    }) {indices_are_sorted = false, scatter_dimension_numbers = #stablehlo.scatter<update_window_dims = [0, 2, 3], inserted_window_dims = [1], scatter_dims_to_operand_dims = [1], index_vector_dim = 1>, unique_indices = false} : (tensor<2x2304x32x128xf32>, tensor<1x1xi64>, tensor<2x1x32x128xf32>) -> tensor<2x2304x32x128xf32>
    %995 = stablehlo.convert %arg7 : (tensor<2048xi64>) -> tensor<2048xui32>
    %996 = "stablehlo.gather"(%994, %995) {dimension_numbers = #stablehlo.gather<offset_dims = [0, 2, 3], collapsed_slice_dims = [1], start_index_map = [1], index_vector_dim = 1>, indices_are_sorted = false, slice_sizes = dense<[2, 1, 32, 128]> : tensor<4xi64>} : (tensor<2x2304x32x128xf32>, tensor<2048xui32>) -> tensor<2x2048x32x128xf32>
    %997 = stablehlo.transpose %996, dims = [0, 2, 3, 1] : (tensor<2x2048x32x128xf32>) -> tensor<2x32x128x2048xf32>
    %998 = stablehlo.reshape %997 : (tensor<2x32x128x2048xf32>) -> tensor<64x128x2048xf32>
    %999 = stablehlo.dot_general %971, %998, batching_dims = [0] x [0], contracting_dims = [2] x [1], precision = [DEFAULT, DEFAULT] : (tensor<64x1x128xf32>, tensor<64x128x2048xf32>) -> tensor<64x1x2048xf32>
    %1000 = stablehlo.reshape %999 : (tensor<64x1x2048xf32>) -> tensor<2x32x1x2048xf32>
    %1001 = stablehlo.broadcast_in_dim %arg202, dims = [] : (tensor<f32>) -> tensor<2x32x1x2048xf32>
    %1002 = stablehlo.divide %1000, %1001 : tensor<2x32x1x2048xf32>
    %1003 = stablehlo.reduce(%1002 init: %4) across dimensions = [3] : (tensor<2x32x1x2048xf32>, tensor<f32>) -> tensor<2x32x1xf32>
     reducer(%arg363: tensor<f32>, %arg364: tensor<f32>)  {
      %3743 = stablehlo.maximum %arg363, %arg364 : tensor<f32>
      stablehlo.return %3743 : tensor<f32>
    }
    %1004 = stablehlo.broadcast_in_dim %1003, dims = [0, 1, 2] : (tensor<2x32x1xf32>) -> tensor<2x32x1x2048xf32>
    %1005 = stablehlo.subtract %1002, %1004 : tensor<2x32x1x2048xf32>
    %1006 = stablehlo.exponential %1005 : tensor<2x32x1x2048xf32>
    %1007 = stablehlo.reduce(%1006 init: %5) across dimensions = [3] : (tensor<2x32x1x2048xf32>, tensor<f32>) -> tensor<2x32x1xf32>
     reducer(%arg363: tensor<f32>, %arg364: tensor<f32>)  {
      %3743 = stablehlo.add %arg363, %arg364 : tensor<f32>
      stablehlo.return %3743 : tensor<f32>
    }
    %1008 = stablehlo.broadcast_in_dim %1007, dims = [0, 1, 2] : (tensor<2x32x1xf32>) -> tensor<2x32x1x2048xf32>
    %1009 = stablehlo.divide %1006, %1008 : tensor<2x32x1x2048xf32>
    %1010 = stablehlo.reshape %1009 : (tensor<2x32x1x2048xf32>) -> tensor<64x1x2048xf32>
    %1011 = stablehlo.compare  LT, %arg199, %2 : (tensor<1xi64>, tensor<1xi64>) -> tensor<1xi1>
    %1012 = stablehlo.reshape %arg200 : (tensor<i64>) -> tensor<1xi64>
    %1013 = stablehlo.add %arg199, %1012 : tensor<1xi64>
    %1014 = stablehlo.select %1011, %1013, %arg199 : tensor<1xi1>, tensor<1xi64>
    %1015 = stablehlo.reshape %1014 : (tensor<1xi64>) -> tensor<1x1xi64>
    %1016 = stablehlo.reshape %954 : (tensor<2x1x4096xf32>) -> tensor<2x4096xf32>
    %1017 = stablehlo.transpose %arg146, dims = [1, 0] {result_layout = dense<[0, 1]> : tensor<2xindex>, xla_shape = "f32[4096,4096]{0,1}"} : (tensor<4096x4096xf32>) -> tensor<4096x4096xf32>
    %1018 = stablehlo.dot %1016, %1017, precision = [DEFAULT, DEFAULT] : (tensor<2x4096xf32>, tensor<4096x4096xf32>) -> tensor<2x4096xf32>
    %1019 = stablehlo.reshape %1018 : (tensor<2x4096xf32>) -> tensor<2x1x32x128xf32>
    %1020 = "stablehlo.scatter"(%arg243, %1015, %1019) ({
    ^bb0(%arg363: tensor<f32>, %arg364: tensor<f32>):
      stablehlo.return %arg364 : tensor<f32>
    }) {indices_are_sorted = false, scatter_dimension_numbers = #stablehlo.scatter<update_window_dims = [0, 2, 3], inserted_window_dims = [1], scatter_dims_to_operand_dims = [1], index_vector_dim = 1>, unique_indices = false} : (tensor<2x2304x32x128xf32>, tensor<1x1xi64>, tensor<2x1x32x128xf32>) -> tensor<2x2304x32x128xf32>
    %1021 = stablehlo.convert %arg7 : (tensor<2048xi64>) -> tensor<2048xui32>
    %1022 = "stablehlo.gather"(%1020, %1021) {dimension_numbers = #stablehlo.gather<offset_dims = [0, 2, 3], collapsed_slice_dims = [1], start_index_map = [1], index_vector_dim = 1>, indices_are_sorted = false, slice_sizes = dense<[2, 1, 32, 128]> : tensor<4xi64>} : (tensor<2x2304x32x128xf32>, tensor<2048xui32>) -> tensor<2x2048x32x128xf32>
    %1023 = stablehlo.transpose %1022, dims = [0, 2, 1, 3] {result_layout = dense<[3, 1, 2, 0]> : tensor<4xindex>, xla_shape = "f32[2,32,2048,128]{3,1,2,0}"} : (tensor<2x2048x32x128xf32>) -> tensor<2x32x2048x128xf32>
    %1024 = stablehlo.reshape %1023 : (tensor<2x32x2048x128xf32>) -> tensor<64x2048x128xf32>
    %1025 = stablehlo.dot_general %1010, %1024, batching_dims = [0] x [0], contracting_dims = [2] x [1], precision = [DEFAULT, DEFAULT] : (tensor<64x1x2048xf32>, tensor<64x2048x128xf32>) -> tensor<64x1x128xf32>
    %1026 = stablehlo.reshape %1025 : (tensor<64x1x128xf32>) -> tensor<2x4096xf32>
    %1027 = stablehlo.transpose %arg145, dims = [1, 0] {result_layout = dense<[0, 1]> : tensor<2xindex>, xla_shape = "f32[4096,4096]{0,1}"} : (tensor<4096x4096xf32>) -> tensor<4096x4096xf32>
    %1028 = stablehlo.dot %1026, %1027, precision = [DEFAULT, DEFAULT] : (tensor<2x4096xf32>, tensor<4096x4096xf32>) -> tensor<2x4096xf32>
    %1029 = stablehlo.reshape %1028 : (tensor<2x4096xf32>) -> tensor<2x1x4096xf32>
    %1030 = stablehlo.add %942, %1029 : tensor<2x1x4096xf32>
    %1031 = stablehlo.power %1030, %1 : tensor<2x1x4096xf32>
    %1032 = stablehlo.reduce(%1031 init: %5) across dimensions = [2] : (tensor<2x1x4096xf32>, tensor<f32>) -> tensor<2x1xf32>
     reducer(%arg363: tensor<f32>, %arg364: tensor<f32>)  {
      %3743 = stablehlo.add %arg363, %arg364 : tensor<f32>
      stablehlo.return %3743 : tensor<f32>
    }
    %1033 = stablehlo.multiply %1032, %0 : tensor<2x1xf32>
    %1034 = stablehlo.reshape %1033 : (tensor<2x1xf32>) -> tensor<2x1x1xf32>
    %1035 = stablehlo.broadcast_in_dim %arg2, dims = [] : (tensor<f32>) -> tensor<2x1x1xf32>
    %1036 = stablehlo.add %1034, %1035 : tensor<2x1x1xf32>
    %1037 = stablehlo.rsqrt %1036 : tensor<2x1x1xf32>
    %1038 = stablehlo.reshape %1037 : (tensor<2x1x1xf32>) -> tensor<2x1xf32>
    %1039 = stablehlo.broadcast_in_dim %1038, dims = [0, 1] : (tensor<2x1xf32>) -> tensor<2x1x4096xf32>
    %1040 = stablehlo.multiply %1030, %1039 : tensor<2x1x4096xf32>
    %1041 = stablehlo.broadcast_in_dim %arg144, dims = [2] : (tensor<4096xf32>) -> tensor<2x1x4096xf32>
    %1042 = stablehlo.multiply %1040, %1041 : tensor<2x1x4096xf32>
    %1043 = stablehlo.reshape %1042 : (tensor<2x1x4096xf32>) -> tensor<2x4096xf32>
    %1044 = stablehlo.transpose %arg247, dims = [1, 0] {result_layout = dense<[0, 1]> : tensor<2xindex>, xla_shape = "f32[4096,11008]{0,1}"} : (tensor<11008x4096xf32>) -> tensor<4096x11008xf32>
    %1045 = stablehlo.dot %1043, %1044, precision = [DEFAULT, DEFAULT] : (tensor<2x4096xf32>, tensor<4096x11008xf32>) -> tensor<2x11008xf32>
    %1046 = stablehlo.reshape %1045 : (tensor<2x11008xf32>) -> tensor<2x1x11008xf32>
    %1047 = stablehlo.logistic %1046 : tensor<2x1x11008xf32>
    %1048 = stablehlo.multiply %1046, %1047 : tensor<2x1x11008xf32>
    %1049 = stablehlo.reshape %1042 : (tensor<2x1x4096xf32>) -> tensor<2x4096xf32>
    %1050 = stablehlo.transpose %arg143, dims = [1, 0] {result_layout = dense<[0, 1]> : tensor<2xindex>, xla_shape = "f32[4096,11008]{0,1}"} : (tensor<11008x4096xf32>) -> tensor<4096x11008xf32>
    %1051 = stablehlo.dot %1049, %1050, precision = [DEFAULT, DEFAULT] : (tensor<2x4096xf32>, tensor<4096x11008xf32>) -> tensor<2x11008xf32>
    %1052 = stablehlo.reshape %1051 : (tensor<2x11008xf32>) -> tensor<2x1x11008xf32>
    %1053 = stablehlo.multiply %1048, %1052 : tensor<2x1x11008xf32>
    %1054 = stablehlo.reshape %1053 : (tensor<2x1x11008xf32>) -> tensor<2x11008xf32>
    %1055 = stablehlo.transpose %arg142, dims = [1, 0] {result_layout = dense<[0, 1]> : tensor<2xindex>, xla_shape = "f32[11008,4096]{0,1}"} : (tensor<4096x11008xf32>) -> tensor<11008x4096xf32>
    %1056 = stablehlo.dot %1054, %1055, precision = [DEFAULT, DEFAULT] : (tensor<2x11008xf32>, tensor<11008x4096xf32>) -> tensor<2x4096xf32>
    %1057 = stablehlo.reshape %1056 : (tensor<2x4096xf32>) -> tensor<2x1x4096xf32>
    %1058 = stablehlo.add %1030, %1057 : tensor<2x1x4096xf32>
    %1059 = stablehlo.power %1058, %1 : tensor<2x1x4096xf32>
    %1060 = stablehlo.reduce(%1059 init: %5) across dimensions = [2] : (tensor<2x1x4096xf32>, tensor<f32>) -> tensor<2x1xf32>
     reducer(%arg363: tensor<f32>, %arg364: tensor<f32>)  {
      %3743 = stablehlo.add %arg363, %arg364 : tensor<f32>
      stablehlo.return %3743 : tensor<f32>
    }
    %1061 = stablehlo.multiply %1060, %0 : tensor<2x1xf32>
    %1062 = stablehlo.reshape %1061 : (tensor<2x1xf32>) -> tensor<2x1x1xf32>
    %1063 = stablehlo.broadcast_in_dim %arg2, dims = [] : (tensor<f32>) -> tensor<2x1x1xf32>
    %1064 = stablehlo.add %1062, %1063 : tensor<2x1x1xf32>
    %1065 = stablehlo.rsqrt %1064 : tensor<2x1x1xf32>
    %1066 = stablehlo.reshape %1065 : (tensor<2x1x1xf32>) -> tensor<2x1xf32>
    %1067 = stablehlo.broadcast_in_dim %1066, dims = [0, 1] : (tensor<2x1xf32>) -> tensor<2x1x4096xf32>
    %1068 = stablehlo.multiply %1058, %1067 : tensor<2x1x4096xf32>
    %1069 = stablehlo.broadcast_in_dim %arg141, dims = [2] : (tensor<4096xf32>) -> tensor<2x1x4096xf32>
    %1070 = stablehlo.multiply %1068, %1069 : tensor<2x1x4096xf32>
    %1071 = stablehlo.reshape %1070 : (tensor<2x1x4096xf32>) -> tensor<2x4096xf32>
    %1072 = stablehlo.transpose %arg251, dims = [1, 0] {result_layout = dense<[0, 1]> : tensor<2xindex>, xla_shape = "f32[4096,4096]{0,1}"} : (tensor<4096x4096xf32>) -> tensor<4096x4096xf32>
    %1073 = stablehlo.dot %1071, %1072, precision = [DEFAULT, DEFAULT] : (tensor<2x4096xf32>, tensor<4096x4096xf32>) -> tensor<2x4096xf32>
    %1074 = stablehlo.reshape %1073 : (tensor<2x4096xf32>) -> tensor<2x1x32x64x2xf32>
    %1075 = stablehlo.slice %1074 [0:2, 0:1, 0:32, 0:64, 0:1] : (tensor<2x1x32x64x2xf32>) -> tensor<2x1x32x64x1xf32>
    %1076 = stablehlo.reshape %1075 : (tensor<2x1x32x64x1xf32>) -> tensor<2x1x32x64xf32>
    %1077 = stablehlo.slice %1074 [0:2, 0:1, 0:32, 0:64, 1:2] : (tensor<2x1x32x64x2xf32>) -> tensor<2x1x32x64x1xf32>
    %1078 = stablehlo.reshape %1077 : (tensor<2x1x32x64x1xf32>) -> tensor<2x1x32x64xf32>
    %1079 = stablehlo.complex %1076, %1078 : tensor<2x1x32x64xcomplex<f32>>
    %1080 = stablehlo.broadcast_in_dim %35, dims = [1, 3] : (tensor<1x64xcomplex<f32>>) -> tensor<2x1x32x64xcomplex<f32>>
    %1081 = stablehlo.multiply %1079, %1080 : tensor<2x1x32x64xcomplex<f32>>
    %1082 = stablehlo.real %1081 : (tensor<2x1x32x64xcomplex<f32>>) -> tensor<2x1x32x64xf32>
    %1083 = stablehlo.reshape %1082 : (tensor<2x1x32x64xf32>) -> tensor<2x1x32x64x1xf32>
    %1084 = stablehlo.imag %1081 : (tensor<2x1x32x64xcomplex<f32>>) -> tensor<2x1x32x64xf32>
    %1085 = stablehlo.reshape %1084 : (tensor<2x1x32x64xf32>) -> tensor<2x1x32x64x1xf32>
    %1086 = stablehlo.concatenate %1083, %1085, dim = 4 : (tensor<2x1x32x64x1xf32>, tensor<2x1x32x64x1xf32>) -> tensor<2x1x32x64x2xf32>
    %1087 = stablehlo.reshape %1086 : (tensor<2x1x32x64x2xf32>) -> tensor<64x1x128xf32>
    %1088 = stablehlo.compare  LT, %arg199, %2 : (tensor<1xi64>, tensor<1xi64>) -> tensor<1xi1>
    %1089 = stablehlo.reshape %arg200 : (tensor<i64>) -> tensor<1xi64>
    %1090 = stablehlo.add %arg199, %1089 : tensor<1xi64>
    %1091 = stablehlo.select %1088, %1090, %arg199 : tensor<1xi1>, tensor<1xi64>
    %1092 = stablehlo.reshape %1091 : (tensor<1xi64>) -> tensor<1x1xi64>
    %1093 = stablehlo.reshape %1070 : (tensor<2x1x4096xf32>) -> tensor<2x4096xf32>
    %1094 = stablehlo.transpose %arg249, dims = [1, 0] {result_layout = dense<[0, 1]> : tensor<2xindex>, xla_shape = "f32[4096,4096]{0,1}"} : (tensor<4096x4096xf32>) -> tensor<4096x4096xf32>
    %1095 = stablehlo.dot %1093, %1094, precision = [DEFAULT, DEFAULT] : (tensor<2x4096xf32>, tensor<4096x4096xf32>) -> tensor<2x4096xf32>
    %1096 = stablehlo.reshape %1095 : (tensor<2x4096xf32>) -> tensor<2x1x32x64x2xf32>
    %1097 = stablehlo.slice %1096 [0:2, 0:1, 0:32, 0:64, 0:1] : (tensor<2x1x32x64x2xf32>) -> tensor<2x1x32x64x1xf32>
    %1098 = stablehlo.reshape %1097 : (tensor<2x1x32x64x1xf32>) -> tensor<2x1x32x64xf32>
    %1099 = stablehlo.slice %1096 [0:2, 0:1, 0:32, 0:64, 1:2] : (tensor<2x1x32x64x2xf32>) -> tensor<2x1x32x64x1xf32>
    %1100 = stablehlo.reshape %1099 : (tensor<2x1x32x64x1xf32>) -> tensor<2x1x32x64xf32>
    %1101 = stablehlo.complex %1098, %1100 : tensor<2x1x32x64xcomplex<f32>>
    %1102 = stablehlo.broadcast_in_dim %35, dims = [1, 3] : (tensor<1x64xcomplex<f32>>) -> tensor<2x1x32x64xcomplex<f32>>
    %1103 = stablehlo.multiply %1101, %1102 : tensor<2x1x32x64xcomplex<f32>>
    %1104 = stablehlo.real %1103 : (tensor<2x1x32x64xcomplex<f32>>) -> tensor<2x1x32x64xf32>
    %1105 = stablehlo.reshape %1104 : (tensor<2x1x32x64xf32>) -> tensor<2x1x32x64x1xf32>
    %1106 = stablehlo.imag %1103 : (tensor<2x1x32x64xcomplex<f32>>) -> tensor<2x1x32x64xf32>
    %1107 = stablehlo.reshape %1106 : (tensor<2x1x32x64xf32>) -> tensor<2x1x32x64x1xf32>
    %1108 = stablehlo.concatenate %1105, %1107, dim = 4 : (tensor<2x1x32x64x1xf32>, tensor<2x1x32x64x1xf32>) -> tensor<2x1x32x64x2xf32>
    %1109 = stablehlo.reshape %1108 : (tensor<2x1x32x64x2xf32>) -> tensor<2x1x32x128xf32>
    %1110 = "stablehlo.scatter"(%arg250, %1092, %1109) ({
    ^bb0(%arg363: tensor<f32>, %arg364: tensor<f32>):
      stablehlo.return %arg364 : tensor<f32>
    }) {indices_are_sorted = false, scatter_dimension_numbers = #stablehlo.scatter<update_window_dims = [0, 2, 3], inserted_window_dims = [1], scatter_dims_to_operand_dims = [1], index_vector_dim = 1>, unique_indices = false} : (tensor<2x2304x32x128xf32>, tensor<1x1xi64>, tensor<2x1x32x128xf32>) -> tensor<2x2304x32x128xf32>
    %1111 = stablehlo.convert %arg7 : (tensor<2048xi64>) -> tensor<2048xui32>
    %1112 = "stablehlo.gather"(%1110, %1111) {dimension_numbers = #stablehlo.gather<offset_dims = [0, 2, 3], collapsed_slice_dims = [1], start_index_map = [1], index_vector_dim = 1>, indices_are_sorted = false, slice_sizes = dense<[2, 1, 32, 128]> : tensor<4xi64>} : (tensor<2x2304x32x128xf32>, tensor<2048xui32>) -> tensor<2x2048x32x128xf32>
    %1113 = stablehlo.transpose %1112, dims = [0, 2, 3, 1] : (tensor<2x2048x32x128xf32>) -> tensor<2x32x128x2048xf32>
    %1114 = stablehlo.reshape %1113 : (tensor<2x32x128x2048xf32>) -> tensor<64x128x2048xf32>
    %1115 = stablehlo.dot_general %1087, %1114, batching_dims = [0] x [0], contracting_dims = [2] x [1], precision = [DEFAULT, DEFAULT] : (tensor<64x1x128xf32>, tensor<64x128x2048xf32>) -> tensor<64x1x2048xf32>
    %1116 = stablehlo.reshape %1115 : (tensor<64x1x2048xf32>) -> tensor<2x32x1x2048xf32>
    %1117 = stablehlo.broadcast_in_dim %arg202, dims = [] : (tensor<f32>) -> tensor<2x32x1x2048xf32>
    %1118 = stablehlo.divide %1116, %1117 : tensor<2x32x1x2048xf32>
    %1119 = stablehlo.reduce(%1118 init: %4) across dimensions = [3] : (tensor<2x32x1x2048xf32>, tensor<f32>) -> tensor<2x32x1xf32>
     reducer(%arg363: tensor<f32>, %arg364: tensor<f32>)  {
      %3743 = stablehlo.maximum %arg363, %arg364 : tensor<f32>
      stablehlo.return %3743 : tensor<f32>
    }
    %1120 = stablehlo.broadcast_in_dim %1119, dims = [0, 1, 2] : (tensor<2x32x1xf32>) -> tensor<2x32x1x2048xf32>
    %1121 = stablehlo.subtract %1118, %1120 : tensor<2x32x1x2048xf32>
    %1122 = stablehlo.exponential %1121 : tensor<2x32x1x2048xf32>
    %1123 = stablehlo.reduce(%1122 init: %5) across dimensions = [3] : (tensor<2x32x1x2048xf32>, tensor<f32>) -> tensor<2x32x1xf32>
     reducer(%arg363: tensor<f32>, %arg364: tensor<f32>)  {
      %3743 = stablehlo.add %arg363, %arg364 : tensor<f32>
      stablehlo.return %3743 : tensor<f32>
    }
    %1124 = stablehlo.broadcast_in_dim %1123, dims = [0, 1, 2] : (tensor<2x32x1xf32>) -> tensor<2x32x1x2048xf32>
    %1125 = stablehlo.divide %1122, %1124 : tensor<2x32x1x2048xf32>
    %1126 = stablehlo.reshape %1125 : (tensor<2x32x1x2048xf32>) -> tensor<64x1x2048xf32>
    %1127 = stablehlo.compare  LT, %arg199, %2 : (tensor<1xi64>, tensor<1xi64>) -> tensor<1xi1>
    %1128 = stablehlo.reshape %arg200 : (tensor<i64>) -> tensor<1xi64>
    %1129 = stablehlo.add %arg199, %1128 : tensor<1xi64>
    %1130 = stablehlo.select %1127, %1129, %arg199 : tensor<1xi1>, tensor<1xi64>
    %1131 = stablehlo.reshape %1130 : (tensor<1xi64>) -> tensor<1x1xi64>
    %1132 = stablehlo.reshape %1070 : (tensor<2x1x4096xf32>) -> tensor<2x4096xf32>
    %1133 = stablehlo.transpose %arg140, dims = [1, 0] {result_layout = dense<[0, 1]> : tensor<2xindex>, xla_shape = "f32[4096,4096]{0,1}"} : (tensor<4096x4096xf32>) -> tensor<4096x4096xf32>
    %1134 = stablehlo.dot %1132, %1133, precision = [DEFAULT, DEFAULT] : (tensor<2x4096xf32>, tensor<4096x4096xf32>) -> tensor<2x4096xf32>
    %1135 = stablehlo.reshape %1134 : (tensor<2x4096xf32>) -> tensor<2x1x32x128xf32>
    %1136 = "stablehlo.scatter"(%arg248, %1131, %1135) ({
    ^bb0(%arg363: tensor<f32>, %arg364: tensor<f32>):
      stablehlo.return %arg364 : tensor<f32>
    }) {indices_are_sorted = false, scatter_dimension_numbers = #stablehlo.scatter<update_window_dims = [0, 2, 3], inserted_window_dims = [1], scatter_dims_to_operand_dims = [1], index_vector_dim = 1>, unique_indices = false} : (tensor<2x2304x32x128xf32>, tensor<1x1xi64>, tensor<2x1x32x128xf32>) -> tensor<2x2304x32x128xf32>
    %1137 = stablehlo.convert %arg7 : (tensor<2048xi64>) -> tensor<2048xui32>
    %1138 = "stablehlo.gather"(%1136, %1137) {dimension_numbers = #stablehlo.gather<offset_dims = [0, 2, 3], collapsed_slice_dims = [1], start_index_map = [1], index_vector_dim = 1>, indices_are_sorted = false, slice_sizes = dense<[2, 1, 32, 128]> : tensor<4xi64>} : (tensor<2x2304x32x128xf32>, tensor<2048xui32>) -> tensor<2x2048x32x128xf32>
    %1139 = stablehlo.transpose %1138, dims = [0, 2, 1, 3] {result_layout = dense<[3, 1, 2, 0]> : tensor<4xindex>, xla_shape = "f32[2,32,2048,128]{3,1,2,0}"} : (tensor<2x2048x32x128xf32>) -> tensor<2x32x2048x128xf32>
    %1140 = stablehlo.reshape %1139 : (tensor<2x32x2048x128xf32>) -> tensor<64x2048x128xf32>
    %1141 = stablehlo.dot_general %1126, %1140, batching_dims = [0] x [0], contracting_dims = [2] x [1], precision = [DEFAULT, DEFAULT] : (tensor<64x1x2048xf32>, tensor<64x2048x128xf32>) -> tensor<64x1x128xf32>
    %1142 = stablehlo.reshape %1141 : (tensor<64x1x128xf32>) -> tensor<2x4096xf32>
    %1143 = stablehlo.transpose %arg139, dims = [1, 0] {result_layout = dense<[0, 1]> : tensor<2xindex>, xla_shape = "f32[4096,4096]{0,1}"} : (tensor<4096x4096xf32>) -> tensor<4096x4096xf32>
    %1144 = stablehlo.dot %1142, %1143, precision = [DEFAULT, DEFAULT] : (tensor<2x4096xf32>, tensor<4096x4096xf32>) -> tensor<2x4096xf32>
    %1145 = stablehlo.reshape %1144 : (tensor<2x4096xf32>) -> tensor<2x1x4096xf32>
    %1146 = stablehlo.add %1058, %1145 : tensor<2x1x4096xf32>
    %1147 = stablehlo.power %1146, %1 : tensor<2x1x4096xf32>
    %1148 = stablehlo.reduce(%1147 init: %5) across dimensions = [2] : (tensor<2x1x4096xf32>, tensor<f32>) -> tensor<2x1xf32>
     reducer(%arg363: tensor<f32>, %arg364: tensor<f32>)  {
      %3743 = stablehlo.add %arg363, %arg364 : tensor<f32>
      stablehlo.return %3743 : tensor<f32>
    }
    %1149 = stablehlo.multiply %1148, %0 : tensor<2x1xf32>
    %1150 = stablehlo.reshape %1149 : (tensor<2x1xf32>) -> tensor<2x1x1xf32>
    %1151 = stablehlo.broadcast_in_dim %arg2, dims = [] : (tensor<f32>) -> tensor<2x1x1xf32>
    %1152 = stablehlo.add %1150, %1151 : tensor<2x1x1xf32>
    %1153 = stablehlo.rsqrt %1152 : tensor<2x1x1xf32>
    %1154 = stablehlo.reshape %1153 : (tensor<2x1x1xf32>) -> tensor<2x1xf32>
    %1155 = stablehlo.broadcast_in_dim %1154, dims = [0, 1] : (tensor<2x1xf32>) -> tensor<2x1x4096xf32>
    %1156 = stablehlo.multiply %1146, %1155 : tensor<2x1x4096xf32>
    %1157 = stablehlo.broadcast_in_dim %arg138, dims = [2] : (tensor<4096xf32>) -> tensor<2x1x4096xf32>
    %1158 = stablehlo.multiply %1156, %1157 : tensor<2x1x4096xf32>
    %1159 = stablehlo.reshape %1158 : (tensor<2x1x4096xf32>) -> tensor<2x4096xf32>
    %1160 = stablehlo.transpose %arg252, dims = [1, 0] {result_layout = dense<[0, 1]> : tensor<2xindex>, xla_shape = "f32[4096,11008]{0,1}"} : (tensor<11008x4096xf32>) -> tensor<4096x11008xf32>
    %1161 = stablehlo.dot %1159, %1160, precision = [DEFAULT, DEFAULT] : (tensor<2x4096xf32>, tensor<4096x11008xf32>) -> tensor<2x11008xf32>
    %1162 = stablehlo.reshape %1161 : (tensor<2x11008xf32>) -> tensor<2x1x11008xf32>
    %1163 = stablehlo.logistic %1162 : tensor<2x1x11008xf32>
    %1164 = stablehlo.multiply %1162, %1163 : tensor<2x1x11008xf32>
    %1165 = stablehlo.reshape %1158 : (tensor<2x1x4096xf32>) -> tensor<2x4096xf32>
    %1166 = stablehlo.transpose %arg137, dims = [1, 0] {result_layout = dense<[0, 1]> : tensor<2xindex>, xla_shape = "f32[4096,11008]{0,1}"} : (tensor<11008x4096xf32>) -> tensor<4096x11008xf32>
    %1167 = stablehlo.dot %1165, %1166, precision = [DEFAULT, DEFAULT] : (tensor<2x4096xf32>, tensor<4096x11008xf32>) -> tensor<2x11008xf32>
    %1168 = stablehlo.reshape %1167 : (tensor<2x11008xf32>) -> tensor<2x1x11008xf32>
    %1169 = stablehlo.multiply %1164, %1168 : tensor<2x1x11008xf32>
    %1170 = stablehlo.reshape %1169 : (tensor<2x1x11008xf32>) -> tensor<2x11008xf32>
    %1171 = stablehlo.transpose %arg136, dims = [1, 0] {result_layout = dense<[0, 1]> : tensor<2xindex>, xla_shape = "f32[11008,4096]{0,1}"} : (tensor<4096x11008xf32>) -> tensor<11008x4096xf32>
    %1172 = stablehlo.dot %1170, %1171, precision = [DEFAULT, DEFAULT] : (tensor<2x11008xf32>, tensor<11008x4096xf32>) -> tensor<2x4096xf32>
    %1173 = stablehlo.reshape %1172 : (tensor<2x4096xf32>) -> tensor<2x1x4096xf32>
    %1174 = stablehlo.add %1146, %1173 : tensor<2x1x4096xf32>
    %1175 = stablehlo.power %1174, %1 : tensor<2x1x4096xf32>
    %1176 = stablehlo.reduce(%1175 init: %5) across dimensions = [2] : (tensor<2x1x4096xf32>, tensor<f32>) -> tensor<2x1xf32>
     reducer(%arg363: tensor<f32>, %arg364: tensor<f32>)  {
      %3743 = stablehlo.add %arg363, %arg364 : tensor<f32>
      stablehlo.return %3743 : tensor<f32>
    }
    %1177 = stablehlo.multiply %1176, %0 : tensor<2x1xf32>
    %1178 = stablehlo.reshape %1177 : (tensor<2x1xf32>) -> tensor<2x1x1xf32>
    %1179 = stablehlo.broadcast_in_dim %arg2, dims = [] : (tensor<f32>) -> tensor<2x1x1xf32>
    %1180 = stablehlo.add %1178, %1179 : tensor<2x1x1xf32>
    %1181 = stablehlo.rsqrt %1180 : tensor<2x1x1xf32>
    %1182 = stablehlo.reshape %1181 : (tensor<2x1x1xf32>) -> tensor<2x1xf32>
    %1183 = stablehlo.broadcast_in_dim %1182, dims = [0, 1] : (tensor<2x1xf32>) -> tensor<2x1x4096xf32>
    %1184 = stablehlo.multiply %1174, %1183 : tensor<2x1x4096xf32>
    %1185 = stablehlo.broadcast_in_dim %arg135, dims = [2] : (tensor<4096xf32>) -> tensor<2x1x4096xf32>
    %1186 = stablehlo.multiply %1184, %1185 : tensor<2x1x4096xf32>
    %1187 = stablehlo.reshape %1186 : (tensor<2x1x4096xf32>) -> tensor<2x4096xf32>
    %1188 = stablehlo.transpose %arg256, dims = [1, 0] {result_layout = dense<[0, 1]> : tensor<2xindex>, xla_shape = "f32[4096,4096]{0,1}"} : (tensor<4096x4096xf32>) -> tensor<4096x4096xf32>
    %1189 = stablehlo.dot %1187, %1188, precision = [DEFAULT, DEFAULT] : (tensor<2x4096xf32>, tensor<4096x4096xf32>) -> tensor<2x4096xf32>
    %1190 = stablehlo.reshape %1189 : (tensor<2x4096xf32>) -> tensor<2x1x32x64x2xf32>
    %1191 = stablehlo.slice %1190 [0:2, 0:1, 0:32, 0:64, 0:1] : (tensor<2x1x32x64x2xf32>) -> tensor<2x1x32x64x1xf32>
    %1192 = stablehlo.reshape %1191 : (tensor<2x1x32x64x1xf32>) -> tensor<2x1x32x64xf32>
    %1193 = stablehlo.slice %1190 [0:2, 0:1, 0:32, 0:64, 1:2] : (tensor<2x1x32x64x2xf32>) -> tensor<2x1x32x64x1xf32>
    %1194 = stablehlo.reshape %1193 : (tensor<2x1x32x64x1xf32>) -> tensor<2x1x32x64xf32>
    %1195 = stablehlo.complex %1192, %1194 : tensor<2x1x32x64xcomplex<f32>>
    %1196 = stablehlo.broadcast_in_dim %35, dims = [1, 3] : (tensor<1x64xcomplex<f32>>) -> tensor<2x1x32x64xcomplex<f32>>
    %1197 = stablehlo.multiply %1195, %1196 : tensor<2x1x32x64xcomplex<f32>>
…
    %3331 = stablehlo.compare  LT, %arg199, %2 : (tensor<1xi64>, tensor<1xi64>) -> tensor<1xi1>
    %3332 = stablehlo.reshape %arg200 : (tensor<i64>) -> tensor<1xi64>
    %3333 = stablehlo.add %arg199, %3332 : tensor<1xi64>
    %3334 = stablehlo.select %3331, %3333, %arg199 : tensor<1xi1>, tensor<1xi64>
    %3335 = stablehlo.reshape %3334 : (tensor<1xi64>) -> tensor<1x1xi64>
    %3336 = stablehlo.reshape %3274 : (tensor<2x1x4096xf32>) -> tensor<2x4096xf32>
    %3337 = stablehlo.transpose %arg26, dims = [1, 0] {result_layout = dense<[0, 1]> : tensor<2xindex>, xla_shape = "f32[4096,4096]{0,1}"} : (tensor<4096x4096xf32>) -> tensor<4096x4096xf32>
    %3338 = stablehlo.dot %3336, %3337, precision = [DEFAULT, DEFAULT] : (tensor<2x4096xf32>, tensor<4096x4096xf32>) -> tensor<2x4096xf32>
    %3339 = stablehlo.reshape %3338 : (tensor<2x4096xf32>) -> tensor<2x1x32x128xf32>
    %3340 = "stablehlo.scatter"(%arg343, %3335, %3339) ({
    ^bb0(%arg363: tensor<f32>, %arg364: tensor<f32>):
      stablehlo.return %arg364 : tensor<f32>
    }) {indices_are_sorted = false, scatter_dimension_numbers = #stablehlo.scatter<update_window_dims = [0, 2, 3], inserted_window_dims = [1], scatter_dims_to_operand_dims = [1], index_vector_dim = 1>, unique_indices = false} : (tensor<2x2304x32x128xf32>, tensor<1x1xi64>, tensor<2x1x32x128xf32>) -> tensor<2x2304x32x128xf32>
    %3341 = stablehlo.convert %arg7 : (tensor<2048xi64>) -> tensor<2048xui32>
    %3342 = "stablehlo.gather"(%3340, %3341) {dimension_numbers = #stablehlo.gather<offset_dims = [0, 2, 3], collapsed_slice_dims = [1], start_index_map = [1], index_vector_dim = 1>, indices_are_sorted = false, slice_sizes = dense<[2, 1, 32, 128]> : tensor<4xi64>} : (tensor<2x2304x32x128xf32>, tensor<2048xui32>) -> tensor<2x2048x32x128xf32>
    %3343 = stablehlo.transpose %3342, dims = [0, 2, 1, 3] {result_layout = dense<[3, 1, 2, 0]> : tensor<4xindex>, xla_shape = "f32[2,32,2048,128]{3,1,2,0}"} : (tensor<2x2048x32x128xf32>) -> tensor<2x32x2048x128xf32>
    %3344 = stablehlo.reshape %3343 : (tensor<2x32x2048x128xf32>) -> tensor<64x2048x128xf32>
    %3345 = stablehlo.dot_general %3330, %3344, batching_dims = [0] x [0], contracting_dims = [2] x [1], precision = [DEFAULT, DEFAULT] : (tensor<64x1x2048xf32>, tensor<64x2048x128xf32>) -> tensor<64x1x128xf32>
    %3346 = stablehlo.reshape %3345 : (tensor<64x1x128xf32>) -> tensor<2x4096xf32>
    %3347 = stablehlo.transpose %arg25, dims = [1, 0] {result_layout = dense<[0, 1]> : tensor<2xindex>, xla_shape = "f32[4096,4096]{0,1}"} : (tensor<4096x4096xf32>) -> tensor<4096x4096xf32>
    %3348 = stablehlo.dot %3346, %3347, precision = [DEFAULT, DEFAULT] : (tensor<2x4096xf32>, tensor<4096x4096xf32>) -> tensor<2x4096xf32>
    %3349 = stablehlo.reshape %3348 : (tensor<2x4096xf32>) -> tensor<2x1x4096xf32>
    %3350 = stablehlo.add %3262, %3349 : tensor<2x1x4096xf32>
    %3351 = stablehlo.power %3350, %1 : tensor<2x1x4096xf32>
    %3352 = stablehlo.reduce(%3351 init: %5) across dimensions = [2] : (tensor<2x1x4096xf32>, tensor<f32>) -> tensor<2x1xf32>
     reducer(%arg363: tensor<f32>, %arg364: tensor<f32>)  {
      %3743 = stablehlo.add %arg363, %arg364 : tensor<f32>
      stablehlo.return %3743 : tensor<f32>
    }
    %3353 = stablehlo.multiply %3352, %0 : tensor<2x1xf32>
    %3354 = stablehlo.reshape %3353 : (tensor<2x1xf32>) -> tensor<2x1x1xf32>
    %3355 = stablehlo.broadcast_in_dim %arg2, dims = [] : (tensor<f32>) -> tensor<2x1x1xf32>
    %3356 = stablehlo.add %3354, %3355 : tensor<2x1x1xf32>
    %3357 = stablehlo.rsqrt %3356 : tensor<2x1x1xf32>
    %3358 = stablehlo.reshape %3357 : (tensor<2x1x1xf32>) -> tensor<2x1xf32>
    %3359 = stablehlo.broadcast_in_dim %3358, dims = [0, 1] : (tensor<2x1xf32>) -> tensor<2x1x4096xf32>
    %3360 = stablehlo.multiply %3350, %3359 : tensor<2x1x4096xf32>
    %3361 = stablehlo.broadcast_in_dim %arg24, dims = [2] : (tensor<4096xf32>) -> tensor<2x1x4096xf32>
    %3362 = stablehlo.multiply %3360, %3361 : tensor<2x1x4096xf32>
    %3363 = stablehlo.reshape %3362 : (tensor<2x1x4096xf32>) -> tensor<2x4096xf32>
    %3364 = stablehlo.transpose %arg347, dims = [1, 0] {result_layout = dense<[0, 1]> : tensor<2xindex>, xla_shape = "f32[4096,11008]{0,1}"} : (tensor<11008x4096xf32>) -> tensor<4096x11008xf32>
    %3365 = stablehlo.dot %3363, %3364, precision = [DEFAULT, DEFAULT] : (tensor<2x4096xf32>, tensor<4096x11008xf32>) -> tensor<2x11008xf32>
    %3366 = stablehlo.reshape %3365 : (tensor<2x11008xf32>) -> tensor<2x1x11008xf32>
    %3367 = stablehlo.logistic %3366 : tensor<2x1x11008xf32>
    %3368 = stablehlo.multiply %3366, %3367 : tensor<2x1x11008xf32>
    %3369 = stablehlo.reshape %3362 : (tensor<2x1x4096xf32>) -> tensor<2x4096xf32>
    %3370 = stablehlo.transpose %arg23, dims = [1, 0] {result_layout = dense<[0, 1]> : tensor<2xindex>, xla_shape = "f32[4096,11008]{0,1}"} : (tensor<11008x4096xf32>) -> tensor<4096x11008xf32>
    %3371 = stablehlo.dot %3369, %3370, precision = [DEFAULT, DEFAULT] : (tensor<2x4096xf32>, tensor<4096x11008xf32>) -> tensor<2x11008xf32>
    %3372 = stablehlo.reshape %3371 : (tensor<2x11008xf32>) -> tensor<2x1x11008xf32>
    %3373 = stablehlo.multiply %3368, %3372 : tensor<2x1x11008xf32>
    %3374 = stablehlo.reshape %3373 : (tensor<2x1x11008xf32>) -> tensor<2x11008xf32>
    %3375 = stablehlo.transpose %arg22, dims = [1, 0] {result_layout = dense<[0, 1]> : tensor<2xindex>, xla_shape = "f32[11008,4096]{0,1}"} : (tensor<4096x11008xf32>) -> tensor<11008x4096xf32>
    %3376 = stablehlo.dot %3374, %3375, precision = [DEFAULT, DEFAULT] : (tensor<2x11008xf32>, tensor<11008x4096xf32>) -> tensor<2x4096xf32>
    %3377 = stablehlo.reshape %3376 : (tensor<2x4096xf32>) -> tensor<2x1x4096xf32>
    %3378 = stablehlo.add %3350, %3377 : tensor<2x1x4096xf32>
    %3379 = stablehlo.power %3378, %1 : tensor<2x1x4096xf32>
    %3380 = stablehlo.reduce(%3379 init: %5) across dimensions = [2] : (tensor<2x1x4096xf32>, tensor<f32>) -> tensor<2x1xf32>
     reducer(%arg363: tensor<f32>, %arg364: tensor<f32>)  {
      %3743 = stablehlo.add %arg363, %arg364 : tensor<f32>
      stablehlo.return %3743 : tensor<f32>
    }
    %3381 = stablehlo.multiply %3380, %0 : tensor<2x1xf32>
    %3382 = stablehlo.reshape %3381 : (tensor<2x1xf32>) -> tensor<2x1x1xf32>
    %3383 = stablehlo.broadcast_in_dim %arg2, dims = [] : (tensor<f32>) -> tensor<2x1x1xf32>
    %3384 = stablehlo.add %3382, %3383 : tensor<2x1x1xf32>
    %3385 = stablehlo.rsqrt %3384 : tensor<2x1x1xf32>
    %3386 = stablehlo.reshape %3385 : (tensor<2x1x1xf32>) -> tensor<2x1xf32>
    %3387 = stablehlo.broadcast_in_dim %3386, dims = [0, 1] : (tensor<2x1xf32>) -> tensor<2x1x4096xf32>
    %3388 = stablehlo.multiply %3378, %3387 : tensor<2x1x4096xf32>
    %3389 = stablehlo.broadcast_in_dim %arg21, dims = [2] : (tensor<4096xf32>) -> tensor<2x1x4096xf32>
    %3390 = stablehlo.multiply %3388, %3389 : tensor<2x1x4096xf32>
    %3391 = stablehlo.reshape %3390 : (tensor<2x1x4096xf32>) -> tensor<2x4096xf32>
    %3392 = stablehlo.transpose %arg351, dims = [1, 0] {result_layout = dense<[0, 1]> : tensor<2xindex>, xla_shape = "f32[4096,4096]{0,1}"} : (tensor<4096x4096xf32>) -> tensor<4096x4096xf32>
    %3393 = stablehlo.dot %3391, %3392, precision = [DEFAULT, DEFAULT] : (tensor<2x4096xf32>, tensor<4096x4096xf32>) -> tensor<2x4096xf32>
    %3394 = stablehlo.reshape %3393 : (tensor<2x4096xf32>) -> tensor<2x1x32x64x2xf32>
    %3395 = stablehlo.slice %3394 [0:2, 0:1, 0:32, 0:64, 0:1] : (tensor<2x1x32x64x2xf32>) -> tensor<2x1x32x64x1xf32>
    %3396 = stablehlo.reshape %3395 : (tensor<2x1x32x64x1xf32>) -> tensor<2x1x32x64xf32>
    %3397 = stablehlo.slice %3394 [0:2, 0:1, 0:32, 0:64, 1:2] : (tensor<2x1x32x64x2xf32>) -> tensor<2x1x32x64x1xf32>
    %3398 = stablehlo.reshape %3397 : (tensor<2x1x32x64x1xf32>) -> tensor<2x1x32x64xf32>
    %3399 = stablehlo.complex %3396, %3398 : tensor<2x1x32x64xcomplex<f32>>
    %3400 = stablehlo.broadcast_in_dim %35, dims = [1, 3] : (tensor<1x64xcomplex<f32>>) -> tensor<2x1x32x64xcomplex<f32>>
    %3401 = stablehlo.multiply %3399, %3400 : tensor<2x1x32x64xcomplex<f32>>
    %3402 = stablehlo.real %3401 : (tensor<2x1x32x64xcomplex<f32>>) -> tensor<2x1x32x64xf32>
    %3403 = stablehlo.reshape %3402 : (tensor<2x1x32x64xf32>) -> tensor<2x1x32x64x1xf32>
    %3404 = stablehlo.imag %3401 : (tensor<2x1x32x64xcomplex<f32>>) -> tensor<2x1x32x64xf32>
    %3405 = stablehlo.reshape %3404 : (tensor<2x1x32x64xf32>) -> tensor<2x1x32x64x1xf32>
    %3406 = stablehlo.concatenate %3403, %3405, dim = 4 : (tensor<2x1x32x64x1xf32>, tensor<2x1x32x64x1xf32>) -> tensor<2x1x32x64x2xf32>
    %3407 = stablehlo.reshape %3406 : (tensor<2x1x32x64x2xf32>) -> tensor<64x1x128xf32>
    %3408 = stablehlo.compare  LT, %arg199, %2 : (tensor<1xi64>, tensor<1xi64>) -> tensor<1xi1>
    %3409 = stablehlo.reshape %arg200 : (tensor<i64>) -> tensor<1xi64>
    %3410 = stablehlo.add %arg199, %3409 : tensor<1xi64>
    %3411 = stablehlo.select %3408, %3410, %arg199 : tensor<1xi1>, tensor<1xi64>
    %3412 = stablehlo.reshape %3411 : (tensor<1xi64>) -> tensor<1x1xi64>
    %3413 = stablehlo.reshape %3390 : (tensor<2x1x4096xf32>) -> tensor<2x4096xf32>
    %3414 = stablehlo.transpose %arg349, dims = [1, 0] {result_layout = dense<[0, 1]> : tensor<2xindex>, xla_shape = "f32[4096,4096]{0,1}"} : (tensor<4096x4096xf32>) -> tensor<4096x4096xf32>
    %3415 = stablehlo.dot %3413, %3414, precision = [DEFAULT, DEFAULT] : (tensor<2x4096xf32>, tensor<4096x4096xf32>) -> tensor<2x4096xf32>
    %3416 = stablehlo.reshape %3415 : (tensor<2x4096xf32>) -> tensor<2x1x32x64x2xf32>
    %3417 = stablehlo.slice %3416 [0:2, 0:1, 0:32, 0:64, 0:1] : (tensor<2x1x32x64x2xf32>) -> tensor<2x1x32x64x1xf32>
    %3418 = stablehlo.reshape %3417 : (tensor<2x1x32x64x1xf32>) -> tensor<2x1x32x64xf32>
    %3419 = stablehlo.slice %3416 [0:2, 0:1, 0:32, 0:64, 1:2] : (tensor<2x1x32x64x2xf32>) -> tensor<2x1x32x64x1xf32>
    %3420 = stablehlo.reshape %3419 : (tensor<2x1x32x64x1xf32>) -> tensor<2x1x32x64xf32>
    %3421 = stablehlo.complex %3418, %3420 : tensor<2x1x32x64xcomplex<f32>>
    %3422 = stablehlo.broadcast_in_dim %35, dims = [1, 3] : (tensor<1x64xcomplex<f32>>) -> tensor<2x1x32x64xcomplex<f32>>
    %3423 = stablehlo.multiply %3421, %3422 : tensor<2x1x32x64xcomplex<f32>>
    %3424 = stablehlo.real %3423 : (tensor<2x1x32x64xcomplex<f32>>) -> tensor<2x1x32x64xf32>
    %3425 = stablehlo.reshape %3424 : (tensor<2x1x32x64xf32>) -> tensor<2x1x32x64x1xf32>
    %3426 = stablehlo.imag %3423 : (tensor<2x1x32x64xcomplex<f32>>) -> tensor<2x1x32x64xf32>
    %3427 = stablehlo.reshape %3426 : (tensor<2x1x32x64xf32>) -> tensor<2x1x32x64x1xf32>
    %3428 = stablehlo.concatenate %3425, %3427, dim = 4 : (tensor<2x1x32x64x1xf32>, tensor<2x1x32x64x1xf32>) -> tensor<2x1x32x64x2xf32>
    %3429 = stablehlo.reshape %3428 : (tensor<2x1x32x64x2xf32>) -> tensor<2x1x32x128xf32>
    %3430 = "stablehlo.scatter"(%arg350, %3412, %3429) ({
    ^bb0(%arg363: tensor<f32>, %arg364: tensor<f32>):
      stablehlo.return %arg364 : tensor<f32>
    }) {indices_are_sorted = false, scatter_dimension_numbers = #stablehlo.scatter<update_window_dims = [0, 2, 3], inserted_window_dims = [1], scatter_dims_to_operand_dims = [1], index_vector_dim = 1>, unique_indices = false} : (tensor<2x2304x32x128xf32>, tensor<1x1xi64>, tensor<2x1x32x128xf32>) -> tensor<2x2304x32x128xf32>
    %3431 = stablehlo.convert %arg7 : (tensor<2048xi64>) -> tensor<2048xui32>
    %3432 = "stablehlo.gather"(%3430, %3431) {dimension_numbers = #stablehlo.gather<offset_dims = [0, 2, 3], collapsed_slice_dims = [1], start_index_map = [1], index_vector_dim = 1>, indices_are_sorted = false, slice_sizes = dense<[2, 1, 32, 128]> : tensor<4xi64>} : (tensor<2x2304x32x128xf32>, tensor<2048xui32>) -> tensor<2x2048x32x128xf32>
    %3433 = stablehlo.transpose %3432, dims = [0, 2, 3, 1] : (tensor<2x2048x32x128xf32>) -> tensor<2x32x128x2048xf32>
    %3434 = stablehlo.reshape %3433 : (tensor<2x32x128x2048xf32>) -> tensor<64x128x2048xf32>
    %3435 = stablehlo.dot_general %3407, %3434, batching_dims = [0] x [0], contracting_dims = [2] x [1], precision = [DEFAULT, DEFAULT] : (tensor<64x1x128xf32>, tensor<64x128x2048xf32>) -> tensor<64x1x2048xf32>
    %3436 = stablehlo.reshape %3435 : (tensor<64x1x2048xf32>) -> tensor<2x32x1x2048xf32>
    %3437 = stablehlo.broadcast_in_dim %arg202, dims = [] : (tensor<f32>) -> tensor<2x32x1x2048xf32>
    %3438 = stablehlo.divide %3436, %3437 : tensor<2x32x1x2048xf32>
    %3439 = stablehlo.reduce(%3438 init: %4) across dimensions = [3] : (tensor<2x32x1x2048xf32>, tensor<f32>) -> tensor<2x32x1xf32>
     reducer(%arg363: tensor<f32>, %arg364: tensor<f32>)  {
      %3743 = stablehlo.maximum %arg363, %arg364 : tensor<f32>
      stablehlo.return %3743 : tensor<f32>
    }
    %3440 = stablehlo.broadcast_in_dim %3439, dims = [0, 1, 2] : (tensor<2x32x1xf32>) -> tensor<2x32x1x2048xf32>
    %3441 = stablehlo.subtract %3438, %3440 : tensor<2x32x1x2048xf32>
    %3442 = stablehlo.exponential %3441 : tensor<2x32x1x2048xf32>
    %3443 = stablehlo.reduce(%3442 init: %5) across dimensions = [3] : (tensor<2x32x1x2048xf32>, tensor<f32>) -> tensor<2x32x1xf32>
     reducer(%arg363: tensor<f32>, %arg364: tensor<f32>)  {
      %3743 = stablehlo.add %arg363, %arg364 : tensor<f32>
      stablehlo.return %3743 : tensor<f32>
    }
    %3444 = stablehlo.broadcast_in_dim %3443, dims = [0, 1, 2] : (tensor<2x32x1xf32>) -> tensor<2x32x1x2048xf32>
    %3445 = stablehlo.divide %3442, %3444 : tensor<2x32x1x2048xf32>
    %3446 = stablehlo.reshape %3445 : (tensor<2x32x1x2048xf32>) -> tensor<64x1x2048xf32>
    %3447 = stablehlo.compare  LT, %arg199, %2 : (tensor<1xi64>, tensor<1xi64>) -> tensor<1xi1>
    %3448 = stablehlo.reshape %arg200 : (tensor<i64>) -> tensor<1xi64>
    %3449 = stablehlo.add %arg199, %3448 : tensor<1xi64>
    %3450 = stablehlo.select %3447, %3449, %arg199 : tensor<1xi1>, tensor<1xi64>
    %3451 = stablehlo.reshape %3450 : (tensor<1xi64>) -> tensor<1x1xi64>
    %3452 = stablehlo.reshape %3390 : (tensor<2x1x4096xf32>) -> tensor<2x4096xf32>
    %3453 = stablehlo.transpose %arg20, dims = [1, 0] {result_layout = dense<[0, 1]> : tensor<2xindex>, xla_shape = "f32[4096,4096]{0,1}"} : (tensor<4096x4096xf32>) -> tensor<4096x4096xf32>
    %3454 = stablehlo.dot %3452, %3453, precision = [DEFAULT, DEFAULT] : (tensor<2x4096xf32>, tensor<4096x4096xf32>) -> tensor<2x4096xf32>
    %3455 = stablehlo.reshape %3454 : (tensor<2x4096xf32>) -> tensor<2x1x32x128xf32>
    %3456 = "stablehlo.scatter"(%arg348, %3451, %3455) ({
    ^bb0(%arg363: tensor<f32>, %arg364: tensor<f32>):
      stablehlo.return %arg364 : tensor<f32>
    }) {indices_are_sorted = false, scatter_dimension_numbers = #stablehlo.scatter<update_window_dims = [0, 2, 3], inserted_window_dims = [1], scatter_dims_to_operand_dims = [1], index_vector_dim = 1>, unique_indices = false} : (tensor<2x2304x32x128xf32>, tensor<1x1xi64>, tensor<2x1x32x128xf32>) -> tensor<2x2304x32x128xf32>
    %3457 = stablehlo.convert %arg7 : (tensor<2048xi64>) -> tensor<2048xui32>
    %3458 = "stablehlo.gather"(%3456, %3457) {dimension_numbers = #stablehlo.gather<offset_dims = [0, 2, 3], collapsed_slice_dims = [1], start_index_map = [1], index_vector_dim = 1>, indices_are_sorted = false, slice_sizes = dense<[2, 1, 32, 128]> : tensor<4xi64>} : (tensor<2x2304x32x128xf32>, tensor<2048xui32>) -> tensor<2x2048x32x128xf32>
    %3459 = stablehlo.transpose %3458, dims = [0, 2, 1, 3] {result_layout = dense<[3, 1, 2, 0]> : tensor<4xindex>, xla_shape = "f32[2,32,2048,128]{3,1,2,0}"} : (tensor<2x2048x32x128xf32>) -> tensor<2x32x2048x128xf32>
    %3460 = stablehlo.reshape %3459 : (tensor<2x32x2048x128xf32>) -> tensor<64x2048x128xf32>
    %3461 = stablehlo.dot_general %3446, %3460, batching_dims = [0] x [0], contracting_dims = [2] x [1], precision = [DEFAULT, DEFAULT] : (tensor<64x1x2048xf32>, tensor<64x2048x128xf32>) -> tensor<64x1x128xf32>
    %3462 = stablehlo.reshape %3461 : (tensor<64x1x128xf32>) -> tensor<2x4096xf32>
    %3463 = stablehlo.transpose %arg19, dims = [1, 0] {result_layout = dense<[0, 1]> : tensor<2xindex>, xla_shape = "f32[4096,4096]{0,1}"} : (tensor<4096x4096xf32>) -> tensor<4096x4096xf32>
    %3464 = stablehlo.dot %3462, %3463, precision = [DEFAULT, DEFAULT] : (tensor<2x4096xf32>, tensor<4096x4096xf32>) -> tensor<2x4096xf32>
    %3465 = stablehlo.reshape %3464 : (tensor<2x4096xf32>) -> tensor<2x1x4096xf32>
    %3466 = stablehlo.add %3378, %3465 : tensor<2x1x4096xf32>
    %3467 = stablehlo.power %3466, %1 : tensor<2x1x4096xf32>
    %3468 = stablehlo.reduce(%3467 init: %5) across dimensions = [2] : (tensor<2x1x4096xf32>, tensor<f32>) -> tensor<2x1xf32>
     reducer(%arg363: tensor<f32>, %arg364: tensor<f32>)  {
      %3743 = stablehlo.add %arg363, %arg364 : tensor<f32>
      stablehlo.return %3743 : tensor<f32>
    }
    %3469 = stablehlo.multiply %3468, %0 : tensor<2x1xf32>
    %3470 = stablehlo.reshape %3469 : (tensor<2x1xf32>) -> tensor<2x1x1xf32>
    %3471 = stablehlo.broadcast_in_dim %arg2, dims = [] : (tensor<f32>) -> tensor<2x1x1xf32>
    %3472 = stablehlo.add %3470, %3471 : tensor<2x1x1xf32>
    %3473 = stablehlo.rsqrt %3472 : tensor<2x1x1xf32>
    %3474 = stablehlo.reshape %3473 : (tensor<2x1x1xf32>) -> tensor<2x1xf32>
    %3475 = stablehlo.broadcast_in_dim %3474, dims = [0, 1] : (tensor<2x1xf32>) -> tensor<2x1x4096xf32>
    %3476 = stablehlo.multiply %3466, %3475 : tensor<2x1x4096xf32>
    %3477 = stablehlo.broadcast_in_dim %arg18, dims = [2] : (tensor<4096xf32>) -> tensor<2x1x4096xf32>
    %3478 = stablehlo.multiply %3476, %3477 : tensor<2x1x4096xf32>
    %3479 = stablehlo.reshape %3478 : (tensor<2x1x4096xf32>) -> tensor<2x4096xf32>
    %3480 = stablehlo.transpose %arg352, dims = [1, 0] {result_layout = dense<[0, 1]> : tensor<2xindex>, xla_shape = "f32[4096,11008]{0,1}"} : (tensor<11008x4096xf32>) -> tensor<4096x11008xf32>
    %3481 = stablehlo.dot %3479, %3480, precision = [DEFAULT, DEFAULT] : (tensor<2x4096xf32>, tensor<4096x11008xf32>) -> tensor<2x11008xf32>
    %3482 = stablehlo.reshape %3481 : (tensor<2x11008xf32>) -> tensor<2x1x11008xf32>
    %3483 = stablehlo.logistic %3482 : tensor<2x1x11008xf32>
    %3484 = stablehlo.multiply %3482, %3483 : tensor<2x1x11008xf32>
    %3485 = stablehlo.reshape %3478 : (tensor<2x1x4096xf32>) -> tensor<2x4096xf32>
    %3486 = stablehlo.transpose %arg17, dims = [1, 0] {result_layout = dense<[0, 1]> : tensor<2xindex>, xla_shape = "f32[4096,11008]{0,1}"} : (tensor<11008x4096xf32>) -> tensor<4096x11008xf32>
    %3487 = stablehlo.dot %3485, %3486, precision = [DEFAULT, DEFAULT] : (tensor<2x4096xf32>, tensor<4096x11008xf32>) -> tensor<2x11008xf32>
    %3488 = stablehlo.reshape %3487 : (tensor<2x11008xf32>) -> tensor<2x1x11008xf32>
    %3489 = stablehlo.multiply %3484, %3488 : tensor<2x1x11008xf32>
    %3490 = stablehlo.reshape %3489 : (tensor<2x1x11008xf32>) -> tensor<2x11008xf32>
    %3491 = stablehlo.transpose %arg16, dims = [1, 0] {result_layout = dense<[0, 1]> : tensor<2xindex>, xla_shape = "f32[11008,4096]{0,1}"} : (tensor<4096x11008xf32>) -> tensor<11008x4096xf32>
    %3492 = stablehlo.dot %3490, %3491, precision = [DEFAULT, DEFAULT] : (tensor<2x11008xf32>, tensor<11008x4096xf32>) -> tensor<2x4096xf32>
    %3493 = stablehlo.reshape %3492 : (tensor<2x4096xf32>) -> tensor<2x1x4096xf32>
    %3494 = stablehlo.add %3466, %3493 : tensor<2x1x4096xf32>
    %3495 = stablehlo.power %3494, %1 : tensor<2x1x4096xf32>
    %3496 = stablehlo.reduce(%3495 init: %5) across dimensions = [2] : (tensor<2x1x4096xf32>, tensor<f32>) -> tensor<2x1xf32>
     reducer(%arg363: tensor<f32>, %arg364: tensor<f32>)  {
      %3743 = stablehlo.add %arg363, %arg364 : tensor<f32>
      stablehlo.return %3743 : tensor<f32>
    }
    %3497 = stablehlo.multiply %3496, %0 : tensor<2x1xf32>
    %3498 = stablehlo.reshape %3497 : (tensor<2x1xf32>) -> tensor<2x1x1xf32>
    %3499 = stablehlo.broadcast_in_dim %arg2, dims = [] : (tensor<f32>) -> tensor<2x1x1xf32>
    %3500 = stablehlo.add %3498, %3499 : tensor<2x1x1xf32>
    %3501 = stablehlo.rsqrt %3500 : tensor<2x1x1xf32>
    %3502 = stablehlo.reshape %3501 : (tensor<2x1x1xf32>) -> tensor<2x1xf32>
    %3503 = stablehlo.broadcast_in_dim %3502, dims = [0, 1] : (tensor<2x1xf32>) -> tensor<2x1x4096xf32>
    %3504 = stablehlo.multiply %3494, %3503 : tensor<2x1x4096xf32>
    %3505 = stablehlo.broadcast_in_dim %arg15, dims = [2] : (tensor<4096xf32>) -> tensor<2x1x4096xf32>
    %3506 = stablehlo.multiply %3504, %3505 : tensor<2x1x4096xf32>
    %3507 = stablehlo.reshape %3506 : (tensor<2x1x4096xf32>) -> tensor<2x4096xf32>
    %3508 = stablehlo.transpose %arg356, dims = [1, 0] {result_layout = dense<[0, 1]> : tensor<2xindex>, xla_shape = "f32[4096,4096]{0,1}"} : (tensor<4096x4096xf32>) -> tensor<4096x4096xf32>
    %3509 = stablehlo.dot %3507, %3508, precision = [DEFAULT, DEFAULT] : (tensor<2x4096xf32>, tensor<4096x4096xf32>) -> tensor<2x4096xf32>
    %3510 = stablehlo.reshape %3509 : (tensor<2x4096xf32>) -> tensor<2x1x32x64x2xf32>
    %3511 = stablehlo.slice %3510 [0:2, 0:1, 0:32, 0:64, 0:1] : (tensor<2x1x32x64x2xf32>) -> tensor<2x1x32x64x1xf32>
    %3512 = stablehlo.reshape %3511 : (tensor<2x1x32x64x1xf32>) -> tensor<2x1x32x64xf32>
    %3513 = stablehlo.slice %3510 [0:2, 0:1, 0:32, 0:64, 1:2] : (tensor<2x1x32x64x2xf32>) -> tensor<2x1x32x64x1xf32>
    %3514 = stablehlo.reshape %3513 : (tensor<2x1x32x64x1xf32>) -> tensor<2x1x32x64xf32>
    %3515 = stablehlo.complex %3512, %3514 : tensor<2x1x32x64xcomplex<f32>>
    %3516 = stablehlo.broadcast_in_dim %35, dims = [1, 3] : (tensor<1x64xcomplex<f32>>) -> tensor<2x1x32x64xcomplex<f32>>
    %3517 = stablehlo.multiply %3515, %3516 : tensor<2x1x32x64xcomplex<f32>>
    %3518 = stablehlo.real %3517 : (tensor<2x1x32x64xcomplex<f32>>) -> tensor<2x1x32x64xf32>
    %3519 = stablehlo.reshape %3518 : (tensor<2x1x32x64xf32>) -> tensor<2x1x32x64x1xf32>
    %3520 = stablehlo.imag %3517 : (tensor<2x1x32x64xcomplex<f32>>) -> tensor<2x1x32x64xf32>
    %3521 = stablehlo.reshape %3520 : (tensor<2x1x32x64xf32>) -> tensor<2x1x32x64x1xf32>
    %3522 = stablehlo.concatenate %3519, %3521, dim = 4 : (tensor<2x1x32x64x1xf32>, tensor<2x1x32x64x1xf32>) -> tensor<2x1x32x64x2xf32>
    %3523 = stablehlo.reshape %3522 : (tensor<2x1x32x64x2xf32>) -> tensor<64x1x128xf32>
    %3524 = stablehlo.compare  LT, %arg199, %2 : (tensor<1xi64>, tensor<1xi64>) -> tensor<1xi1>
    %3525 = stablehlo.reshape %arg200 : (tensor<i64>) -> tensor<1xi64>
    %3526 = stablehlo.add %arg199, %3525 : tensor<1xi64>
    %3527 = stablehlo.select %3524, %3526, %arg199 : tensor<1xi1>, tensor<1xi64>
    %3528 = stablehlo.reshape %3527 : (tensor<1xi64>) -> tensor<1x1xi64>
    %3529 = stablehlo.reshape %3506 : (tensor<2x1x4096xf32>) -> tensor<2x4096xf32>
    %3530 = stablehlo.transpose %arg354, dims = [1, 0] {result_layout = dense<[0, 1]> : tensor<2xindex>, xla_shape = "f32[4096,4096]{0,1}"} : (tensor<4096x4096xf32>) -> tensor<4096x4096xf32>
    %3531 = stablehlo.dot %3529, %3530, precision = [DEFAULT, DEFAULT] : (tensor<2x4096xf32>, tensor<4096x4096xf32>) -> tensor<2x4096xf32>
    %3532 = stablehlo.reshape %3531 : (tensor<2x4096xf32>) -> tensor<2x1x32x64x2xf32>
    %3533 = stablehlo.slice %3532 [0:2, 0:1, 0:32, 0:64, 0:1] : (tensor<2x1x32x64x2xf32>) -> tensor<2x1x32x64x1xf32>
    %3534 = stablehlo.reshape %3533 : (tensor<2x1x32x64x1xf32>) -> tensor<2x1x32x64xf32>
    %3535 = stablehlo.slice %3532 [0:2, 0:1, 0:32, 0:64, 1:2] : (tensor<2x1x32x64x2xf32>) -> tensor<2x1x32x64x1xf32>
    %3536 = stablehlo.reshape %3535 : (tensor<2x1x32x64x1xf32>) -> tensor<2x1x32x64xf32>
    %3537 = stablehlo.complex %3534, %3536 : tensor<2x1x32x64xcomplex<f32>>
    %3538 = stablehlo.broadcast_in_dim %35, dims = [1, 3] : (tensor<1x64xcomplex<f32>>) -> tensor<2x1x32x64xcomplex<f32>>
    %3539 = stablehlo.multiply %3537, %3538 : tensor<2x1x32x64xcomplex<f32>>
    %3540 = stablehlo.real %3539 : (tensor<2x1x32x64xcomplex<f32>>) -> tensor<2x1x32x64xf32>
    %3541 = stablehlo.reshape %3540 : (tensor<2x1x32x64xf32>) -> tensor<2x1x32x64x1xf32>
    %3542 = stablehlo.imag %3539 : (tensor<2x1x32x64xcomplex<f32>>) -> tensor<2x1x32x64xf32>
    %3543 = stablehlo.reshape %3542 : (tensor<2x1x32x64xf32>) -> tensor<2x1x32x64x1xf32>
    %3544 = stablehlo.concatenate %3541, %3543, dim = 4 : (tensor<2x1x32x64x1xf32>, tensor<2x1x32x64x1xf32>) -> tensor<2x1x32x64x2xf32>
    %3545 = stablehlo.reshape %3544 : (tensor<2x1x32x64x2xf32>) -> tensor<2x1x32x128xf32>
    %3546 = "stablehlo.scatter"(%arg355, %3528, %3545) ({
    ^bb0(%arg363: tensor<f32>, %arg364: tensor<f32>):
      stablehlo.return %arg364 : tensor<f32>
    }) {indices_are_sorted = false, scatter_dimension_numbers = #stablehlo.scatter<update_window_dims = [0, 2, 3], inserted_window_dims = [1], scatter_dims_to_operand_dims = [1], index_vector_dim = 1>, unique_indices = false} : (tensor<2x2304x32x128xf32>, tensor<1x1xi64>, tensor<2x1x32x128xf32>) -> tensor<2x2304x32x128xf32>
    %3547 = stablehlo.convert %arg7 : (tensor<2048xi64>) -> tensor<2048xui32>
    %3548 = "stablehlo.gather"(%3546, %3547) {dimension_numbers = #stablehlo.gather<offset_dims = [0, 2, 3], collapsed_slice_dims = [1], start_index_map = [1], index_vector_dim = 1>, indices_are_sorted = false, slice_sizes = dense<[2, 1, 32, 128]> : tensor<4xi64>} : (tensor<2x2304x32x128xf32>, tensor<2048xui32>) -> tensor<2x2048x32x128xf32>
    %3549 = stablehlo.transpose %3548, dims = [0, 2, 3, 1] : (tensor<2x2048x32x128xf32>) -> tensor<2x32x128x2048xf32>
    %3550 = stablehlo.reshape %3549 : (tensor<2x32x128x2048xf32>) -> tensor<64x128x2048xf32>
    %3551 = stablehlo.dot_general %3523, %3550, batching_dims = [0] x [0], contracting_dims = [2] x [1], precision = [DEFAULT, DEFAULT] : (tensor<64x1x128xf32>, tensor<64x128x2048xf32>) -> tensor<64x1x2048xf32>
    %3552 = stablehlo.reshape %3551 : (tensor<64x1x2048xf32>) -> tensor<2x32x1x2048xf32>
    %3553 = stablehlo.broadcast_in_dim %arg202, dims = [] : (tensor<f32>) -> tensor<2x32x1x2048xf32>
    %3554 = stablehlo.divide %3552, %3553 : tensor<2x32x1x2048xf32>
    %3555 = stablehlo.reduce(%3554 init: %4) across dimensions = [3] : (tensor<2x32x1x2048xf32>, tensor<f32>) -> tensor<2x32x1xf32>
     reducer(%arg363: tensor<f32>, %arg364: tensor<f32>)  {
      %3743 = stablehlo.maximum %arg363, %arg364 : tensor<f32>
      stablehlo.return %3743 : tensor<f32>
    }
    %3556 = stablehlo.broadcast_in_dim %3555, dims = [0, 1, 2] : (tensor<2x32x1xf32>) -> tensor<2x32x1x2048xf32>
    %3557 = stablehlo.subtract %3554, %3556 : tensor<2x32x1x2048xf32>
    %3558 = stablehlo.exponential %3557 : tensor<2x32x1x2048xf32>
    %3559 = stablehlo.reduce(%3558 init: %5) across dimensions = [3] : (tensor<2x32x1x2048xf32>, tensor<f32>) -> tensor<2x32x1xf32>
     reducer(%arg363: tensor<f32>, %arg364: tensor<f32>)  {
      %3743 = stablehlo.add %arg363, %arg364 : tensor<f32>
      stablehlo.return %3743 : tensor<f32>
    }
    %3560 = stablehlo.broadcast_in_dim %3559, dims = [0, 1, 2] : (tensor<2x32x1xf32>) -> tensor<2x32x1x2048xf32>
    %3561 = stablehlo.divide %3558, %3560 : tensor<2x32x1x2048xf32>
    %3562 = stablehlo.reshape %3561 : (tensor<2x32x1x2048xf32>) -> tensor<64x1x2048xf32>
    %3563 = stablehlo.compare  LT, %arg199, %2 : (tensor<1xi64>, tensor<1xi64>) -> tensor<1xi1>
    %3564 = stablehlo.reshape %arg200 : (tensor<i64>) -> tensor<1xi64>
    %3565 = stablehlo.add %arg199, %3564 : tensor<1xi64>
    %3566 = stablehlo.select %3563, %3565, %arg199 : tensor<1xi1>, tensor<1xi64>
    %3567 = stablehlo.reshape %3566 : (tensor<1xi64>) -> tensor<1x1xi64>
    %3568 = stablehlo.reshape %3506 : (tensor<2x1x4096xf32>) -> tensor<2x4096xf32>
    %3569 = stablehlo.transpose %arg14, dims = [1, 0] {result_layout = dense<[0, 1]> : tensor<2xindex>, xla_shape = "f32[4096,4096]{0,1}"} : (tensor<4096x4096xf32>) -> tensor<4096x4096xf32>
    %3570 = stablehlo.dot %3568, %3569, precision = [DEFAULT, DEFAULT] : (tensor<2x4096xf32>, tensor<4096x4096xf32>) -> tensor<2x4096xf32>
    %3571 = stablehlo.reshape %3570 : (tensor<2x4096xf32>) -> tensor<2x1x32x128xf32>
    %3572 = "stablehlo.scatter"(%arg353, %3567, %3571) ({
    ^bb0(%arg363: tensor<f32>, %arg364: tensor<f32>):
      stablehlo.return %arg364 : tensor<f32>
    }) {indices_are_sorted = false, scatter_dimension_numbers = #stablehlo.scatter<update_window_dims = [0, 2, 3], inserted_window_dims = [1], scatter_dims_to_operand_dims = [1], index_vector_dim = 1>, unique_indices = false} : (tensor<2x2304x32x128xf32>, tensor<1x1xi64>, tensor<2x1x32x128xf32>) -> tensor<2x2304x32x128xf32>
    %3573 = stablehlo.convert %arg7 : (tensor<2048xi64>) -> tensor<2048xui32>
    %3574 = "stablehlo.gather"(%3572, %3573) {dimension_numbers = #stablehlo.gather<offset_dims = [0, 2, 3], collapsed_slice_dims = [1], start_index_map = [1], index_vector_dim = 1>, indices_are_sorted = false, slice_sizes = dense<[2, 1, 32, 128]> : tensor<4xi64>} : (tensor<2x2304x32x128xf32>, tensor<2048xui32>) -> tensor<2x2048x32x128xf32>
    %3575 = stablehlo.transpose %3574, dims = [0, 2, 1, 3] {result_layout = dense<[3, 1, 2, 0]> : tensor<4xindex>, xla_shape = "f32[2,32,2048,128]{3,1,2,0}"} : (tensor<2x2048x32x128xf32>) -> tensor<2x32x2048x128xf32>
    %3576 = stablehlo.reshape %3575 : (tensor<2x32x2048x128xf32>) -> tensor<64x2048x128xf32>
    %3577 = stablehlo.dot_general %3562, %3576, batching_dims = [0] x [0], contracting_dims = [2] x [1], precision = [DEFAULT, DEFAULT] : (tensor<64x1x2048xf32>, tensor<64x2048x128xf32>) -> tensor<64x1x128xf32>
    %3578 = stablehlo.reshape %3577 : (tensor<64x1x128xf32>) -> tensor<2x4096xf32>
    %3579 = stablehlo.transpose %arg13, dims = [1, 0] {result_layout = dense<[0, 1]> : tensor<2xindex>, xla_shape = "f32[4096,4096]{0,1}"} : (tensor<4096x4096xf32>) -> tensor<4096x4096xf32>
    %3580 = stablehlo.dot %3578, %3579, precision = [DEFAULT, DEFAULT] : (tensor<2x4096xf32>, tensor<4096x4096xf32>) -> tensor<2x4096xf32>
    %3581 = stablehlo.reshape %3580 : (tensor<2x4096xf32>) -> tensor<2x1x4096xf32>
    %3582 = stablehlo.add %3494, %3581 : tensor<2x1x4096xf32>
    %3583 = stablehlo.power %3582, %1 : tensor<2x1x4096xf32>
    %3584 = stablehlo.reduce(%3583 init: %5) across dimensions = [2] : (tensor<2x1x4096xf32>, tensor<f32>) -> tensor<2x1xf32>
     reducer(%arg363: tensor<f32>, %arg364: tensor<f32>)  {
      %3743 = stablehlo.add %arg363, %arg364 : tensor<f32>
      stablehlo.return %3743 : tensor<f32>
    }
    %3585 = stablehlo.multiply %3584, %0 : tensor<2x1xf32>
    %3586 = stablehlo.reshape %3585 : (tensor<2x1xf32>) -> tensor<2x1x1xf32>
    %3587 = stablehlo.broadcast_in_dim %arg2, dims = [] : (tensor<f32>) -> tensor<2x1x1xf32>
    %3588 = stablehlo.add %3586, %3587 : tensor<2x1x1xf32>
    %3589 = stablehlo.rsqrt %3588 : tensor<2x1x1xf32>
    %3590 = stablehlo.reshape %3589 : (tensor<2x1x1xf32>) -> tensor<2x1xf32>
    %3591 = stablehlo.broadcast_in_dim %3590, dims = [0, 1] : (tensor<2x1xf32>) -> tensor<2x1x4096xf32>
    %3592 = stablehlo.multiply %3582, %3591 : tensor<2x1x4096xf32>
    %3593 = stablehlo.broadcast_in_dim %arg12, dims = [2] : (tensor<4096xf32>) -> tensor<2x1x4096xf32>
    %3594 = stablehlo.multiply %3592, %3593 : tensor<2x1x4096xf32>
    %3595 = stablehlo.reshape %3594 : (tensor<2x1x4096xf32>) -> tensor<2x4096xf32>
    %3596 = stablehlo.transpose %arg357, dims = [1, 0] {result_layout = dense<[0, 1]> : tensor<2xindex>, xla_shape = "f32[4096,11008]{0,1}"} : (tensor<11008x4096xf32>) -> tensor<4096x11008xf32>
    %3597 = stablehlo.dot %3595, %3596, precision = [DEFAULT, DEFAULT] : (tensor<2x4096xf32>, tensor<4096x11008xf32>) -> tensor<2x11008xf32>
    %3598 = stablehlo.reshape %3597 : (tensor<2x11008xf32>) -> tensor<2x1x11008xf32>
    %3599 = stablehlo.logistic %3598 : tensor<2x1x11008xf32>
    %3600 = stablehlo.multiply %3598, %3599 : tensor<2x1x11008xf32>
    %3601 = stablehlo.reshape %3594 : (tensor<2x1x4096xf32>) -> tensor<2x4096xf32>
    %3602 = stablehlo.transpose %arg11, dims = [1, 0] {result_layout = dense<[0, 1]> : tensor<2xindex>, xla_shape = "f32[4096,11008]{0,1}"} : (tensor<11008x4096xf32>) -> tensor<4096x11008xf32>
    %3603 = stablehlo.dot %3601, %3602, precision = [DEFAULT, DEFAULT] : (tensor<2x4096xf32>, tensor<4096x11008xf32>) -> tensor<2x11008xf32>
    %3604 = stablehlo.reshape %3603 : (tensor<2x11008xf32>) -> tensor<2x1x11008xf32>
    %3605 = stablehlo.multiply %3600, %3604 : tensor<2x1x11008xf32>
    %3606 = stablehlo.reshape %3605 : (tensor<2x1x11008xf32>) -> tensor<2x11008xf32>
    %3607 = stablehlo.transpose %arg10, dims = [1, 0] {result_layout = dense<[0, 1]> : tensor<2xindex>, xla_shape = "f32[11008,4096]{0,1}"} : (tensor<4096x11008xf32>) -> tensor<11008x4096xf32>
    %3608 = stablehlo.dot %3606, %3607, precision = [DEFAULT, DEFAULT] : (tensor<2x11008xf32>, tensor<11008x4096xf32>) -> tensor<2x4096xf32>
    %3609 = stablehlo.reshape %3608 : (tensor<2x4096xf32>) -> tensor<2x1x4096xf32>
    %3610 = stablehlo.add %3582, %3609 : tensor<2x1x4096xf32>
    %3611 = stablehlo.power %3610, %1 : tensor<2x1x4096xf32>
    %3612 = stablehlo.reduce(%3611 init: %5) across dimensions = [2] : (tensor<2x1x4096xf32>, tensor<f32>) -> tensor<2x1xf32>
     reducer(%arg363: tensor<f32>, %arg364: tensor<f32>)  {
      %3743 = stablehlo.add %arg363, %arg364 : tensor<f32>
      stablehlo.return %3743 : tensor<f32>
    }
    %3613 = stablehlo.multiply %3612, %0 : tensor<2x1xf32>
    %3614 = stablehlo.reshape %3613 : (tensor<2x1xf32>) -> tensor<2x1x1xf32>
    %3615 = stablehlo.broadcast_in_dim %arg2, dims = [] : (tensor<f32>) -> tensor<2x1x1xf32>
    %3616 = stablehlo.add %3614, %3615 : tensor<2x1x1xf32>
    %3617 = stablehlo.rsqrt %3616 : tensor<2x1x1xf32>
    %3618 = stablehlo.reshape %3617 : (tensor<2x1x1xf32>) -> tensor<2x1xf32>
    %3619 = stablehlo.broadcast_in_dim %3618, dims = [0, 1] : (tensor<2x1xf32>) -> tensor<2x1x4096xf32>
    %3620 = stablehlo.multiply %3610, %3619 : tensor<2x1x4096xf32>
    %3621 = stablehlo.broadcast_in_dim %arg9, dims = [2] : (tensor<4096xf32>) -> tensor<2x1x4096xf32>
    %3622 = stablehlo.multiply %3620, %3621 : tensor<2x1x4096xf32>
    %3623 = stablehlo.reshape %3622 : (tensor<2x1x4096xf32>) -> tensor<2x4096xf32>
    %3624 = stablehlo.transpose %arg361, dims = [1, 0] {result_layout = dense<[0, 1]> : tensor<2xindex>, xla_shape = "f32[4096,4096]{0,1}"} : (tensor<4096x4096xf32>) -> tensor<4096x4096xf32>
    %3625 = stablehlo.dot %3623, %3624, precision = [DEFAULT, DEFAULT] : (tensor<2x4096xf32>, tensor<4096x4096xf32>) -> tensor<2x4096xf32>
    %3626 = stablehlo.reshape %3625 : (tensor<2x4096xf32>) -> tensor<2x1x32x64x2xf32>
    %3627 = stablehlo.slice %3626 [0:2, 0:1, 0:32, 0:64, 0:1] : (tensor<2x1x32x64x2xf32>) -> tensor<2x1x32x64x1xf32>
    %3628 = stablehlo.reshape %3627 : (tensor<2x1x32x64x1xf32>) -> tensor<2x1x32x64xf32>
    %3629 = stablehlo.slice %3626 [0:2, 0:1, 0:32, 0:64, 1:2] : (tensor<2x1x32x64x2xf32>) -> tensor<2x1x32x64x1xf32>
    %3630 = stablehlo.reshape %3629 : (tensor<2x1x32x64x1xf32>) -> tensor<2x1x32x64xf32>
    %3631 = stablehlo.complex %3628, %3630 : tensor<2x1x32x64xcomplex<f32>>
    %3632 = stablehlo.broadcast_in_dim %35, dims = [1, 3] : (tensor<1x64xcomplex<f32>>) -> tensor<2x1x32x64xcomplex<f32>>
    %3633 = stablehlo.multiply %3631, %3632 : tensor<2x1x32x64xcomplex<f32>>
    %3634 = stablehlo.real %3633 : (tensor<2x1x32x64xcomplex<f32>>) -> tensor<2x1x32x64xf32>
    %3635 = stablehlo.reshape %3634 : (tensor<2x1x32x64xf32>) -> tensor<2x1x32x64x1xf32>
    %3636 = stablehlo.imag %3633 : (tensor<2x1x32x64xcomplex<f32>>) -> tensor<2x1x32x64xf32>
    %3637 = stablehlo.reshape %3636 : (tensor<2x1x32x64xf32>) -> tensor<2x1x32x64x1xf32>
    %3638 = stablehlo.concatenate %3635, %3637, dim = 4 : (tensor<2x1x32x64x1xf32>, tensor<2x1x32x64x1xf32>) -> tensor<2x1x32x64x2xf32>
    %3639 = stablehlo.reshape %3638 : (tensor<2x1x32x64x2xf32>) -> tensor<64x1x128xf32>
    %3640 = stablehlo.compare  LT, %arg199, %2 : (tensor<1xi64>, tensor<1xi64>) -> tensor<1xi1>
    %3641 = stablehlo.reshape %arg200 : (tensor<i64>) -> tensor<1xi64>
    %3642 = stablehlo.add %arg199, %3641 : tensor<1xi64>
    %3643 = stablehlo.select %3640, %3642, %arg199 : tensor<1xi1>, tensor<1xi64>
    %3644 = stablehlo.reshape %3643 : (tensor<1xi64>) -> tensor<1x1xi64>
    %3645 = stablehlo.reshape %3622 : (tensor<2x1x4096xf32>) -> tensor<2x4096xf32>
    %3646 = stablehlo.transpose %arg359, dims = [1, 0] {result_layout = dense<[0, 1]> : tensor<2xindex>, xla_shape = "f32[4096,4096]{0,1}"} : (tensor<4096x4096xf32>) -> tensor<4096x4096xf32>
    %3647 = stablehlo.dot %3645, %3646, precision = [DEFAULT, DEFAULT] : (tensor<2x4096xf32>, tensor<4096x4096xf32>) -> tensor<2x4096xf32>
    %3648 = stablehlo.reshape %3647 : (tensor<2x4096xf32>) -> tensor<2x1x32x64x2xf32>
    %3649 = stablehlo.slice %3648 [0:2, 0:1, 0:32, 0:64, 0:1] : (tensor<2x1x32x64x2xf32>) -> tensor<2x1x32x64x1xf32>
    %3650 = stablehlo.reshape %3649 : (tensor<2x1x32x64x1xf32>) -> tensor<2x1x32x64xf32>
    %3651 = stablehlo.slice %3648 [0:2, 0:1, 0:32, 0:64, 1:2] : (tensor<2x1x32x64x2xf32>) -> tensor<2x1x32x64x1xf32>
    %3652 = stablehlo.reshape %3651 : (tensor<2x1x32x64x1xf32>) -> tensor<2x1x32x64xf32>
    %3653 = stablehlo.complex %3650, %3652 : tensor<2x1x32x64xcomplex<f32>>
    %3654 = stablehlo.broadcast_in_dim %35, dims = [1, 3] : (tensor<1x64xcomplex<f32>>) -> tensor<2x1x32x64xcomplex<f32>>
    %3655 = stablehlo.multiply %3653, %3654 : tensor<2x1x32x64xcomplex<f32>>
    %3656 = stablehlo.real %3655 : (tensor<2x1x32x64xcomplex<f32>>) -> tensor<2x1x32x64xf32>
    %3657 = stablehlo.reshape %3656 : (tensor<2x1x32x64xf32>) -> tensor<2x1x32x64x1xf32>
    %3658 = stablehlo.imag %3655 : (tensor<2x1x32x64xcomplex<f32>>) -> tensor<2x1x32x64xf32>
    %3659 = stablehlo.reshape %3658 : (tensor<2x1x32x64xf32>) -> tensor<2x1x32x64x1xf32>
    %3660 = stablehlo.concatenate %3657, %3659, dim = 4 : (tensor<2x1x32x64x1xf32>, tensor<2x1x32x64x1xf32>) -> tensor<2x1x32x64x2xf32>
    %3661 = stablehlo.reshape %3660 : (tensor<2x1x32x64x2xf32>) -> tensor<2x1x32x128xf32>
    %3662 = "stablehlo.scatter"(%arg360, %3644, %3661) ({
    ^bb0(%arg363: tensor<f32>, %arg364: tensor<f32>):
      stablehlo.return %arg364 : tensor<f32>
    }) {indices_are_sorted = false, scatter_dimension_numbers = #stablehlo.scatter<update_window_dims = [0, 2, 3], inserted_window_dims = [1], scatter_dims_to_operand_dims = [1], index_vector_dim = 1>, unique_indices = false} : (tensor<2x2304x32x128xf32>, tensor<1x1xi64>, tensor<2x1x32x128xf32>) -> tensor<2x2304x32x128xf32>
    %3663 = stablehlo.convert %arg7 : (tensor<2048xi64>) -> tensor<2048xui32>
    %3664 = "stablehlo.gather"(%3662, %3663) {dimension_numbers = #stablehlo.gather<offset_dims = [0, 2, 3], collapsed_slice_dims = [1], start_index_map = [1], index_vector_dim = 1>, indices_are_sorted = false, slice_sizes = dense<[2, 1, 32, 128]> : tensor<4xi64>} : (tensor<2x2304x32x128xf32>, tensor<2048xui32>) -> tensor<2x2048x32x128xf32>
    %3665 = stablehlo.transpose %3664, dims = [0, 2, 3, 1] : (tensor<2x2048x32x128xf32>) -> tensor<2x32x128x2048xf32>
    %3666 = stablehlo.reshape %3665 : (tensor<2x32x128x2048xf32>) -> tensor<64x128x2048xf32>
    %3667 = stablehlo.dot_general %3639, %3666, batching_dims = [0] x [0], contracting_dims = [2] x [1], precision = [DEFAULT, DEFAULT] : (tensor<64x1x128xf32>, tensor<64x128x2048xf32>) -> tensor<64x1x2048xf32>
    %3668 = stablehlo.reshape %3667 : (tensor<64x1x2048xf32>) -> tensor<2x32x1x2048xf32>
    %3669 = stablehlo.broadcast_in_dim %arg202, dims = [] : (tensor<f32>) -> tensor<2x32x1x2048xf32>
    %3670 = stablehlo.divide %3668, %3669 : tensor<2x32x1x2048xf32>
    %3671 = stablehlo.reduce(%3670 init: %4) across dimensions = [3] : (tensor<2x32x1x2048xf32>, tensor<f32>) -> tensor<2x32x1xf32>
     reducer(%arg363: tensor<f32>, %arg364: tensor<f32>)  {
      %3743 = stablehlo.maximum %arg363, %arg364 : tensor<f32>
      stablehlo.return %3743 : tensor<f32>
    }
    %3672 = stablehlo.broadcast_in_dim %3671, dims = [0, 1, 2] : (tensor<2x32x1xf32>) -> tensor<2x32x1x2048xf32>
    %3673 = stablehlo.subtract %3670, %3672 : tensor<2x32x1x2048xf32>
    %3674 = stablehlo.exponential %3673 : tensor<2x32x1x2048xf32>
    %3675 = stablehlo.reduce(%3674 init: %5) across dimensions = [3] : (tensor<2x32x1x2048xf32>, tensor<f32>) -> tensor<2x32x1xf32>
     reducer(%arg363: tensor<f32>, %arg364: tensor<f32>)  {
      %3743 = stablehlo.add %arg363, %arg364 : tensor<f32>
      stablehlo.return %3743 : tensor<f32>
    }
    %3676 = stablehlo.broadcast_in_dim %3675, dims = [0, 1, 2] : (tensor<2x32x1xf32>) -> tensor<2x32x1x2048xf32>
    %3677 = stablehlo.divide %3674, %3676 : tensor<2x32x1x2048xf32>
    %3678 = stablehlo.reshape %3677 : (tensor<2x32x1x2048xf32>) -> tensor<64x1x2048xf32>
    %3679 = stablehlo.compare  LT, %arg199, %2 : (tensor<1xi64>, tensor<1xi64>) -> tensor<1xi1>
    %3680 = stablehlo.reshape %arg200 : (tensor<i64>) -> tensor<1xi64>
    %3681 = stablehlo.add %arg199, %3680 : tensor<1xi64>
    %3682 = stablehlo.select %3679, %3681, %arg199 : tensor<1xi1>, tensor<1xi64>
    %3683 = stablehlo.reshape %3682 : (tensor<1xi64>) -> tensor<1x1xi64>
    %3684 = stablehlo.reshape %3622 : (tensor<2x1x4096xf32>) -> tensor<2x4096xf32>
    %3685 = stablehlo.transpose %arg8, dims = [1, 0] {result_layout = dense<[0, 1]> : tensor<2xindex>, xla_shape = "f32[4096,4096]{0,1}"} : (tensor<4096x4096xf32>) -> tensor<4096x4096xf32>
    %3686 = stablehlo.dot %3684, %3685, precision = [DEFAULT, DEFAULT] : (tensor<2x4096xf32>, tensor<4096x4096xf32>) -> tensor<2x4096xf32>
    %3687 = stablehlo.reshape %3686 : (tensor<2x4096xf32>) -> tensor<2x1x32x128xf32>
    %3688 = "stablehlo.scatter"(%arg358, %3683, %3687) ({
    ^bb0(%arg363: tensor<f32>, %arg364: tensor<f32>):
      stablehlo.return %arg364 : tensor<f32>
    }) {indices_are_sorted = false, scatter_dimension_numbers = #stablehlo.scatter<update_window_dims = [0, 2, 3], inserted_window_dims = [1], scatter_dims_to_operand_dims = [1], index_vector_dim = 1>, unique_indices = false} : (tensor<2x2304x32x128xf32>, tensor<1x1xi64>, tensor<2x1x32x128xf32>) -> tensor<2x2304x32x128xf32>
    %3689 = stablehlo.convert %arg7 : (tensor<2048xi64>) -> tensor<2048xui32>
    %3690 = "stablehlo.gather"(%3688, %3689) {dimension_numbers = #stablehlo.gather<offset_dims = [0, 2, 3], collapsed_slice_dims = [1], start_index_map = [1], index_vector_dim = 1>, indices_are_sorted = false, slice_sizes = dense<[2, 1, 32, 128]> : tensor<4xi64>} : (tensor<2x2304x32x128xf32>, tensor<2048xui32>) -> tensor<2x2048x32x128xf32>
    %3691 = stablehlo.transpose %3690, dims = [0, 2, 1, 3] {result_layout = dense<[3, 1, 2, 0]> : tensor<4xindex>, xla_shape = "f32[2,32,2048,128]{3,1,2,0}"} : (tensor<2x2048x32x128xf32>) -> tensor<2x32x2048x128xf32>
    %3692 = stablehlo.reshape %3691 : (tensor<2x32x2048x128xf32>) -> tensor<64x2048x128xf32>
    %3693 = stablehlo.dot_general %3678, %3692, batching_dims = [0] x [0], contracting_dims = [2] x [1], precision = [DEFAULT, DEFAULT] : (tensor<64x1x2048xf32>, tensor<64x2048x128xf32>) -> tensor<64x1x128xf32>
    %3694 = stablehlo.reshape %3693 : (tensor<64x1x128xf32>) -> tensor<2x4096xf32>
    %3695 = stablehlo.transpose %arg6, dims = [1, 0] {result_layout = dense<[0, 1]> : tensor<2xindex>, xla_shape = "f32[4096,4096]{0,1}"} : (tensor<4096x4096xf32>) -> tensor<4096x4096xf32>
    %3696 = stablehlo.dot %3694, %3695, precision = [DEFAULT, DEFAULT] : (tensor<2x4096xf32>, tensor<4096x4096xf32>) -> tensor<2x4096xf32>
    %3697 = stablehlo.reshape %3696 : (tensor<2x4096xf32>) -> tensor<2x1x4096xf32>
    %3698 = stablehlo.add %3610, %3697 : tensor<2x1x4096xf32>
    %3699 = stablehlo.power %3698, %1 : tensor<2x1x4096xf32>
    %3700 = stablehlo.reduce(%3699 init: %5) across dimensions = [2] : (tensor<2x1x4096xf32>, tensor<f32>) -> tensor<2x1xf32>
     reducer(%arg363: tensor<f32>, %arg364: tensor<f32>)  {
      %3743 = stablehlo.add %arg363, %arg364 : tensor<f32>
      stablehlo.return %3743 : tensor<f32>
    }
    %3701 = stablehlo.multiply %3700, %0 : tensor<2x1xf32>
    %3702 = stablehlo.reshape %3701 : (tensor<2x1xf32>) -> tensor<2x1x1xf32>
    %3703 = stablehlo.broadcast_in_dim %arg2, dims = [] : (tensor<f32>) -> tensor<2x1x1xf32>
    %3704 = stablehlo.add %3702, %3703 : tensor<2x1x1xf32>
    %3705 = stablehlo.rsqrt %3704 : tensor<2x1x1xf32>
    %3706 = stablehlo.reshape %3705 : (tensor<2x1x1xf32>) -> tensor<2x1xf32>
    %3707 = stablehlo.broadcast_in_dim %3706, dims = [0, 1] : (tensor<2x1xf32>) -> tensor<2x1x4096xf32>
    %3708 = stablehlo.multiply %3698, %3707 : tensor<2x1x4096xf32>
    %3709 = stablehlo.broadcast_in_dim %arg5, dims = [2] : (tensor<4096xf32>) -> tensor<2x1x4096xf32>
    %3710 = stablehlo.multiply %3708, %3709 : tensor<2x1x4096xf32>
    %3711 = stablehlo.reshape %3710 : (tensor<2x1x4096xf32>) -> tensor<2x4096xf32>
    %3712 = stablehlo.transpose %arg362, dims = [1, 0] {result_layout = dense<[0, 1]> : tensor<2xindex>, xla_shape = "f32[4096,11008]{0,1}"} : (tensor<11008x4096xf32>) -> tensor<4096x11008xf32>
    %3713 = stablehlo.dot %3711, %3712, precision = [DEFAULT, DEFAULT] : (tensor<2x4096xf32>, tensor<4096x11008xf32>) -> tensor<2x11008xf32>
    %3714 = stablehlo.reshape %3713 : (tensor<2x11008xf32>) -> tensor<2x1x11008xf32>
    %3715 = stablehlo.logistic %3714 : tensor<2x1x11008xf32>
    %3716 = stablehlo.multiply %3714, %3715 : tensor<2x1x11008xf32>
    %3717 = stablehlo.reshape %3710 : (tensor<2x1x4096xf32>) -> tensor<2x4096xf32>
    %3718 = stablehlo.transpose %arg4, dims = [1, 0] {result_layout = dense<[0, 1]> : tensor<2xindex>, xla_shape = "f32[4096,11008]{0,1}"} : (tensor<11008x4096xf32>) -> tensor<4096x11008xf32>
    %3719 = stablehlo.dot %3717, %3718, precision = [DEFAULT, DEFAULT] : (tensor<2x4096xf32>, tensor<4096x11008xf32>) -> tensor<2x11008xf32>
    %3720 = stablehlo.reshape %3719 : (tensor<2x11008xf32>) -> tensor<2x1x11008xf32>
    %3721 = stablehlo.multiply %3716, %3720 : tensor<2x1x11008xf32>
    %3722 = stablehlo.reshape %3721 : (tensor<2x1x11008xf32>) -> tensor<2x11008xf32>
    %3723 = stablehlo.transpose %arg3, dims = [1, 0] {result_layout = dense<[0, 1]> : tensor<2xindex>, xla_shape = "f32[11008,4096]{0,1}"} : (tensor<4096x11008xf32>) -> tensor<11008x4096xf32>
    %3724 = stablehlo.dot %3722, %3723, precision = [DEFAULT, DEFAULT] : (tensor<2x11008xf32>, tensor<11008x4096xf32>) -> tensor<2x4096xf32>
    %3725 = stablehlo.reshape %3724 : (tensor<2x4096xf32>) -> tensor<2x1x4096xf32>
    %3726 = stablehlo.add %3698, %3725 : tensor<2x1x4096xf32>
    %3727 = stablehlo.power %3726, %1 : tensor<2x1x4096xf32>
    %3728 = stablehlo.reduce(%3727 init: %5) across dimensions = [2] : (tensor<2x1x4096xf32>, tensor<f32>) -> tensor<2x1xf32>
     reducer(%arg363: tensor<f32>, %arg364: tensor<f32>)  {
      %3743 = stablehlo.add %arg363, %arg364 : tensor<f32>
      stablehlo.return %3743 : tensor<f32>
    }
    %3729 = stablehlo.multiply %3728, %0 : tensor<2x1xf32>
    %3730 = stablehlo.reshape %3729 : (tensor<2x1xf32>) -> tensor<2x1x1xf32>
    %3731 = stablehlo.broadcast_in_dim %arg2, dims = [] : (tensor<f32>) -> tensor<2x1x1xf32>
    %3732 = stablehlo.add %3730, %3731 : tensor<2x1x1xf32>
    %3733 = stablehlo.rsqrt %3732 : tensor<2x1x1xf32>
    %3734 = stablehlo.reshape %3733 : (tensor<2x1x1xf32>) -> tensor<2x1xf32>
    %3735 = stablehlo.broadcast_in_dim %3734, dims = [0, 1] : (tensor<2x1xf32>) -> tensor<2x1x4096xf32>
    %3736 = stablehlo.multiply %3726, %3735 : tensor<2x1x4096xf32>
    %3737 = stablehlo.broadcast_in_dim %arg1, dims = [2] : (tensor<4096xf32>) -> tensor<2x1x4096xf32>
    %3738 = stablehlo.multiply %3736, %3737 : tensor<2x1x4096xf32>
    %3739 = stablehlo.reshape %3738 : (tensor<2x1x4096xf32>) -> tensor<2x4096xf32>
    %3740 = stablehlo.transpose %arg0, dims = [1, 0] {result_layout = dense<[0, 1]> : tensor<2xindex>, xla_shape = "f32[4096,32000]{0,1}"} : (tensor<32000x4096xf32>) -> tensor<4096x32000xf32>
    %3741 = stablehlo.dot %3739, %3740, precision = [DEFAULT, DEFAULT] : (tensor<2x4096xf32>, tensor<4096x32000xf32>) -> tensor<2x32000xf32>
    %3742 = stablehlo.reshape %3741 : (tensor<2x32000xf32>) -> tensor<2x1x32000xf32>
    return %3742, %66, %92, %182, %208, %298, %324, %414, %440, %530, %556, %646, %672, %762, %788, %878, %904, %994, %1020, %1110, %1136, %1226, %1252, %1342, %1368, %1458, %1484, %1574, %1600, %1690, %1716, %1806, %1832, %1922, %1948, %2038, %2064, %2154, %2180, %2270, %2296, %2386, %2412, %2502, %2528, %2618, %2644, %2734, %2760, %2850, %2876, %2966, %2992, %3082, %3108, %3198, %3224, %3314, %3340, %3430, %3456, %3546, %3572, %3662, %3688 : tensor<2x1x32000xf32>, tensor<2x2304x32x128xf32>, tensor<2x2304x32x128xf32>, tensor<2x2304x32x128xf32>, tensor<2x2304x32x128xf32>, tensor<2x2304x32x128xf32>, tensor<2x2304x32x128xf32>, tensor<2x2304x32x128xf32>, tensor<2x2304x32x128xf32>, tensor<2x2304x32x128xf32>, tensor<2x2304x32x128xf32>, tensor<2x2304x32x128xf32>, tensor<2x2304x32x128xf32>, tensor<2x2304x32x128xf32>, tensor<2x2304x32x128xf32>, tensor<2x2304x32x128xf32>, tensor<2x2304x32x128xf32>, tensor<2x2304x32x128xf32>, tensor<2x2304x32x128xf32>, tensor<2x2304x32x128xf32>, tensor<2x2304x32x128xf32>, tensor<2x2304x32x128xf32>, tensor<2x2304x32x128xf32>, tensor<2x2304x32x128xf32>, tensor<2x2304x32x128xf32>, tensor<2x2304x32x128xf32>, tensor<2x2304x32x128xf32>, tensor<2x2304x32x128xf32>, tensor<2x2304x32x128xf32>, tensor<2x2304x32x128xf32>, tensor<2x2304x32x128xf32>, tensor<2x2304x32x128xf32>, tensor<2x2304x32x128xf32>, tensor<2x2304x32x128xf32>, tensor<2x2304x32x128xf32>, tensor<2x2304x32x128xf32>, tensor<2x2304x32x128xf32>, tensor<2x2304x32x128xf32>, tensor<2x2304x32x128xf32>, tensor<2x2304x32x128xf32>, tensor<2x2304x32x128xf32>, tensor<2x2304x32x128xf32>, tensor<2x2304x32x128xf32>, tensor<2x2304x32x128xf32>, tensor<2x2304x32x128xf32>, tensor<2x2304x32x128xf32>, tensor<2x2304x32x128xf32>, tensor<2x2304x32x128xf32>, tensor<2x2304x32x128xf32>, tensor<2x2304x32x128xf32>, tensor<2x2304x32x128xf32>, tensor<2x2304x32x128xf32>, tensor<2x2304x32x128xf32>, tensor<2x2304x32x128xf32>, tensor<2x2304x32x128xf32>, tensor<2x2304x32x128xf32>, tensor<2x2304x32x128xf32>, tensor<2x2304x32x128xf32>, tensor<2x2304x32x128xf32>, tensor<2x2304x32x128xf32>, tensor<2x2304x32x128xf32>, tensor<2x2304x32x128xf32>, tensor<2x2304x32x128xf32>, tensor<2x2304x32x128xf32>, tensor<2x2304x32x128xf32>
  }
}
