module @IrToHlo.8005 attributes {mhlo.cross_program_prefetches = [], mhlo.is_dynamic = false, mhlo.use_auto_spmd_partitioning = false} {
  func.func @main(%arg0: tensor<32000x4096xf32>, %arg1: tensor<4096xf32>, %arg2: tensor<f32>, %arg3: tensor<4096x11008xf32>, %arg4: tensor<11008x4096xf32>, %arg5: tensor<4096xf32>, %arg6: tensor<4096x4096xf32>, %arg7: tensor<2048xi64>, %arg8: tensor<4096x4096xf32>, %arg9: tensor<4096xf32>, %arg10: tensor<4096x11008xf32>, %arg11: tensor<11008x4096xf32>, %arg12: tensor<4096xf32>, %arg13: tensor<4096x4096xf32>, %arg14: tensor<4096x4096xf32>, %arg15: tensor<4096xf32>, %arg16: tensor<4096x11008xf32>, %arg17: tensor<11008x4096xf32>, %arg18: tensor<4096xf32>, %arg19: tensor<4096x4096xf32>, %arg20: tensor<4096x4096xf32>, %arg21: tensor<4096xf32>, %arg22: tensor<4096x11008xf32>, %arg23: tensor<11008x4096xf32>, %arg24: tensor<4096xf32>, %arg25: tensor<4096x4096xf32>, %arg26: tensor<4096x4096xf32>, %arg27: tensor<4096xf32>, %arg28: tensor<4096x11008xf32>, %arg29: tensor<11008x4096xf32>, %arg30: tensor<4096xf32>, %arg31: tensor<4096x4096xf32>, %arg32: tensor<4096x4096xf32>, %arg33: tensor<4096xf32>, %arg34: tensor<4096x11008xf32>, %arg35: tensor<11008x4096xf32>, %arg36: tensor<4096xf32>, %arg37: tensor<4096x4096xf32>, %arg38: tensor<4096x4096xf32>, %arg39: tensor<4096xf32>, %arg40: tensor<4096x11008xf32>, %arg41: tensor<11008x4096xf32>, %arg42: tensor<4096xf32>, %arg43: tensor<4096x4096xf32>, %arg44: tensor<4096x4096xf32>, %arg45: tensor<4096xf32>, %arg46: tensor<4096x11008xf32>, %arg47: tensor<11008x4096xf32>, %arg48: tensor<4096xf32>, %arg49: tensor<4096x4096xf32>, %arg50: tensor<4096x4096xf32>, %arg51: tensor<4096xf32>, %arg52: tensor<4096x11008xf32>, %arg53: tensor<11008x4096xf32>, %arg54: tensor<4096xf32>, %arg55: tensor<4096x4096xf32>, %arg56: tensor<4096x4096xf32>, %arg57: tensor<4096xf32>, %arg58: tensor<4096x11008xf32>, %arg59: tensor<11008x4096xf32>, %arg60: tensor<4096xf32>, %arg61: tensor<4096x4096xf32>, %arg62: tensor<4096x4096xf32>, %arg63: tensor<4096xf32>, %arg64: tensor<4096x11008xf32>, %arg65: tensor<11008x4096xf32>, %arg66: tensor<4096xf32>, %arg67: tensor<4096x4096xf32>, %arg68: tensor<4096x4096xf32>, %arg69: tensor<4096xf32>, %arg70: tensor<4096x11008xf32>, %arg71: tensor<11008x4096xf32>, %arg72: tensor<4096xf32>, %arg73: tensor<4096x4096xf32>, %arg74: tensor<4096x4096xf32>, %arg75: tensor<4096xf32>, %arg76: tensor<4096x11008xf32>, %arg77: tensor<11008x4096xf32>, %arg78: tensor<4096xf32>, %arg79: tensor<4096x4096xf32>, %arg80: tensor<4096x4096xf32>, %arg81: tensor<4096xf32>, %arg82: tensor<4096x11008xf32>, %arg83: tensor<11008x4096xf32>, %arg84: tensor<4096xf32>, %arg85: tensor<4096x4096xf32>, %arg86: tensor<4096x4096xf32>, %arg87: tensor<4096xf32>, %arg88: tensor<4096x11008xf32>, %arg89: tensor<11008x4096xf32>, %arg90: tensor<4096xf32>, %arg91: tensor<4096x4096xf32>, %arg92: tensor<4096x4096xf32>, %arg93: tensor<4096xf32>, %arg94: tensor<4096x11008xf32>, %arg95: tensor<11008x4096xf32>, %arg96: tensor<4096xf32>, %arg97: tensor<4096x4096xf32>, %arg98: tensor<4096x4096xf32>, %arg99: tensor<4096xf32>, %arg100: tensor<4096x11008xf32>, %arg101: tensor<11008x4096xf32>, %arg102: tensor<4096xf32>, %arg103: tensor<4096x4096xf32>, %arg104: tensor<4096x4096xf32>, %arg105: tensor<4096xf32>, %arg106: tensor<4096x11008xf32>, %arg107: tensor<11008x4096xf32>, %arg108: tensor<4096xf32>, %arg109: tensor<4096x4096xf32>, %arg110: tensor<4096x4096xf32>, %arg111: tensor<4096xf32>, %arg112: tensor<4096x11008xf32>, %arg113: tensor<11008x4096xf32>, %arg114: tensor<4096xf32>, %arg115: tensor<4096x4096xf32>, %arg116: tensor<4096x4096xf32>, %arg117: tensor<4096xf32>, %arg118: tensor<4096x11008xf32>, %arg119: tensor<11008x4096xf32>, %arg120: tensor<4096xf32>, %arg121: tensor<4096x4096xf32>, %arg122: tensor<4096x4096xf32>, %arg123: tensor<4096xf32>, %arg124: tensor<4096x11008xf32>, %arg125: tensor<11008x4096xf32>, %arg126: tensor<4096xf32>, %arg127: tensor<4096x4096xf32>, %arg128: tensor<4096x4096xf32>, %arg129: tensor<4096xf32>, %arg130: tensor<4096x11008xf32>, %arg131: tensor<11008x4096xf32>, %arg132: tensor<4096xf32>, %arg133: tensor<4096x4096xf32>, %arg134: tensor<4096x4096xf32>, %arg135: tensor<4096xf32>, %arg136: tensor<4096x11008xf32>, %arg137: tensor<11008x4096xf32>, %arg138: tensor<4096xf32>, %arg139: tensor<4096x4096xf32>, %arg140: tensor<4096x4096xf32>, %arg141: tensor<4096xf32>, %arg142: tensor<4096x11008xf32>, %arg143: tensor<11008x4096xf32>, %arg144: tensor<4096xf32>, %arg145: tensor<4096x4096xf32>, %arg146: tensor<4096x4096xf32>, %arg147: tensor<4096xf32>, %arg148: tensor<4096x11008xf32>, %arg149: tensor<11008x4096xf32>, %arg150: tensor<4096xf32>, %arg151: tensor<4096x4096xf32>, %arg152: tensor<4096x4096xf32>, %arg153: tensor<4096xf32>, %arg154: tensor<4096x11008xf32>, %arg155: tensor<11008x4096xf32>, %arg156: tensor<4096xf32>, %arg157: tensor<4096x4096xf32>, %arg158: tensor<4096x4096xf32>, %arg159: tensor<4096xf32>, %arg160: tensor<4096x11008xf32>, %arg161: tensor<11008x4096xf32>, %arg162: tensor<4096xf32>, %arg163: tensor<4096x4096xf32>, %arg164: tensor<4096x4096xf32>, %arg165: tensor<4096xf32>, %arg166: tensor<4096x11008xf32>, %arg167: tensor<11008x4096xf32>, %arg168: tensor<4096xf32>, %arg169: tensor<4096x4096xf32>, %arg170: tensor<4096x4096xf32>, %arg171: tensor<4096xf32>, %arg172: tensor<4096x11008xf32>, %arg173: tensor<11008x4096xf32>, %arg174: tensor<4096xf32>, %arg175: tensor<4096x4096xf32>, %arg176: tensor<4096x4096xf32>, %arg177: tensor<4096xf32>, %arg178: tensor<4096x11008xf32>, %arg179: tensor<11008x4096xf32>, %arg180: tensor<4096xf32>, %arg181: tensor<4096x4096xf32>, %arg182: tensor<4096x4096xf32>, %arg183: tensor<4096xf32>, %arg184: tensor<4096x11008xf32>, %arg185: tensor<11008x4096xf32>, %arg186: tensor<4096xf32>, %arg187: tensor<4096x4096xf32>, %arg188: tensor<4096x4096xf32>, %arg189: tensor<4096xf32>, %arg190: tensor<4096x11008xf32>, %arg191: tensor<11008x4096xf32>, %arg192: tensor<4096xf32>, %arg193: tensor<4096x4096xf32>, %arg194: tensor<4096x4096xf32>, %arg195: tensor<4096xf32>, %arg196: tensor<2x2048xi64>, %arg197: tensor<i64>, %arg198: tensor<32000x4096xf32>, %arg199: tensor<2048xi64>, %arg200: tensor<i64>, %arg201: tensor<2x2304x32x128xf32>, %arg202: tensor<f32>, %arg203: tensor<f32>, %arg204: tensor<4608x64xcomplex<f32>>, %arg205: tensor<4096x4096xf32>, %arg206: tensor<2x2304x32x128xf32>, %arg207: tensor<4096x4096xf32>, %arg208: tensor<11008x4096xf32>, %arg209: tensor<2x2304x32x128xf32>, %arg210: tensor<4096x4096xf32>, %arg211: tensor<2x2304x32x128xf32>, %arg212: tensor<4096x4096xf32>, %arg213: tensor<11008x4096xf32>, %arg214: tensor<2x2304x32x128xf32>, %arg215: tensor<4096x4096xf32>, %arg216: tensor<2x2304x32x128xf32>, %arg217: tensor<4096x4096xf32>, %arg218: tensor<11008x4096xf32>, %arg219: tensor<2x2304x32x128xf32>, %arg220: tensor<4096x4096xf32>, %arg221: tensor<2x2304x32x128xf32>, %arg222: tensor<4096x4096xf32>, %arg223: tensor<11008x4096xf32>, %arg224: tensor<2x2304x32x128xf32>, %arg225: tensor<4096x4096xf32>, %arg226: tensor<2x2304x32x128xf32>, %arg227: tensor<4096x4096xf32>, %arg228: tensor<11008x4096xf32>, %arg229: tensor<2x2304x32x128xf32>, %arg230: tensor<4096x4096xf32>, %arg231: tensor<2x2304x32x128xf32>, %arg232: tensor<4096x4096xf32>, %arg233: tensor<11008x4096xf32>, %arg234: tensor<2x2304x32x128xf32>, %arg235: tensor<4096x4096xf32>, %arg236: tensor<2x2304x32x128xf32>, %arg237: tensor<4096x4096xf32>, %arg238: tensor<11008x4096xf32>, %arg239: tensor<2x2304x32x128xf32>, %arg240: tensor<4096x4096xf32>, %arg241: tensor<2x2304x32x128xf32>, %arg242: tensor<4096x4096xf32>, %arg243: tensor<11008x4096xf32>, %arg244: tensor<2x2304x32x128xf32>, %arg245: tensor<4096x4096xf32>, %arg246: tensor<2x2304x32x128xf32>, %arg247: tensor<4096x4096xf32>, %arg248: tensor<11008x4096xf32>, %arg249: tensor<2x2304x32x128xf32>, %arg250: tensor<4096x4096xf32>, %arg251: tensor<2x2304x32x128xf32>, %arg252: tensor<4096x4096xf32>, %arg253: tensor<11008x4096xf32>, %arg254: tensor<2x2304x32x128xf32>, %arg255: tensor<4096x4096xf32>, %arg256: tensor<2x2304x32x128xf32>, %arg257: tensor<4096x4096xf32>, %arg258: tensor<11008x4096xf32>, %arg259: tensor<2x2304x32x128xf32>, %arg260: tensor<4096x4096xf32>, %arg261: tensor<2x2304x32x128xf32>, %arg262: tensor<4096x4096xf32>, %arg263: tensor<11008x4096xf32>, %arg264: tensor<2x2304x32x128xf32>, %arg265: tensor<4096x4096xf32>, %arg266: tensor<2x2304x32x128xf32>, %arg267: tensor<4096x4096xf32>, %arg268: tensor<11008x4096xf32>, %arg269: tensor<2x2304x32x128xf32>, %arg270: tensor<4096x4096xf32>, %arg271: tensor<2x2304x32x128xf32>, %arg272: tensor<4096x4096xf32>, %arg273: tensor<11008x4096xf32>, %arg274: tensor<2x2304x32x128xf32>, %arg275: tensor<4096x4096xf32>, %arg276: tensor<2x2304x32x128xf32>, %arg277: tensor<4096x4096xf32>, %arg278: tensor<11008x4096xf32>, %arg279: tensor<2x2304x32x128xf32>, %arg280: tensor<4096x4096xf32>, %arg281: tensor<2x2304x32x128xf32>, %arg282: tensor<4096x4096xf32>, %arg283: tensor<11008x4096xf32>, %arg284: tensor<2x2304x32x128xf32>, %arg285: tensor<4096x4096xf32>, %arg286: tensor<2x2304x32x128xf32>, %arg287: tensor<4096x4096xf32>, %arg288: tensor<11008x4096xf32>, %arg289: tensor<2x2304x32x128xf32>, %arg290: tensor<4096x4096xf32>, %arg291: tensor<2x2304x32x128xf32>, %arg292: tensor<4096x4096xf32>, %arg293: tensor<11008x4096xf32>, %arg294: tensor<2x2304x32x128xf32>, %arg295: tensor<4096x4096xf32>, %arg296: tensor<2x2304x32x128xf32>, %arg297: tensor<4096x4096xf32>, %arg298: tensor<11008x4096xf32>, %arg299: tensor<2x2304x32x128xf32>, %arg300: tensor<4096x4096xf32>, %arg301: tensor<2x2304x32x128xf32>, %arg302: tensor<4096x4096xf32>, %arg303: tensor<11008x4096xf32>, %arg304: tensor<2x2304x32x128xf32>, %arg305: tensor<4096x4096xf32>, %arg306: tensor<2x2304x32x128xf32>, %arg307: tensor<4096x4096xf32>, %arg308: tensor<11008x4096xf32>, %arg309: tensor<2x2304x32x128xf32>, %arg310: tensor<4096x4096xf32>, %arg311: tensor<2x2304x32x128xf32>, %arg312: tensor<4096x4096xf32>, %arg313: tensor<11008x4096xf32>, %arg314: tensor<2x2304x32x128xf32>, %arg315: tensor<4096x4096xf32>, %arg316: tensor<2x2304x32x128xf32>, %arg317: tensor<4096x4096xf32>, %arg318: tensor<11008x4096xf32>, %arg319: tensor<2x2304x32x128xf32>, %arg320: tensor<4096x4096xf32>, %arg321: tensor<2x2304x32x128xf32>, %arg322: tensor<4096x4096xf32>, %arg323: tensor<11008x4096xf32>, %arg324: tensor<2x2304x32x128xf32>, %arg325: tensor<4096x4096xf32>, %arg326: tensor<2x2304x32x128xf32>, %arg327: tensor<4096x4096xf32>, %arg328: tensor<11008x4096xf32>, %arg329: tensor<2x2304x32x128xf32>, %arg330: tensor<4096x4096xf32>, %arg331: tensor<2x2304x32x128xf32>, %arg332: tensor<4096x4096xf32>, %arg333: tensor<11008x4096xf32>, %arg334: tensor<2x2304x32x128xf32>, %arg335: tensor<4096x4096xf32>, %arg336: tensor<2x2304x32x128xf32>, %arg337: tensor<4096x4096xf32>, %arg338: tensor<11008x4096xf32>, %arg339: tensor<2x2304x32x128xf32>, %arg340: tensor<4096x4096xf32>, %arg341: tensor<2x2304x32x128xf32>, %arg342: tensor<4096x4096xf32>, %arg343: tensor<11008x4096xf32>, %arg344: tensor<2x2304x32x128xf32>, %arg345: tensor<4096x4096xf32>, %arg346: tensor<2x2304x32x128xf32>, %arg347: tensor<4096x4096xf32>, %arg348: tensor<11008x4096xf32>, %arg349: tensor<2x2304x32x128xf32>, %arg350: tensor<4096x4096xf32>, %arg351: tensor<2x2304x32x128xf32>, %arg352: tensor<4096x4096xf32>, %arg353: tensor<11008x4096xf32>, %arg354: tensor<2x2304x32x128xf32>, %arg355: tensor<4096x4096xf32>, %arg356: tensor<2x2304x32x128xf32>, %arg357: tensor<4096x4096xf32>, %arg358: tensor<11008x4096xf32>, %arg359: tensor<2x2304x32x128xf32>, %arg360: tensor<4096x4096xf32>, %arg361: tensor<2x2304x32x128xf32>, %arg362: tensor<4096x4096xf32>, %arg363: tensor<11008x4096xf32>) -> (tensor<2x2048x32000xf32>, tensor<2x2304x32x128xf32>, tensor<2x2304x32x128xf32>, tensor<2x2304x32x128xf32>, tensor<2x2304x32x128xf32>, tensor<2x2304x32x128xf32>, tensor<2x2304x32x128xf32>, tensor<2x2304x32x128xf32>, tensor<2x2304x32x128xf32>, tensor<2x2304x32x128xf32>, tensor<2x2304x32x128xf32>, tensor<2x2304x32x128xf32>, tensor<2x2304x32x128xf32>, tensor<2x2304x32x128xf32>, tensor<2x2304x32x128xf32>, tensor<2x2304x32x128xf32>, tensor<2x2304x32x128xf32>, tensor<2x2304x32x128xf32>, tensor<2x2304x32x128xf32>, tensor<2x2304x32x128xf32>, tensor<2x2304x32x128xf32>, tensor<2x2304x32x128xf32>, tensor<2x2304x32x128xf32>, tensor<2x2304x32x128xf32>, tensor<2x2304x32x128xf32>, tensor<2x2304x32x128xf32>, tensor<2x2304x32x128xf32>, tensor<2x2304x32x128xf32>, tensor<2x2304x32x128xf32>, tensor<2x2304x32x128xf32>, tensor<2x2304x32x128xf32>, tensor<2x2304x32x128xf32>, tensor<2x2304x32x128xf32>, tensor<2x2304x32x128xf32>, tensor<2x2304x32x128xf32>, tensor<2x2304x32x128xf32>, tensor<2x2304x32x128xf32>, tensor<2x2304x32x128xf32>, tensor<2x2304x32x128xf32>, tensor<2x2304x32x128xf32>, tensor<2x2304x32x128xf32>, tensor<2x2304x32x128xf32>, tensor<2x2304x32x128xf32>, tensor<2x2304x32x128xf32>, tensor<2x2304x32x128xf32>, tensor<2x2304x32x128xf32>, tensor<2x2304x32x128xf32>, tensor<2x2304x32x128xf32>, tensor<2x2304x32x128xf32>, tensor<2x2304x32x128xf32>, tensor<2x2304x32x128xf32>, tensor<2x2304x32x128xf32>, tensor<2x2304x32x128xf32>, tensor<2x2304x32x128xf32>, tensor<2x2304x32x128xf32>, tensor<2x2304x32x128xf32>, tensor<2x2304x32x128xf32>, tensor<2x2304x32x128xf32>, tensor<2x2304x32x128xf32>, tensor<2x2304x32x128xf32>, tensor<2x2304x32x128xf32>, tensor<2x2304x32x128xf32>, tensor<2x2304x32x128xf32>, tensor<2x2304x32x128xf32>, tensor<2x2304x32x128xf32>) {
    %0 = stablehlo.constant dense<2.44140625E-4> : tensor<2x2048xf32>
    %1 = stablehlo.constant dense<2.000000e+00> : tensor<2x2048x4096xf32>
    %2 = stablehlo.constant dense<0> : tensor<2048xi64>
    %3 = stablehlo.constant dense<0.000000e+00> : tensor<1x1x2048x2048xf32>
    %4 = stablehlo.constant dense<1> : tensor<2048x2048xi64>
    %5 = stablehlo.constant dense<"…"> : tensor<2048xi64>
    %6 = stablehlo.constant dense<0> : tensor<2x2048xi64>
    %7 = stablehlo.constant dense<0xFF800000> : tensor<f32>
    %8 = stablehlo.constant dense<0.000000e+00> : tensor<f32>
    %9 = stablehlo.compare  LT, %arg196, %6 : (tensor<2x2048xi64>, tensor<2x2048xi64>) -> tensor<2x2048xi1>
    %10 = stablehlo.broadcast_in_dim %arg197, dims = [] : (tensor<i64>) -> tensor<2x2048xi64>
    %11 = stablehlo.add %arg196, %10 : tensor<2x2048xi64>
    %12 = stablehlo.select %9, %11, %arg196 : tensor<2x2048xi1>, tensor<2x2048xi64>
    %13 = stablehlo.reshape %12 : (tensor<2x2048xi64>) -> tensor<2x2048x1xi64>
    %14 = "stablehlo.gather"(%arg198, %13) {dimension_numbers = #stablehlo.gather<offset_dims = [2], collapsed_slice_dims = [0], start_index_map = [0], index_vector_dim = 2>, indices_are_sorted = false, slice_sizes = dense<[1, 4096]> : tensor<2xi64>} : (tensor<32000x4096xf32>, tensor<2x2048x1xi64>) -> tensor<2x2048x4096xf32>
    %15 = stablehlo.power %14, %1 : tensor<2x2048x4096xf32>
    %16 = stablehlo.reduce(%15 init: %8) across dimensions = [2] : (tensor<2x2048x4096xf32>, tensor<f32>) -> tensor<2x2048xf32>
     reducer(%arg364: tensor<f32>, %arg365: tensor<f32>)  {
      %3977 = stablehlo.add %arg364, %arg365 : tensor<f32>
      stablehlo.return %3977 : tensor<f32>
    }
    %17 = stablehlo.multiply %16, %0 : tensor<2x2048xf32>
    %18 = stablehlo.reshape %17 : (tensor<2x2048xf32>) -> tensor<2x2048x1xf32>
    %19 = stablehlo.broadcast_in_dim %arg2, dims = [] : (tensor<f32>) -> tensor<2x2048x1xf32>
    %20 = stablehlo.add %18, %19 : tensor<2x2048x1xf32>
    %21 = stablehlo.rsqrt %20 : tensor<2x2048x1xf32>
    %22 = stablehlo.reshape %21 : (tensor<2x2048x1xf32>) -> tensor<2x2048xf32>
    %23 = stablehlo.broadcast_in_dim %22, dims = [0, 1] : (tensor<2x2048xf32>) -> tensor<2x2048x4096xf32>
    %24 = stablehlo.multiply %14, %23 : tensor<2x2048x4096xf32>
    %25 = stablehlo.broadcast_in_dim %arg195, dims = [2] : (tensor<4096xf32>) -> tensor<2x2048x4096xf32>
    %26 = stablehlo.multiply %24, %25 : tensor<2x2048x4096xf32>
    %27 = stablehlo.reshape %26 : (tensor<2x2048x4096xf32>) -> tensor<4096x4096xf32>
    %28 = stablehlo.transpose %arg207, dims = [1, 0] {result_layout = dense<[0, 1]> : tensor<2xindex>, xla_shape = "f32[4096,4096]{0,1}"} : (tensor<4096x4096xf32>) -> tensor<4096x4096xf32>
    %29 = stablehlo.dot %27, %28, precision = [DEFAULT, DEFAULT] : (tensor<4096x4096xf32>, tensor<4096x4096xf32>) -> tensor<4096x4096xf32>
    %30 = stablehlo.reshape %29 : (tensor<4096x4096xf32>) -> tensor<2x2048x32x64x2xf32>
    %31 = stablehlo.slice %30 [0:2, 0:2048, 0:32, 0:64, 0:1] : (tensor<2x2048x32x64x2xf32>) -> tensor<2x2048x32x64x1xf32>
    %32 = stablehlo.reshape %31 : (tensor<2x2048x32x64x1xf32>) -> tensor<2x2048x32x64xf32>
    %33 = stablehlo.slice %30 [0:2, 0:2048, 0:32, 0:64, 1:2] : (tensor<2x2048x32x64x2xf32>) -> tensor<2x2048x32x64x1xf32>
    %34 = stablehlo.reshape %33 : (tensor<2x2048x32x64x1xf32>) -> tensor<2x2048x32x64xf32>
    %35 = stablehlo.complex %32, %34 : tensor<2x2048x32x64xcomplex<f32>>
    %36 = stablehlo.convert %arg199 : (tensor<2048xi64>) -> tensor<2048xui32>
    %37 = "stablehlo.gather"(%arg204, %36) {dimension_numbers = #stablehlo.gather<offset_dims = [1], collapsed_slice_dims = [0], start_index_map = [0], index_vector_dim = 1>, indices_are_sorted = false, slice_sizes = dense<[1, 64]> : tensor<2xi64>} : (tensor<4608x64xcomplex<f32>>, tensor<2048xui32>) -> tensor<2048x64xcomplex<f32>>
    %38 = stablehlo.broadcast_in_dim %37, dims = [1, 3] : (tensor<2048x64xcomplex<f32>>) -> tensor<2x2048x32x64xcomplex<f32>>
    %39 = stablehlo.multiply %35, %38 : tensor<2x2048x32x64xcomplex<f32>>
    %40 = stablehlo.real %39 : (tensor<2x2048x32x64xcomplex<f32>>) -> tensor<2x2048x32x64xf32>
    %41 = stablehlo.reshape %40 : (tensor<2x2048x32x64xf32>) -> tensor<2x2048x32x64x1xf32>
    %42 = stablehlo.imag %39 : (tensor<2x2048x32x64xcomplex<f32>>) -> tensor<2x2048x32x64xf32>
    %43 = stablehlo.reshape %42 : (tensor<2x2048x32x64xf32>) -> tensor<2x2048x32x64x1xf32>
    %44 = stablehlo.concatenate %41, %43, dim = 4 : (tensor<2x2048x32x64x1xf32>, tensor<2x2048x32x64x1xf32>) -> tensor<2x2048x32x64x2xf32>
    %45 = stablehlo.reshape %44 : (tensor<2x2048x32x64x2xf32>) -> tensor<2x2048x32x128xf32>
    %46 = stablehlo.transpose %45, dims = [0, 2, 1, 3] {result_layout = dense<[3, 1, 2, 0]> : tensor<4xindex>, xla_shape = "f32[2,32,2048,128]{3,1,2,0}"} : (tensor<2x2048x32x128xf32>) -> tensor<2x32x2048x128xf32>
    %47 = stablehlo.reshape %46 : (tensor<2x32x2048x128xf32>) -> tensor<64x2048x128xf32>
    %48 = stablehlo.compare  LT, %arg199, %2 : (tensor<2048xi64>, tensor<2048xi64>) -> tensor<2048xi1>
    %49 = stablehlo.broadcast_in_dim %arg200, dims = [] : (tensor<i64>) -> tensor<2048xi64>
    %50 = stablehlo.add %arg199, %49 : tensor<2048xi64>
    %51 = stablehlo.select %48, %50, %arg199 : tensor<2048xi1>, tensor<2048xi64>
    %52 = stablehlo.reshape %51 : (tensor<2048xi64>) -> tensor<2048x1xi64>
    %53 = stablehlo.reshape %26 : (tensor<2x2048x4096xf32>) -> tensor<4096x4096xf32>
    %54 = stablehlo.transpose %arg205, dims = [1, 0] {result_layout = dense<[0, 1]> : tensor<2xindex>, xla_shape = "f32[4096,4096]{0,1}"} : (tensor<4096x4096xf32>) -> tensor<4096x4096xf32>
    %55 = stablehlo.dot %53, %54, precision = [DEFAULT, DEFAULT] : (tensor<4096x4096xf32>, tensor<4096x4096xf32>) -> tensor<4096x4096xf32>
    %56 = stablehlo.reshape %55 : (tensor<4096x4096xf32>) -> tensor<2x2048x32x64x2xf32>
    %57 = stablehlo.slice %56 [0:2, 0:2048, 0:32, 0:64, 0:1] : (tensor<2x2048x32x64x2xf32>) -> tensor<2x2048x32x64x1xf32>
    %58 = stablehlo.reshape %57 : (tensor<2x2048x32x64x1xf32>) -> tensor<2x2048x32x64xf32>
    %59 = stablehlo.slice %56 [0:2, 0:2048, 0:32, 0:64, 1:2] : (tensor<2x2048x32x64x2xf32>) -> tensor<2x2048x32x64x1xf32>
    %60 = stablehlo.reshape %59 : (tensor<2x2048x32x64x1xf32>) -> tensor<2x2048x32x64xf32>
    %61 = stablehlo.complex %58, %60 : tensor<2x2048x32x64xcomplex<f32>>
    %62 = stablehlo.broadcast_in_dim %37, dims = [1, 3] : (tensor<2048x64xcomplex<f32>>) -> tensor<2x2048x32x64xcomplex<f32>>
    %63 = stablehlo.multiply %61, %62 : tensor<2x2048x32x64xcomplex<f32>>
    %64 = stablehlo.real %63 : (tensor<2x2048x32x64xcomplex<f32>>) -> tensor<2x2048x32x64xf32>
    %65 = stablehlo.reshape %64 : (tensor<2x2048x32x64xf32>) -> tensor<2x2048x32x64x1xf32>
    %66 = stablehlo.imag %63 : (tensor<2x2048x32x64xcomplex<f32>>) -> tensor<2x2048x32x64xf32>
    %67 = stablehlo.reshape %66 : (tensor<2x2048x32x64xf32>) -> tensor<2x2048x32x64x1xf32>
    %68 = stablehlo.concatenate %65, %67, dim = 4 : (tensor<2x2048x32x64x1xf32>, tensor<2x2048x32x64x1xf32>) -> tensor<2x2048x32x64x2xf32>
    %69 = stablehlo.reshape %68 : (tensor<2x2048x32x64x2xf32>) -> tensor<2x2048x32x128xf32>
    %70 = "stablehlo.scatter"(%arg206, %52, %69) ({
    ^bb0(%arg364: tensor<f32>, %arg365: tensor<f32>):
      stablehlo.return %arg365 : tensor<f32>
    }) {indices_are_sorted = false, scatter_dimension_numbers = #stablehlo.scatter<update_window_dims = [0, 2, 3], inserted_window_dims = [1], scatter_dims_to_operand_dims = [1], index_vector_dim = 1>, unique_indices = false} : (tensor<2x2304x32x128xf32>, tensor<2048x1xi64>, tensor<2x2048x32x128xf32>) -> tensor<2x2304x32x128xf32>
    %71 = stablehlo.convert %arg7 : (tensor<2048xi64>) -> tensor<2048xui32>
    %72 = "stablehlo.gather"(%70, %71) {dimension_numbers = #stablehlo.gather<offset_dims = [0, 2, 3], collapsed_slice_dims = [1], start_index_map = [1], index_vector_dim = 1>, indices_are_sorted = false, slice_sizes = dense<[2, 1, 32, 128]> : tensor<4xi64>} : (tensor<2x2304x32x128xf32>, tensor<2048xui32>) -> tensor<2x2048x32x128xf32>
    %73 = stablehlo.transpose %72, dims = [0, 2, 3, 1] : (tensor<2x2048x32x128xf32>) -> tensor<2x32x128x2048xf32>
    %74 = stablehlo.reshape %73 : (tensor<2x32x128x2048xf32>) -> tensor<64x128x2048xf32>
    %75 = stablehlo.dot_general %47, %74, batching_dims = [0] x [0], contracting_dims = [2] x [1], precision = [DEFAULT, DEFAULT] : (tensor<64x2048x128xf32>, tensor<64x128x2048xf32>) -> tensor<64x2048x2048xf32>
    %76 = stablehlo.reshape %75 : (tensor<64x2048x2048xf32>) -> tensor<2x32x2048x2048xf32>
    %77 = stablehlo.broadcast_in_dim %arg203, dims = [] : (tensor<f32>) -> tensor<2x32x2048x2048xf32>
    %78 = stablehlo.divide %76, %77 : tensor<2x32x2048x2048xf32>
    %79 = stablehlo.broadcast_in_dim %5, dims = [1] : (tensor<2048xi64>) -> tensor<2048x2048xi64>
    %80 = stablehlo.broadcast_in_dim %5, dims = [0] : (tensor<2048xi64>) -> tensor<2048x2048xi64>
    %81 = stablehlo.subtract %79, %80 : tensor<2048x2048xi64>
    %82 = stablehlo.compare  GE, %81, %4 : (tensor<2048x2048xi64>, tensor<2048x2048xi64>) -> tensor<2048x2048xi1>
    %83 = stablehlo.reshape %82 : (tensor<2048x2048xi1>) -> tensor<1x1x2048x2048xi1>
    %84 = stablehlo.reshape %arg202 : (tensor<f32>) -> tensor<1x1xf32>
    %85 = stablehlo.broadcast_in_dim %84, dims = [0, 1] : (tensor<1x1xf32>) -> tensor<1x1x2048x2048xf32>
    %86 = stablehlo.select %83, %85, %3 : tensor<1x1x2048x2048xi1>, tensor<1x1x2048x2048xf32>
    %87 = stablehlo.reshape %86 : (tensor<1x1x2048x2048xf32>) -> tensor<2048x2048xf32>
    %88 = stablehlo.broadcast_in_dim %87, dims = [2, 3] : (tensor<2048x2048xf32>) -> tensor<2x32x2048x2048xf32>
    %89 = stablehlo.add %78, %88 : tensor<2x32x2048x2048xf32>
    %90 = stablehlo.reduce(%89 init: %7) across dimensions = [3] : (tensor<2x32x2048x2048xf32>, tensor<f32>) -> tensor<2x32x2048xf32>
     reducer(%arg364: tensor<f32>, %arg365: tensor<f32>)  {
      %3977 = stablehlo.maximum %arg364, %arg365 : tensor<f32>
      stablehlo.return %3977 : tensor<f32>
    }
    %91 = stablehlo.broadcast_in_dim %90, dims = [0, 1, 2] : (tensor<2x32x2048xf32>) -> tensor<2x32x2048x2048xf32>
    %92 = stablehlo.subtract %89, %91 : tensor<2x32x2048x2048xf32>
    %93 = stablehlo.exponential %92 : tensor<2x32x2048x2048xf32>
    %94 = stablehlo.reduce(%93 init: %8) across dimensions = [3] : (tensor<2x32x2048x2048xf32>, tensor<f32>) -> tensor<2x32x2048xf32>
     reducer(%arg364: tensor<f32>, %arg365: tensor<f32>)  {
      %3977 = stablehlo.add %arg364, %arg365 : tensor<f32>
      stablehlo.return %3977 : tensor<f32>
    }
    %95 = stablehlo.broadcast_in_dim %94, dims = [0, 1, 2] : (tensor<2x32x2048xf32>) -> tensor<2x32x2048x2048xf32>
    %96 = stablehlo.divide %93, %95 : tensor<2x32x2048x2048xf32>
    %97 = stablehlo.reshape %96 : (tensor<2x32x2048x2048xf32>) -> tensor<64x2048x2048xf32>
    %98 = stablehlo.compare  LT, %arg199, %2 : (tensor<2048xi64>, tensor<2048xi64>) -> tensor<2048xi1>
    %99 = stablehlo.broadcast_in_dim %arg200, dims = [] : (tensor<i64>) -> tensor<2048xi64>
    %100 = stablehlo.add %arg199, %99 : tensor<2048xi64>
    %101 = stablehlo.select %98, %100, %arg199 : tensor<2048xi1>, tensor<2048xi64>
    %102 = stablehlo.reshape %101 : (tensor<2048xi64>) -> tensor<2048x1xi64>
    %103 = stablehlo.reshape %26 : (tensor<2x2048x4096xf32>) -> tensor<4096x4096xf32>
    %104 = stablehlo.transpose %arg194, dims = [1, 0] {result_layout = dense<[0, 1]> : tensor<2xindex>, xla_shape = "f32[4096,4096]{0,1}"} : (tensor<4096x4096xf32>) -> tensor<4096x4096xf32>
    %105 = stablehlo.dot %103, %104, precision = [DEFAULT, DEFAULT] : (tensor<4096x4096xf32>, tensor<4096x4096xf32>) -> tensor<4096x4096xf32>
    %106 = stablehlo.reshape %105 : (tensor<4096x4096xf32>) -> tensor<2x2048x32x128xf32>
    %107 = "stablehlo.scatter"(%arg201, %102, %106) ({
    ^bb0(%arg364: tensor<f32>, %arg365: tensor<f32>):
      stablehlo.return %arg365 : tensor<f32>
    }) {indices_are_sorted = false, scatter_dimension_numbers = #stablehlo.scatter<update_window_dims = [0, 2, 3], inserted_window_dims = [1], scatter_dims_to_operand_dims = [1], index_vector_dim = 1>, unique_indices = false} : (tensor<2x2304x32x128xf32>, tensor<2048x1xi64>, tensor<2x2048x32x128xf32>) -> tensor<2x2304x32x128xf32>
    %108 = stablehlo.convert %arg7 : (tensor<2048xi64>) -> tensor<2048xui32>
    %109 = "stablehlo.gather"(%107, %108) {dimension_numbers = #stablehlo.gather<offset_dims = [0, 2, 3], collapsed_slice_dims = [1], start_index_map = [1], index_vector_dim = 1>, indices_are_sorted = false, slice_sizes = dense<[2, 1, 32, 128]> : tensor<4xi64>} : (tensor<2x2304x32x128xf32>, tensor<2048xui32>) -> tensor<2x2048x32x128xf32>
    %110 = stablehlo.transpose %109, dims = [0, 2, 1, 3] {result_layout = dense<[3, 1, 2, 0]> : tensor<4xindex>, xla_shape = "f32[2,32,2048,128]{3,1,2,0}"} : (tensor<2x2048x32x128xf32>) -> tensor<2x32x2048x128xf32>
    %111 = stablehlo.reshape %110 : (tensor<2x32x2048x128xf32>) -> tensor<64x2048x128xf32>
    %112 = stablehlo.dot_general %97, %111, batching_dims = [0] x [0], contracting_dims = [2] x [1], precision = [DEFAULT, DEFAULT] : (tensor<64x2048x2048xf32>, tensor<64x2048x128xf32>) -> tensor<64x2048x128xf32>
    %113 = stablehlo.reshape %112 : (tensor<64x2048x128xf32>) -> tensor<2x32x2048x128xf32>
    %114 = stablehlo.transpose %113, dims = [0, 2, 1, 3] {result_layout = dense<[3, 1, 2, 0]> : tensor<4xindex>, xla_shape = "f32[2,2048,32,128]{3,1,2,0}"} : (tensor<2x32x2048x128xf32>) -> tensor<2x2048x32x128xf32>
    %115 = stablehlo.reshape %114 : (tensor<2x2048x32x128xf32>) -> tensor<4096x4096xf32>
    %116 = stablehlo.transpose %arg193, dims = [1, 0] {result_layout = dense<[0, 1]> : tensor<2xindex>, xla_shape = "f32[4096,4096]{0,1}"} : (tensor<4096x4096xf32>) -> tensor<4096x4096xf32>
    %117 = stablehlo.dot %115, %116, precision = [DEFAULT, DEFAULT] : (tensor<4096x4096xf32>, tensor<4096x4096xf32>) -> tensor<4096x4096xf32>
    %118 = stablehlo.reshape %117 : (tensor<4096x4096xf32>) -> tensor<2x2048x4096xf32>
    %119 = stablehlo.add %14, %118 : tensor<2x2048x4096xf32>
    %120 = stablehlo.power %119, %1 : tensor<2x2048x4096xf32>
    %121 = stablehlo.reduce(%120 init: %8) across dimensions = [2] : (tensor<2x2048x4096xf32>, tensor<f32>) -> tensor<2x2048xf32>
     reducer(%arg364: tensor<f32>, %arg365: tensor<f32>)  {
      %3977 = stablehlo.add %arg364, %arg365 : tensor<f32>
      stablehlo.return %3977 : tensor<f32>
    }
    %122 = stablehlo.multiply %121, %0 : tensor<2x2048xf32>
    %123 = stablehlo.reshape %122 : (tensor<2x2048xf32>) -> tensor<2x2048x1xf32>
    %124 = stablehlo.broadcast_in_dim %arg2, dims = [] : (tensor<f32>) -> tensor<2x2048x1xf32>
    %125 = stablehlo.add %123, %124 : tensor<2x2048x1xf32>
    %126 = stablehlo.rsqrt %125 : tensor<2x2048x1xf32>
    %127 = stablehlo.reshape %126 : (tensor<2x2048x1xf32>) -> tensor<2x2048xf32>
    %128 = stablehlo.broadcast_in_dim %127, dims = [0, 1] : (tensor<2x2048xf32>) -> tensor<2x2048x4096xf32>
    %129 = stablehlo.multiply %119, %128 : tensor<2x2048x4096xf32>
    %130 = stablehlo.broadcast_in_dim %arg192, dims = [2] : (tensor<4096xf32>) -> tensor<2x2048x4096xf32>
    %131 = stablehlo.multiply %129, %130 : tensor<2x2048x4096xf32>
    %132 = stablehlo.reshape %131 : (tensor<2x2048x4096xf32>) -> tensor<4096x4096xf32>
    %133 = stablehlo.transpose %arg208, dims = [1, 0] {result_layout = dense<[0, 1]> : tensor<2xindex>, xla_shape = "f32[4096,11008]{0,1}"} : (tensor<11008x4096xf32>) -> tensor<4096x11008xf32>
    %134 = stablehlo.dot %132, %133, precision = [DEFAULT, DEFAULT] : (tensor<4096x4096xf32>, tensor<4096x11008xf32>) -> tensor<4096x11008xf32>
    %135 = stablehlo.reshape %134 : (tensor<4096x11008xf32>) -> tensor<2x2048x11008xf32>
    %136 = stablehlo.logistic %135 : tensor<2x2048x11008xf32>
    %137 = stablehlo.multiply %135, %136 : tensor<2x2048x11008xf32>
    %138 = stablehlo.reshape %131 : (tensor<2x2048x4096xf32>) -> tensor<4096x4096xf32>
    %139 = stablehlo.transpose %arg191, dims = [1, 0] {result_layout = dense<[0, 1]> : tensor<2xindex>, xla_shape = "f32[4096,11008]{0,1}"} : (tensor<11008x4096xf32>) -> tensor<4096x11008xf32>
    %140 = stablehlo.dot %138, %139, precision = [DEFAULT, DEFAULT] : (tensor<4096x4096xf32>, tensor<4096x11008xf32>) -> tensor<4096x11008xf32>
    %141 = stablehlo.reshape %140 : (tensor<4096x11008xf32>) -> tensor<2x2048x11008xf32>
    %142 = stablehlo.multiply %137, %141 : tensor<2x2048x11008xf32>
    %143 = stablehlo.reshape %142 : (tensor<2x2048x11008xf32>) -> tensor<4096x11008xf32>
    %144 = stablehlo.transpose %arg190, dims = [1, 0] {result_layout = dense<[0, 1]> : tensor<2xindex>, xla_shape = "f32[11008,4096]{0,1}"} : (tensor<4096x11008xf32>) -> tensor<11008x4096xf32>
    %145 = stablehlo.dot %143, %144, precision = [DEFAULT, DEFAULT] : (tensor<4096x11008xf32>, tensor<11008x4096xf32>) -> tensor<4096x4096xf32>
    %146 = stablehlo.reshape %145 : (tensor<4096x4096xf32>) -> tensor<2x2048x4096xf32>
    %147 = stablehlo.add %119, %146 : tensor<2x2048x4096xf32>
    %148 = stablehlo.power %147, %1 : tensor<2x2048x4096xf32>
    %149 = stablehlo.reduce(%148 init: %8) across dimensions = [2] : (tensor<2x2048x4096xf32>, tensor<f32>) -> tensor<2x2048xf32>
     reducer(%arg364: tensor<f32>, %arg365: tensor<f32>)  {
      %3977 = stablehlo.add %arg364, %arg365 : tensor<f32>
      stablehlo.return %3977 : tensor<f32>
    }
    %150 = stablehlo.multiply %149, %0 : tensor<2x2048xf32>
    %151 = stablehlo.reshape %150 : (tensor<2x2048xf32>) -> tensor<2x2048x1xf32>
    %152 = stablehlo.broadcast_in_dim %arg2, dims = [] : (tensor<f32>) -> tensor<2x2048x1xf32>
    %153 = stablehlo.add %151, %152 : tensor<2x2048x1xf32>
    %154 = stablehlo.rsqrt %153 : tensor<2x2048x1xf32>
    %155 = stablehlo.reshape %154 : (tensor<2x2048x1xf32>) -> tensor<2x2048xf32>
    %156 = stablehlo.broadcast_in_dim %155, dims = [0, 1] : (tensor<2x2048xf32>) -> tensor<2x2048x4096xf32>
    %157 = stablehlo.multiply %147, %156 : tensor<2x2048x4096xf32>
    %158 = stablehlo.broadcast_in_dim %arg189, dims = [2] : (tensor<4096xf32>) -> tensor<2x2048x4096xf32>
    %159 = stablehlo.multiply %157, %158 : tensor<2x2048x4096xf32>
    %160 = stablehlo.reshape %159 : (tensor<2x2048x4096xf32>) -> tensor<4096x4096xf32>
    %161 = stablehlo.transpose %arg212, dims = [1, 0] {result_layout = dense<[0, 1]> : tensor<2xindex>, xla_shape = "f32[4096,4096]{0,1}"} : (tensor<4096x4096xf32>) -> tensor<4096x4096xf32>
    %162 = stablehlo.dot %160, %161, precision = [DEFAULT, DEFAULT] : (tensor<4096x4096xf32>, tensor<4096x4096xf32>) -> tensor<4096x4096xf32>
    %163 = stablehlo.reshape %162 : (tensor<4096x4096xf32>) -> tensor<2x2048x32x64x2xf32>
    %164 = stablehlo.slice %163 [0:2, 0:2048, 0:32, 0:64, 0:1] : (tensor<2x2048x32x64x2xf32>) -> tensor<2x2048x32x64x1xf32>
    %165 = stablehlo.reshape %164 : (tensor<2x2048x32x64x1xf32>) -> tensor<2x2048x32x64xf32>
    %166 = stablehlo.slice %163 [0:2, 0:2048, 0:32, 0:64, 1:2] : (tensor<2x2048x32x64x2xf32>) -> tensor<2x2048x32x64x1xf32>
    %167 = stablehlo.reshape %166 : (tensor<2x2048x32x64x1xf32>) -> tensor<2x2048x32x64xf32>
    %168 = stablehlo.complex %165, %167 : tensor<2x2048x32x64xcomplex<f32>>
    %169 = stablehlo.broadcast_in_dim %37, dims = [1, 3] : (tensor<2048x64xcomplex<f32>>) -> tensor<2x2048x32x64xcomplex<f32>>
    %170 = stablehlo.multiply %168, %169 : tensor<2x2048x32x64xcomplex<f32>>
    %171 = stablehlo.real %170 : (tensor<2x2048x32x64xcomplex<f32>>) -> tensor<2x2048x32x64xf32>
    %172 = stablehlo.reshape %171 : (tensor<2x2048x32x64xf32>) -> tensor<2x2048x32x64x1xf32>
    %173 = stablehlo.imag %170 : (tensor<2x2048x32x64xcomplex<f32>>) -> tensor<2x2048x32x64xf32>
    %174 = stablehlo.reshape %173 : (tensor<2x2048x32x64xf32>) -> tensor<2x2048x32x64x1xf32>
    %175 = stablehlo.concatenate %172, %174, dim = 4 : (tensor<2x2048x32x64x1xf32>, tensor<2x2048x32x64x1xf32>) -> tensor<2x2048x32x64x2xf32>
    %176 = stablehlo.reshape %175 : (tensor<2x2048x32x64x2xf32>) -> tensor<2x2048x32x128xf32>
    %177 = stablehlo.transpose %176, dims = [0, 2, 1, 3] {result_layout = dense<[3, 1, 2, 0]> : tensor<4xindex>, xla_shape = "f32[2,32,2048,128]{3,1,2,0}"} : (tensor<2x2048x32x128xf32>) -> tensor<2x32x2048x128xf32>
    %178 = stablehlo.reshape %177 : (tensor<2x32x2048x128xf32>) -> tensor<64x2048x128xf32>
    %179 = stablehlo.compare  LT, %arg199, %2 : (tensor<2048xi64>, tensor<2048xi64>) -> tensor<2048xi1>
    %180 = stablehlo.broadcast_in_dim %arg200, dims = [] : (tensor<i64>) -> tensor<2048xi64>
    %181 = stablehlo.add %arg199, %180 : tensor<2048xi64>
    %182 = stablehlo.select %179, %181, %arg199 : tensor<2048xi1>, tensor<2048xi64>
    %183 = stablehlo.reshape %182 : (tensor<2048xi64>) -> tensor<2048x1xi64>
    %184 = stablehlo.reshape %159 : (tensor<2x2048x4096xf32>) -> tensor<4096x4096xf32>
    %185 = stablehlo.transpose %arg210, dims = [1, 0] {result_layout = dense<[0, 1]> : tensor<2xindex>, xla_shape = "f32[4096,4096]{0,1}"} : (tensor<4096x4096xf32>) -> tensor<4096x4096xf32>
    %186 = stablehlo.dot %184, %185, precision = [DEFAULT, DEFAULT] : (tensor<4096x4096xf32>, tensor<4096x4096xf32>) -> tensor<4096x4096xf32>
    %187 = stablehlo.reshape %186 : (tensor<4096x4096xf32>) -> tensor<2x2048x32x64x2xf32>
    %188 = stablehlo.slice %187 [0:2, 0:2048, 0:32, 0:64, 0:1] : (tensor<2x2048x32x64x2xf32>) -> tensor<2x2048x32x64x1xf32>
    %189 = stablehlo.reshape %188 : (tensor<2x2048x32x64x1xf32>) -> tensor<2x2048x32x64xf32>
    %190 = stablehlo.slice %187 [0:2, 0:2048, 0:32, 0:64, 1:2] : (tensor<2x2048x32x64x2xf32>) -> tensor<2x2048x32x64x1xf32>
    %191 = stablehlo.reshape %190 : (tensor<2x2048x32x64x1xf32>) -> tensor<2x2048x32x64xf32>
    %192 = stablehlo.complex %189, %191 : tensor<2x2048x32x64xcomplex<f32>>
    %193 = stablehlo.broadcast_in_dim %37, dims = [1, 3] : (tensor<2048x64xcomplex<f32>>) -> tensor<2x2048x32x64xcomplex<f32>>
    %194 = stablehlo.multiply %192, %193 : tensor<2x2048x32x64xcomplex<f32>>
    %195 = stablehlo.real %194 : (tensor<2x2048x32x64xcomplex<f32>>) -> tensor<2x2048x32x64xf32>
    %196 = stablehlo.reshape %195 : (tensor<2x2048x32x64xf32>) -> tensor<2x2048x32x64x1xf32>
    %197 = stablehlo.imag %194 : (tensor<2x2048x32x64xcomplex<f32>>) -> tensor<2x2048x32x64xf32>
    %198 = stablehlo.reshape %197 : (tensor<2x2048x32x64xf32>) -> tensor<2x2048x32x64x1xf32>
    %199 = stablehlo.concatenate %196, %198, dim = 4 : (tensor<2x2048x32x64x1xf32>, tensor<2x2048x32x64x1xf32>) -> tensor<2x2048x32x64x2xf32>
    %200 = stablehlo.reshape %199 : (tensor<2x2048x32x64x2xf32>) -> tensor<2x2048x32x128xf32>
    %201 = "stablehlo.scatter"(%arg211, %183, %200) ({
    ^bb0(%arg364: tensor<f32>, %arg365: tensor<f32>):
      stablehlo.return %arg365 : tensor<f32>
    }) {indices_are_sorted = false, scatter_dimension_numbers = #stablehlo.scatter<update_window_dims = [0, 2, 3], inserted_window_dims = [1], scatter_dims_to_operand_dims = [1], index_vector_dim = 1>, unique_indices = false} : (tensor<2x2304x32x128xf32>, tensor<2048x1xi64>, tensor<2x2048x32x128xf32>) -> tensor<2x2304x32x128xf32>
    %202 = stablehlo.convert %arg7 : (tensor<2048xi64>) -> tensor<2048xui32>
    %203 = "stablehlo.gather"(%201, %202) {dimension_numbers = #stablehlo.gather<offset_dims = [0, 2, 3], collapsed_slice_dims = [1], start_index_map = [1], index_vector_dim = 1>, indices_are_sorted = false, slice_sizes = dense<[2, 1, 32, 128]> : tensor<4xi64>} : (tensor<2x2304x32x128xf32>, tensor<2048xui32>) -> tensor<2x2048x32x128xf32>
    %204 = stablehlo.transpose %203, dims = [0, 2, 3, 1] : (tensor<2x2048x32x128xf32>) -> tensor<2x32x128x2048xf32>
    %205 = stablehlo.reshape %204 : (tensor<2x32x128x2048xf32>) -> tensor<64x128x2048xf32>
    %206 = stablehlo.dot_general %178, %205, batching_dims = [0] x [0], contracting_dims = [2] x [1], precision = [DEFAULT, DEFAULT] : (tensor<64x2048x128xf32>, tensor<64x128x2048xf32>) -> tensor<64x2048x2048xf32>
    %207 = stablehlo.reshape %206 : (tensor<64x2048x2048xf32>) -> tensor<2x32x2048x2048xf32>
    %208 = stablehlo.broadcast_in_dim %arg203, dims = [] : (tensor<f32>) -> tensor<2x32x2048x2048xf32>
    %209 = stablehlo.divide %207, %208 : tensor<2x32x2048x2048xf32>
    %210 = stablehlo.reshape %86 : (tensor<1x1x2048x2048xf32>) -> tensor<2048x2048xf32>
    %211 = stablehlo.broadcast_in_dim %210, dims = [2, 3] : (tensor<2048x2048xf32>) -> tensor<2x32x2048x2048xf32>
    %212 = stablehlo.add %209, %211 : tensor<2x32x2048x2048xf32>
    %213 = stablehlo.reduce(%212 init: %7) across dimensions = [3] : (tensor<2x32x2048x2048xf32>, tensor<f32>) -> tensor<2x32x2048xf32>
     reducer(%arg364: tensor<f32>, %arg365: tensor<f32>)  {
      %3977 = stablehlo.maximum %arg364, %arg365 : tensor<f32>
      stablehlo.return %3977 : tensor<f32>
    }
    %214 = stablehlo.broadcast_in_dim %213, dims = [0, 1, 2] : (tensor<2x32x2048xf32>) -> tensor<2x32x2048x2048xf32>
    %215 = stablehlo.subtract %212, %214 : tensor<2x32x2048x2048xf32>
    %216 = stablehlo.exponential %215 : tensor<2x32x2048x2048xf32>
    %217 = stablehlo.reduce(%216 init: %8) across dimensions = [3] : (tensor<2x32x2048x2048xf32>, tensor<f32>) -> tensor<2x32x2048xf32>
     reducer(%arg364: tensor<f32>, %arg365: tensor<f32>)  {
      %3977 = stablehlo.add %arg364, %arg365 : tensor<f32>
      stablehlo.return %3977 : tensor<f32>
    }
    %218 = stablehlo.broadcast_in_dim %217, dims = [0, 1, 2] : (tensor<2x32x2048xf32>) -> tensor<2x32x2048x2048xf32>
    %219 = stablehlo.divide %216, %218 : tensor<2x32x2048x2048xf32>
    %220 = stablehlo.reshape %219 : (tensor<2x32x2048x2048xf32>) -> tensor<64x2048x2048xf32>
    %221 = stablehlo.compare  LT, %arg199, %2 : (tensor<2048xi64>, tensor<2048xi64>) -> tensor<2048xi1>
    %222 = stablehlo.broadcast_in_dim %arg200, dims = [] : (tensor<i64>) -> tensor<2048xi64>
    %223 = stablehlo.add %arg199, %222 : tensor<2048xi64>
    %224 = stablehlo.select %221, %223, %arg199 : tensor<2048xi1>, tensor<2048xi64>
    %225 = stablehlo.reshape %224 : (tensor<2048xi64>) -> tensor<2048x1xi64>
    %226 = stablehlo.reshape %159 : (tensor<2x2048x4096xf32>) -> tensor<4096x4096xf32>
    %227 = stablehlo.transpose %arg188, dims = [1, 0] {result_layout = dense<[0, 1]> : tensor<2xindex>, xla_shape = "f32[4096,4096]{0,1}"} : (tensor<4096x4096xf32>) -> tensor<4096x4096xf32>
    %228 = stablehlo.dot %226, %227, precision = [DEFAULT, DEFAULT] : (tensor<4096x4096xf32>, tensor<4096x4096xf32>) -> tensor<4096x4096xf32>
    %229 = stablehlo.reshape %228 : (tensor<4096x4096xf32>) -> tensor<2x2048x32x128xf32>
    %230 = "stablehlo.scatter"(%arg209, %225, %229) ({
    ^bb0(%arg364: tensor<f32>, %arg365: tensor<f32>):
      stablehlo.return %arg365 : tensor<f32>
    }) {indices_are_sorted = false, scatter_dimension_numbers = #stablehlo.scatter<update_window_dims = [0, 2, 3], inserted_window_dims = [1], scatter_dims_to_operand_dims = [1], index_vector_dim = 1>, unique_indices = false} : (tensor<2x2304x32x128xf32>, tensor<2048x1xi64>, tensor<2x2048x32x128xf32>) -> tensor<2x2304x32x128xf32>
    %231 = stablehlo.convert %arg7 : (tensor<2048xi64>) -> tensor<2048xui32>
    %232 = "stablehlo.gather"(%230, %231) {dimension_numbers = #stablehlo.gather<offset_dims = [0, 2, 3], collapsed_slice_dims = [1], start_index_map = [1], index_vector_dim = 1>, indices_are_sorted = false, slice_sizes = dense<[2, 1, 32, 128]> : tensor<4xi64>} : (tensor<2x2304x32x128xf32>, tensor<2048xui32>) -> tensor<2x2048x32x128xf32>
    %233 = stablehlo.transpose %232, dims = [0, 2, 1, 3] {result_layout = dense<[3, 1, 2, 0]> : tensor<4xindex>, xla_shape = "f32[2,32,2048,128]{3,1,2,0}"} : (tensor<2x2048x32x128xf32>) -> tensor<2x32x2048x128xf32>
    %234 = stablehlo.reshape %233 : (tensor<2x32x2048x128xf32>) -> tensor<64x2048x128xf32>
    %235 = stablehlo.dot_general %220, %234, batching_dims = [0] x [0], contracting_dims = [2] x [1], precision = [DEFAULT, DEFAULT] : (tensor<64x2048x2048xf32>, tensor<64x2048x128xf32>) -> tensor<64x2048x128xf32>
    %236 = stablehlo.reshape %235 : (tensor<64x2048x128xf32>) -> tensor<2x32x2048x128xf32>
    %237 = stablehlo.transpose %236, dims = [0, 2, 1, 3] {result_layout = dense<[3, 1, 2, 0]> : tensor<4xindex>, xla_shape = "f32[2,2048,32,128]{3,1,2,0}"} : (tensor<2x32x2048x128xf32>) -> tensor<2x2048x32x128xf32>
    %238 = stablehlo.reshape %237 : (tensor<2x2048x32x128xf32>) -> tensor<4096x4096xf32>
    %239 = stablehlo.transpose %arg187, dims = [1, 0] {result_layout = dense<[0, 1]> : tensor<2xindex>, xla_shape = "f32[4096,4096]{0,1}"} : (tensor<4096x4096xf32>) -> tensor<4096x4096xf32>
    %240 = stablehlo.dot %238, %239, precision = [DEFAULT, DEFAULT] : (tensor<4096x4096xf32>, tensor<4096x4096xf32>) -> tensor<4096x4096xf32>
    %241 = stablehlo.reshape %240 : (tensor<4096x4096xf32>) -> tensor<2x2048x4096xf32>
    %242 = stablehlo.add %147, %241 : tensor<2x2048x4096xf32>
    %243 = stablehlo.power %242, %1 : tensor<2x2048x4096xf32>
    %244 = stablehlo.reduce(%243 init: %8) across dimensions = [2] : (tensor<2x2048x4096xf32>, tensor<f32>) -> tensor<2x2048xf32>
     reducer(%arg364: tensor<f32>, %arg365: tensor<f32>)  {
      %3977 = stablehlo.add %arg364, %arg365 : tensor<f32>
      stablehlo.return %3977 : tensor<f32>
    }
    %245 = stablehlo.multiply %244, %0 : tensor<2x2048xf32>
    %246 = stablehlo.reshape %245 : (tensor<2x2048xf32>) -> tensor<2x2048x1xf32>
    %247 = stablehlo.broadcast_in_dim %arg2, dims = [] : (tensor<f32>) -> tensor<2x2048x1xf32>
    %248 = stablehlo.add %246, %247 : tensor<2x2048x1xf32>
    %249 = stablehlo.rsqrt %248 : tensor<2x2048x1xf32>
    %250 = stablehlo.reshape %249 : (tensor<2x2048x1xf32>) -> tensor<2x2048xf32>
    %251 = stablehlo.broadcast_in_dim %250, dims = [0, 1] : (tensor<2x2048xf32>) -> tensor<2x2048x4096xf32>
    %252 = stablehlo.multiply %242, %251 : tensor<2x2048x4096xf32>
    %253 = stablehlo.broadcast_in_dim %arg186, dims = [2] : (tensor<4096xf32>) -> tensor<2x2048x4096xf32>
    %254 = stablehlo.multiply %252, %253 : tensor<2x2048x4096xf32>
    %255 = stablehlo.reshape %254 : (tensor<2x2048x4096xf32>) -> tensor<4096x4096xf32>
    %256 = stablehlo.transpose %arg213, dims = [1, 0] {result_layout = dense<[0, 1]> : tensor<2xindex>, xla_shape = "f32[4096,11008]{0,1}"} : (tensor<11008x4096xf32>) -> tensor<4096x11008xf32>
    %257 = stablehlo.dot %255, %256, precision = [DEFAULT, DEFAULT] : (tensor<4096x4096xf32>, tensor<4096x11008xf32>) -> tensor<4096x11008xf32>
    %258 = stablehlo.reshape %257 : (tensor<4096x11008xf32>) -> tensor<2x2048x11008xf32>
    %259 = stablehlo.logistic %258 : tensor<2x2048x11008xf32>
    %260 = stablehlo.multiply %258, %259 : tensor<2x2048x11008xf32>
    %261 = stablehlo.reshape %254 : (tensor<2x2048x4096xf32>) -> tensor<4096x4096xf32>
    %262 = stablehlo.transpose %arg185, dims = [1, 0] {result_layout = dense<[0, 1]> : tensor<2xindex>, xla_shape = "f32[4096,11008]{0,1}"} : (tensor<11008x4096xf32>) -> tensor<4096x11008xf32>
    %263 = stablehlo.dot %261, %262, precision = [DEFAULT, DEFAULT] : (tensor<4096x4096xf32>, tensor<4096x11008xf32>) -> tensor<4096x11008xf32>
    %264 = stablehlo.reshape %263 : (tensor<4096x11008xf32>) -> tensor<2x2048x11008xf32>
    %265 = stablehlo.multiply %260, %264 : tensor<2x2048x11008xf32>
    %266 = stablehlo.reshape %265 : (tensor<2x2048x11008xf32>) -> tensor<4096x11008xf32>
    %267 = stablehlo.transpose %arg184, dims = [1, 0] {result_layout = dense<[0, 1]> : tensor<2xindex>, xla_shape = "f32[11008,4096]{0,1}"} : (tensor<4096x11008xf32>) -> tensor<11008x4096xf32>
    %268 = stablehlo.dot %266, %267, precision = [DEFAULT, DEFAULT] : (tensor<4096x11008xf32>, tensor<11008x4096xf32>) -> tensor<4096x4096xf32>
    %269 = stablehlo.reshape %268 : (tensor<4096x4096xf32>) -> tensor<2x2048x4096xf32>
    %270 = stablehlo.add %242, %269 : tensor<2x2048x4096xf32>
    %271 = stablehlo.power %270, %1 : tensor<2x2048x4096xf32>
    %272 = stablehlo.reduce(%271 init: %8) across dimensions = [2] : (tensor<2x2048x4096xf32>, tensor<f32>) -> tensor<2x2048xf32>
     reducer(%arg364: tensor<f32>, %arg365: tensor<f32>)  {
      %3977 = stablehlo.add %arg364, %arg365 : tensor<f32>
      stablehlo.return %3977 : tensor<f32>
    }
    %273 = stablehlo.multiply %272, %0 : tensor<2x2048xf32>
    %274 = stablehlo.reshape %273 : (tensor<2x2048xf32>) -> tensor<2x2048x1xf32>
    %275 = stablehlo.broadcast_in_dim %arg2, dims = [] : (tensor<f32>) -> tensor<2x2048x1xf32>
    %276 = stablehlo.add %274, %275 : tensor<2x2048x1xf32>
    %277 = stablehlo.rsqrt %276 : tensor<2x2048x1xf32>
    %278 = stablehlo.reshape %277 : (tensor<2x2048x1xf32>) -> tensor<2x2048xf32>
    %279 = stablehlo.broadcast_in_dim %278, dims = [0, 1] : (tensor<2x2048xf32>) -> tensor<2x2048x4096xf32>
    %280 = stablehlo.multiply %270, %279 : tensor<2x2048x4096xf32>
    %281 = stablehlo.broadcast_in_dim %arg183, dims = [2] : (tensor<4096xf32>) -> tensor<2x2048x4096xf32>
    %282 = stablehlo.multiply %280, %281 : tensor<2x2048x4096xf32>
    %283 = stablehlo.reshape %282 : (tensor<2x2048x4096xf32>) -> tensor<4096x4096xf32>
    %284 = stablehlo.transpose %arg217, dims = [1, 0] {result_layout = dense<[0, 1]> : tensor<2xindex>, xla_shape = "f32[4096,4096]{0,1}"} : (tensor<4096x4096xf32>) -> tensor<4096x4096xf32>
    %285 = stablehlo.dot %283, %284, precision = [DEFAULT, DEFAULT] : (tensor<4096x4096xf32>, tensor<4096x4096xf32>) -> tensor<4096x4096xf32>
    %286 = stablehlo.reshape %285 : (tensor<4096x4096xf32>) -> tensor<2x2048x32x64x2xf32>
    %287 = stablehlo.slice %286 [0:2, 0:2048, 0:32, 0:64, 0:1] : (tensor<2x2048x32x64x2xf32>) -> tensor<2x2048x32x64x1xf32>
    %288 = stablehlo.reshape %287 : (tensor<2x2048x32x64x1xf32>) -> tensor<2x2048x32x64xf32>
    %289 = stablehlo.slice %286 [0:2, 0:2048, 0:32, 0:64, 1:2] : (tensor<2x2048x32x64x2xf32>) -> tensor<2x2048x32x64x1xf32>
    %290 = stablehlo.reshape %289 : (tensor<2x2048x32x64x1xf32>) -> tensor<2x2048x32x64xf32>
    %291 = stablehlo.complex %288, %290 : tensor<2x2048x32x64xcomplex<f32>>
    %292 = stablehlo.broadcast_in_dim %37, dims = [1, 3] : (tensor<2048x64xcomplex<f32>>) -> tensor<2x2048x32x64xcomplex<f32>>
    %293 = stablehlo.multiply %291, %292 : tensor<2x2048x32x64xcomplex<f32>>
    %294 = stablehlo.real %293 : (tensor<2x2048x32x64xcomplex<f32>>) -> tensor<2x2048x32x64xf32>
    %295 = stablehlo.reshape %294 : (tensor<2x2048x32x64xf32>) -> tensor<2x2048x32x64x1xf32>
    %296 = stablehlo.imag %293 : (tensor<2x2048x32x64xcomplex<f32>>) -> tensor<2x2048x32x64xf32>
    %297 = stablehlo.reshape %296 : (tensor<2x2048x32x64xf32>) -> tensor<2x2048x32x64x1xf32>
    %298 = stablehlo.concatenate %295, %297, dim = 4 : (tensor<2x2048x32x64x1xf32>, tensor<2x2048x32x64x1xf32>) -> tensor<2x2048x32x64x2xf32>
    %299 = stablehlo.reshape %298 : (tensor<2x2048x32x64x2xf32>) -> tensor<2x2048x32x128xf32>
    %300 = stablehlo.transpose %299, dims = [0, 2, 1, 3] {result_layout = dense<[3, 1, 2, 0]> : tensor<4xindex>, xla_shape = "f32[2,32,2048,128]{3,1,2,0}"} : (tensor<2x2048x32x128xf32>) -> tensor<2x32x2048x128xf32>
    %301 = stablehlo.reshape %300 : (tensor<2x32x2048x128xf32>) -> tensor<64x2048x128xf32>
    %302 = stablehlo.compare  LT, %arg199, %2 : (tensor<2048xi64>, tensor<2048xi64>) -> tensor<2048xi1>
    %303 = stablehlo.broadcast_in_dim %arg200, dims = [] : (tensor<i64>) -> tensor<2048xi64>
    %304 = stablehlo.add %arg199, %303 : tensor<2048xi64>
    %305 = stablehlo.select %302, %304, %arg199 : tensor<2048xi1>, tensor<2048xi64>
    %306 = stablehlo.reshape %305 : (tensor<2048xi64>) -> tensor<2048x1xi64>
    %307 = stablehlo.reshape %282 : (tensor<2x2048x4096xf32>) -> tensor<4096x4096xf32>
    %308 = stablehlo.transpose %arg215, dims = [1, 0] {result_layout = dense<[0, 1]> : tensor<2xindex>, xla_shape = "f32[4096,4096]{0,1}"} : (tensor<4096x4096xf32>) -> tensor<4096x4096xf32>
    %309 = stablehlo.dot %307, %308, precision = [DEFAULT, DEFAULT] : (tensor<4096x4096xf32>, tensor<4096x4096xf32>) -> tensor<4096x4096xf32>
    %310 = stablehlo.reshape %309 : (tensor<4096x4096xf32>) -> tensor<2x2048x32x64x2xf32>
    %311 = stablehlo.slice %310 [0:2, 0:2048, 0:32, 0:64, 0:1] : (tensor<2x2048x32x64x2xf32>) -> tensor<2x2048x32x64x1xf32>
    %312 = stablehlo.reshape %311 : (tensor<2x2048x32x64x1xf32>) -> tensor<2x2048x32x64xf32>
    %313 = stablehlo.slice %310 [0:2, 0:2048, 0:32, 0:64, 1:2] : (tensor<2x2048x32x64x2xf32>) -> tensor<2x2048x32x64x1xf32>
    %314 = stablehlo.reshape %313 : (tensor<2x2048x32x64x1xf32>) -> tensor<2x2048x32x64xf32>
    %315 = stablehlo.complex %312, %314 : tensor<2x2048x32x64xcomplex<f32>>
    %316 = stablehlo.broadcast_in_dim %37, dims = [1, 3] : (tensor<2048x64xcomplex<f32>>) -> tensor<2x2048x32x64xcomplex<f32>>
    %317 = stablehlo.multiply %315, %316 : tensor<2x2048x32x64xcomplex<f32>>
    %318 = stablehlo.real %317 : (tensor<2x2048x32x64xcomplex<f32>>) -> tensor<2x2048x32x64xf32>
    %319 = stablehlo.reshape %318 : (tensor<2x2048x32x64xf32>) -> tensor<2x2048x32x64x1xf32>
    %320 = stablehlo.imag %317 : (tensor<2x2048x32x64xcomplex<f32>>) -> tensor<2x2048x32x64xf32>
    %321 = stablehlo.reshape %320 : (tensor<2x2048x32x64xf32>) -> tensor<2x2048x32x64x1xf32>
    %322 = stablehlo.concatenate %319, %321, dim = 4 : (tensor<2x2048x32x64x1xf32>, tensor<2x2048x32x64x1xf32>) -> tensor<2x2048x32x64x2xf32>
    %323 = stablehlo.reshape %322 : (tensor<2x2048x32x64x2xf32>) -> tensor<2x2048x32x128xf32>
    %324 = "stablehlo.scatter"(%arg216, %306, %323) ({
    ^bb0(%arg364: tensor<f32>, %arg365: tensor<f32>):
      stablehlo.return %arg365 : tensor<f32>
    }) {indices_are_sorted = false, scatter_dimension_numbers = #stablehlo.scatter<update_window_dims = [0, 2, 3], inserted_window_dims = [1], scatter_dims_to_operand_dims = [1], index_vector_dim = 1>, unique_indices = false} : (tensor<2x2304x32x128xf32>, tensor<2048x1xi64>, tensor<2x2048x32x128xf32>) -> tensor<2x2304x32x128xf32>
    %325 = stablehlo.convert %arg7 : (tensor<2048xi64>) -> tensor<2048xui32>
    %326 = "stablehlo.gather"(%324, %325) {dimension_numbers = #stablehlo.gather<offset_dims = [0, 2, 3], collapsed_slice_dims = [1], start_index_map = [1], index_vector_dim = 1>, indices_are_sorted = false, slice_sizes = dense<[2, 1, 32, 128]> : tensor<4xi64>} : (tensor<2x2304x32x128xf32>, tensor<2048xui32>) -> tensor<2x2048x32x128xf32>
    %327 = stablehlo.transpose %326, dims = [0, 2, 3, 1] : (tensor<2x2048x32x128xf32>) -> tensor<2x32x128x2048xf32>
    %328 = stablehlo.reshape %327 : (tensor<2x32x128x2048xf32>) -> tensor<64x128x2048xf32>
    %329 = stablehlo.dot_general %301, %328, batching_dims = [0] x [0], contracting_dims = [2] x [1], precision = [DEFAULT, DEFAULT] : (tensor<64x2048x128xf32>, tensor<64x128x2048xf32>) -> tensor<64x2048x2048xf32>
    %330 = stablehlo.reshape %329 : (tensor<64x2048x2048xf32>) -> tensor<2x32x2048x2048xf32>
    %331 = stablehlo.broadcast_in_dim %arg203, dims = [] : (tensor<f32>) -> tensor<2x32x2048x2048xf32>
    %332 = stablehlo.divide %330, %331 : tensor<2x32x2048x2048xf32>
    %333 = stablehlo.reshape %86 : (tensor<1x1x2048x2048xf32>) -> tensor<2048x2048xf32>
    %334 = stablehlo.broadcast_in_dim %333, dims = [2, 3] : (tensor<2048x2048xf32>) -> tensor<2x32x2048x2048xf32>
    %335 = stablehlo.add %332, %334 : tensor<2x32x2048x2048xf32>
    %336 = stablehlo.reduce(%335 init: %7) across dimensions = [3] : (tensor<2x32x2048x2048xf32>, tensor<f32>) -> tensor<2x32x2048xf32>
     reducer(%arg364: tensor<f32>, %arg365: tensor<f32>)  {
      %3977 = stablehlo.maximum %arg364, %arg365 : tensor<f32>
      stablehlo.return %3977 : tensor<f32>
    }
    %337 = stablehlo.broadcast_in_dim %336, dims = [0, 1, 2] : (tensor<2x32x2048xf32>) -> tensor<2x32x2048x2048xf32>
    %338 = stablehlo.subtract %335, %337 : tensor<2x32x2048x2048xf32>
    %339 = stablehlo.exponential %338 : tensor<2x32x2048x2048xf32>
    %340 = stablehlo.reduce(%339 init: %8) across dimensions = [3] : (tensor<2x32x2048x2048xf32>, tensor<f32>) -> tensor<2x32x2048xf32>
     reducer(%arg364: tensor<f32>, %arg365: tensor<f32>)  {
      %3977 = stablehlo.add %arg364, %arg365 : tensor<f32>
      stablehlo.return %3977 : tensor<f32>
    }
    %341 = stablehlo.broadcast_in_dim %340, dims = [0, 1, 2] : (tensor<2x32x2048xf32>) -> tensor<2x32x2048x2048xf32>
    %342 = stablehlo.divide %339, %341 : tensor<2x32x2048x2048xf32>
    %343 = stablehlo.reshape %342 : (tensor<2x32x2048x2048xf32>) -> tensor<64x2048x2048xf32>
    %344 = stablehlo.compare  LT, %arg199, %2 : (tensor<2048xi64>, tensor<2048xi64>) -> tensor<2048xi1>
    %345 = stablehlo.broadcast_in_dim %arg200, dims = [] : (tensor<i64>) -> tensor<2048xi64>
    %346 = stablehlo.add %arg199, %345 : tensor<2048xi64>
    %347 = stablehlo.select %344, %346, %arg199 : tensor<2048xi1>, tensor<2048xi64>
    %348 = stablehlo.reshape %347 : (tensor<2048xi64>) -> tensor<2048x1xi64>
    %349 = stablehlo.reshape %282 : (tensor<2x2048x4096xf32>) -> tensor<4096x4096xf32>
    %350 = stablehlo.transpose %arg182, dims = [1, 0] {result_layout = dense<[0, 1]> : tensor<2xindex>, xla_shape = "f32[4096,4096]{0,1}"} : (tensor<4096x4096xf32>) -> tensor<4096x4096xf32>
    %351 = stablehlo.dot %349, %350, precision = [DEFAULT, DEFAULT] : (tensor<4096x4096xf32>, tensor<4096x4096xf32>) -> tensor<4096x4096xf32>
    %352 = stablehlo.reshape %351 : (tensor<4096x4096xf32>) -> tensor<2x2048x32x128xf32>
    %353 = "stablehlo.scatter"(%arg214, %348, %352) ({
    ^bb0(%arg364: tensor<f32>, %arg365: tensor<f32>):
      stablehlo.return %arg365 : tensor<f32>
    }) {indices_are_sorted = false, scatter_dimension_numbers = #stablehlo.scatter<update_window_dims = [0, 2, 3], inserted_window_dims = [1], scatter_dims_to_operand_dims = [1], index_vector_dim = 1>, unique_indices = false} : (tensor<2x2304x32x128xf32>, tensor<2048x1xi64>, tensor<2x2048x32x128xf32>) -> tensor<2x2304x32x128xf32>
    %354 = stablehlo.convert %arg7 : (tensor<2048xi64>) -> tensor<2048xui32>
    %355 = "stablehlo.gather"(%353, %354) {dimension_numbers = #stablehlo.gather<offset_dims = [0, 2, 3], collapsed_slice_dims = [1], start_index_map = [1], index_vector_dim = 1>, indices_are_sorted = false, slice_sizes = dense<[2, 1, 32, 128]> : tensor<4xi64>} : (tensor<2x2304x32x128xf32>, tensor<2048xui32>) -> tensor<2x2048x32x128xf32>
    %356 = stablehlo.transpose %355, dims = [0, 2, 1, 3] {result_layout = dense<[3, 1, 2, 0]> : tensor<4xindex>, xla_shape = "f32[2,32,2048,128]{3,1,2,0}"} : (tensor<2x2048x32x128xf32>) -> tensor<2x32x2048x128xf32>
    %357 = stablehlo.reshape %356 : (tensor<2x32x2048x128xf32>) -> tensor<64x2048x128xf32>
    %358 = stablehlo.dot_general %343, %357, batching_dims = [0] x [0], contracting_dims = [2] x [1], precision = [DEFAULT, DEFAULT] : (tensor<64x2048x2048xf32>, tensor<64x2048x128xf32>) -> tensor<64x2048x128xf32>
    %359 = stablehlo.reshape %358 : (tensor<64x2048x128xf32>) -> tensor<2x32x2048x128xf32>
    %360 = stablehlo.transpose %359, dims = [0, 2, 1, 3] {result_layout = dense<[3, 1, 2, 0]> : tensor<4xindex>, xla_shape = "f32[2,2048,32,128]{3,1,2,0}"} : (tensor<2x32x2048x128xf32>) -> tensor<2x2048x32x128xf32>
    %361 = stablehlo.reshape %360 : (tensor<2x2048x32x128xf32>) -> tensor<4096x4096xf32>
    %362 = stablehlo.transpose %arg181, dims = [1, 0] {result_layout = dense<[0, 1]> : tensor<2xindex>, xla_shape = "f32[4096,4096]{0,1}"} : (tensor<4096x4096xf32>) -> tensor<4096x4096xf32>
    %363 = stablehlo.dot %361, %362, precision = [DEFAULT, DEFAULT] : (tensor<4096x4096xf32>, tensor<4096x4096xf32>) -> tensor<4096x4096xf32>
    %364 = stablehlo.reshape %363 : (tensor<4096x4096xf32>) -> tensor<2x2048x4096xf32>
    %365 = stablehlo.add %270, %364 : tensor<2x2048x4096xf32>
    %366 = stablehlo.power %365, %1 : tensor<2x2048x4096xf32>
    %367 = stablehlo.reduce(%366 init: %8) across dimensions = [2] : (tensor<2x2048x4096xf32>, tensor<f32>) -> tensor<2x2048xf32>
     reducer(%arg364: tensor<f32>, %arg365: tensor<f32>)  {
      %3977 = stablehlo.add %arg364, %arg365 : tensor<f32>
      stablehlo.return %3977 : tensor<f32>
    }
    %368 = stablehlo.multiply %367, %0 : tensor<2x2048xf32>
    %369 = stablehlo.reshape %368 : (tensor<2x2048xf32>) -> tensor<2x2048x1xf32>
    %370 = stablehlo.broadcast_in_dim %arg2, dims = [] : (tensor<f32>) -> tensor<2x2048x1xf32>
    %371 = stablehlo.add %369, %370 : tensor<2x2048x1xf32>
    %372 = stablehlo.rsqrt %371 : tensor<2x2048x1xf32>
    %373 = stablehlo.reshape %372 : (tensor<2x2048x1xf32>) -> tensor<2x2048xf32>
    %374 = stablehlo.broadcast_in_dim %373, dims = [0, 1] : (tensor<2x2048xf32>) -> tensor<2x2048x4096xf32>
    %375 = stablehlo.multiply %365, %374 : tensor<2x2048x4096xf32>
    %376 = stablehlo.broadcast_in_dim %arg180, dims = [2] : (tensor<4096xf32>) -> tensor<2x2048x4096xf32>
    %377 = stablehlo.multiply %375, %376 : tensor<2x2048x4096xf32>
    %378 = stablehlo.reshape %377 : (tensor<2x2048x4096xf32>) -> tensor<4096x4096xf32>
    %379 = stablehlo.transpose %arg218, dims = [1, 0] {result_layout = dense<[0, 1]> : tensor<2xindex>, xla_shape = "f32[4096,11008]{0,1}"} : (tensor<11008x4096xf32>) -> tensor<4096x11008xf32>
    %380 = stablehlo.dot %378, %379, precision = [DEFAULT, DEFAULT] : (tensor<4096x4096xf32>, tensor<4096x11008xf32>) -> tensor<4096x11008xf32>
    %381 = stablehlo.reshape %380 : (tensor<4096x11008xf32>) -> tensor<2x2048x11008xf32>
    %382 = stablehlo.logistic %381 : tensor<2x2048x11008xf32>
    %383 = stablehlo.multiply %381, %382 : tensor<2x2048x11008xf32>
    %384 = stablehlo.reshape %377 : (tensor<2x2048x4096xf32>) -> tensor<4096x4096xf32>
    %385 = stablehlo.transpose %arg179, dims = [1, 0] {result_layout = dense<[0, 1]> : tensor<2xindex>, xla_shape = "f32[4096,11008]{0,1}"} : (tensor<11008x4096xf32>) -> tensor<4096x11008xf32>
    %386 = stablehlo.dot %384, %385, precision = [DEFAULT, DEFAULT] : (tensor<4096x4096xf32>, tensor<4096x11008xf32>) -> tensor<4096x11008xf32>
    %387 = stablehlo.reshape %386 : (tensor<4096x11008xf32>) -> tensor<2x2048x11008xf32>
    %388 = stablehlo.multiply %383, %387 : tensor<2x2048x11008xf32>
    %389 = stablehlo.reshape %388 : (tensor<2x2048x11008xf32>) -> tensor<4096x11008xf32>
    %390 = stablehlo.transpose %arg178, dims = [1, 0] {result_layout = dense<[0, 1]> : tensor<2xindex>, xla_shape = "f32[11008,4096]{0,1}"} : (tensor<4096x11008xf32>) -> tensor<11008x4096xf32>
    %391 = stablehlo.dot %389, %390, precision = [DEFAULT, DEFAULT] : (tensor<4096x11008xf32>, tensor<11008x4096xf32>) -> tensor<4096x4096xf32>
    %392 = stablehlo.reshape %391 : (tensor<4096x4096xf32>) -> tensor<2x2048x4096xf32>
    %393 = stablehlo.add %365, %392 : tensor<2x2048x4096xf32>
    %394 = stablehlo.power %393, %1 : tensor<2x2048x4096xf32>
    %395 = stablehlo.reduce(%394 init: %8) across dimensions = [2] : (tensor<2x2048x4096xf32>, tensor<f32>) -> tensor<2x2048xf32>
     reducer(%arg364: tensor<f32>, %arg365: tensor<f32>)  {
      %3977 = stablehlo.add %arg364, %arg365 : tensor<f32>
      stablehlo.return %3977 : tensor<f32>
    }
    %396 = stablehlo.multiply %395, %0 : tensor<2x2048xf32>
    %397 = stablehlo.reshape %396 : (tensor<2x2048xf32>) -> tensor<2x2048x1xf32>
    %398 = stablehlo.broadcast_in_dim %arg2, dims = [] : (tensor<f32>) -> tensor<2x2048x1xf32>
    %399 = stablehlo.add %397, %398 : tensor<2x2048x1xf32>
    %400 = stablehlo.rsqrt %399 : tensor<2x2048x1xf32>
    %401 = stablehlo.reshape %400 : (tensor<2x2048x1xf32>) -> tensor<2x2048xf32>
    %402 = stablehlo.broadcast_in_dim %401, dims = [0, 1] : (tensor<2x2048xf32>) -> tensor<2x2048x4096xf32>
    %403 = stablehlo.multiply %393, %402 : tensor<2x2048x4096xf32>
    %404 = stablehlo.broadcast_in_dim %arg177, dims = [2] : (tensor<4096xf32>) -> tensor<2x2048x4096xf32>
    %405 = stablehlo.multiply %403, %404 : tensor<2x2048x4096xf32>
    %406 = stablehlo.reshape %405 : (tensor<2x2048x4096xf32>) -> tensor<4096x4096xf32>
    %407 = stablehlo.transpose %arg222, dims = [1, 0] {result_layout = dense<[0, 1]> : tensor<2xindex>, xla_shape = "f32[4096,4096]{0,1}"} : (tensor<4096x4096xf32>) -> tensor<4096x4096xf32>
    %408 = stablehlo.dot %406, %407, precision = [DEFAULT, DEFAULT] : (tensor<4096x4096xf32>, tensor<4096x4096xf32>) -> tensor<4096x4096xf32>
    %409 = stablehlo.reshape %408 : (tensor<4096x4096xf32>) -> tensor<2x2048x32x64x2xf32>
    %410 = stablehlo.slice %409 [0:2, 0:2048, 0:32, 0:64, 0:1] : (tensor<2x2048x32x64x2xf32>) -> tensor<2x2048x32x64x1xf32>
    %411 = stablehlo.reshape %410 : (tensor<2x2048x32x64x1xf32>) -> tensor<2x2048x32x64xf32>
    %412 = stablehlo.slice %409 [0:2, 0:2048, 0:32, 0:64, 1:2] : (tensor<2x2048x32x64x2xf32>) -> tensor<2x2048x32x64x1xf32>
    %413 = stablehlo.reshape %412 : (tensor<2x2048x32x64x1xf32>) -> tensor<2x2048x32x64xf32>
    %414 = stablehlo.complex %411, %413 : tensor<2x2048x32x64xcomplex<f32>>
    %415 = stablehlo.broadcast_in_dim %37, dims = [1, 3] : (tensor<2048x64xcomplex<f32>>) -> tensor<2x2048x32x64xcomplex<f32>>
    %416 = stablehlo.multiply %414, %415 : tensor<2x2048x32x64xcomplex<f32>>
    %417 = stablehlo.real %416 : (tensor<2x2048x32x64xcomplex<f32>>) -> tensor<2x2048x32x64xf32>
    %418 = stablehlo.reshape %417 : (tensor<2x2048x32x64xf32>) -> tensor<2x2048x32x64x1xf32>
    %419 = stablehlo.imag %416 : (tensor<2x2048x32x64xcomplex<f32>>) -> tensor<2x2048x32x64xf32>
    %420 = stablehlo.reshape %419 : (tensor<2x2048x32x64xf32>) -> tensor<2x2048x32x64x1xf32>
    %421 = stablehlo.concatenate %418, %420, dim = 4 : (tensor<2x2048x32x64x1xf32>, tensor<2x2048x32x64x1xf32>) -> tensor<2x2048x32x64x2xf32>
    %422 = stablehlo.reshape %421 : (tensor<2x2048x32x64x2xf32>) -> tensor<2x2048x32x128xf32>
    %423 = stablehlo.transpose %422, dims = [0, 2, 1, 3] {result_layout = dense<[3, 1, 2, 0]> : tensor<4xindex>, xla_shape = "f32[2,32,2048,128]{3,1,2,0}"} : (tensor<2x2048x32x128xf32>) -> tensor<2x32x2048x128xf32>
    %424 = stablehlo.reshape %423 : (tensor<2x32x2048x128xf32>) -> tensor<64x2048x128xf32>
    %425 = stablehlo.compare  LT, %arg199, %2 : (tensor<2048xi64>, tensor<2048xi64>) -> tensor<2048xi1>
    %426 = stablehlo.broadcast_in_dim %arg200, dims = [] : (tensor<i64>) -> tensor<2048xi64>
    %427 = stablehlo.add %arg199, %426 : tensor<2048xi64>
    %428 = stablehlo.select %425, %427, %arg199 : tensor<2048xi1>, tensor<2048xi64>
    %429 = stablehlo.reshape %428 : (tensor<2048xi64>) -> tensor<2048x1xi64>
    %430 = stablehlo.reshape %405 : (tensor<2x2048x4096xf32>) -> tensor<4096x4096xf32>
    %431 = stablehlo.transpose %arg220, dims = [1, 0] {result_layout = dense<[0, 1]> : tensor<2xindex>, xla_shape = "f32[4096,4096]{0,1}"} : (tensor<4096x4096xf32>) -> tensor<4096x4096xf32>
    %432 = stablehlo.dot %430, %431, precision = [DEFAULT, DEFAULT] : (tensor<4096x4096xf32>, tensor<4096x4096xf32>) -> tensor<4096x4096xf32>
    %433 = stablehlo.reshape %432 : (tensor<4096x4096xf32>) -> tensor<2x2048x32x64x2xf32>
    %434 = stablehlo.slice %433 [0:2, 0:2048, 0:32, 0:64, 0:1] : (tensor<2x2048x32x64x2xf32>) -> tensor<2x2048x32x64x1xf32>
    %435 = stablehlo.reshape %434 : (tensor<2x2048x32x64x1xf32>) -> tensor<2x2048x32x64xf32>
    %436 = stablehlo.slice %433 [0:2, 0:2048, 0:32, 0:64, 1:2] : (tensor<2x2048x32x64x2xf32>) -> tensor<2x2048x32x64x1xf32>
    %437 = stablehlo.reshape %436 : (tensor<2x2048x32x64x1xf32>) -> tensor<2x2048x32x64xf32>
    %438 = stablehlo.complex %435, %437 : tensor<2x2048x32x64xcomplex<f32>>
    %439 = stablehlo.broadcast_in_dim %37, dims = [1, 3] : (tensor<2048x64xcomplex<f32>>) -> tensor<2x2048x32x64xcomplex<f32>>
    %440 = stablehlo.multiply %438, %439 : tensor<2x2048x32x64xcomplex<f32>>
    %441 = stablehlo.real %440 : (tensor<2x2048x32x64xcomplex<f32>>) -> tensor<2x2048x32x64xf32>
    %442 = stablehlo.reshape %441 : (tensor<2x2048x32x64xf32>) -> tensor<2x2048x32x64x1xf32>
    %443 = stablehlo.imag %440 : (tensor<2x2048x32x64xcomplex<f32>>) -> tensor<2x2048x32x64xf32>
    %444 = stablehlo.reshape %443 : (tensor<2x2048x32x64xf32>) -> tensor<2x2048x32x64x1xf32>
    %445 = stablehlo.concatenate %442, %444, dim = 4 : (tensor<2x2048x32x64x1xf32>, tensor<2x2048x32x64x1xf32>) -> tensor<2x2048x32x64x2xf32>
    %446 = stablehlo.reshape %445 : (tensor<2x2048x32x64x2xf32>) -> tensor<2x2048x32x128xf32>
    %447 = "stablehlo.scatter"(%arg221, %429, %446) ({
    ^bb0(%arg364: tensor<f32>, %arg365: tensor<f32>):
      stablehlo.return %arg365 : tensor<f32>
    }) {indices_are_sorted = false, scatter_dimension_numbers = #stablehlo.scatter<update_window_dims = [0, 2, 3], inserted_window_dims = [1], scatter_dims_to_operand_dims = [1], index_vector_dim = 1>, unique_indices = false} : (tensor<2x2304x32x128xf32>, tensor<2048x1xi64>, tensor<2x2048x32x128xf32>) -> tensor<2x2304x32x128xf32>
    %448 = stablehlo.convert %arg7 : (tensor<2048xi64>) -> tensor<2048xui32>
    %449 = "stablehlo.gather"(%447, %448) {dimension_numbers = #stablehlo.gather<offset_dims = [0, 2, 3], collapsed_slice_dims = [1], start_index_map = [1], index_vector_dim = 1>, indices_are_sorted = false, slice_sizes = dense<[2, 1, 32, 128]> : tensor<4xi64>} : (tensor<2x2304x32x128xf32>, tensor<2048xui32>) -> tensor<2x2048x32x128xf32>
    %450 = stablehlo.transpose %449, dims = [0, 2, 3, 1] : (tensor<2x2048x32x128xf32>) -> tensor<2x32x128x2048xf32>
    %451 = stablehlo.reshape %450 : (tensor<2x32x128x2048xf32>) -> tensor<64x128x2048xf32>
    %452 = stablehlo.dot_general %424, %451, batching_dims = [0] x [0], contracting_dims = [2] x [1], precision = [DEFAULT, DEFAULT] : (tensor<64x2048x128xf32>, tensor<64x128x2048xf32>) -> tensor<64x2048x2048xf32>
    %453 = stablehlo.reshape %452 : (tensor<64x2048x2048xf32>) -> tensor<2x32x2048x2048xf32>
    %454 = stablehlo.broadcast_in_dim %arg203, dims = [] : (tensor<f32>) -> tensor<2x32x2048x2048xf32>
    %455 = stablehlo.divide %453, %454 : tensor<2x32x2048x2048xf32>
    %456 = stablehlo.reshape %86 : (tensor<1x1x2048x2048xf32>) -> tensor<2048x2048xf32>
    %457 = stablehlo.broadcast_in_dim %456, dims = [2, 3] : (tensor<2048x2048xf32>) -> tensor<2x32x2048x2048xf32>
    %458 = stablehlo.add %455, %457 : tensor<2x32x2048x2048xf32>
    %459 = stablehlo.reduce(%458 init: %7) across dimensions = [3] : (tensor<2x32x2048x2048xf32>, tensor<f32>) -> tensor<2x32x2048xf32>
     reducer(%arg364: tensor<f32>, %arg365: tensor<f32>)  {
      %3977 = stablehlo.maximum %arg364, %arg365 : tensor<f32>
      stablehlo.return %3977 : tensor<f32>
    }
    %460 = stablehlo.broadcast_in_dim %459, dims = [0, 1, 2] : (tensor<2x32x2048xf32>) -> tensor<2x32x2048x2048xf32>
    %461 = stablehlo.subtract %458, %460 : tensor<2x32x2048x2048xf32>
    %462 = stablehlo.exponential %461 : tensor<2x32x2048x2048xf32>
    %463 = stablehlo.reduce(%462 init: %8) across dimensions = [3] : (tensor<2x32x2048x2048xf32>, tensor<f32>) -> tensor<2x32x2048xf32>
     reducer(%arg364: tensor<f32>, %arg365: tensor<f32>)  {
      %3977 = stablehlo.add %arg364, %arg365 : tensor<f32>
      stablehlo.return %3977 : tensor<f32>
    }
    %464 = stablehlo.broadcast_in_dim %463, dims = [0, 1, 2] : (tensor<2x32x2048xf32>) -> tensor<2x32x2048x2048xf32>
    %465 = stablehlo.divide %462, %464 : tensor<2x32x2048x2048xf32>
    %466 = stablehlo.reshape %465 : (tensor<2x32x2048x2048xf32>) -> tensor<64x2048x2048xf32>
    %467 = stablehlo.compare  LT, %arg199, %2 : (tensor<2048xi64>, tensor<2048xi64>) -> tensor<2048xi1>
    %468 = stablehlo.broadcast_in_dim %arg200, dims = [] : (tensor<i64>) -> tensor<2048xi64>
    %469 = stablehlo.add %arg199, %468 : tensor<2048xi64>
    %470 = stablehlo.select %467, %469, %arg199 : tensor<2048xi1>, tensor<2048xi64>
    %471 = stablehlo.reshape %470 : (tensor<2048xi64>) -> tensor<2048x1xi64>
    %472 = stablehlo.reshape %405 : (tensor<2x2048x4096xf32>) -> tensor<4096x4096xf32>
    %473 = stablehlo.transpose %arg176, dims = [1, 0] {result_layout = dense<[0, 1]> : tensor<2xindex>, xla_shape = "f32[4096,4096]{0,1}"} : (tensor<4096x4096xf32>) -> tensor<4096x4096xf32>
    %474 = stablehlo.dot %472, %473, precision = [DEFAULT, DEFAULT] : (tensor<4096x4096xf32>, tensor<4096x4096xf32>) -> tensor<4096x4096xf32>
    %475 = stablehlo.reshape %474 : (tensor<4096x4096xf32>) -> tensor<2x2048x32x128xf32>
    %476 = "stablehlo.scatter"(%arg219, %471, %475) ({
    ^bb0(%arg364: tensor<f32>, %arg365: tensor<f32>):
      stablehlo.return %arg365 : tensor<f32>
    }) {indices_are_sorted = false, scatter_dimension_numbers = #stablehlo.scatter<update_window_dims = [0, 2, 3], inserted_window_dims = [1], scatter_dims_to_operand_dims = [1], index_vector_dim = 1>, unique_indices = false} : (tensor<2x2304x32x128xf32>, tensor<2048x1xi64>, tensor<2x2048x32x128xf32>) -> tensor<2x2304x32x128xf32>
    %477 = stablehlo.convert %arg7 : (tensor<2048xi64>) -> tensor<2048xui32>
    %478 = "stablehlo.gather"(%476, %477) {dimension_numbers = #stablehlo.gather<offset_dims = [0, 2, 3], collapsed_slice_dims = [1], start_index_map = [1], index_vector_dim = 1>, indices_are_sorted = false, slice_sizes = dense<[2, 1, 32, 128]> : tensor<4xi64>} : (tensor<2x2304x32x128xf32>, tensor<2048xui32>) -> tensor<2x2048x32x128xf32>
    %479 = stablehlo.transpose %478, dims = [0, 2, 1, 3] {result_layout = dense<[3, 1, 2, 0]> : tensor<4xindex>, xla_shape = "f32[2,32,2048,128]{3,1,2,0}"} : (tensor<2x2048x32x128xf32>) -> tensor<2x32x2048x128xf32>
    %480 = stablehlo.reshape %479 : (tensor<2x32x2048x128xf32>) -> tensor<64x2048x128xf32>
    %481 = stablehlo.dot_general %466, %480, batching_dims = [0] x [0], contracting_dims = [2] x [1], precision = [DEFAULT, DEFAULT] : (tensor<64x2048x2048xf32>, tensor<64x2048x128xf32>) -> tensor<64x2048x128xf32>
    %482 = stablehlo.reshape %481 : (tensor<64x2048x128xf32>) -> tensor<2x32x2048x128xf32>
    %483 = stablehlo.transpose %482, dims = [0, 2, 1, 3] {result_layout = dense<[3, 1, 2, 0]> : tensor<4xindex>, xla_shape = "f32[2,2048,32,128]{3,1,2,0}"} : (tensor<2x32x2048x128xf32>) -> tensor<2x2048x32x128xf32>
    %484 = stablehlo.reshape %483 : (tensor<2x2048x32x128xf32>) -> tensor<4096x4096xf32>
    %485 = stablehlo.transpose %arg175, dims = [1, 0] {result_layout = dense<[0, 1]> : tensor<2xindex>, xla_shape = "f32[4096,4096]{0,1}"} : (tensor<4096x4096xf32>) -> tensor<4096x4096xf32>
    %486 = stablehlo.dot %484, %485, precision = [DEFAULT, DEFAULT] : (tensor<4096x4096xf32>, tensor<4096x4096xf32>) -> tensor<4096x4096xf32>
    %487 = stablehlo.reshape %486 : (tensor<4096x4096xf32>) -> tensor<2x2048x4096xf32>
    %488 = stablehlo.add %393, %487 : tensor<2x2048x4096xf32>
    %489 = stablehlo.power %488, %1 : tensor<2x2048x4096xf32>
    %490 = stablehlo.reduce(%489 init: %8) across dimensions = [2] : (tensor<2x2048x4096xf32>, tensor<f32>) -> tensor<2x2048xf32>
     reducer(%arg364: tensor<f32>, %arg365: tensor<f32>)  {
      %3977 = stablehlo.add %arg364, %arg365 : tensor<f32>
      stablehlo.return %3977 : tensor<f32>
    }
    %491 = stablehlo.multiply %490, %0 : tensor<2x2048xf32>
    %492 = stablehlo.reshape %491 : (tensor<2x2048xf32>) -> tensor<2x2048x1xf32>
    %493 = stablehlo.broadcast_in_dim %arg2, dims = [] : (tensor<f32>) -> tensor<2x2048x1xf32>
    %494 = stablehlo.add %492, %493 : tensor<2x2048x1xf32>
    %495 = stablehlo.rsqrt %494 : tensor<2x2048x1xf32>
    %496 = stablehlo.reshape %495 : (tensor<2x2048x1xf32>) -> tensor<2x2048xf32>
    %497 = stablehlo.broadcast_in_dim %496, dims = [0, 1] : (tensor<2x2048xf32>) -> tensor<2x2048x4096xf32>
    %498 = stablehlo.multiply %488, %497 : tensor<2x2048x4096xf32>
    %499 = stablehlo.broadcast_in_dim %arg174, dims = [2] : (tensor<4096xf32>) -> tensor<2x2048x4096xf32>
    %500 = stablehlo.multiply %498, %499 : tensor<2x2048x4096xf32>
    %501 = stablehlo.reshape %500 : (tensor<2x2048x4096xf32>) -> tensor<4096x4096xf32>
    %502 = stablehlo.transpose %arg223, dims = [1, 0] {result_layout = dense<[0, 1]> : tensor<2xindex>, xla_shape = "f32[4096,11008]{0,1}"} : (tensor<11008x4096xf32>) -> tensor<4096x11008xf32>
    %503 = stablehlo.dot %501, %502, precision = [DEFAULT, DEFAULT] : (tensor<4096x4096xf32>, tensor<4096x11008xf32>) -> tensor<4096x11008xf32>
    %504 = stablehlo.reshape %503 : (tensor<4096x11008xf32>) -> tensor<2x2048x11008xf32>
    %505 = stablehlo.logistic %504 : tensor<2x2048x11008xf32>
    %506 = stablehlo.multiply %504, %505 : tensor<2x2048x11008xf32>
    %507 = stablehlo.reshape %500 : (tensor<2x2048x4096xf32>) -> tensor<4096x4096xf32>
    %508 = stablehlo.transpose %arg173, dims = [1, 0] {result_layout = dense<[0, 1]> : tensor<2xindex>, xla_shape = "f32[4096,11008]{0,1}"} : (tensor<11008x4096xf32>) -> tensor<4096x11008xf32>
    %509 = stablehlo.dot %507, %508, precision = [DEFAULT, DEFAULT] : (tensor<4096x4096xf32>, tensor<4096x11008xf32>) -> tensor<4096x11008xf32>
    %510 = stablehlo.reshape %509 : (tensor<4096x11008xf32>) -> tensor<2x2048x11008xf32>
    %511 = stablehlo.multiply %506, %510 : tensor<2x2048x11008xf32>
    %512 = stablehlo.reshape %511 : (tensor<2x2048x11008xf32>) -> tensor<4096x11008xf32>
    %513 = stablehlo.transpose %arg172, dims = [1, 0] {result_layout = dense<[0, 1]> : tensor<2xindex>, xla_shape = "f32[11008,4096]{0,1}"} : (tensor<4096x11008xf32>) -> tensor<11008x4096xf32>
    %514 = stablehlo.dot %512, %513, precision = [DEFAULT, DEFAULT] : (tensor<4096x11008xf32>, tensor<11008x4096xf32>) -> tensor<4096x4096xf32>
    %515 = stablehlo.reshape %514 : (tensor<4096x4096xf32>) -> tensor<2x2048x4096xf32>
    %516 = stablehlo.add %488, %515 : tensor<2x2048x4096xf32>
    %517 = stablehlo.power %516, %1 : tensor<2x2048x4096xf32>
    %518 = stablehlo.reduce(%517 init: %8) across dimensions = [2] : (tensor<2x2048x4096xf32>, tensor<f32>) -> tensor<2x2048xf32>
     reducer(%arg364: tensor<f32>, %arg365: tensor<f32>)  {
      %3977 = stablehlo.add %arg364, %arg365 : tensor<f32>
      stablehlo.return %3977 : tensor<f32>
    }
    %519 = stablehlo.multiply %518, %0 : tensor<2x2048xf32>
    %520 = stablehlo.reshape %519 : (tensor<2x2048xf32>) -> tensor<2x2048x1xf32>
    %521 = stablehlo.broadcast_in_dim %arg2, dims = [] : (tensor<f32>) -> tensor<2x2048x1xf32>
    %522 = stablehlo.add %520, %521 : tensor<2x2048x1xf32>
    %523 = stablehlo.rsqrt %522 : tensor<2x2048x1xf32>
    %524 = stablehlo.reshape %523 : (tensor<2x2048x1xf32>) -> tensor<2x2048xf32>
    %525 = stablehlo.broadcast_in_dim %524, dims = [0, 1] : (tensor<2x2048xf32>) -> tensor<2x2048x4096xf32>
    %526 = stablehlo.multiply %516, %525 : tensor<2x2048x4096xf32>
    %527 = stablehlo.broadcast_in_dim %arg171, dims = [2] : (tensor<4096xf32>) -> tensor<2x2048x4096xf32>
    %528 = stablehlo.multiply %526, %527 : tensor<2x2048x4096xf32>
    %529 = stablehlo.reshape %528 : (tensor<2x2048x4096xf32>) -> tensor<4096x4096xf32>
    %530 = stablehlo.transpose %arg227, dims = [1, 0] {result_layout = dense<[0, 1]> : tensor<2xindex>, xla_shape = "f32[4096,4096]{0,1}"} : (tensor<4096x4096xf32>) -> tensor<4096x4096xf32>
    %531 = stablehlo.dot %529, %530, precision = [DEFAULT, DEFAULT] : (tensor<4096x4096xf32>, tensor<4096x4096xf32>) -> tensor<4096x4096xf32>
    %532 = stablehlo.reshape %531 : (tensor<4096x4096xf32>) -> tensor<2x2048x32x64x2xf32>
    %533 = stablehlo.slice %532 [0:2, 0:2048, 0:32, 0:64, 0:1] : (tensor<2x2048x32x64x2xf32>) -> tensor<2x2048x32x64x1xf32>
    %534 = stablehlo.reshape %533 : (tensor<2x2048x32x64x1xf32>) -> tensor<2x2048x32x64xf32>
    %535 = stablehlo.slice %532 [0:2, 0:2048, 0:32, 0:64, 1:2] : (tensor<2x2048x32x64x2xf32>) -> tensor<2x2048x32x64x1xf32>
    %536 = stablehlo.reshape %535 : (tensor<2x2048x32x64x1xf32>) -> tensor<2x2048x32x64xf32>
    %537 = stablehlo.complex %534, %536 : tensor<2x2048x32x64xcomplex<f32>>
    %538 = stablehlo.broadcast_in_dim %37, dims = [1, 3] : (tensor<2048x64xcomplex<f32>>) -> tensor<2x2048x32x64xcomplex<f32>>
    %539 = stablehlo.multiply %537, %538 : tensor<2x2048x32x64xcomplex<f32>>
    %540 = stablehlo.real %539 : (tensor<2x2048x32x64xcomplex<f32>>) -> tensor<2x2048x32x64xf32>
    %541 = stablehlo.reshape %540 : (tensor<2x2048x32x64xf32>) -> tensor<2x2048x32x64x1xf32>
    %542 = stablehlo.imag %539 : (tensor<2x2048x32x64xcomplex<f32>>) -> tensor<2x2048x32x64xf32>
    %543 = stablehlo.reshape %542 : (tensor<2x2048x32x64xf32>) -> tensor<2x2048x32x64x1xf32>
    %544 = stablehlo.concatenate %541, %543, dim = 4 : (tensor<2x2048x32x64x1xf32>, tensor<2x2048x32x64x1xf32>) -> tensor<2x2048x32x64x2xf32>
    %545 = stablehlo.reshape %544 : (tensor<2x2048x32x64x2xf32>) -> tensor<2x2048x32x128xf32>
    %546 = stablehlo.transpose %545, dims = [0, 2, 1, 3] {result_layout = dense<[3, 1, 2, 0]> : tensor<4xindex>, xla_shape = "f32[2,32,2048,128]{3,1,2,0}"} : (tensor<2x2048x32x128xf32>) -> tensor<2x32x2048x128xf32>
    %547 = stablehlo.reshape %546 : (tensor<2x32x2048x128xf32>) -> tensor<64x2048x128xf32>
    %548 = stablehlo.compare  LT, %arg199, %2 : (tensor<2048xi64>, tensor<2048xi64>) -> tensor<2048xi1>
    %549 = stablehlo.broadcast_in_dim %arg200, dims = [] : (tensor<i64>) -> tensor<2048xi64>
    %550 = stablehlo.add %arg199, %549 : tensor<2048xi64>
    %551 = stablehlo.select %548, %550, %arg199 : tensor<2048xi1>, tensor<2048xi64>
    %552 = stablehlo.reshape %551 : (tensor<2048xi64>) -> tensor<2048x1xi64>
    %553 = stablehlo.reshape %528 : (tensor<2x2048x4096xf32>) -> tensor<4096x4096xf32>
    %554 = stablehlo.transpose %arg225, dims = [1, 0] {result_layout = dense<[0, 1]> : tensor<2xindex>, xla_shape = "f32[4096,4096]{0,1}"} : (tensor<4096x4096xf32>) -> tensor<4096x4096xf32>
    %555 = stablehlo.dot %553, %554, precision = [DEFAULT, DEFAULT] : (tensor<4096x4096xf32>, tensor<4096x4096xf32>) -> tensor<4096x4096xf32>
    %556 = stablehlo.reshape %555 : (tensor<4096x4096xf32>) -> tensor<2x2048x32x64x2xf32>
    %557 = stablehlo.slice %556 [0:2, 0:2048, 0:32, 0:64, 0:1] : (tensor<2x2048x32x64x2xf32>) -> tensor<2x2048x32x64x1xf32>
    %558 = stablehlo.reshape %557 : (tensor<2x2048x32x64x1xf32>) -> tensor<2x2048x32x64xf32>
    %559 = stablehlo.slice %556 [0:2, 0:2048, 0:32, 0:64, 1:2] : (tensor<2x2048x32x64x2xf32>) -> tensor<2x2048x32x64x1xf32>
    %560 = stablehlo.reshape %559 : (tensor<2x2048x32x64x1xf32>) -> tensor<2x2048x32x64xf32>
    %561 = stablehlo.complex %558, %560 : tensor<2x2048x32x64xcomplex<f32>>
    %562 = stablehlo.broadcast_in_dim %37, dims = [1, 3] : (tensor<2048x64xcomplex<f32>>) -> tensor<2x2048x32x64xcomplex<f32>>
    %563 = stablehlo.multiply %561, %562 : tensor<2x2048x32x64xcomplex<f32>>
    %564 = stablehlo.real %563 : (tensor<2x2048x32x64xcomplex<f32>>) -> tensor<2x2048x32x64xf32>
    %565 = stablehlo.reshape %564 : (tensor<2x2048x32x64xf32>) -> tensor<2x2048x32x64x1xf32>
    %566 = stablehlo.imag %563 : (tensor<2x2048x32x64xcomplex<f32>>) -> tensor<2x2048x32x64xf32>
    %567 = stablehlo.reshape %566 : (tensor<2x2048x32x64xf32>) -> tensor<2x2048x32x64x1xf32>
    %568 = stablehlo.concatenate %565, %567, dim = 4 : (tensor<2x2048x32x64x1xf32>, tensor<2x2048x32x64x1xf32>) -> tensor<2x2048x32x64x2xf32>
    %569 = stablehlo.reshape %568 : (tensor<2x2048x32x64x2xf32>) -> tensor<2x2048x32x128xf32>
    %570 = "stablehlo.scatter"(%arg226, %552, %569) ({
    ^bb0(%arg364: tensor<f32>, %arg365: tensor<f32>):
      stablehlo.return %arg365 : tensor<f32>
    }) {indices_are_sorted = false, scatter_dimension_numbers = #stablehlo.scatter<update_window_dims = [0, 2, 3], inserted_window_dims = [1], scatter_dims_to_operand_dims = [1], index_vector_dim = 1>, unique_indices = false} : (tensor<2x2304x32x128xf32>, tensor<2048x1xi64>, tensor<2x2048x32x128xf32>) -> tensor<2x2304x32x128xf32>
    %571 = stablehlo.convert %arg7 : (tensor<2048xi64>) -> tensor<2048xui32>
    %572 = "stablehlo.gather"(%570, %571) {dimension_numbers = #stablehlo.gather<offset_dims = [0, 2, 3], collapsed_slice_dims = [1], start_index_map = [1], index_vector_dim = 1>, indices_are_sorted = false, slice_sizes = dense<[2, 1, 32, 128]> : tensor<4xi64>} : (tensor<2x2304x32x128xf32>, tensor<2048xui32>) -> tensor<2x2048x32x128xf32>
    %573 = stablehlo.transpose %572, dims = [0, 2, 3, 1] : (tensor<2x2048x32x128xf32>) -> tensor<2x32x128x2048xf32>
    %574 = stablehlo.reshape %573 : (tensor<2x32x128x2048xf32>) -> tensor<64x128x2048xf32>
    %575 = stablehlo.dot_general %547, %574, batching_dims = [0] x [0], contracting_dims = [2] x [1], precision = [DEFAULT, DEFAULT] : (tensor<64x2048x128xf32>, tensor<64x128x2048xf32>) -> tensor<64x2048x2048xf32>
    %576 = stablehlo.reshape %575 : (tensor<64x2048x2048xf32>) -> tensor<2x32x2048x2048xf32>
    %577 = stablehlo.broadcast_in_dim %arg203, dims = [] : (tensor<f32>) -> tensor<2x32x2048x2048xf32>
    %578 = stablehlo.divide %576, %577 : tensor<2x32x2048x2048xf32>
    %579 = stablehlo.reshape %86 : (tensor<1x1x2048x2048xf32>) -> tensor<2048x2048xf32>
    %580 = stablehlo.broadcast_in_dim %579, dims = [2, 3] : (tensor<2048x2048xf32>) -> tensor<2x32x2048x2048xf32>
    %581 = stablehlo.add %578, %580 : tensor<2x32x2048x2048xf32>
    %582 = stablehlo.reduce(%581 init: %7) across dimensions = [3] : (tensor<2x32x2048x2048xf32>, tensor<f32>) -> tensor<2x32x2048xf32>
     reducer(%arg364: tensor<f32>, %arg365: tensor<f32>)  {
      %3977 = stablehlo.maximum %arg364, %arg365 : tensor<f32>
      stablehlo.return %3977 : tensor<f32>
    }
    %583 = stablehlo.broadcast_in_dim %582, dims = [0, 1, 2] : (tensor<2x32x2048xf32>) -> tensor<2x32x2048x2048xf32>
    %584 = stablehlo.subtract %581, %583 : tensor<2x32x2048x2048xf32>
    %585 = stablehlo.exponential %584 : tensor<2x32x2048x2048xf32>
    %586 = stablehlo.reduce(%585 init: %8) across dimensions = [3] : (tensor<2x32x2048x2048xf32>, tensor<f32>) -> tensor<2x32x2048xf32>
     reducer(%arg364: tensor<f32>, %arg365: tensor<f32>)  {
      %3977 = stablehlo.add %arg364, %arg365 : tensor<f32>
      stablehlo.return %3977 : tensor<f32>
    }
    %587 = stablehlo.broadcast_in_dim %586, dims = [0, 1, 2] : (tensor<2x32x2048xf32>) -> tensor<2x32x2048x2048xf32>
    %588 = stablehlo.divide %585, %587 : tensor<2x32x2048x2048xf32>
    %589 = stablehlo.reshape %588 : (tensor<2x32x2048x2048xf32>) -> tensor<64x2048x2048xf32>
    %590 = stablehlo.compare  LT, %arg199, %2 : (tensor<2048xi64>, tensor<2048xi64>) -> tensor<2048xi1>
    %591 = stablehlo.broadcast_in_dim %arg200, dims = [] : (tensor<i64>) -> tensor<2048xi64>
    %592 = stablehlo.add %arg199, %591 : tensor<2048xi64>
    %593 = stablehlo.select %590, %592, %arg199 : tensor<2048xi1>, tensor<2048xi64>
    %594 = stablehlo.reshape %593 : (tensor<2048xi64>) -> tensor<2048x1xi64>
    %595 = stablehlo.reshape %528 : (tensor<2x2048x4096xf32>) -> tensor<4096x4096xf32>
    %596 = stablehlo.transpose %arg170, dims = [1, 0] {result_layout = dense<[0, 1]> : tensor<2xindex>, xla_shape = "f32[4096,4096]{0,1}"} : (tensor<4096x4096xf32>) -> tensor<4096x4096xf32>
    %597 = stablehlo.dot %595, %596, precision = [DEFAULT, DEFAULT] : (tensor<4096x4096xf32>, tensor<4096x4096xf32>) -> tensor<4096x4096xf32>
    %598 = stablehlo.reshape %597 : (tensor<4096x4096xf32>) -> tensor<2x2048x32x128xf32>
    %599 = "stablehlo.scatter"(%arg224, %594, %598) ({
    ^bb0(%arg364: tensor<f32>, %arg365: tensor<f32>):
      stablehlo.return %arg365 : tensor<f32>
    }) {indices_are_sorted = false, scatter_dimension_numbers = #stablehlo.scatter<update_window_dims = [0, 2, 3], inserted_window_dims = [1], scatter_dims_to_operand_dims = [1], index_vector_dim = 1>, unique_indices = false} : (tensor<2x2304x32x128xf32>, tensor<2048x1xi64>, tensor<2x2048x32x128xf32>) -> tensor<2x2304x32x128xf32>
    %600 = stablehlo.convert %arg7 : (tensor<2048xi64>) -> tensor<2048xui32>
    %601 = "stablehlo.gather"(%599, %600) {dimension_numbers = #stablehlo.gather<offset_dims = [0, 2, 3], collapsed_slice_dims = [1], start_index_map = [1], index_vector_dim = 1>, indices_are_sorted = false, slice_sizes = dense<[2, 1, 32, 128]> : tensor<4xi64>} : (tensor<2x2304x32x128xf32>, tensor<2048xui32>) -> tensor<2x2048x32x128xf32>
    %602 = stablehlo.transpose %601, dims = [0, 2, 1, 3] {result_layout = dense<[3, 1, 2, 0]> : tensor<4xindex>, xla_shape = "f32[2,32,2048,128]{3,1,2,0}"} : (tensor<2x2048x32x128xf32>) -> tensor<2x32x2048x128xf32>
    %603 = stablehlo.reshape %602 : (tensor<2x32x2048x128xf32>) -> tensor<64x2048x128xf32>
    %604 = stablehlo.dot_general %589, %603, batching_dims = [0] x [0], contracting_dims = [2] x [1], precision = [DEFAULT, DEFAULT] : (tensor<64x2048x2048xf32>, tensor<64x2048x128xf32>) -> tensor<64x2048x128xf32>
    %605 = stablehlo.reshape %604 : (tensor<64x2048x128xf32>) -> tensor<2x32x2048x128xf32>
    %606 = stablehlo.transpose %605, dims = [0, 2, 1, 3] {result_layout = dense<[3, 1, 2, 0]> : tensor<4xindex>, xla_shape = "f32[2,2048,32,128]{3,1,2,0}"} : (tensor<2x32x2048x128xf32>) -> tensor<2x2048x32x128xf32>
    %607 = stablehlo.reshape %606 : (tensor<2x2048x32x128xf32>) -> tensor<4096x4096xf32>
    %608 = stablehlo.transpose %arg169, dims = [1, 0] {result_layout = dense<[0, 1]> : tensor<2xindex>, xla_shape = "f32[4096,4096]{0,1}"} : (tensor<4096x4096xf32>) -> tensor<4096x4096xf32>
    %609 = stablehlo.dot %607, %608, precision = [DEFAULT, DEFAULT] : (tensor<4096x4096xf32>, tensor<4096x4096xf32>) -> tensor<4096x4096xf32>
    %610 = stablehlo.reshape %609 : (tensor<4096x4096xf32>) -> tensor<2x2048x4096xf32>
    %611 = stablehlo.add %516, %610 : tensor<2x2048x4096xf32>
    %612 = stablehlo.power %611, %1 : tensor<2x2048x4096xf32>
    %613 = stablehlo.reduce(%612 init: %8) across dimensions = [2] : (tensor<2x2048x4096xf32>, tensor<f32>) -> tensor<2x2048xf32>
     reducer(%arg364: tensor<f32>, %arg365: tensor<f32>)  {
      %3977 = stablehlo.add %arg364, %arg365 : tensor<f32>
      stablehlo.return %3977 : tensor<f32>
    }
    %614 = stablehlo.multiply %613, %0 : tensor<2x2048xf32>
    %615 = stablehlo.reshape %614 : (tensor<2x2048xf32>) -> tensor<2x2048x1xf32>
    %616 = stablehlo.broadcast_in_dim %arg2, dims = [] : (tensor<f32>) -> tensor<2x2048x1xf32>
    %617 = stablehlo.add %615, %616 : tensor<2x2048x1xf32>
    %618 = stablehlo.rsqrt %617 : tensor<2x2048x1xf32>
    %619 = stablehlo.reshape %618 : (tensor<2x2048x1xf32>) -> tensor<2x2048xf32>
    %620 = stablehlo.broadcast_in_dim %619, dims = [0, 1] : (tensor<2x2048xf32>) -> tensor<2x2048x4096xf32>
    %621 = stablehlo.multiply %611, %620 : tensor<2x2048x4096xf32>
    %622 = stablehlo.broadcast_in_dim %arg168, dims = [2] : (tensor<4096xf32>) -> tensor<2x2048x4096xf32>
    %623 = stablehlo.multiply %621, %622 : tensor<2x2048x4096xf32>
    %624 = stablehlo.reshape %623 : (tensor<2x2048x4096xf32>) -> tensor<4096x4096xf32>
    %625 = stablehlo.transpose %arg228, dims = [1, 0] {result_layout = dense<[0, 1]> : tensor<2xindex>, xla_shape = "f32[4096,11008]{0,1}"} : (tensor<11008x4096xf32>) -> tensor<4096x11008xf32>
    %626 = stablehlo.dot %624, %625, precision = [DEFAULT, DEFAULT] : (tensor<4096x4096xf32>, tensor<4096x11008xf32>) -> tensor<4096x11008xf32>
    %627 = stablehlo.reshape %626 : (tensor<4096x11008xf32>) -> tensor<2x2048x11008xf32>
    %628 = stablehlo.logistic %627 : tensor<2x2048x11008xf32>
    %629 = stablehlo.multiply %627, %628 : tensor<2x2048x11008xf32>
    %630 = stablehlo.reshape %623 : (tensor<2x2048x4096xf32>) -> tensor<4096x4096xf32>
    %631 = stablehlo.transpose %arg167, dims = [1, 0] {result_layout = dense<[0, 1]> : tensor<2xindex>, xla_shape = "f32[4096,11008]{0,1}"} : (tensor<11008x4096xf32>) -> tensor<4096x11008xf32>
    %632 = stablehlo.dot %630, %631, precision = [DEFAULT, DEFAULT] : (tensor<4096x4096xf32>, tensor<4096x11008xf32>) -> tensor<4096x11008xf32>
    %633 = stablehlo.reshape %632 : (tensor<4096x11008xf32>) -> tensor<2x2048x11008xf32>
    %634 = stablehlo.multiply %629, %633 : tensor<2x2048x11008xf32>
    %635 = stablehlo.reshape %634 : (tensor<2x2048x11008xf32>) -> tensor<4096x11008xf32>
    %636 = stablehlo.transpose %arg166, dims = [1, 0] {result_layout = dense<[0, 1]> : tensor<2xindex>, xla_shape = "f32[11008,4096]{0,1}"} : (tensor<4096x11008xf32>) -> tensor<11008x4096xf32>
    %637 = stablehlo.dot %635, %636, precision = [DEFAULT, DEFAULT] : (tensor<4096x11008xf32>, tensor<11008x4096xf32>) -> tensor<4096x4096xf32>
    %638 = stablehlo.reshape %637 : (tensor<4096x4096xf32>) -> tensor<2x2048x4096xf32>
    %639 = stablehlo.add %611, %638 : tensor<2x2048x4096xf32>
    %640 = stablehlo.power %639, %1 : tensor<2x2048x4096xf32>
    %641 = stablehlo.reduce(%640 init: %8) across dimensions = [2] : (tensor<2x2048x4096xf32>, tensor<f32>) -> tensor<2x2048xf32>
     reducer(%arg364: tensor<f32>, %arg365: tensor<f32>)  {
      %3977 = stablehlo.add %arg364, %arg365 : tensor<f32>
      stablehlo.return %3977 : tensor<f32>
    }
    %642 = stablehlo.multiply %641, %0 : tensor<2x2048xf32>
    %643 = stablehlo.reshape %642 : (tensor<2x2048xf32>) -> tensor<2x2048x1xf32>
    %644 = stablehlo.broadcast_in_dim %arg2, dims = [] : (tensor<f32>) -> tensor<2x2048x1xf32>
    %645 = stablehlo.add %643, %644 : tensor<2x2048x1xf32>
    %646 = stablehlo.rsqrt %645 : tensor<2x2048x1xf32>
    %647 = stablehlo.reshape %646 : (tensor<2x2048x1xf32>) -> tensor<2x2048xf32>
    %648 = stablehlo.broadcast_in_dim %647, dims = [0, 1] : (tensor<2x2048xf32>) -> tensor<2x2048x4096xf32>
    %649 = stablehlo.multiply %639, %648 : tensor<2x2048x4096xf32>
    %650 = stablehlo.broadcast_in_dim %arg165, dims = [2] : (tensor<4096xf32>) -> tensor<2x2048x4096xf32>
    %651 = stablehlo.multiply %649, %650 : tensor<2x2048x4096xf32>
    %652 = stablehlo.reshape %651 : (tensor<2x2048x4096xf32>) -> tensor<4096x4096xf32>
    %653 = stablehlo.transpose %arg232, dims = [1, 0] {result_layout = dense<[0, 1]> : tensor<2xindex>, xla_shape = "f32[4096,4096]{0,1}"} : (tensor<4096x4096xf32>) -> tensor<4096x4096xf32>
    %654 = stablehlo.dot %652, %653, precision = [DEFAULT, DEFAULT] : (tensor<4096x4096xf32>, tensor<4096x4096xf32>) -> tensor<4096x4096xf32>
    %655 = stablehlo.reshape %654 : (tensor<4096x4096xf32>) -> tensor<2x2048x32x64x2xf32>
    %656 = stablehlo.slice %655 [0:2, 0:2048, 0:32, 0:64, 0:1] : (tensor<2x2048x32x64x2xf32>) -> tensor<2x2048x32x64x1xf32>
    %657 = stablehlo.reshape %656 : (tensor<2x2048x32x64x1xf32>) -> tensor<2x2048x32x64xf32>
    %658 = stablehlo.slice %655 [0:2, 0:2048, 0:32, 0:64, 1:2] : (tensor<2x2048x32x64x2xf32>) -> tensor<2x2048x32x64x1xf32>
    %659 = stablehlo.reshape %658 : (tensor<2x2048x32x64x1xf32>) -> tensor<2x2048x32x64xf32>
    %660 = stablehlo.complex %657, %659 : tensor<2x2048x32x64xcomplex<f32>>
    %661 = stablehlo.broadcast_in_dim %37, dims = [1, 3] : (tensor<2048x64xcomplex<f32>>) -> tensor<2x2048x32x64xcomplex<f32>>
    %662 = stablehlo.multiply %660, %661 : tensor<2x2048x32x64xcomplex<f32>>
    %663 = stablehlo.real %662 : (tensor<2x2048x32x64xcomplex<f32>>) -> tensor<2x2048x32x64xf32>
    %664 = stablehlo.reshape %663 : (tensor<2x2048x32x64xf32>) -> tensor<2x2048x32x64x1xf32>
    %665 = stablehlo.imag %662 : (tensor<2x2048x32x64xcomplex<f32>>) -> tensor<2x2048x32x64xf32>
    %666 = stablehlo.reshape %665 : (tensor<2x2048x32x64xf32>) -> tensor<2x2048x32x64x1xf32>
    %667 = stablehlo.concatenate %664, %666, dim = 4 : (tensor<2x2048x32x64x1xf32>, tensor<2x2048x32x64x1xf32>) -> tensor<2x2048x32x64x2xf32>
    %668 = stablehlo.reshape %667 : (tensor<2x2048x32x64x2xf32>) -> tensor<2x2048x32x128xf32>
    %669 = stablehlo.transpose %668, dims = [0, 2, 1, 3] {result_layout = dense<[3, 1, 2, 0]> : tensor<4xindex>, xla_shape = "f32[2,32,2048,128]{3,1,2,0}"} : (tensor<2x2048x32x128xf32>) -> tensor<2x32x2048x128xf32>
    %670 = stablehlo.reshape %669 : (tensor<2x32x2048x128xf32>) -> tensor<64x2048x128xf32>
    %671 = stablehlo.compare  LT, %arg199, %2 : (tensor<2048xi64>, tensor<2048xi64>) -> tensor<2048xi1>
    %672 = stablehlo.broadcast_in_dim %arg200, dims = [] : (tensor<i64>) -> tensor<2048xi64>
    %673 = stablehlo.add %arg199, %672 : tensor<2048xi64>
    %674 = stablehlo.select %671, %673, %arg199 : tensor<2048xi1>, tensor<2048xi64>
    %675 = stablehlo.reshape %674 : (tensor<2048xi64>) -> tensor<2048x1xi64>
    %676 = stablehlo.reshape %651 : (tensor<2x2048x4096xf32>) -> tensor<4096x4096xf32>
    %677 = stablehlo.transpose %arg230, dims = [1, 0] {result_layout = dense<[0, 1]> : tensor<2xindex>, xla_shape = "f32[4096,4096]{0,1}"} : (tensor<4096x4096xf32>) -> tensor<4096x4096xf32>
    %678 = stablehlo.dot %676, %677, precision = [DEFAULT, DEFAULT] : (tensor<4096x4096xf32>, tensor<4096x4096xf32>) -> tensor<4096x4096xf32>
    %679 = stablehlo.reshape %678 : (tensor<4096x4096xf32>) -> tensor<2x2048x32x64x2xf32>
    %680 = stablehlo.slice %679 [0:2, 0:2048, 0:32, 0:64, 0:1] : (tensor<2x2048x32x64x2xf32>) -> tensor<2x2048x32x64x1xf32>
    %681 = stablehlo.reshape %680 : (tensor<2x2048x32x64x1xf32>) -> tensor<2x2048x32x64xf32>
    %682 = stablehlo.slice %679 [0:2, 0:2048, 0:32, 0:64, 1:2] : (tensor<2x2048x32x64x2xf32>) -> tensor<2x2048x32x64x1xf32>
    %683 = stablehlo.reshape %682 : (tensor<2x2048x32x64x1xf32>) -> tensor<2x2048x32x64xf32>
    %684 = stablehlo.complex %681, %683 : tensor<2x2048x32x64xcomplex<f32>>
    %685 = stablehlo.broadcast_in_dim %37, dims = [1, 3] : (tensor<2048x64xcomplex<f32>>) -> tensor<2x2048x32x64xcomplex<f32>>
    %686 = stablehlo.multiply %684, %685 : tensor<2x2048x32x64xcomplex<f32>>
    %687 = stablehlo.real %686 : (tensor<2x2048x32x64xcomplex<f32>>) -> tensor<2x2048x32x64xf32>
    %688 = stablehlo.reshape %687 : (tensor<2x2048x32x64xf32>) -> tensor<2x2048x32x64x1xf32>
    %689 = stablehlo.imag %686 : (tensor<2x2048x32x64xcomplex<f32>>) -> tensor<2x2048x32x64xf32>
    %690 = stablehlo.reshape %689 : (tensor<2x2048x32x64xf32>) -> tensor<2x2048x32x64x1xf32>
    %691 = stablehlo.concatenate %688, %690, dim = 4 : (tensor<2x2048x32x64x1xf32>, tensor<2x2048x32x64x1xf32>) -> tensor<2x2048x32x64x2xf32>
    %692 = stablehlo.reshape %691 : (tensor<2x2048x32x64x2xf32>) -> tensor<2x2048x32x128xf32>
    %693 = "stablehlo.scatter"(%arg231, %675, %692) ({
    ^bb0(%arg364: tensor<f32>, %arg365: tensor<f32>):
      stablehlo.return %arg365 : tensor<f32>
    }) {indices_are_sorted = false, scatter_dimension_numbers = #stablehlo.scatter<update_window_dims = [0, 2, 3], inserted_window_dims = [1], scatter_dims_to_operand_dims = [1], index_vector_dim = 1>, unique_indices = false} : (tensor<2x2304x32x128xf32>, tensor<2048x1xi64>, tensor<2x2048x32x128xf32>) -> tensor<2x2304x32x128xf32>
    %694 = stablehlo.convert %arg7 : (tensor<2048xi64>) -> tensor<2048xui32>
    %695 = "stablehlo.gather"(%693, %694) {dimension_numbers = #stablehlo.gather<offset_dims = [0, 2, 3], collapsed_slice_dims = [1], start_index_map = [1], index_vector_dim = 1>, indices_are_sorted = false, slice_sizes = dense<[2, 1, 32, 128]> : tensor<4xi64>} : (tensor<2x2304x32x128xf32>, tensor<2048xui32>) -> tensor<2x2048x32x128xf32>
    %696 = stablehlo.transpose %695, dims = [0, 2, 3, 1] : (tensor<2x2048x32x128xf32>) -> tensor<2x32x128x2048xf32>
    %697 = stablehlo.reshape %696 : (tensor<2x32x128x2048xf32>) -> tensor<64x128x2048xf32>
    %698 = stablehlo.dot_general %670, %697, batching_dims = [0] x [0], contracting_dims = [2] x [1], precision = [DEFAULT, DEFAULT] : (tensor<64x2048x128xf32>, tensor<64x128x2048xf32>) -> tensor<64x2048x2048xf32>
    %699 = stablehlo.reshape %698 : (tensor<64x2048x2048xf32>) -> tensor<2x32x2048x2048xf32>
    %700 = stablehlo.broadcast_in_dim %arg203, dims = [] : (tensor<f32>) -> tensor<2x32x2048x2048xf32>
    %701 = stablehlo.divide %699, %700 : tensor<2x32x2048x2048xf32>
    %702 = stablehlo.reshape %86 : (tensor<1x1x2048x2048xf32>) -> tensor<2048x2048xf32>
    %703 = stablehlo.broadcast_in_dim %702, dims = [2, 3] : (tensor<2048x2048xf32>) -> tensor<2x32x2048x2048xf32>
    %704 = stablehlo.add %701, %703 : tensor<2x32x2048x2048xf32>
    %705 = stablehlo.reduce(%704 init: %7) across dimensions = [3] : (tensor<2x32x2048x2048xf32>, tensor<f32>) -> tensor<2x32x2048xf32>
     reducer(%arg364: tensor<f32>, %arg365: tensor<f32>)  {
      %3977 = stablehlo.maximum %arg364, %arg365 : tensor<f32>
      stablehlo.return %3977 : tensor<f32>
    }
    %706 = stablehlo.broadcast_in_dim %705, dims = [0, 1, 2] : (tensor<2x32x2048xf32>) -> tensor<2x32x2048x2048xf32>
    %707 = stablehlo.subtract %704, %706 : tensor<2x32x2048x2048xf32>
    %708 = stablehlo.exponential %707 : tensor<2x32x2048x2048xf32>
    %709 = stablehlo.reduce(%708 init: %8) across dimensions = [3] : (tensor<2x32x2048x2048xf32>, tensor<f32>) -> tensor<2x32x2048xf32>
     reducer(%arg364: tensor<f32>, %arg365: tensor<f32>)  {
      %3977 = stablehlo.add %arg364, %arg365 : tensor<f32>
      stablehlo.return %3977 : tensor<f32>
    }
    %710 = stablehlo.broadcast_in_dim %709, dims = [0, 1, 2] : (tensor<2x32x2048xf32>) -> tensor<2x32x2048x2048xf32>
    %711 = stablehlo.divide %708, %710 : tensor<2x32x2048x2048xf32>
    %712 = stablehlo.reshape %711 : (tensor<2x32x2048x2048xf32>) -> tensor<64x2048x2048xf32>
    %713 = stablehlo.compare  LT, %arg199, %2 : (tensor<2048xi64>, tensor<2048xi64>) -> tensor<2048xi1>
    %714 = stablehlo.broadcast_in_dim %arg200, dims = [] : (tensor<i64>) -> tensor<2048xi64>
    %715 = stablehlo.add %arg199, %714 : tensor<2048xi64>
    %716 = stablehlo.select %713, %715, %arg199 : tensor<2048xi1>, tensor<2048xi64>
    %717 = stablehlo.reshape %716 : (tensor<2048xi64>) -> tensor<2048x1xi64>
    %718 = stablehlo.reshape %651 : (tensor<2x2048x4096xf32>) -> tensor<4096x4096xf32>
    %719 = stablehlo.transpose %arg164, dims = [1, 0] {result_layout = dense<[0, 1]> : tensor<2xindex>, xla_shape = "f32[4096,4096]{0,1}"} : (tensor<4096x4096xf32>) -> tensor<4096x4096xf32>
    %720 = stablehlo.dot %718, %719, precision = [DEFAULT, DEFAULT] : (tensor<4096x4096xf32>, tensor<4096x4096xf32>) -> tensor<4096x4096xf32>
    %721 = stablehlo.reshape %720 : (tensor<4096x4096xf32>) -> tensor<2x2048x32x128xf32>
    %722 = "stablehlo.scatter"(%arg229, %717, %721) ({
    ^bb0(%arg364: tensor<f32>, %arg365: tensor<f32>):
      stablehlo.return %arg365 : tensor<f32>
    }) {indices_are_sorted = false, scatter_dimension_numbers = #stablehlo.scatter<update_window_dims = [0, 2, 3], inserted_window_dims = [1], scatter_dims_to_operand_dims = [1], index_vector_dim = 1>, unique_indices = false} : (tensor<2x2304x32x128xf32>, tensor<2048x1xi64>, tensor<2x2048x32x128xf32>) -> tensor<2x2304x32x128xf32>
    %723 = stablehlo.convert %arg7 : (tensor<2048xi64>) -> tensor<2048xui32>
    %724 = "stablehlo.gather"(%722, %723) {dimension_numbers = #stablehlo.gather<offset_dims = [0, 2, 3], collapsed_slice_dims = [1], start_index_map = [1], index_vector_dim = 1>, indices_are_sorted = false, slice_sizes = dense<[2, 1, 32, 128]> : tensor<4xi64>} : (tensor<2x2304x32x128xf32>, tensor<2048xui32>) -> tensor<2x2048x32x128xf32>
    %725 = stablehlo.transpose %724, dims = [0, 2, 1, 3] {result_layout = dense<[3, 1, 2, 0]> : tensor<4xindex>, xla_shape = "f32[2,32,2048,128]{3,1,2,0}"} : (tensor<2x2048x32x128xf32>) -> tensor<2x32x2048x128xf32>
    %726 = stablehlo.reshape %725 : (tensor<2x32x2048x128xf32>) -> tensor<64x2048x128xf32>
    %727 = stablehlo.dot_general %712, %726, batching_dims = [0] x [0], contracting_dims = [2] x [1], precision = [DEFAULT, DEFAULT] : (tensor<64x2048x2048xf32>, tensor<64x2048x128xf32>) -> tensor<64x2048x128xf32>
    %728 = stablehlo.reshape %727 : (tensor<64x2048x128xf32>) -> tensor<2x32x2048x128xf32>
    %729 = stablehlo.transpose %728, dims = [0, 2, 1, 3] {result_layout = dense<[3, 1, 2, 0]> : tensor<4xindex>, xla_shape = "f32[2,2048,32,128]{3,1,2,0}"} : (tensor<2x32x2048x128xf32>) -> tensor<2x2048x32x128xf32>
    %730 = stablehlo.reshape %729 : (tensor<2x2048x32x128xf32>) -> tensor<4096x4096xf32>
    %731 = stablehlo.transpose %arg163, dims = [1, 0] {result_layout = dense<[0, 1]> : tensor<2xindex>, xla_shape = "f32[4096,4096]{0,1}"} : (tensor<4096x4096xf32>) -> tensor<4096x4096xf32>
    %732 = stablehlo.dot %730, %731, precision = [DEFAULT, DEFAULT] : (tensor<4096x4096xf32>, tensor<4096x4096xf32>) -> tensor<4096x4096xf32>
    %733 = stablehlo.reshape %732 : (tensor<4096x4096xf32>) -> tensor<2x2048x4096xf32>
    %734 = stablehlo.add %639, %733 : tensor<2x2048x4096xf32>
    %735 = stablehlo.power %734, %1 : tensor<2x2048x4096xf32>
    %736 = stablehlo.reduce(%735 init: %8) across dimensions = [2] : (tensor<2x2048x4096xf32>, tensor<f32>) -> tensor<2x2048xf32>
     reducer(%arg364: tensor<f32>, %arg365: tensor<f32>)  {
      %3977 = stablehlo.add %arg364, %arg365 : tensor<f32>
      stablehlo.return %3977 : tensor<f32>
    }
    %737 = stablehlo.multiply %736, %0 : tensor<2x2048xf32>
    %738 = stablehlo.reshape %737 : (tensor<2x2048xf32>) -> tensor<2x2048x1xf32>
    %739 = stablehlo.broadcast_in_dim %arg2, dims = [] : (tensor<f32>) -> tensor<2x2048x1xf32>
    %740 = stablehlo.add %738, %739 : tensor<2x2048x1xf32>
    %741 = stablehlo.rsqrt %740 : tensor<2x2048x1xf32>
    %742 = stablehlo.reshape %741 : (tensor<2x2048x1xf32>) -> tensor<2x2048xf32>
    %743 = stablehlo.broadcast_in_dim %742, dims = [0, 1] : (tensor<2x2048xf32>) -> tensor<2x2048x4096xf32>
    %744 = stablehlo.multiply %734, %743 : tensor<2x2048x4096xf32>
    %745 = stablehlo.broadcast_in_dim %arg162, dims = [2] : (tensor<4096xf32>) -> tensor<2x2048x4096xf32>
    %746 = stablehlo.multiply %744, %745 : tensor<2x2048x4096xf32>
    %747 = stablehlo.reshape %746 : (tensor<2x2048x4096xf32>) -> tensor<4096x4096xf32>
    %748 = stablehlo.transpose %arg233, dims = [1, 0] {result_layout = dense<[0, 1]> : tensor<2xindex>, xla_shape = "f32[4096,11008]{0,1}"} : (tensor<11008x4096xf32>) -> tensor<4096x11008xf32>
    %749 = stablehlo.dot %747, %748, precision = [DEFAULT, DEFAULT] : (tensor<4096x4096xf32>, tensor<4096x11008xf32>) -> tensor<4096x11008xf32>
    %750 = stablehlo.reshape %749 : (tensor<4096x11008xf32>) -> tensor<2x2048x11008xf32>
    %751 = stablehlo.logistic %750 : tensor<2x2048x11008xf32>
    %752 = stablehlo.multiply %750, %751 : tensor<2x2048x11008xf32>
    %753 = stablehlo.reshape %746 : (tensor<2x2048x4096xf32>) -> tensor<4096x4096xf32>
    %754 = stablehlo.transpose %arg161, dims = [1, 0] {result_layout = dense<[0, 1]> : tensor<2xindex>, xla_shape = "f32[4096,11008]{0,1}"} : (tensor<11008x4096xf32>) -> tensor<4096x11008xf32>
    %755 = stablehlo.dot %753, %754, precision = [DEFAULT, DEFAULT] : (tensor<4096x4096xf32>, tensor<4096x11008xf32>) -> tensor<4096x11008xf32>
    %756 = stablehlo.reshape %755 : (tensor<4096x11008xf32>) -> tensor<2x2048x11008xf32>
    %757 = stablehlo.multiply %752, %756 : tensor<2x2048x11008xf32>
    %758 = stablehlo.reshape %757 : (tensor<2x2048x11008xf32>) -> tensor<4096x11008xf32>
    %759 = stablehlo.transpose %arg160, dims = [1, 0] {result_layout = dense<[0, 1]> : tensor<2xindex>, xla_shape = "f32[11008,4096]{0,1}"} : (tensor<4096x11008xf32>) -> tensor<11008x4096xf32>
    %760 = stablehlo.dot %758, %759, precision = [DEFAULT, DEFAULT] : (tensor<4096x11008xf32>, tensor<11008x4096xf32>) -> tensor<4096x4096xf32>
    %761 = stablehlo.reshape %760 : (tensor<4096x4096xf32>) -> tensor<2x2048x4096xf32>
    %762 = stablehlo.add %734, %761 : tensor<2x2048x4096xf32>
    %763 = stablehlo.power %762, %1 : tensor<2x2048x4096xf32>
    %764 = stablehlo.reduce(%763 init: %8) across dimensions = [2] : (tensor<2x2048x4096xf32>, tensor<f32>) -> tensor<2x2048xf32>
     reducer(%arg364: tensor<f32>, %arg365: tensor<f32>)  {
      %3977 = stablehlo.add %arg364, %arg365 : tensor<f32>
      stablehlo.return %3977 : tensor<f32>
    }
    %765 = stablehlo.multiply %764, %0 : tensor<2x2048xf32>
    %766 = stablehlo.reshape %765 : (tensor<2x2048xf32>) -> tensor<2x2048x1xf32>
    %767 = stablehlo.broadcast_in_dim %arg2, dims = [] : (tensor<f32>) -> tensor<2x2048x1xf32>
    %768 = stablehlo.add %766, %767 : tensor<2x2048x1xf32>
    %769 = stablehlo.rsqrt %768 : tensor<2x2048x1xf32>
    %770 = stablehlo.reshape %769 : (tensor<2x2048x1xf32>) -> tensor<2x2048xf32>
    %771 = stablehlo.broadcast_in_dim %770, dims = [0, 1] : (tensor<2x2048xf32>) -> tensor<2x2048x4096xf32>
    %772 = stablehlo.multiply %762, %771 : tensor<2x2048x4096xf32>
    %773 = stablehlo.broadcast_in_dim %arg159, dims = [2] : (tensor<4096xf32>) -> tensor<2x2048x4096xf32>
    %774 = stablehlo.multiply %772, %773 : tensor<2x2048x4096xf32>
    %775 = stablehlo.reshape %774 : (tensor<2x2048x4096xf32>) -> tensor<4096x4096xf32>
    %776 = stablehlo.transpose %arg237, dims = [1, 0] {result_layout = dense<[0, 1]> : tensor<2xindex>, xla_shape = "f32[4096,4096]{0,1}"} : (tensor<4096x4096xf32>) -> tensor<4096x4096xf32>
    %777 = stablehlo.dot %775, %776, precision = [DEFAULT, DEFAULT] : (tensor<4096x4096xf32>, tensor<4096x4096xf32>) -> tensor<4096x4096xf32>
    %778 = stablehlo.reshape %777 : (tensor<4096x4096xf32>) -> tensor<2x2048x32x64x2xf32>
    %779 = stablehlo.slice %778 [0:2, 0:2048, 0:32, 0:64, 0:1] : (tensor<2x2048x32x64x2xf32>) -> tensor<2x2048x32x64x1xf32>
    %780 = stablehlo.reshape %779 : (tensor<2x2048x32x64x1xf32>) -> tensor<2x2048x32x64xf32>
    %781 = stablehlo.slice %778 [0:2, 0:2048, 0:32, 0:64, 1:2] : (tensor<2x2048x32x64x2xf32>) -> tensor<2x2048x32x64x1xf32>
    %782 = stablehlo.reshape %781 : (tensor<2x2048x32x64x1xf32>) -> tensor<2x2048x32x64xf32>
    %783 = stablehlo.complex %780, %782 : tensor<2x2048x32x64xcomplex<f32>>
    %784 = stablehlo.broadcast_in_dim %37, dims = [1, 3] : (tensor<2048x64xcomplex<f32>>) -> tensor<2x2048x32x64xcomplex<f32>>
    %785 = stablehlo.multiply %783, %784 : tensor<2x2048x32x64xcomplex<f32>>
    %786 = stablehlo.real %785 : (tensor<2x2048x32x64xcomplex<f32>>) -> tensor<2x2048x32x64xf32>
    %787 = stablehlo.reshape %786 : (tensor<2x2048x32x64xf32>) -> tensor<2x2048x32x64x1xf32>
    %788 = stablehlo.imag %785 : (tensor<2x2048x32x64xcomplex<f32>>) -> tensor<2x2048x32x64xf32>
    %789 = stablehlo.reshape %788 : (tensor<2x2048x32x64xf32>) -> tensor<2x2048x32x64x1xf32>
    %790 = stablehlo.concatenate %787, %789, dim = 4 : (tensor<2x2048x32x64x1xf32>, tensor<2x2048x32x64x1xf32>) -> tensor<2x2048x32x64x2xf32>
    %791 = stablehlo.reshape %790 : (tensor<2x2048x32x64x2xf32>) -> tensor<2x2048x32x128xf32>
    %792 = stablehlo.transpose %791, dims = [0, 2, 1, 3] {result_layout = dense<[3, 1, 2, 0]> : tensor<4xindex>, xla_shape = "f32[2,32,2048,128]{3,1,2,0}"} : (tensor<2x2048x32x128xf32>) -> tensor<2x32x2048x128xf32>
    %793 = stablehlo.reshape %792 : (tensor<2x32x2048x128xf32>) -> tensor<64x2048x128xf32>
    %794 = stablehlo.compare  LT, %arg199, %2 : (tensor<2048xi64>, tensor<2048xi64>) -> tensor<2048xi1>
    %795 = stablehlo.broadcast_in_dim %arg200, dims = [] : (tensor<i64>) -> tensor<2048xi64>
    %796 = stablehlo.add %arg199, %795 : tensor<2048xi64>
    %797 = stablehlo.select %794, %796, %arg199 : tensor<2048xi1>, tensor<2048xi64>
    %798 = stablehlo.reshape %797 : (tensor<2048xi64>) -> tensor<2048x1xi64>
    %799 = stablehlo.reshape %774 : (tensor<2x2048x4096xf32>) -> tensor<4096x4096xf32>
    %800 = stablehlo.transpose %arg235, dims = [1, 0] {result_layout = dense<[0, 1]> : tensor<2xindex>, xla_shape = "f32[4096,4096]{0,1}"} : (tensor<4096x4096xf32>) -> tensor<4096x4096xf32>
    %801 = stablehlo.dot %799, %800, precision = [DEFAULT, DEFAULT] : (tensor<4096x4096xf32>, tensor<4096x4096xf32>) -> tensor<4096x4096xf32>
    %802 = stablehlo.reshape %801 : (tensor<4096x4096xf32>) -> tensor<2x2048x32x64x2xf32>
    %803 = stablehlo.slice %802 [0:2, 0:2048, 0:32, 0:64, 0:1] : (tensor<2x2048x32x64x2xf32>) -> tensor<2x2048x32x64x1xf32>
    %804 = stablehlo.reshape %803 : (tensor<2x2048x32x64x1xf32>) -> tensor<2x2048x32x64xf32>
    %805 = stablehlo.slice %802 [0:2, 0:2048, 0:32, 0:64, 1:2] : (tensor<2x2048x32x64x2xf32>) -> tensor<2x2048x32x64x1xf32>
    %806 = stablehlo.reshape %805 : (tensor<2x2048x32x64x1xf32>) -> tensor<2x2048x32x64xf32>
    %807 = stablehlo.complex %804, %806 : tensor<2x2048x32x64xcomplex<f32>>
    %808 = stablehlo.broadcast_in_dim %37, dims = [1, 3] : (tensor<2048x64xcomplex<f32>>) -> tensor<2x2048x32x64xcomplex<f32>>
    %809 = stablehlo.multiply %807, %808 : tensor<2x2048x32x64xcomplex<f32>>
    %810 = stablehlo.real %809 : (tensor<2x2048x32x64xcomplex<f32>>) -> tensor<2x2048x32x64xf32>
    %811 = stablehlo.reshape %810 : (tensor<2x2048x32x64xf32>) -> tensor<2x2048x32x64x1xf32>
    %812 = stablehlo.imag %809 : (tensor<2x2048x32x64xcomplex<f32>>) -> tensor<2x2048x32x64xf32>
    %813 = stablehlo.reshape %812 : (tensor<2x2048x32x64xf32>) -> tensor<2x2048x32x64x1xf32>
    %814 = stablehlo.concatenate %811, %813, dim = 4 : (tensor<2x2048x32x64x1xf32>, tensor<2x2048x32x64x1xf32>) -> tensor<2x2048x32x64x2xf32>
    %815 = stablehlo.reshape %814 : (tensor<2x2048x32x64x2xf32>) -> tensor<2x2048x32x128xf32>
    %816 = "stablehlo.scatter"(%arg236, %798, %815) ({
    ^bb0(%arg364: tensor<f32>, %arg365: tensor<f32>):
      stablehlo.return %arg365 : tensor<f32>
    }) {indices_are_sorted = false, scatter_dimension_numbers = #stablehlo.scatter<update_window_dims = [0, 2, 3], inserted_window_dims = [1], scatter_dims_to_operand_dims = [1], index_vector_dim = 1>, unique_indices = false} : (tensor<2x2304x32x128xf32>, tensor<2048x1xi64>, tensor<2x2048x32x128xf32>) -> tensor<2x2304x32x128xf32>
    %817 = stablehlo.convert %arg7 : (tensor<2048xi64>) -> tensor<2048xui32>
    %818 = "stablehlo.gather"(%816, %817) {dimension_numbers = #stablehlo.gather<offset_dims = [0, 2, 3], collapsed_slice_dims = [1], start_index_map = [1], index_vector_dim = 1>, indices_are_sorted = false, slice_sizes = dense<[2, 1, 32, 128]> : tensor<4xi64>} : (tensor<2x2304x32x128xf32>, tensor<2048xui32>) -> tensor<2x2048x32x128xf32>
    %819 = stablehlo.transpose %818, dims = [0, 2, 3, 1] : (tensor<2x2048x32x128xf32>) -> tensor<2x32x128x2048xf32>
    %820 = stablehlo.reshape %819 : (tensor<2x32x128x2048xf32>) -> tensor<64x128x2048xf32>
    %821 = stablehlo.dot_general %793, %820, batching_dims = [0] x [0], contracting_dims = [2] x [1], precision = [DEFAULT, DEFAULT] : (tensor<64x2048x128xf32>, tensor<64x128x2048xf32>) -> tensor<64x2048x2048xf32>
    %822 = stablehlo.reshape %821 : (tensor<64x2048x2048xf32>) -> tensor<2x32x2048x2048xf32>
    %823 = stablehlo.broadcast_in_dim %arg203, dims = [] : (tensor<f32>) -> tensor<2x32x2048x2048xf32>
    %824 = stablehlo.divide %822, %823 : tensor<2x32x2048x2048xf32>
    %825 = stablehlo.reshape %86 : (tensor<1x1x2048x2048xf32>) -> tensor<2048x2048xf32>
    %826 = stablehlo.broadcast_in_dim %825, dims = [2, 3] : (tensor<2048x2048xf32>) -> tensor<2x32x2048x2048xf32>
    %827 = stablehlo.add %824, %826 : tensor<2x32x2048x2048xf32>
    %828 = stablehlo.reduce(%827 init: %7) across dimensions = [3] : (tensor<2x32x2048x2048xf32>, tensor<f32>) -> tensor<2x32x2048xf32>
     reducer(%arg364: tensor<f32>, %arg365: tensor<f32>)  {
      %3977 = stablehlo.maximum %arg364, %arg365 : tensor<f32>
      stablehlo.return %3977 : tensor<f32>
    }
    %829 = stablehlo.broadcast_in_dim %828, dims = [0, 1, 2] : (tensor<2x32x2048xf32>) -> tensor<2x32x2048x2048xf32>
    %830 = stablehlo.subtract %827, %829 : tensor<2x32x2048x2048xf32>
    %831 = stablehlo.exponential %830 : tensor<2x32x2048x2048xf32>
    %832 = stablehlo.reduce(%831 init: %8) across dimensions = [3] : (tensor<2x32x2048x2048xf32>, tensor<f32>) -> tensor<2x32x2048xf32>
     reducer(%arg364: tensor<f32>, %arg365: tensor<f32>)  {
      %3977 = stablehlo.add %arg364, %arg365 : tensor<f32>
      stablehlo.return %3977 : tensor<f32>
    }
    %833 = stablehlo.broadcast_in_dim %832, dims = [0, 1, 2] : (tensor<2x32x2048xf32>) -> tensor<2x32x2048x2048xf32>
    %834 = stablehlo.divide %831, %833 : tensor<2x32x2048x2048xf32>
    %835 = stablehlo.reshape %834 : (tensor<2x32x2048x2048xf32>) -> tensor<64x2048x2048xf32>
    %836 = stablehlo.compare  LT, %arg199, %2 : (tensor<2048xi64>, tensor<2048xi64>) -> tensor<2048xi1>
    %837 = stablehlo.broadcast_in_dim %arg200, dims = [] : (tensor<i64>) -> tensor<2048xi64>
    %838 = stablehlo.add %arg199, %837 : tensor<2048xi64>
    %839 = stablehlo.select %836, %838, %arg199 : tensor<2048xi1>, tensor<2048xi64>
    %840 = stablehlo.reshape %839 : (tensor<2048xi64>) -> tensor<2048x1xi64>
    %841 = stablehlo.reshape %774 : (tensor<2x2048x4096xf32>) -> tensor<4096x4096xf32>
    %842 = stablehlo.transpose %arg158, dims = [1, 0] {result_layout = dense<[0, 1]> : tensor<2xindex>, xla_shape = "f32[4096,4096]{0,1}"} : (tensor<4096x4096xf32>) -> tensor<4096x4096xf32>
    %843 = stablehlo.dot %841, %842, precision = [DEFAULT, DEFAULT] : (tensor<4096x4096xf32>, tensor<4096x4096xf32>) -> tensor<4096x4096xf32>
    %844 = stablehlo.reshape %843 : (tensor<4096x4096xf32>) -> tensor<2x2048x32x128xf32>
    %845 = "stablehlo.scatter"(%arg234, %840, %844) ({
    ^bb0(%arg364: tensor<f32>, %arg365: tensor<f32>):
      stablehlo.return %arg365 : tensor<f32>
    }) {indices_are_sorted = false, scatter_dimension_numbers = #stablehlo.scatter<update_window_dims = [0, 2, 3], inserted_window_dims = [1], scatter_dims_to_operand_dims = [1], index_vector_dim = 1>, unique_indices = false} : (tensor<2x2304x32x128xf32>, tensor<2048x1xi64>, tensor<2x2048x32x128xf32>) -> tensor<2x2304x32x128xf32>
    %846 = stablehlo.convert %arg7 : (tensor<2048xi64>) -> tensor<2048xui32>
    %847 = "stablehlo.gather"(%845, %846) {dimension_numbers = #stablehlo.gather<offset_dims = [0, 2, 3], collapsed_slice_dims = [1], start_index_map = [1], index_vector_dim = 1>, indices_are_sorted = false, slice_sizes = dense<[2, 1, 32, 128]> : tensor<4xi64>} : (tensor<2x2304x32x128xf32>, tensor<2048xui32>) -> tensor<2x2048x32x128xf32>
    %848 = stablehlo.transpose %847, dims = [0, 2, 1, 3] {result_layout = dense<[3, 1, 2, 0]> : tensor<4xindex>, xla_shape = "f32[2,32,2048,128]{3,1,2,0}"} : (tensor<2x2048x32x128xf32>) -> tensor<2x32x2048x128xf32>
    %849 = stablehlo.reshape %848 : (tensor<2x32x2048x128xf32>) -> tensor<64x2048x128xf32>
    %850 = stablehlo.dot_general %835, %849, batching_dims = [0] x [0], contracting_dims = [2] x [1], precision = [DEFAULT, DEFAULT] : (tensor<64x2048x2048xf32>, tensor<64x2048x128xf32>) -> tensor<64x2048x128xf32>
    %851 = stablehlo.reshape %850 : (tensor<64x2048x128xf32>) -> tensor<2x32x2048x128xf32>
    %852 = stablehlo.transpose %851, dims = [0, 2, 1, 3] {result_layout = dense<[3, 1, 2, 0]> : tensor<4xindex>, xla_shape = "f32[2,2048,32,128]{3,1,2,0}"} : (tensor<2x32x2048x128xf32>) -> tensor<2x2048x32x128xf32>
    %853 = stablehlo.reshape %852 : (tensor<2x2048x32x128xf32>) -> tensor<4096x4096xf32>
    %854 = stablehlo.transpose %arg157, dims = [1, 0] {result_layout = dense<[0, 1]> : tensor<2xindex>, xla_shape = "f32[4096,4096]{0,1}"} : (tensor<4096x4096xf32>) -> tensor<4096x4096xf32>
    %855 = stablehlo.dot %853, %854, precision = [DEFAULT, DEFAULT] : (tensor<4096x4096xf32>, tensor<4096x4096xf32>) -> tensor<4096x4096xf32>
    %856 = stablehlo.reshape %855 : (tensor<4096x4096xf32>) -> tensor<2x2048x4096xf32>
    %857 = stablehlo.add %762, %856 : tensor<2x2048x4096xf32>
    %858 = stablehlo.power %857, %1 : tensor<2x2048x4096xf32>
    %859 = stablehlo.reduce(%858 init: %8) across dimensions = [2] : (tensor<2x2048x4096xf32>, tensor<f32>) -> tensor<2x2048xf32>
     reducer(%arg364: tensor<f32>, %arg365: tensor<f32>)  {
      %3977 = stablehlo.add %arg364, %arg365 : tensor<f32>
      stablehlo.return %3977 : tensor<f32>
    }
    %860 = stablehlo.multiply %859, %0 : tensor<2x2048xf32>
    %861 = stablehlo.reshape %860 : (tensor<2x2048xf32>) -> tensor<2x2048x1xf32>
    %862 = stablehlo.broadcast_in_dim %arg2, dims = [] : (tensor<f32>) -> tensor<2x2048x1xf32>
    %863 = stablehlo.add %861, %862 : tensor<2x2048x1xf32>
    %864 = stablehlo.rsqrt %863 : tensor<2x2048x1xf32>
    %865 = stablehlo.reshape %864 : (tensor<2x2048x1xf32>) -> tensor<2x2048xf32>
    %866 = stablehlo.broadcast_in_dim %865, dims = [0, 1] : (tensor<2x2048xf32>) -> tensor<2x2048x4096xf32>
    %867 = stablehlo.multiply %857, %866 : tensor<2x2048x4096xf32>
    %868 = stablehlo.broadcast_in_dim %arg156, dims = [2] : (tensor<4096xf32>) -> tensor<2x2048x4096xf32>
    %869 = stablehlo.multiply %867, %868 : tensor<2x2048x4096xf32>
    %870 = stablehlo.reshape %869 : (tensor<2x2048x4096xf32>) -> tensor<4096x4096xf32>
    %871 = stablehlo.transpose %arg238, dims = [1, 0] {result_layout = dense<[0, 1]> : tensor<2xindex>, xla_shape = "f32[4096,11008]{0,1}"} : (tensor<11008x4096xf32>) -> tensor<4096x11008xf32>
    %872 = stablehlo.dot %870, %871, precision = [DEFAULT, DEFAULT] : (tensor<4096x4096xf32>, tensor<4096x11008xf32>) -> tensor<4096x11008xf32>
    %873 = stablehlo.reshape %872 : (tensor<4096x11008xf32>) -> tensor<2x2048x11008xf32>
    %874 = stablehlo.logistic %873 : tensor<2x2048x11008xf32>
    %875 = stablehlo.multiply %873, %874 : tensor<2x2048x11008xf32>
    %876 = stablehlo.reshape %869 : (tensor<2x2048x4096xf32>) -> tensor<4096x4096xf32>
    %877 = stablehlo.transpose %arg155, dims = [1, 0] {result_layout = dense<[0, 1]> : tensor<2xindex>, xla_shape = "f32[4096,11008]{0,1}"} : (tensor<11008x4096xf32>) -> tensor<4096x11008xf32>
    %878 = stablehlo.dot %876, %877, precision = [DEFAULT, DEFAULT] : (tensor<4096x4096xf32>, tensor<4096x11008xf32>) -> tensor<4096x11008xf32>
    %879 = stablehlo.reshape %878 : (tensor<4096x11008xf32>) -> tensor<2x2048x11008xf32>
    %880 = stablehlo.multiply %875, %879 : tensor<2x2048x11008xf32>
    %881 = stablehlo.reshape %880 : (tensor<2x2048x11008xf32>) -> tensor<4096x11008xf32>
    %882 = stablehlo.transpose %arg154, dims = [1, 0] {result_layout = dense<[0, 1]> : tensor<2xindex>, xla_shape = "f32[11008,4096]{0,1}"} : (tensor<4096x11008xf32>) -> tensor<11008x4096xf32>
    %883 = stablehlo.dot %881, %882, precision = [DEFAULT, DEFAULT] : (tensor<4096x11008xf32>, tensor<11008x4096xf32>) -> tensor<4096x4096xf32>
    %884 = stablehlo.reshape %883 : (tensor<4096x4096xf32>) -> tensor<2x2048x4096xf32>
    %885 = stablehlo.add %857, %884 : tensor<2x2048x4096xf32>
    %886 = stablehlo.power %885, %1 : tensor<2x2048x4096xf32>
    %887 = stablehlo.reduce(%886 init: %8) across dimensions = [2] : (tensor<2x2048x4096xf32>, tensor<f32>) -> tensor<2x2048xf32>
     reducer(%arg364: tensor<f32>, %arg365: tensor<f32>)  {
      %3977 = stablehlo.add %arg364, %arg365 : tensor<f32>
      stablehlo.return %3977 : tensor<f32>
    }
    %888 = stablehlo.multiply %887, %0 : tensor<2x2048xf32>
    %889 = stablehlo.reshape %888 : (tensor<2x2048xf32>) -> tensor<2x2048x1xf32>
    %890 = stablehlo.broadcast_in_dim %arg2, dims = [] : (tensor<f32>) -> tensor<2x2048x1xf32>
    %891 = stablehlo.add %889, %890 : tensor<2x2048x1xf32>
    %892 = stablehlo.rsqrt %891 : tensor<2x2048x1xf32>
    %893 = stablehlo.reshape %892 : (tensor<2x2048x1xf32>) -> tensor<2x2048xf32>
    %894 = stablehlo.broadcast_in_dim %893, dims = [0, 1] : (tensor<2x2048xf32>) -> tensor<2x2048x4096xf32>
    %895 = stablehlo.multiply %885, %894 : tensor<2x2048x4096xf32>
    %896 = stablehlo.broadcast_in_dim %arg153, dims = [2] : (tensor<4096xf32>) -> tensor<2x2048x4096xf32>
    %897 = stablehlo.multiply %895, %896 : tensor<2x2048x4096xf32>
    %898 = stablehlo.reshape %897 : (tensor<2x2048x4096xf32>) -> tensor<4096x4096xf32>
    %899 = stablehlo.transpose %arg242, dims = [1, 0] {result_layout = dense<[0, 1]> : tensor<2xindex>, xla_shape = "f32[4096,4096]{0,1}"} : (tensor<4096x4096xf32>) -> tensor<4096x4096xf32>
    %900 = stablehlo.dot %898, %899, precision = [DEFAULT, DEFAULT] : (tensor<4096x4096xf32>, tensor<4096x4096xf32>) -> tensor<4096x4096xf32>
    %901 = stablehlo.reshape %900 : (tensor<4096x4096xf32>) -> tensor<2x2048x32x64x2xf32>
    %902 = stablehlo.slice %901 [0:2, 0:2048, 0:32, 0:64, 0:1] : (tensor<2x2048x32x64x2xf32>) -> tensor<2x2048x32x64x1xf32>
    %903 = stablehlo.reshape %902 : (tensor<2x2048x32x64x1xf32>) -> tensor<2x2048x32x64xf32>
    %904 = stablehlo.slice %901 [0:2, 0:2048, 0:32, 0:64, 1:2] : (tensor<2x2048x32x64x2xf32>) -> tensor<2x2048x32x64x1xf32>
    %905 = stablehlo.reshape %904 : (tensor<2x2048x32x64x1xf32>) -> tensor<2x2048x32x64xf32>
    %906 = stablehlo.complex %903, %905 : tensor<2x2048x32x64xcomplex<f32>>
    %907 = stablehlo.broadcast_in_dim %37, dims = [1, 3] : (tensor<2048x64xcomplex<f32>>) -> tensor<2x2048x32x64xcomplex<f32>>
    %908 = stablehlo.multiply %906, %907 : tensor<2x2048x32x64xcomplex<f32>>
    %909 = stablehlo.real %908 : (tensor<2x2048x32x64xcomplex<f32>>) -> tensor<2x2048x32x64xf32>
    %910 = stablehlo.reshape %909 : (tensor<2x2048x32x64xf32>) -> tensor<2x2048x32x64x1xf32>
    %911 = stablehlo.imag %908 : (tensor<2x2048x32x64xcomplex<f32>>) -> tensor<2x2048x32x64xf32>
    %912 = stablehlo.reshape %911 : (tensor<2x2048x32x64xf32>) -> tensor<2x2048x32x64x1xf32>
    %913 = stablehlo.concatenate %910, %912, dim = 4 : (tensor<2x2048x32x64x1xf32>, tensor<2x2048x32x64x1xf32>) -> tensor<2x2048x32x64x2xf32>
    %914 = stablehlo.reshape %913 : (tensor<2x2048x32x64x2xf32>) -> tensor<2x2048x32x128xf32>
    %915 = stablehlo.transpose %914, dims = [0, 2, 1, 3] {result_layout = dense<[3, 1, 2, 0]> : tensor<4xindex>, xla_shape = "f32[2,32,2048,128]{3,1,2,0}"} : (tensor<2x2048x32x128xf32>) -> tensor<2x32x2048x128xf32>
    %916 = stablehlo.reshape %915 : (tensor<2x32x2048x128xf32>) -> tensor<64x2048x128xf32>
    %917 = stablehlo.compare  LT, %arg199, %2 : (tensor<2048xi64>, tensor<2048xi64>) -> tensor<2048xi1>
    %918 = stablehlo.broadcast_in_dim %arg200, dims = [] : (tensor<i64>) -> tensor<2048xi64>
    %919 = stablehlo.add %arg199, %918 : tensor<2048xi64>
    %920 = stablehlo.select %917, %919, %arg199 : tensor<2048xi1>, tensor<2048xi64>
    %921 = stablehlo.reshape %920 : (tensor<2048xi64>) -> tensor<2048x1xi64>
    %922 = stablehlo.reshape %897 : (tensor<2x2048x4096xf32>) -> tensor<4096x4096xf32>
    %923 = stablehlo.transpose %arg240, dims = [1, 0] {result_layout = dense<[0, 1]> : tensor<2xindex>, xla_shape = "f32[4096,4096]{0,1}"} : (tensor<4096x4096xf32>) -> tensor<4096x4096xf32>
    %924 = stablehlo.dot %922, %923, precision = [DEFAULT, DEFAULT] : (tensor<4096x4096xf32>, tensor<4096x4096xf32>) -> tensor<4096x4096xf32>
    %925 = stablehlo.reshape %924 : (tensor<4096x4096xf32>) -> tensor<2x2048x32x64x2xf32>
    %926 = stablehlo.slice %925 [0:2, 0:2048, 0:32, 0:64, 0:1] : (tensor<2x2048x32x64x2xf32>) -> tensor<2x2048x32x64x1xf32>
    %927 = stablehlo.reshape %926 : (tensor<2x2048x32x64x1xf32>) -> tensor<2x2048x32x64xf32>
    %928 = stablehlo.slice %925 [0:2, 0:2048, 0:32, 0:64, 1:2] : (tensor<2x2048x32x64x2xf32>) -> tensor<2x2048x32x64x1xf32>
    %929 = stablehlo.reshape %928 : (tensor<2x2048x32x64x1xf32>) -> tensor<2x2048x32x64xf32>
    %930 = stablehlo.complex %927, %929 : tensor<2x2048x32x64xcomplex<f32>>
    %931 = stablehlo.broadcast_in_dim %37, dims = [1, 3] : (tensor<2048x64xcomplex<f32>>) -> tensor<2x2048x32x64xcomplex<f32>>
    %932 = stablehlo.multiply %930, %931 : tensor<2x2048x32x64xcomplex<f32>>
    %933 = stablehlo.real %932 : (tensor<2x2048x32x64xcomplex<f32>>) -> tensor<2x2048x32x64xf32>
    %934 = stablehlo.reshape %933 : (tensor<2x2048x32x64xf32>) -> tensor<2x2048x32x64x1xf32>
    %935 = stablehlo.imag %932 : (tensor<2x2048x32x64xcomplex<f32>>) -> tensor<2x2048x32x64xf32>
    %936 = stablehlo.reshape %935 : (tensor<2x2048x32x64xf32>) -> tensor<2x2048x32x64x1xf32>
    %937 = stablehlo.concatenate %934, %936, dim = 4 : (tensor<2x2048x32x64x1xf32>, tensor<2x2048x32x64x1xf32>) -> tensor<2x2048x32x64x2xf32>
    %938 = stablehlo.reshape %937 : (tensor<2x2048x32x64x2xf32>) -> tensor<2x2048x32x128xf32>
    %939 = "stablehlo.scatter"(%arg241, %921, %938) ({
    ^bb0(%arg364: tensor<f32>, %arg365: tensor<f32>):
      stablehlo.return %arg365 : tensor<f32>
    }) {indices_are_sorted = false, scatter_dimension_numbers = #stablehlo.scatter<update_window_dims = [0, 2, 3], inserted_window_dims = [1], scatter_dims_to_operand_dims = [1], index_vector_dim = 1>, unique_indices = false} : (tensor<2x2304x32x128xf32>, tensor<2048x1xi64>, tensor<2x2048x32x128xf32>) -> tensor<2x2304x32x128xf32>
    %940 = stablehlo.convert %arg7 : (tensor<2048xi64>) -> tensor<2048xui32>
    %941 = "stablehlo.gather"(%939, %940) {dimension_numbers = #stablehlo.gather<offset_dims = [0, 2, 3], collapsed_slice_dims = [1], start_index_map = [1], index_vector_dim = 1>, indices_are_sorted = false, slice_sizes = dense<[2, 1, 32, 128]> : tensor<4xi64>} : (tensor<2x2304x32x128xf32>, tensor<2048xui32>) -> tensor<2x2048x32x128xf32>
    %942 = stablehlo.transpose %941, dims = [0, 2, 3, 1] : (tensor<2x2048x32x128xf32>) -> tensor<2x32x128x2048xf32>
    %943 = stablehlo.reshape %942 : (tensor<2x32x128x2048xf32>) -> tensor<64x128x2048xf32>
    %944 = stablehlo.dot_general %916, %943, batching_dims = [0] x [0], contracting_dims = [2] x [1], precision = [DEFAULT, DEFAULT] : (tensor<64x2048x128xf32>, tensor<64x128x2048xf32>) -> tensor<64x2048x2048xf32>
    %945 = stablehlo.reshape %944 : (tensor<64x2048x2048xf32>) -> tensor<2x32x2048x2048xf32>
    %946 = stablehlo.broadcast_in_dim %arg203, dims = [] : (tensor<f32>) -> tensor<2x32x2048x2048xf32>
    %947 = stablehlo.divide %945, %946 : tensor<2x32x2048x2048xf32>
    %948 = stablehlo.reshape %86 : (tensor<1x1x2048x2048xf32>) -> tensor<2048x2048xf32>
    %949 = stablehlo.broadcast_in_dim %948, dims = [2, 3] : (tensor<2048x2048xf32>) -> tensor<2x32x2048x2048xf32>
    %950 = stablehlo.add %947, %949 : tensor<2x32x2048x2048xf32>
    %951 = stablehlo.reduce(%950 init: %7) across dimensions = [3] : (tensor<2x32x2048x2048xf32>, tensor<f32>) -> tensor<2x32x2048xf32>
     reducer(%arg364: tensor<f32>, %arg365: tensor<f32>)  {
      %3977 = stablehlo.maximum %arg364, %arg365 : tensor<f32>
      stablehlo.return %3977 : tensor<f32>
    }
    %952 = stablehlo.broadcast_in_dim %951, dims = [0, 1, 2] : (tensor<2x32x2048xf32>) -> tensor<2x32x2048x2048xf32>
    %953 = stablehlo.subtract %950, %952 : tensor<2x32x2048x2048xf32>
    %954 = stablehlo.exponential %953 : tensor<2x32x2048x2048xf32>
    %955 = stablehlo.reduce(%954 init: %8) across dimensions = [3] : (tensor<2x32x2048x2048xf32>, tensor<f32>) -> tensor<2x32x2048xf32>
     reducer(%arg364: tensor<f32>, %arg365: tensor<f32>)  {
      %3977 = stablehlo.add %arg364, %arg365 : tensor<f32>
      stablehlo.return %3977 : tensor<f32>
    }
    %956 = stablehlo.broadcast_in_dim %955, dims = [0, 1, 2] : (tensor<2x32x2048xf32>) -> tensor<2x32x2048x2048xf32>
    %957 = stablehlo.divide %954, %956 : tensor<2x32x2048x2048xf32>
    %958 = stablehlo.reshape %957 : (tensor<2x32x2048x2048xf32>) -> tensor<64x2048x2048xf32>
    %959 = stablehlo.compare  LT, %arg199, %2 : (tensor<2048xi64>, tensor<2048xi64>) -> tensor<2048xi1>
    %960 = stablehlo.broadcast_in_dim %arg200, dims = [] : (tensor<i64>) -> tensor<2048xi64>
    %961 = stablehlo.add %arg199, %960 : tensor<2048xi64>
    %962 = stablehlo.select %959, %961, %arg199 : tensor<2048xi1>, tensor<2048xi64>
    %963 = stablehlo.reshape %962 : (tensor<2048xi64>) -> tensor<2048x1xi64>
    %964 = stablehlo.reshape %897 : (tensor<2x2048x4096xf32>) -> tensor<4096x4096xf32>
    %965 = stablehlo.transpose %arg152, dims = [1, 0] {result_layout = dense<[0, 1]> : tensor<2xindex>, xla_shape = "f32[4096,4096]{0,1}"} : (tensor<4096x4096xf32>) -> tensor<4096x4096xf32>
    %966 = stablehlo.dot %964, %965, precision = [DEFAULT, DEFAULT] : (tensor<4096x4096xf32>, tensor<4096x4096xf32>) -> tensor<4096x4096xf32>
    %967 = stablehlo.reshape %966 : (tensor<4096x4096xf32>) -> tensor<2x2048x32x128xf32>
    %968 = "stablehlo.scatter"(%arg239, %963, %967) ({
    ^bb0(%arg364: tensor<f32>, %arg365: tensor<f32>):
      stablehlo.return %arg365 : tensor<f32>
    }) {indices_are_sorted = false, scatter_dimension_numbers = #stablehlo.scatter<update_window_dims = [0, 2, 3], inserted_window_dims = [1], scatter_dims_to_operand_dims = [1], index_vector_dim = 1>, unique_indices = false} : (tensor<2x2304x32x128xf32>, tensor<2048x1xi64>, tensor<2x2048x32x128xf32>) -> tensor<2x2304x32x128xf32>
    %969 = stablehlo.convert %arg7 : (tensor<2048xi64>) -> tensor<2048xui32>
    %970 = "stablehlo.gather"(%968, %969) {dimension_numbers = #stablehlo.gather<offset_dims = [0, 2, 3], collapsed_slice_dims = [1], start_index_map = [1], index_vector_dim = 1>, indices_are_sorted = false, slice_sizes = dense<[2, 1, 32, 128]> : tensor<4xi64>} : (tensor<2x2304x32x128xf32>, tensor<2048xui32>) -> tensor<2x2048x32x128xf32>
    %971 = stablehlo.transpose %970, dims = [0, 2, 1, 3] {result_layout = dense<[3, 1, 2, 0]> : tensor<4xindex>, xla_shape = "f32[2,32,2048,128]{3,1,2,0}"} : (tensor<2x2048x32x128xf32>) -> tensor<2x32x2048x128xf32>
    %972 = stablehlo.reshape %971 : (tensor<2x32x2048x128xf32>) -> tensor<64x2048x128xf32>
    %973 = stablehlo.dot_general %958, %972, batching_dims = [0] x [0], contracting_dims = [2] x [1], precision = [DEFAULT, DEFAULT] : (tensor<64x2048x2048xf32>, tensor<64x2048x128xf32>) -> tensor<64x2048x128xf32>
    %974 = stablehlo.reshape %973 : (tensor<64x2048x128xf32>) -> tensor<2x32x2048x128xf32>
    %975 = stablehlo.transpose %974, dims = [0, 2, 1, 3] {result_layout = dense<[3, 1, 2, 0]> : tensor<4xindex>, xla_shape = "f32[2,2048,32,128]{3,1,2,0}"} : (tensor<2x32x2048x128xf32>) -> tensor<2x2048x32x128xf32>
    %976 = stablehlo.reshape %975 : (tensor<2x2048x32x128xf32>) -> tensor<4096x4096xf32>
    %977 = stablehlo.transpose %arg151, dims = [1, 0] {result_layout = dense<[0, 1]> : tensor<2xindex>, xla_shape = "f32[4096,4096]{0,1}"} : (tensor<4096x4096xf32>) -> tensor<4096x4096xf32>
    %978 = stablehlo.dot %976, %977, precision = [DEFAULT, DEFAULT] : (tensor<4096x4096xf32>, tensor<4096x4096xf32>) -> tensor<4096x4096xf32>
    %979 = stablehlo.reshape %978 : (tensor<4096x4096xf32>) -> tensor<2x2048x4096xf32>
    %980 = stablehlo.add %885, %979 : tensor<2x2048x4096xf32>
    %981 = stablehlo.power %980, %1 : tensor<2x2048x4096xf32>
    %982 = stablehlo.reduce(%981 init: %8) across dimensions = [2] : (tensor<2x2048x4096xf32>, tensor<f32>) -> tensor<2x2048xf32>
     reducer(%arg364: tensor<f32>, %arg365: tensor<f32>)  {
      %3977 = stablehlo.add %arg364, %arg365 : tensor<f32>
      stablehlo.return %3977 : tensor<f32>
    }
    %983 = stablehlo.multiply %982, %0 : tensor<2x2048xf32>
    %984 = stablehlo.reshape %983 : (tensor<2x2048xf32>) -> tensor<2x2048x1xf32>
    %985 = stablehlo.broadcast_in_dim %arg2, dims = [] : (tensor<f32>) -> tensor<2x2048x1xf32>
    %986 = stablehlo.add %984, %985 : tensor<2x2048x1xf32>
    %987 = stablehlo.rsqrt %986 : tensor<2x2048x1xf32>
    %988 = stablehlo.reshape %987 : (tensor<2x2048x1xf32>) -> tensor<2x2048xf32>
    %989 = stablehlo.broadcast_in_dim %988, dims = [0, 1] : (tensor<2x2048xf32>) -> tensor<2x2048x4096xf32>
    %990 = stablehlo.multiply %980, %989 : tensor<2x2048x4096xf32>
    %991 = stablehlo.broadcast_in_dim %arg150, dims = [2] : (tensor<4096xf32>) -> tensor<2x2048x4096xf32>
    %992 = stablehlo.multiply %990, %991 : tensor<2x2048x4096xf32>
    %993 = stablehlo.reshape %992 : (tensor<2x2048x4096xf32>) -> tensor<4096x4096xf32>
    %994 = stablehlo.transpose %arg243, dims = [1, 0] {result_layout = dense<[0, 1]> : tensor<2xindex>, xla_shape = "f32[4096,11008]{0,1}"} : (tensor<11008x4096xf32>) -> tensor<4096x11008xf32>
    %995 = stablehlo.dot %993, %994, precision = [DEFAULT, DEFAULT] : (tensor<4096x4096xf32>, tensor<4096x11008xf32>) -> tensor<4096x11008xf32>
    %996 = stablehlo.reshape %995 : (tensor<4096x11008xf32>) -> tensor<2x2048x11008xf32>
    %997 = stablehlo.logistic %996 : tensor<2x2048x11008xf32>
    %998 = stablehlo.multiply %996, %997 : tensor<2x2048x11008xf32>
    %999 = stablehlo.reshape %992 : (tensor<2x2048x4096xf32>) -> tensor<4096x4096xf32>
    %1000 = stablehlo.transpose %arg149, dims = [1, 0] {result_layout = dense<[0, 1]> : tensor<2xindex>, xla_shape = "f32[4096,11008]{0,1}"} : (tensor<11008x4096xf32>) -> tensor<4096x11008xf32>
    %1001 = stablehlo.dot %999, %1000, precision = [DEFAULT, DEFAULT] : (tensor<4096x4096xf32>, tensor<4096x11008xf32>) -> tensor<4096x11008xf32>
    %1002 = stablehlo.reshape %1001 : (tensor<4096x11008xf32>) -> tensor<2x2048x11008xf32>
    %1003 = stablehlo.multiply %998, %1002 : tensor<2x2048x11008xf32>
    %1004 = stablehlo.reshape %1003 : (tensor<2x2048x11008xf32>) -> tensor<4096x11008xf32>
    %1005 = stablehlo.transpose %arg148, dims = [1, 0] {result_layout = dense<[0, 1]> : tensor<2xindex>, xla_shape = "f32[11008,4096]{0,1}"} : (tensor<4096x11008xf32>) -> tensor<11008x4096xf32>
    %1006 = stablehlo.dot %1004, %1005, precision = [DEFAULT, DEFAULT] : (tensor<4096x11008xf32>, tensor<11008x4096xf32>) -> tensor<4096x4096xf32>
    %1007 = stablehlo.reshape %1006 : (tensor<4096x4096xf32>) -> tensor<2x2048x4096xf32>
    %1008 = stablehlo.add %980, %1007 : tensor<2x2048x4096xf32>
    %1009 = stablehlo.power %1008, %1 : tensor<2x2048x4096xf32>
    %1010 = stablehlo.reduce(%1009 init: %8) across dimensions = [2] : (tensor<2x2048x4096xf32>, tensor<f32>) -> tensor<2x2048xf32>
     reducer(%arg364: tensor<f32>, %arg365: tensor<f32>)  {
      %3977 = stablehlo.add %arg364, %arg365 : tensor<f32>
      stablehlo.return %3977 : tensor<f32>
    }
    %1011 = stablehlo.multiply %1010, %0 : tensor<2x2048xf32>
    %1012 = stablehlo.reshape %1011 : (tensor<2x2048xf32>) -> tensor<2x2048x1xf32>
    %1013 = stablehlo.broadcast_in_dim %arg2, dims = [] : (tensor<f32>) -> tensor<2x2048x1xf32>
    %1014 = stablehlo.add %1012, %1013 : tensor<2x2048x1xf32>
    %1015 = stablehlo.rsqrt %1014 : tensor<2x2048x1xf32>
    %1016 = stablehlo.reshape %1015 : (tensor<2x2048x1xf32>) -> tensor<2x2048xf32>
    %1017 = stablehlo.broadcast_in_dim %1016, dims = [0, 1] : (tensor<2x2048xf32>) -> tensor<2x2048x4096xf32>
    %1018 = stablehlo.multiply %1008, %1017 : tensor<2x2048x4096xf32>
    %1019 = stablehlo.broadcast_in_dim %arg147, dims = [2] : (tensor<4096xf32>) -> tensor<2x2048x4096xf32>
    %1020 = stablehlo.multiply %1018, %1019 : tensor<2x2048x4096xf32>
    %1021 = stablehlo.reshape %1020 : (tensor<2x2048x4096xf32>) -> tensor<4096x4096xf32>
    %1022 = stablehlo.transpose %arg247, dims = [1, 0] {result_layout = dense<[0, 1]> : tensor<2xindex>, xla_shape = "f32[4096,4096]{0,1}"} : (tensor<4096x4096xf32>) -> tensor<4096x4096xf32>
    %1023 = stablehlo.dot %1021, %1022, precision = [DEFAULT, DEFAULT] : (tensor<4096x4096xf32>, tensor<4096x4096xf32>) -> tensor<4096x4096xf32>
    %1024 = stablehlo.reshape %1023 : (tensor<4096x4096xf32>) -> tensor<2x2048x32x64x2xf32>
    %1025 = stablehlo.slice %1024 [0:2, 0:2048, 0:32, 0:64, 0:1] : (tensor<2x2048x32x64x2xf32>) -> tensor<2x2048x32x64x1xf32>
    %1026 = stablehlo.reshape %1025 : (tensor<2x2048x32x64x1xf32>) -> tensor<2x2048x32x64xf32>
    %1027 = stablehlo.slice %1024 [0:2, 0:2048, 0:32, 0:64, 1:2] : (tensor<2x2048x32x64x2xf32>) -> tensor<2x2048x32x64x1xf32>
    %1028 = stablehlo.reshape %1027 : (tensor<2x2048x32x64x1xf32>) -> tensor<2x2048x32x64xf32>
    %1029 = stablehlo.complex %1026, %1028 : tensor<2x2048x32x64xcomplex<f32>>
    %1030 = stablehlo.broadcast_in_dim %37, dims = [1, 3] : (tensor<2048x64xcomplex<f32>>) -> tensor<2x2048x32x64xcomplex<f32>>
    %1031 = stablehlo.multiply %1029, %1030 : tensor<2x2048x32x64xcomplex<f32>>
    %1032 = stablehlo.real %1031 : (tensor<2x2048x32x64xcomplex<f32>>) -> tensor<2x2048x32x64xf32>
    %1033 = stablehlo.reshape %1032 : (tensor<2x2048x32x64xf32>) -> tensor<2x2048x32x64x1xf32>
    %1034 = stablehlo.imag %1031 : (tensor<2x2048x32x64xcomplex<f32>>) -> tensor<2x2048x32x64xf32>
    %1035 = stablehlo.reshape %1034 : (tensor<2x2048x32x64xf32>) -> tensor<2x2048x32x64x1xf32>
    %1036 = stablehlo.concatenate %1033, %1035, dim = 4 : (tensor<2x2048x32x64x1xf32>, tensor<2x2048x32x64x1xf32>) -> tensor<2x2048x32x64x2xf32>
    %1037 = stablehlo.reshape %1036 : (tensor<2x2048x32x64x2xf32>) -> tensor<2x2048x32x128xf32>
    %1038 = stablehlo.transpose %1037, dims = [0, 2, 1, 3] {result_layout = dense<[3, 1, 2, 0]> : tensor<4xindex>, xla_shape = "f32[2,32,2048,128]{3,1,2,0}"} : (tensor<2x2048x32x128xf32>) -> tensor<2x32x2048x128xf32>
    %1039 = stablehlo.reshape %1038 : (tensor<2x32x2048x128xf32>) -> tensor<64x2048x128xf32>
    %1040 = stablehlo.compare  LT, %arg199, %2 : (tensor<2048xi64>, tensor<2048xi64>) -> tensor<2048xi1>
    %1041 = stablehlo.broadcast_in_dim %arg200, dims = [] : (tensor<i64>) -> tensor<2048xi64>
    %1042 = stablehlo.add %arg199, %1041 : tensor<2048xi64>
    %1043 = stablehlo.select %1040, %1042, %arg199 : tensor<2048xi1>, tensor<2048xi64>
    %1044 = stablehlo.reshape %1043 : (tensor<2048xi64>) -> tensor<2048x1xi64>
    %1045 = stablehlo.reshape %1020 : (tensor<2x2048x4096xf32>) -> tensor<4096x4096xf32>
    %1046 = stablehlo.transpose %arg245, dims = [1, 0] {result_layout = dense<[0, 1]> : tensor<2xindex>, xla_shape = "f32[4096,4096]{0,1}"} : (tensor<4096x4096xf32>) -> tensor<4096x4096xf32>
    %1047 = stablehlo.dot %1045, %1046, precision = [DEFAULT, DEFAULT] : (tensor<4096x4096xf32>, tensor<4096x4096xf32>) -> tensor<4096x4096xf32>
    %1048 = stablehlo.reshape %1047 : (tensor<4096x4096xf32>) -> tensor<2x2048x32x64x2xf32>
    %1049 = stablehlo.slice %1048 [0:2, 0:2048, 0:32, 0:64, 0:1] : (tensor<2x2048x32x64x2xf32>) -> tensor<2x2048x32x64x1xf32>
    %1050 = stablehlo.reshape %1049 : (tensor<2x2048x32x64x1xf32>) -> tensor<2x2048x32x64xf32>
    %1051 = stablehlo.slice %1048 [0:2, 0:2048, 0:32, 0:64, 1:2] : (tensor<2x2048x32x64x2xf32>) -> tensor<2x2048x32x64x1xf32>
    %1052 = stablehlo.reshape %1051 : (tensor<2x2048x32x64x1xf32>) -> tensor<2x2048x32x64xf32>
    %1053 = stablehlo.complex %1050, %1052 : tensor<2x2048x32x64xcomplex<f32>>
    %1054 = stablehlo.broadcast_in_dim %37, dims = [1, 3] : (tensor<2048x64xcomplex<f32>>) -> tensor<2x2048x32x64xcomplex<f32>>
    %1055 = stablehlo.multiply %1053, %1054 : tensor<2x2048x32x64xcomplex<f32>>
    %1056 = stablehlo.real %1055 : (tensor<2x2048x32x64xcomplex<f32>>) -> tensor<2x2048x32x64xf32>
    %1057 = stablehlo.reshape %1056 : (tensor<2x2048x32x64xf32>) -> tensor<2x2048x32x64x1xf32>
    %1058 = stablehlo.imag %1055 : (tensor<2x2048x32x64xcomplex<f32>>) -> tensor<2x2048x32x64xf32>
    %1059 = stablehlo.reshape %1058 : (tensor<2x2048x32x64xf32>) -> tensor<2x2048x32x64x1xf32>
    %1060 = stablehlo.concatenate %1057, %1059, dim = 4 : (tensor<2x2048x32x64x1xf32>, tensor<2x2048x32x64x1xf32>) -> tensor<2x2048x32x64x2xf32>
    %1061 = stablehlo.reshape %1060 : (tensor<2x2048x32x64x2xf32>) -> tensor<2x2048x32x128xf32>
    %1062 = "stablehlo.scatter"(%arg246, %1044, %1061) ({
    ^bb0(%arg364: tensor<f32>, %arg365: tensor<f32>):
      stablehlo.return %arg365 : tensor<f32>
    }) {indices_are_sorted = false, scatter_dimension_numbers = #stablehlo.scatter<update_window_dims = [0, 2, 3], inserted_window_dims = [1], scatter_dims_to_operand_dims = [1], index_vector_dim = 1>, unique_indices = false} : (tensor<2x2304x32x128xf32>, tensor<2048x1xi64>, tensor<2x2048x32x128xf32>) -> tensor<2x2304x32x128xf32>
    %1063 = stablehlo.convert %arg7 : (tensor<2048xi64>) -> tensor<2048xui32>
    %1064 = "stablehlo.gather"(%1062, %1063) {dimension_numbers = #stablehlo.gather<offset_dims = [0, 2, 3], collapsed_slice_dims = [1], start_index_map = [1], index_vector_dim = 1>, indices_are_sorted = false, slice_sizes = dense<[2, 1, 32, 128]> : tensor<4xi64>} : (tensor<2x2304x32x128xf32>, tensor<2048xui32>) -> tensor<2x2048x32x128xf32>
    %1065 = stablehlo.transpose %1064, dims = [0, 2, 3, 1] : (tensor<2x2048x32x128xf32>) -> tensor<2x32x128x2048xf32>
    %1066 = stablehlo.reshape %1065 : (tensor<2x32x128x2048xf32>) -> tensor<64x128x2048xf32>
    %1067 = stablehlo.dot_general %1039, %1066, batching_dims = [0] x [0], contracting_dims = [2] x [1], precision = [DEFAULT, DEFAULT] : (tensor<64x2048x128xf32>, tensor<64x128x2048xf32>) -> tensor<64x2048x2048xf32>
    %1068 = stablehlo.reshape %1067 : (tensor<64x2048x2048xf32>) -> tensor<2x32x2048x2048xf32>
    %1069 = stablehlo.broadcast_in_dim %arg203, dims = [] : (tensor<f32>) -> tensor<2x32x2048x2048xf32>
    %1070 = stablehlo.divide %1068, %1069 : tensor<2x32x2048x2048xf32>
    %1071 = stablehlo.reshape %86 : (tensor<1x1x2048x2048xf32>) -> tensor<2048x2048xf32>
    %1072 = stablehlo.broadcast_in_dim %1071, dims = [2, 3] : (tensor<2048x2048xf32>) -> tensor<2x32x2048x2048xf32>
    %1073 = stablehlo.add %1070, %1072 : tensor<2x32x2048x2048xf32>
    %1074 = stablehlo.reduce(%1073 init: %7) across dimensions = [3] : (tensor<2x32x2048x2048xf32>, tensor<f32>) -> tensor<2x32x2048xf32>
     reducer(%arg364: tensor<f32>, %arg365: tensor<f32>)  {
      %3977 = stablehlo.maximum %arg364, %arg365 : tensor<f32>
      stablehlo.return %3977 : tensor<f32>
    }
    %1075 = stablehlo.broadcast_in_dim %1074, dims = [0, 1, 2] : (tensor<2x32x2048xf32>) -> tensor<2x32x2048x2048xf32>
    %1076 = stablehlo.subtract %1073, %1075 : tensor<2x32x2048x2048xf32>
    %1077 = stablehlo.exponential %1076 : tensor<2x32x2048x2048xf32>
    %1078 = stablehlo.reduce(%1077 init: %8) across dimensions = [3] : (tensor<2x32x2048x2048xf32>, tensor<f32>) -> tensor<2x32x2048xf32>
     reducer(%arg364: tensor<f32>, %arg365: tensor<f32>)  {
      %3977 = stablehlo.add %arg364, %arg365 : tensor<f32>
      stablehlo.return %3977 : tensor<f32>
    }
    %1079 = stablehlo.broadcast_in_dim %1078, dims = [0, 1, 2] : (tensor<2x32x2048xf32>) -> tensor<2x32x2048x2048xf32>
    %1080 = stablehlo.divide %1077, %1079 : tensor<2x32x2048x2048xf32>
    %1081 = stablehlo.reshape %1080 : (tensor<2x32x2048x2048xf32>) -> tensor<64x2048x2048xf32>
    %1082 = stablehlo.compare  LT, %arg199, %2 : (tensor<2048xi64>, tensor<2048xi64>) -> tensor<2048xi1>
    %1083 = stablehlo.broadcast_in_dim %arg200, dims = [] : (tensor<i64>) -> tensor<2048xi64>
    %1084 = stablehlo.add %arg199, %1083 : tensor<2048xi64>
    %1085 = stablehlo.select %1082, %1084, %arg199 : tensor<2048xi1>, tensor<2048xi64>
    %1086 = stablehlo.reshape %1085 : (tensor<2048xi64>) -> tensor<2048x1xi64>
    %1087 = stablehlo.reshape %1020 : (tensor<2x2048x4096xf32>) -> tensor<4096x4096xf32>
    %1088 = stablehlo.transpose %arg146, dims = [1, 0] {result_layout = dense<[0, 1]> : tensor<2xindex>, xla_shape = "f32[4096,4096]{0,1}"} : (tensor<4096x4096xf32>) -> tensor<4096x4096xf32>
    %1089 = stablehlo.dot %1087, %1088, precision = [DEFAULT, DEFAULT] : (tensor<4096x4096xf32>, tensor<4096x4096xf32>) -> tensor<4096x4096xf32>
    %1090 = stablehlo.reshape %1089 : (tensor<4096x4096xf32>) -> tensor<2x2048x32x128xf32>
    %1091 = "stablehlo.scatter"(%arg244, %1086, %1090) ({
    ^bb0(%arg364: tensor<f32>, %arg365: tensor<f32>):
      stablehlo.return %arg365 : tensor<f32>
    }) {indices_are_sorted = false, scatter_dimension_numbers = #stablehlo.scatter<update_window_dims = [0, 2, 3], inserted_window_dims = [1], scatter_dims_to_operand_dims = [1], index_vector_dim = 1>, unique_indices = false} : (tensor<2x2304x32x128xf32>, tensor<2048x1xi64>, tensor<2x2048x32x128xf32>) -> tensor<2x2304x32x128xf32>
    %1092 = stablehlo.convert %arg7 : (tensor<2048xi64>) -> tensor<2048xui32>
    %1093 = "stablehlo.gather"(%1091, %1092) {dimension_numbers = #stablehlo.gather<offset_dims = [0, 2, 3], collapsed_slice_dims = [1], start_index_map = [1], index_vector_dim = 1>, indices_are_sorted = false, slice_sizes = dense<[2, 1, 32, 128]> : tensor<4xi64>} : (tensor<2x2304x32x128xf32>, tensor<2048xui32>) -> tensor<2x2048x32x128xf32>
    %1094 = stablehlo.transpose %1093, dims = [0, 2, 1, 3] {result_layout = dense<[3, 1, 2, 0]> : tensor<4xindex>, xla_shape = "f32[2,32,2048,128]{3,1,2,0}"} : (tensor<2x2048x32x128xf32>) -> tensor<2x32x2048x128xf32>
    %1095 = stablehlo.reshape %1094 : (tensor<2x32x2048x128xf32>) -> tensor<64x2048x128xf32>
    %1096 = stablehlo.dot_general %1081, %1095, batching_dims = [0] x [0], contracting_dims = [2] x [1], precision = [DEFAULT, DEFAULT] : (tensor<64x2048x2048xf32>, tensor<64x2048x128xf32>) -> tensor<64x2048x128xf32>
    %1097 = stablehlo.reshape %1096 : (tensor<64x2048x128xf32>) -> tensor<2x32x2048x128xf32>
    %1098 = stablehlo.transpose %1097, dims = [0, 2, 1, 3] {result_layout = dense<[3, 1, 2, 0]> : tensor<4xindex>, xla_shape = "f32[2,2048,32,128]{3,1,2,0}"} : (tensor<2x32x2048x128xf32>) -> tensor<2x2048x32x128xf32>
    %1099 = stablehlo.reshape %1098 : (tensor<2x2048x32x128xf32>) -> tensor<4096x4096xf32>
    %1100 = stablehlo.transpose %arg145, dims = [1, 0] {result_layout = dense<[0, 1]> : tensor<2xindex>, xla_shape = "f32[4096,4096]{0,1}"} : (tensor<4096x4096xf32>) -> tensor<4096x4096xf32>
    %1101 = stablehlo.dot %1099, %1100, precision = [DEFAULT, DEFAULT] : (tensor<4096x4096xf32>, tensor<4096x4096xf32>) -> tensor<4096x4096xf32>
    %1102 = stablehlo.reshape %1101 : (tensor<4096x4096xf32>) -> tensor<2x2048x4096xf32>
    %1103 = stablehlo.add %1008, %1102 : tensor<2x2048x4096xf32>
    %1104 = stablehlo.power %1103, %1 : tensor<2x2048x4096xf32>
    %1105 = stablehlo.reduce(%1104 init: %8) across dimensions = [2] : (tensor<2x2048x4096xf32>, tensor<f32>) -> tensor<2x2048xf32>
     reducer(%arg364: tensor<f32>, %arg365: tensor<f32>)  {
      %3977 = stablehlo.add %arg364, %arg365 : tensor<f32>
      stablehlo.return %3977 : tensor<f32>
    }
    %1106 = stablehlo.multiply %1105, %0 : tensor<2x2048xf32>
    %1107 = stablehlo.reshape %1106 : (tensor<2x2048xf32>) -> tensor<2x2048x1xf32>
    %1108 = stablehlo.broadcast_in_dim %arg2, dims = [] : (tensor<f32>) -> tensor<2x2048x1xf32>
    %1109 = stablehlo.add %1107, %1108 : tensor<2x2048x1xf32>
    %1110 = stablehlo.rsqrt %1109 : tensor<2x2048x1xf32>
    %1111 = stablehlo.reshape %1110 : (tensor<2x2048x1xf32>) -> tensor<2x2048xf32>
    %1112 = stablehlo.broadcast_in_dim %1111, dims = [0, 1] : (tensor<2x2048xf32>) -> tensor<2x2048x4096xf32>
    %1113 = stablehlo.multiply %1103, %1112 : tensor<2x2048x4096xf32>
    %1114 = stablehlo.broadcast_in_dim %arg144, dims = [2] : (tensor<4096xf32>) -> tensor<2x2048x4096xf32>
    %1115 = stablehlo.multiply %1113, %1114 : tensor<2x2048x4096xf32>
    %1116 = stablehlo.reshape %1115 : (tensor<2x2048x4096xf32>) -> tensor<4096x4096xf32>
    %1117 = stablehlo.transpose %arg248, dims = [1, 0] {result_layout = dense<[0, 1]> : tensor<2xindex>, xla_shape = "f32[4096,11008]{0,1}"} : (tensor<11008x4096xf32>) -> tensor<4096x11008xf32>
    %1118 = stablehlo.dot %1116, %1117, precision = [DEFAULT, DEFAULT] : (tensor<4096x4096xf32>, tensor<4096x11008xf32>) -> tensor<4096x11008xf32>
    %1119 = stablehlo.reshape %1118 : (tensor<4096x11008xf32>) -> tensor<2x2048x11008xf32>
    %1120 = stablehlo.logistic %1119 : tensor<2x2048x11008xf32>
    %1121 = stablehlo.multiply %1119, %1120 : tensor<2x2048x11008xf32>
    %1122 = stablehlo.reshape %1115 : (tensor<2x2048x4096xf32>) -> tensor<4096x4096xf32>
    %1123 = stablehlo.transpose %arg143, dims = [1, 0] {result_layout = dense<[0, 1]> : tensor<2xindex>, xla_shape = "f32[4096,11008]{0,1}"} : (tensor<11008x4096xf32>) -> tensor<4096x11008xf32>
    %1124 = stablehlo.dot %1122, %1123, precision = [DEFAULT, DEFAULT] : (tensor<4096x4096xf32>, tensor<4096x11008xf32>) -> tensor<4096x11008xf32>
    %1125 = stablehlo.reshape %1124 : (tensor<4096x11008xf32>) -> tensor<2x2048x11008xf32>
    %1126 = stablehlo.multiply %1121, %1125 : tensor<2x2048x11008xf32>
    %1127 = stablehlo.reshape %1126 : (tensor<2x2048x11008xf32>) -> tensor<4096x11008xf32>
    %1128 = stablehlo.transpose %arg142, dims = [1, 0] {result_layout = dense<[0, 1]> : tensor<2xindex>, xla_shape = "f32[11008,4096]{0,1}"} : (tensor<4096x11008xf32>) -> tensor<11008x4096xf32>
    %1129 = stablehlo.dot %1127, %1128, precision = [DEFAULT, DEFAULT] : (tensor<4096x11008xf32>, tensor<11008x4096xf32>) -> tensor<4096x4096xf32>
    %1130 = stablehlo.reshape %1129 : (tensor<4096x4096xf32>) -> tensor<2x2048x4096xf32>
    %1131 = stablehlo.add %1103, %1130 : tensor<2x2048x4096xf32>
    %1132 = stablehlo.power %1131, %1 : tensor<2x2048x4096xf32>
    %1133 = stablehlo.reduce(%1132 init: %8) across dimensions = [2] : (tensor<2x2048x4096xf32>, tensor<f32>) -> tensor<2x2048xf32>
     reducer(%arg364: tensor<f32>, %arg365: tensor<f32>)  {
      %3977 = stablehlo.add %arg364, %arg365 : tensor<f32>
      stablehlo.return %3977 : tensor<f32>
    }
    %1134 = stablehlo.multiply %1133, %0 : tensor<2x2048xf32>
    %1135 = stablehlo.reshape %1134 : (tensor<2x2048xf32>) -> tensor<2x2048x1xf32>
    %1136 = stablehlo.broadcast_in_dim %arg2, dims = [] : (tensor<f32>) -> tensor<2x2048x1xf32>
    %1137 = stablehlo.add %1135, %1136 : tensor<2x2048x1xf32>
    %1138 = stablehlo.rsqrt %1137 : tensor<2x2048x1xf32>
    %1139 = stablehlo.reshape %1138 : (tensor<2x2048x1xf32>) -> tensor<2x2048xf32>
    %1140 = stablehlo.broadcast_in_dim %1139, dims = [0, 1] : (tensor<2x2048xf32>) -> tensor<2x2048x4096xf32>
    %1141 = stablehlo.multiply %1131, %1140 : tensor<2x2048x4096xf32>
    %1142 = stablehlo.broadcast_in_dim %arg141, dims = [2] : (tensor<4096xf32>) -> tensor<2x2048x4096xf32>
    %1143 = stablehlo.multiply %1141, %1142 : tensor<2x2048x4096xf32>
    %1144 = stablehlo.reshape %1143 : (tensor<2x2048x4096xf32>) -> tensor<4096x4096xf32>
    %1145 = stablehlo.transpose %arg252, dims = [1, 0] {result_layout = dense<[0, 1]> : tensor<2xindex>, xla_shape = "f32[4096,4096]{0,1}"} : (tensor<4096x4096xf32>) -> tensor<4096x4096xf32>
    %1146 = stablehlo.dot %1144, %1145, precision = [DEFAULT, DEFAULT] : (tensor<4096x4096xf32>, tensor<4096x4096xf32>) -> tensor<4096x4096xf32>
    %1147 = stablehlo.reshape %1146 : (tensor<4096x4096xf32>) -> tensor<2x2048x32x64x2xf32>
…
    %3580 = stablehlo.logistic %3579 : tensor<2x2048x11008xf32>
    %3581 = stablehlo.multiply %3579, %3580 : tensor<2x2048x11008xf32>
    %3582 = stablehlo.reshape %3575 : (tensor<2x2048x4096xf32>) -> tensor<4096x4096xf32>
    %3583 = stablehlo.transpose %arg23, dims = [1, 0] {result_layout = dense<[0, 1]> : tensor<2xindex>, xla_shape = "f32[4096,11008]{0,1}"} : (tensor<11008x4096xf32>) -> tensor<4096x11008xf32>
    %3584 = stablehlo.dot %3582, %3583, precision = [DEFAULT, DEFAULT] : (tensor<4096x4096xf32>, tensor<4096x11008xf32>) -> tensor<4096x11008xf32>
    %3585 = stablehlo.reshape %3584 : (tensor<4096x11008xf32>) -> tensor<2x2048x11008xf32>
    %3586 = stablehlo.multiply %3581, %3585 : tensor<2x2048x11008xf32>
    %3587 = stablehlo.reshape %3586 : (tensor<2x2048x11008xf32>) -> tensor<4096x11008xf32>
    %3588 = stablehlo.transpose %arg22, dims = [1, 0] {result_layout = dense<[0, 1]> : tensor<2xindex>, xla_shape = "f32[11008,4096]{0,1}"} : (tensor<4096x11008xf32>) -> tensor<11008x4096xf32>
    %3589 = stablehlo.dot %3587, %3588, precision = [DEFAULT, DEFAULT] : (tensor<4096x11008xf32>, tensor<11008x4096xf32>) -> tensor<4096x4096xf32>
    %3590 = stablehlo.reshape %3589 : (tensor<4096x4096xf32>) -> tensor<2x2048x4096xf32>
    %3591 = stablehlo.add %3563, %3590 : tensor<2x2048x4096xf32>
    %3592 = stablehlo.power %3591, %1 : tensor<2x2048x4096xf32>
    %3593 = stablehlo.reduce(%3592 init: %8) across dimensions = [2] : (tensor<2x2048x4096xf32>, tensor<f32>) -> tensor<2x2048xf32>
     reducer(%arg364: tensor<f32>, %arg365: tensor<f32>)  {
      %3977 = stablehlo.add %arg364, %arg365 : tensor<f32>
      stablehlo.return %3977 : tensor<f32>
    }
    %3594 = stablehlo.multiply %3593, %0 : tensor<2x2048xf32>
    %3595 = stablehlo.reshape %3594 : (tensor<2x2048xf32>) -> tensor<2x2048x1xf32>
    %3596 = stablehlo.broadcast_in_dim %arg2, dims = [] : (tensor<f32>) -> tensor<2x2048x1xf32>
    %3597 = stablehlo.add %3595, %3596 : tensor<2x2048x1xf32>
    %3598 = stablehlo.rsqrt %3597 : tensor<2x2048x1xf32>
    %3599 = stablehlo.reshape %3598 : (tensor<2x2048x1xf32>) -> tensor<2x2048xf32>
    %3600 = stablehlo.broadcast_in_dim %3599, dims = [0, 1] : (tensor<2x2048xf32>) -> tensor<2x2048x4096xf32>
    %3601 = stablehlo.multiply %3591, %3600 : tensor<2x2048x4096xf32>
    %3602 = stablehlo.broadcast_in_dim %arg21, dims = [2] : (tensor<4096xf32>) -> tensor<2x2048x4096xf32>
    %3603 = stablehlo.multiply %3601, %3602 : tensor<2x2048x4096xf32>
    %3604 = stablehlo.reshape %3603 : (tensor<2x2048x4096xf32>) -> tensor<4096x4096xf32>
    %3605 = stablehlo.transpose %arg352, dims = [1, 0] {result_layout = dense<[0, 1]> : tensor<2xindex>, xla_shape = "f32[4096,4096]{0,1}"} : (tensor<4096x4096xf32>) -> tensor<4096x4096xf32>
    %3606 = stablehlo.dot %3604, %3605, precision = [DEFAULT, DEFAULT] : (tensor<4096x4096xf32>, tensor<4096x4096xf32>) -> tensor<4096x4096xf32>
    %3607 = stablehlo.reshape %3606 : (tensor<4096x4096xf32>) -> tensor<2x2048x32x64x2xf32>
    %3608 = stablehlo.slice %3607 [0:2, 0:2048, 0:32, 0:64, 0:1] : (tensor<2x2048x32x64x2xf32>) -> tensor<2x2048x32x64x1xf32>
    %3609 = stablehlo.reshape %3608 : (tensor<2x2048x32x64x1xf32>) -> tensor<2x2048x32x64xf32>
    %3610 = stablehlo.slice %3607 [0:2, 0:2048, 0:32, 0:64, 1:2] : (tensor<2x2048x32x64x2xf32>) -> tensor<2x2048x32x64x1xf32>
    %3611 = stablehlo.reshape %3610 : (tensor<2x2048x32x64x1xf32>) -> tensor<2x2048x32x64xf32>
    %3612 = stablehlo.complex %3609, %3611 : tensor<2x2048x32x64xcomplex<f32>>
    %3613 = stablehlo.broadcast_in_dim %37, dims = [1, 3] : (tensor<2048x64xcomplex<f32>>) -> tensor<2x2048x32x64xcomplex<f32>>
    %3614 = stablehlo.multiply %3612, %3613 : tensor<2x2048x32x64xcomplex<f32>>
    %3615 = stablehlo.real %3614 : (tensor<2x2048x32x64xcomplex<f32>>) -> tensor<2x2048x32x64xf32>
    %3616 = stablehlo.reshape %3615 : (tensor<2x2048x32x64xf32>) -> tensor<2x2048x32x64x1xf32>
    %3617 = stablehlo.imag %3614 : (tensor<2x2048x32x64xcomplex<f32>>) -> tensor<2x2048x32x64xf32>
    %3618 = stablehlo.reshape %3617 : (tensor<2x2048x32x64xf32>) -> tensor<2x2048x32x64x1xf32>
    %3619 = stablehlo.concatenate %3616, %3618, dim = 4 : (tensor<2x2048x32x64x1xf32>, tensor<2x2048x32x64x1xf32>) -> tensor<2x2048x32x64x2xf32>
    %3620 = stablehlo.reshape %3619 : (tensor<2x2048x32x64x2xf32>) -> tensor<2x2048x32x128xf32>
    %3621 = stablehlo.transpose %3620, dims = [0, 2, 1, 3] {result_layout = dense<[3, 1, 2, 0]> : tensor<4xindex>, xla_shape = "f32[2,32,2048,128]{3,1,2,0}"} : (tensor<2x2048x32x128xf32>) -> tensor<2x32x2048x128xf32>
    %3622 = stablehlo.reshape %3621 : (tensor<2x32x2048x128xf32>) -> tensor<64x2048x128xf32>
    %3623 = stablehlo.compare  LT, %arg199, %2 : (tensor<2048xi64>, tensor<2048xi64>) -> tensor<2048xi1>
    %3624 = stablehlo.broadcast_in_dim %arg200, dims = [] : (tensor<i64>) -> tensor<2048xi64>
    %3625 = stablehlo.add %arg199, %3624 : tensor<2048xi64>
    %3626 = stablehlo.select %3623, %3625, %arg199 : tensor<2048xi1>, tensor<2048xi64>
    %3627 = stablehlo.reshape %3626 : (tensor<2048xi64>) -> tensor<2048x1xi64>
    %3628 = stablehlo.reshape %3603 : (tensor<2x2048x4096xf32>) -> tensor<4096x4096xf32>
    %3629 = stablehlo.transpose %arg350, dims = [1, 0] {result_layout = dense<[0, 1]> : tensor<2xindex>, xla_shape = "f32[4096,4096]{0,1}"} : (tensor<4096x4096xf32>) -> tensor<4096x4096xf32>
    %3630 = stablehlo.dot %3628, %3629, precision = [DEFAULT, DEFAULT] : (tensor<4096x4096xf32>, tensor<4096x4096xf32>) -> tensor<4096x4096xf32>
    %3631 = stablehlo.reshape %3630 : (tensor<4096x4096xf32>) -> tensor<2x2048x32x64x2xf32>
    %3632 = stablehlo.slice %3631 [0:2, 0:2048, 0:32, 0:64, 0:1] : (tensor<2x2048x32x64x2xf32>) -> tensor<2x2048x32x64x1xf32>
    %3633 = stablehlo.reshape %3632 : (tensor<2x2048x32x64x1xf32>) -> tensor<2x2048x32x64xf32>
    %3634 = stablehlo.slice %3631 [0:2, 0:2048, 0:32, 0:64, 1:2] : (tensor<2x2048x32x64x2xf32>) -> tensor<2x2048x32x64x1xf32>
    %3635 = stablehlo.reshape %3634 : (tensor<2x2048x32x64x1xf32>) -> tensor<2x2048x32x64xf32>
    %3636 = stablehlo.complex %3633, %3635 : tensor<2x2048x32x64xcomplex<f32>>
    %3637 = stablehlo.broadcast_in_dim %37, dims = [1, 3] : (tensor<2048x64xcomplex<f32>>) -> tensor<2x2048x32x64xcomplex<f32>>
    %3638 = stablehlo.multiply %3636, %3637 : tensor<2x2048x32x64xcomplex<f32>>
    %3639 = stablehlo.real %3638 : (tensor<2x2048x32x64xcomplex<f32>>) -> tensor<2x2048x32x64xf32>
    %3640 = stablehlo.reshape %3639 : (tensor<2x2048x32x64xf32>) -> tensor<2x2048x32x64x1xf32>
    %3641 = stablehlo.imag %3638 : (tensor<2x2048x32x64xcomplex<f32>>) -> tensor<2x2048x32x64xf32>
    %3642 = stablehlo.reshape %3641 : (tensor<2x2048x32x64xf32>) -> tensor<2x2048x32x64x1xf32>
    %3643 = stablehlo.concatenate %3640, %3642, dim = 4 : (tensor<2x2048x32x64x1xf32>, tensor<2x2048x32x64x1xf32>) -> tensor<2x2048x32x64x2xf32>
    %3644 = stablehlo.reshape %3643 : (tensor<2x2048x32x64x2xf32>) -> tensor<2x2048x32x128xf32>
    %3645 = "stablehlo.scatter"(%arg351, %3627, %3644) ({
    ^bb0(%arg364: tensor<f32>, %arg365: tensor<f32>):
      stablehlo.return %arg365 : tensor<f32>
    }) {indices_are_sorted = false, scatter_dimension_numbers = #stablehlo.scatter<update_window_dims = [0, 2, 3], inserted_window_dims = [1], scatter_dims_to_operand_dims = [1], index_vector_dim = 1>, unique_indices = false} : (tensor<2x2304x32x128xf32>, tensor<2048x1xi64>, tensor<2x2048x32x128xf32>) -> tensor<2x2304x32x128xf32>
    %3646 = stablehlo.convert %arg7 : (tensor<2048xi64>) -> tensor<2048xui32>
    %3647 = "stablehlo.gather"(%3645, %3646) {dimension_numbers = #stablehlo.gather<offset_dims = [0, 2, 3], collapsed_slice_dims = [1], start_index_map = [1], index_vector_dim = 1>, indices_are_sorted = false, slice_sizes = dense<[2, 1, 32, 128]> : tensor<4xi64>} : (tensor<2x2304x32x128xf32>, tensor<2048xui32>) -> tensor<2x2048x32x128xf32>
    %3648 = stablehlo.transpose %3647, dims = [0, 2, 3, 1] : (tensor<2x2048x32x128xf32>) -> tensor<2x32x128x2048xf32>
    %3649 = stablehlo.reshape %3648 : (tensor<2x32x128x2048xf32>) -> tensor<64x128x2048xf32>
    %3650 = stablehlo.dot_general %3622, %3649, batching_dims = [0] x [0], contracting_dims = [2] x [1], precision = [DEFAULT, DEFAULT] : (tensor<64x2048x128xf32>, tensor<64x128x2048xf32>) -> tensor<64x2048x2048xf32>
    %3651 = stablehlo.reshape %3650 : (tensor<64x2048x2048xf32>) -> tensor<2x32x2048x2048xf32>
    %3652 = stablehlo.broadcast_in_dim %arg203, dims = [] : (tensor<f32>) -> tensor<2x32x2048x2048xf32>
    %3653 = stablehlo.divide %3651, %3652 : tensor<2x32x2048x2048xf32>
    %3654 = stablehlo.reshape %86 : (tensor<1x1x2048x2048xf32>) -> tensor<2048x2048xf32>
    %3655 = stablehlo.broadcast_in_dim %3654, dims = [2, 3] : (tensor<2048x2048xf32>) -> tensor<2x32x2048x2048xf32>
    %3656 = stablehlo.add %3653, %3655 : tensor<2x32x2048x2048xf32>
    %3657 = stablehlo.reduce(%3656 init: %7) across dimensions = [3] : (tensor<2x32x2048x2048xf32>, tensor<f32>) -> tensor<2x32x2048xf32>
     reducer(%arg364: tensor<f32>, %arg365: tensor<f32>)  {
      %3977 = stablehlo.maximum %arg364, %arg365 : tensor<f32>
      stablehlo.return %3977 : tensor<f32>
    }
    %3658 = stablehlo.broadcast_in_dim %3657, dims = [0, 1, 2] : (tensor<2x32x2048xf32>) -> tensor<2x32x2048x2048xf32>
    %3659 = stablehlo.subtract %3656, %3658 : tensor<2x32x2048x2048xf32>
    %3660 = stablehlo.exponential %3659 : tensor<2x32x2048x2048xf32>
    %3661 = stablehlo.reduce(%3660 init: %8) across dimensions = [3] : (tensor<2x32x2048x2048xf32>, tensor<f32>) -> tensor<2x32x2048xf32>
     reducer(%arg364: tensor<f32>, %arg365: tensor<f32>)  {
      %3977 = stablehlo.add %arg364, %arg365 : tensor<f32>
      stablehlo.return %3977 : tensor<f32>
    }
    %3662 = stablehlo.broadcast_in_dim %3661, dims = [0, 1, 2] : (tensor<2x32x2048xf32>) -> tensor<2x32x2048x2048xf32>
    %3663 = stablehlo.divide %3660, %3662 : tensor<2x32x2048x2048xf32>
    %3664 = stablehlo.reshape %3663 : (tensor<2x32x2048x2048xf32>) -> tensor<64x2048x2048xf32>
    %3665 = stablehlo.compare  LT, %arg199, %2 : (tensor<2048xi64>, tensor<2048xi64>) -> tensor<2048xi1>
    %3666 = stablehlo.broadcast_in_dim %arg200, dims = [] : (tensor<i64>) -> tensor<2048xi64>
    %3667 = stablehlo.add %arg199, %3666 : tensor<2048xi64>
    %3668 = stablehlo.select %3665, %3667, %arg199 : tensor<2048xi1>, tensor<2048xi64>
    %3669 = stablehlo.reshape %3668 : (tensor<2048xi64>) -> tensor<2048x1xi64>
    %3670 = stablehlo.reshape %3603 : (tensor<2x2048x4096xf32>) -> tensor<4096x4096xf32>
    %3671 = stablehlo.transpose %arg20, dims = [1, 0] {result_layout = dense<[0, 1]> : tensor<2xindex>, xla_shape = "f32[4096,4096]{0,1}"} : (tensor<4096x4096xf32>) -> tensor<4096x4096xf32>
    %3672 = stablehlo.dot %3670, %3671, precision = [DEFAULT, DEFAULT] : (tensor<4096x4096xf32>, tensor<4096x4096xf32>) -> tensor<4096x4096xf32>
    %3673 = stablehlo.reshape %3672 : (tensor<4096x4096xf32>) -> tensor<2x2048x32x128xf32>
    %3674 = "stablehlo.scatter"(%arg349, %3669, %3673) ({
    ^bb0(%arg364: tensor<f32>, %arg365: tensor<f32>):
      stablehlo.return %arg365 : tensor<f32>
    }) {indices_are_sorted = false, scatter_dimension_numbers = #stablehlo.scatter<update_window_dims = [0, 2, 3], inserted_window_dims = [1], scatter_dims_to_operand_dims = [1], index_vector_dim = 1>, unique_indices = false} : (tensor<2x2304x32x128xf32>, tensor<2048x1xi64>, tensor<2x2048x32x128xf32>) -> tensor<2x2304x32x128xf32>
    %3675 = stablehlo.convert %arg7 : (tensor<2048xi64>) -> tensor<2048xui32>
    %3676 = "stablehlo.gather"(%3674, %3675) {dimension_numbers = #stablehlo.gather<offset_dims = [0, 2, 3], collapsed_slice_dims = [1], start_index_map = [1], index_vector_dim = 1>, indices_are_sorted = false, slice_sizes = dense<[2, 1, 32, 128]> : tensor<4xi64>} : (tensor<2x2304x32x128xf32>, tensor<2048xui32>) -> tensor<2x2048x32x128xf32>
    %3677 = stablehlo.transpose %3676, dims = [0, 2, 1, 3] {result_layout = dense<[3, 1, 2, 0]> : tensor<4xindex>, xla_shape = "f32[2,32,2048,128]{3,1,2,0}"} : (tensor<2x2048x32x128xf32>) -> tensor<2x32x2048x128xf32>
    %3678 = stablehlo.reshape %3677 : (tensor<2x32x2048x128xf32>) -> tensor<64x2048x128xf32>
    %3679 = stablehlo.dot_general %3664, %3678, batching_dims = [0] x [0], contracting_dims = [2] x [1], precision = [DEFAULT, DEFAULT] : (tensor<64x2048x2048xf32>, tensor<64x2048x128xf32>) -> tensor<64x2048x128xf32>
    %3680 = stablehlo.reshape %3679 : (tensor<64x2048x128xf32>) -> tensor<2x32x2048x128xf32>
    %3681 = stablehlo.transpose %3680, dims = [0, 2, 1, 3] {result_layout = dense<[3, 1, 2, 0]> : tensor<4xindex>, xla_shape = "f32[2,2048,32,128]{3,1,2,0}"} : (tensor<2x32x2048x128xf32>) -> tensor<2x2048x32x128xf32>
    %3682 = stablehlo.reshape %3681 : (tensor<2x2048x32x128xf32>) -> tensor<4096x4096xf32>
    %3683 = stablehlo.transpose %arg19, dims = [1, 0] {result_layout = dense<[0, 1]> : tensor<2xindex>, xla_shape = "f32[4096,4096]{0,1}"} : (tensor<4096x4096xf32>) -> tensor<4096x4096xf32>
    %3684 = stablehlo.dot %3682, %3683, precision = [DEFAULT, DEFAULT] : (tensor<4096x4096xf32>, tensor<4096x4096xf32>) -> tensor<4096x4096xf32>
    %3685 = stablehlo.reshape %3684 : (tensor<4096x4096xf32>) -> tensor<2x2048x4096xf32>
    %3686 = stablehlo.add %3591, %3685 : tensor<2x2048x4096xf32>
    %3687 = stablehlo.power %3686, %1 : tensor<2x2048x4096xf32>
    %3688 = stablehlo.reduce(%3687 init: %8) across dimensions = [2] : (tensor<2x2048x4096xf32>, tensor<f32>) -> tensor<2x2048xf32>
     reducer(%arg364: tensor<f32>, %arg365: tensor<f32>)  {
      %3977 = stablehlo.add %arg364, %arg365 : tensor<f32>
      stablehlo.return %3977 : tensor<f32>
    }
    %3689 = stablehlo.multiply %3688, %0 : tensor<2x2048xf32>
    %3690 = stablehlo.reshape %3689 : (tensor<2x2048xf32>) -> tensor<2x2048x1xf32>
    %3691 = stablehlo.broadcast_in_dim %arg2, dims = [] : (tensor<f32>) -> tensor<2x2048x1xf32>
    %3692 = stablehlo.add %3690, %3691 : tensor<2x2048x1xf32>
    %3693 = stablehlo.rsqrt %3692 : tensor<2x2048x1xf32>
    %3694 = stablehlo.reshape %3693 : (tensor<2x2048x1xf32>) -> tensor<2x2048xf32>
    %3695 = stablehlo.broadcast_in_dim %3694, dims = [0, 1] : (tensor<2x2048xf32>) -> tensor<2x2048x4096xf32>
    %3696 = stablehlo.multiply %3686, %3695 : tensor<2x2048x4096xf32>
    %3697 = stablehlo.broadcast_in_dim %arg18, dims = [2] : (tensor<4096xf32>) -> tensor<2x2048x4096xf32>
    %3698 = stablehlo.multiply %3696, %3697 : tensor<2x2048x4096xf32>
    %3699 = stablehlo.reshape %3698 : (tensor<2x2048x4096xf32>) -> tensor<4096x4096xf32>
    %3700 = stablehlo.transpose %arg353, dims = [1, 0] {result_layout = dense<[0, 1]> : tensor<2xindex>, xla_shape = "f32[4096,11008]{0,1}"} : (tensor<11008x4096xf32>) -> tensor<4096x11008xf32>
    %3701 = stablehlo.dot %3699, %3700, precision = [DEFAULT, DEFAULT] : (tensor<4096x4096xf32>, tensor<4096x11008xf32>) -> tensor<4096x11008xf32>
    %3702 = stablehlo.reshape %3701 : (tensor<4096x11008xf32>) -> tensor<2x2048x11008xf32>
    %3703 = stablehlo.logistic %3702 : tensor<2x2048x11008xf32>
    %3704 = stablehlo.multiply %3702, %3703 : tensor<2x2048x11008xf32>
    %3705 = stablehlo.reshape %3698 : (tensor<2x2048x4096xf32>) -> tensor<4096x4096xf32>
    %3706 = stablehlo.transpose %arg17, dims = [1, 0] {result_layout = dense<[0, 1]> : tensor<2xindex>, xla_shape = "f32[4096,11008]{0,1}"} : (tensor<11008x4096xf32>) -> tensor<4096x11008xf32>
    %3707 = stablehlo.dot %3705, %3706, precision = [DEFAULT, DEFAULT] : (tensor<4096x4096xf32>, tensor<4096x11008xf32>) -> tensor<4096x11008xf32>
    %3708 = stablehlo.reshape %3707 : (tensor<4096x11008xf32>) -> tensor<2x2048x11008xf32>
    %3709 = stablehlo.multiply %3704, %3708 : tensor<2x2048x11008xf32>
    %3710 = stablehlo.reshape %3709 : (tensor<2x2048x11008xf32>) -> tensor<4096x11008xf32>
    %3711 = stablehlo.transpose %arg16, dims = [1, 0] {result_layout = dense<[0, 1]> : tensor<2xindex>, xla_shape = "f32[11008,4096]{0,1}"} : (tensor<4096x11008xf32>) -> tensor<11008x4096xf32>
    %3712 = stablehlo.dot %3710, %3711, precision = [DEFAULT, DEFAULT] : (tensor<4096x11008xf32>, tensor<11008x4096xf32>) -> tensor<4096x4096xf32>
    %3713 = stablehlo.reshape %3712 : (tensor<4096x4096xf32>) -> tensor<2x2048x4096xf32>
    %3714 = stablehlo.add %3686, %3713 : tensor<2x2048x4096xf32>
    %3715 = stablehlo.power %3714, %1 : tensor<2x2048x4096xf32>
    %3716 = stablehlo.reduce(%3715 init: %8) across dimensions = [2] : (tensor<2x2048x4096xf32>, tensor<f32>) -> tensor<2x2048xf32>
     reducer(%arg364: tensor<f32>, %arg365: tensor<f32>)  {
      %3977 = stablehlo.add %arg364, %arg365 : tensor<f32>
      stablehlo.return %3977 : tensor<f32>
    }
    %3717 = stablehlo.multiply %3716, %0 : tensor<2x2048xf32>
    %3718 = stablehlo.reshape %3717 : (tensor<2x2048xf32>) -> tensor<2x2048x1xf32>
    %3719 = stablehlo.broadcast_in_dim %arg2, dims = [] : (tensor<f32>) -> tensor<2x2048x1xf32>
    %3720 = stablehlo.add %3718, %3719 : tensor<2x2048x1xf32>
    %3721 = stablehlo.rsqrt %3720 : tensor<2x2048x1xf32>
    %3722 = stablehlo.reshape %3721 : (tensor<2x2048x1xf32>) -> tensor<2x2048xf32>
    %3723 = stablehlo.broadcast_in_dim %3722, dims = [0, 1] : (tensor<2x2048xf32>) -> tensor<2x2048x4096xf32>
    %3724 = stablehlo.multiply %3714, %3723 : tensor<2x2048x4096xf32>
    %3725 = stablehlo.broadcast_in_dim %arg15, dims = [2] : (tensor<4096xf32>) -> tensor<2x2048x4096xf32>
    %3726 = stablehlo.multiply %3724, %3725 : tensor<2x2048x4096xf32>
    %3727 = stablehlo.reshape %3726 : (tensor<2x2048x4096xf32>) -> tensor<4096x4096xf32>
    %3728 = stablehlo.transpose %arg357, dims = [1, 0] {result_layout = dense<[0, 1]> : tensor<2xindex>, xla_shape = "f32[4096,4096]{0,1}"} : (tensor<4096x4096xf32>) -> tensor<4096x4096xf32>
    %3729 = stablehlo.dot %3727, %3728, precision = [DEFAULT, DEFAULT] : (tensor<4096x4096xf32>, tensor<4096x4096xf32>) -> tensor<4096x4096xf32>
    %3730 = stablehlo.reshape %3729 : (tensor<4096x4096xf32>) -> tensor<2x2048x32x64x2xf32>
    %3731 = stablehlo.slice %3730 [0:2, 0:2048, 0:32, 0:64, 0:1] : (tensor<2x2048x32x64x2xf32>) -> tensor<2x2048x32x64x1xf32>
    %3732 = stablehlo.reshape %3731 : (tensor<2x2048x32x64x1xf32>) -> tensor<2x2048x32x64xf32>
    %3733 = stablehlo.slice %3730 [0:2, 0:2048, 0:32, 0:64, 1:2] : (tensor<2x2048x32x64x2xf32>) -> tensor<2x2048x32x64x1xf32>
    %3734 = stablehlo.reshape %3733 : (tensor<2x2048x32x64x1xf32>) -> tensor<2x2048x32x64xf32>
    %3735 = stablehlo.complex %3732, %3734 : tensor<2x2048x32x64xcomplex<f32>>
    %3736 = stablehlo.broadcast_in_dim %37, dims = [1, 3] : (tensor<2048x64xcomplex<f32>>) -> tensor<2x2048x32x64xcomplex<f32>>
    %3737 = stablehlo.multiply %3735, %3736 : tensor<2x2048x32x64xcomplex<f32>>
    %3738 = stablehlo.real %3737 : (tensor<2x2048x32x64xcomplex<f32>>) -> tensor<2x2048x32x64xf32>
    %3739 = stablehlo.reshape %3738 : (tensor<2x2048x32x64xf32>) -> tensor<2x2048x32x64x1xf32>
    %3740 = stablehlo.imag %3737 : (tensor<2x2048x32x64xcomplex<f32>>) -> tensor<2x2048x32x64xf32>
    %3741 = stablehlo.reshape %3740 : (tensor<2x2048x32x64xf32>) -> tensor<2x2048x32x64x1xf32>
    %3742 = stablehlo.concatenate %3739, %3741, dim = 4 : (tensor<2x2048x32x64x1xf32>, tensor<2x2048x32x64x1xf32>) -> tensor<2x2048x32x64x2xf32>
    %3743 = stablehlo.reshape %3742 : (tensor<2x2048x32x64x2xf32>) -> tensor<2x2048x32x128xf32>
    %3744 = stablehlo.transpose %3743, dims = [0, 2, 1, 3] {result_layout = dense<[3, 1, 2, 0]> : tensor<4xindex>, xla_shape = "f32[2,32,2048,128]{3,1,2,0}"} : (tensor<2x2048x32x128xf32>) -> tensor<2x32x2048x128xf32>
    %3745 = stablehlo.reshape %3744 : (tensor<2x32x2048x128xf32>) -> tensor<64x2048x128xf32>
    %3746 = stablehlo.compare  LT, %arg199, %2 : (tensor<2048xi64>, tensor<2048xi64>) -> tensor<2048xi1>
    %3747 = stablehlo.broadcast_in_dim %arg200, dims = [] : (tensor<i64>) -> tensor<2048xi64>
    %3748 = stablehlo.add %arg199, %3747 : tensor<2048xi64>
    %3749 = stablehlo.select %3746, %3748, %arg199 : tensor<2048xi1>, tensor<2048xi64>
    %3750 = stablehlo.reshape %3749 : (tensor<2048xi64>) -> tensor<2048x1xi64>
    %3751 = stablehlo.reshape %3726 : (tensor<2x2048x4096xf32>) -> tensor<4096x4096xf32>
    %3752 = stablehlo.transpose %arg355, dims = [1, 0] {result_layout = dense<[0, 1]> : tensor<2xindex>, xla_shape = "f32[4096,4096]{0,1}"} : (tensor<4096x4096xf32>) -> tensor<4096x4096xf32>
    %3753 = stablehlo.dot %3751, %3752, precision = [DEFAULT, DEFAULT] : (tensor<4096x4096xf32>, tensor<4096x4096xf32>) -> tensor<4096x4096xf32>
    %3754 = stablehlo.reshape %3753 : (tensor<4096x4096xf32>) -> tensor<2x2048x32x64x2xf32>
    %3755 = stablehlo.slice %3754 [0:2, 0:2048, 0:32, 0:64, 0:1] : (tensor<2x2048x32x64x2xf32>) -> tensor<2x2048x32x64x1xf32>
    %3756 = stablehlo.reshape %3755 : (tensor<2x2048x32x64x1xf32>) -> tensor<2x2048x32x64xf32>
    %3757 = stablehlo.slice %3754 [0:2, 0:2048, 0:32, 0:64, 1:2] : (tensor<2x2048x32x64x2xf32>) -> tensor<2x2048x32x64x1xf32>
    %3758 = stablehlo.reshape %3757 : (tensor<2x2048x32x64x1xf32>) -> tensor<2x2048x32x64xf32>
    %3759 = stablehlo.complex %3756, %3758 : tensor<2x2048x32x64xcomplex<f32>>
    %3760 = stablehlo.broadcast_in_dim %37, dims = [1, 3] : (tensor<2048x64xcomplex<f32>>) -> tensor<2x2048x32x64xcomplex<f32>>
    %3761 = stablehlo.multiply %3759, %3760 : tensor<2x2048x32x64xcomplex<f32>>
    %3762 = stablehlo.real %3761 : (tensor<2x2048x32x64xcomplex<f32>>) -> tensor<2x2048x32x64xf32>
    %3763 = stablehlo.reshape %3762 : (tensor<2x2048x32x64xf32>) -> tensor<2x2048x32x64x1xf32>
    %3764 = stablehlo.imag %3761 : (tensor<2x2048x32x64xcomplex<f32>>) -> tensor<2x2048x32x64xf32>
    %3765 = stablehlo.reshape %3764 : (tensor<2x2048x32x64xf32>) -> tensor<2x2048x32x64x1xf32>
    %3766 = stablehlo.concatenate %3763, %3765, dim = 4 : (tensor<2x2048x32x64x1xf32>, tensor<2x2048x32x64x1xf32>) -> tensor<2x2048x32x64x2xf32>
    %3767 = stablehlo.reshape %3766 : (tensor<2x2048x32x64x2xf32>) -> tensor<2x2048x32x128xf32>
    %3768 = "stablehlo.scatter"(%arg356, %3750, %3767) ({
    ^bb0(%arg364: tensor<f32>, %arg365: tensor<f32>):
      stablehlo.return %arg365 : tensor<f32>
    }) {indices_are_sorted = false, scatter_dimension_numbers = #stablehlo.scatter<update_window_dims = [0, 2, 3], inserted_window_dims = [1], scatter_dims_to_operand_dims = [1], index_vector_dim = 1>, unique_indices = false} : (tensor<2x2304x32x128xf32>, tensor<2048x1xi64>, tensor<2x2048x32x128xf32>) -> tensor<2x2304x32x128xf32>
    %3769 = stablehlo.convert %arg7 : (tensor<2048xi64>) -> tensor<2048xui32>
    %3770 = "stablehlo.gather"(%3768, %3769) {dimension_numbers = #stablehlo.gather<offset_dims = [0, 2, 3], collapsed_slice_dims = [1], start_index_map = [1], index_vector_dim = 1>, indices_are_sorted = false, slice_sizes = dense<[2, 1, 32, 128]> : tensor<4xi64>} : (tensor<2x2304x32x128xf32>, tensor<2048xui32>) -> tensor<2x2048x32x128xf32>
    %3771 = stablehlo.transpose %3770, dims = [0, 2, 3, 1] : (tensor<2x2048x32x128xf32>) -> tensor<2x32x128x2048xf32>
    %3772 = stablehlo.reshape %3771 : (tensor<2x32x128x2048xf32>) -> tensor<64x128x2048xf32>
    %3773 = stablehlo.dot_general %3745, %3772, batching_dims = [0] x [0], contracting_dims = [2] x [1], precision = [DEFAULT, DEFAULT] : (tensor<64x2048x128xf32>, tensor<64x128x2048xf32>) -> tensor<64x2048x2048xf32>
    %3774 = stablehlo.reshape %3773 : (tensor<64x2048x2048xf32>) -> tensor<2x32x2048x2048xf32>
    %3775 = stablehlo.broadcast_in_dim %arg203, dims = [] : (tensor<f32>) -> tensor<2x32x2048x2048xf32>
    %3776 = stablehlo.divide %3774, %3775 : tensor<2x32x2048x2048xf32>
    %3777 = stablehlo.reshape %86 : (tensor<1x1x2048x2048xf32>) -> tensor<2048x2048xf32>
    %3778 = stablehlo.broadcast_in_dim %3777, dims = [2, 3] : (tensor<2048x2048xf32>) -> tensor<2x32x2048x2048xf32>
    %3779 = stablehlo.add %3776, %3778 : tensor<2x32x2048x2048xf32>
    %3780 = stablehlo.reduce(%3779 init: %7) across dimensions = [3] : (tensor<2x32x2048x2048xf32>, tensor<f32>) -> tensor<2x32x2048xf32>
     reducer(%arg364: tensor<f32>, %arg365: tensor<f32>)  {
      %3977 = stablehlo.maximum %arg364, %arg365 : tensor<f32>
      stablehlo.return %3977 : tensor<f32>
    }
    %3781 = stablehlo.broadcast_in_dim %3780, dims = [0, 1, 2] : (tensor<2x32x2048xf32>) -> tensor<2x32x2048x2048xf32>
    %3782 = stablehlo.subtract %3779, %3781 : tensor<2x32x2048x2048xf32>
    %3783 = stablehlo.exponential %3782 : tensor<2x32x2048x2048xf32>
    %3784 = stablehlo.reduce(%3783 init: %8) across dimensions = [3] : (tensor<2x32x2048x2048xf32>, tensor<f32>) -> tensor<2x32x2048xf32>
     reducer(%arg364: tensor<f32>, %arg365: tensor<f32>)  {
      %3977 = stablehlo.add %arg364, %arg365 : tensor<f32>
      stablehlo.return %3977 : tensor<f32>
    }
    %3785 = stablehlo.broadcast_in_dim %3784, dims = [0, 1, 2] : (tensor<2x32x2048xf32>) -> tensor<2x32x2048x2048xf32>
    %3786 = stablehlo.divide %3783, %3785 : tensor<2x32x2048x2048xf32>
    %3787 = stablehlo.reshape %3786 : (tensor<2x32x2048x2048xf32>) -> tensor<64x2048x2048xf32>
    %3788 = stablehlo.compare  LT, %arg199, %2 : (tensor<2048xi64>, tensor<2048xi64>) -> tensor<2048xi1>
    %3789 = stablehlo.broadcast_in_dim %arg200, dims = [] : (tensor<i64>) -> tensor<2048xi64>
    %3790 = stablehlo.add %arg199, %3789 : tensor<2048xi64>
    %3791 = stablehlo.select %3788, %3790, %arg199 : tensor<2048xi1>, tensor<2048xi64>
    %3792 = stablehlo.reshape %3791 : (tensor<2048xi64>) -> tensor<2048x1xi64>
    %3793 = stablehlo.reshape %3726 : (tensor<2x2048x4096xf32>) -> tensor<4096x4096xf32>
    %3794 = stablehlo.transpose %arg14, dims = [1, 0] {result_layout = dense<[0, 1]> : tensor<2xindex>, xla_shape = "f32[4096,4096]{0,1}"} : (tensor<4096x4096xf32>) -> tensor<4096x4096xf32>
    %3795 = stablehlo.dot %3793, %3794, precision = [DEFAULT, DEFAULT] : (tensor<4096x4096xf32>, tensor<4096x4096xf32>) -> tensor<4096x4096xf32>
    %3796 = stablehlo.reshape %3795 : (tensor<4096x4096xf32>) -> tensor<2x2048x32x128xf32>
    %3797 = "stablehlo.scatter"(%arg354, %3792, %3796) ({
    ^bb0(%arg364: tensor<f32>, %arg365: tensor<f32>):
      stablehlo.return %arg365 : tensor<f32>
    }) {indices_are_sorted = false, scatter_dimension_numbers = #stablehlo.scatter<update_window_dims = [0, 2, 3], inserted_window_dims = [1], scatter_dims_to_operand_dims = [1], index_vector_dim = 1>, unique_indices = false} : (tensor<2x2304x32x128xf32>, tensor<2048x1xi64>, tensor<2x2048x32x128xf32>) -> tensor<2x2304x32x128xf32>
    %3798 = stablehlo.convert %arg7 : (tensor<2048xi64>) -> tensor<2048xui32>
    %3799 = "stablehlo.gather"(%3797, %3798) {dimension_numbers = #stablehlo.gather<offset_dims = [0, 2, 3], collapsed_slice_dims = [1], start_index_map = [1], index_vector_dim = 1>, indices_are_sorted = false, slice_sizes = dense<[2, 1, 32, 128]> : tensor<4xi64>} : (tensor<2x2304x32x128xf32>, tensor<2048xui32>) -> tensor<2x2048x32x128xf32>
    %3800 = stablehlo.transpose %3799, dims = [0, 2, 1, 3] {result_layout = dense<[3, 1, 2, 0]> : tensor<4xindex>, xla_shape = "f32[2,32,2048,128]{3,1,2,0}"} : (tensor<2x2048x32x128xf32>) -> tensor<2x32x2048x128xf32>
    %3801 = stablehlo.reshape %3800 : (tensor<2x32x2048x128xf32>) -> tensor<64x2048x128xf32>
    %3802 = stablehlo.dot_general %3787, %3801, batching_dims = [0] x [0], contracting_dims = [2] x [1], precision = [DEFAULT, DEFAULT] : (tensor<64x2048x2048xf32>, tensor<64x2048x128xf32>) -> tensor<64x2048x128xf32>
    %3803 = stablehlo.reshape %3802 : (tensor<64x2048x128xf32>) -> tensor<2x32x2048x128xf32>
    %3804 = stablehlo.transpose %3803, dims = [0, 2, 1, 3] {result_layout = dense<[3, 1, 2, 0]> : tensor<4xindex>, xla_shape = "f32[2,2048,32,128]{3,1,2,0}"} : (tensor<2x32x2048x128xf32>) -> tensor<2x2048x32x128xf32>
    %3805 = stablehlo.reshape %3804 : (tensor<2x2048x32x128xf32>) -> tensor<4096x4096xf32>
    %3806 = stablehlo.transpose %arg13, dims = [1, 0] {result_layout = dense<[0, 1]> : tensor<2xindex>, xla_shape = "f32[4096,4096]{0,1}"} : (tensor<4096x4096xf32>) -> tensor<4096x4096xf32>
    %3807 = stablehlo.dot %3805, %3806, precision = [DEFAULT, DEFAULT] : (tensor<4096x4096xf32>, tensor<4096x4096xf32>) -> tensor<4096x4096xf32>
    %3808 = stablehlo.reshape %3807 : (tensor<4096x4096xf32>) -> tensor<2x2048x4096xf32>
    %3809 = stablehlo.add %3714, %3808 : tensor<2x2048x4096xf32>
    %3810 = stablehlo.power %3809, %1 : tensor<2x2048x4096xf32>
    %3811 = stablehlo.reduce(%3810 init: %8) across dimensions = [2] : (tensor<2x2048x4096xf32>, tensor<f32>) -> tensor<2x2048xf32>
     reducer(%arg364: tensor<f32>, %arg365: tensor<f32>)  {
      %3977 = stablehlo.add %arg364, %arg365 : tensor<f32>
      stablehlo.return %3977 : tensor<f32>
    }
    %3812 = stablehlo.multiply %3811, %0 : tensor<2x2048xf32>
    %3813 = stablehlo.reshape %3812 : (tensor<2x2048xf32>) -> tensor<2x2048x1xf32>
    %3814 = stablehlo.broadcast_in_dim %arg2, dims = [] : (tensor<f32>) -> tensor<2x2048x1xf32>
    %3815 = stablehlo.add %3813, %3814 : tensor<2x2048x1xf32>
    %3816 = stablehlo.rsqrt %3815 : tensor<2x2048x1xf32>
    %3817 = stablehlo.reshape %3816 : (tensor<2x2048x1xf32>) -> tensor<2x2048xf32>
    %3818 = stablehlo.broadcast_in_dim %3817, dims = [0, 1] : (tensor<2x2048xf32>) -> tensor<2x2048x4096xf32>
    %3819 = stablehlo.multiply %3809, %3818 : tensor<2x2048x4096xf32>
    %3820 = stablehlo.broadcast_in_dim %arg12, dims = [2] : (tensor<4096xf32>) -> tensor<2x2048x4096xf32>
    %3821 = stablehlo.multiply %3819, %3820 : tensor<2x2048x4096xf32>
    %3822 = stablehlo.reshape %3821 : (tensor<2x2048x4096xf32>) -> tensor<4096x4096xf32>
    %3823 = stablehlo.transpose %arg358, dims = [1, 0] {result_layout = dense<[0, 1]> : tensor<2xindex>, xla_shape = "f32[4096,11008]{0,1}"} : (tensor<11008x4096xf32>) -> tensor<4096x11008xf32>
    %3824 = stablehlo.dot %3822, %3823, precision = [DEFAULT, DEFAULT] : (tensor<4096x4096xf32>, tensor<4096x11008xf32>) -> tensor<4096x11008xf32>
    %3825 = stablehlo.reshape %3824 : (tensor<4096x11008xf32>) -> tensor<2x2048x11008xf32>
    %3826 = stablehlo.logistic %3825 : tensor<2x2048x11008xf32>
    %3827 = stablehlo.multiply %3825, %3826 : tensor<2x2048x11008xf32>
    %3828 = stablehlo.reshape %3821 : (tensor<2x2048x4096xf32>) -> tensor<4096x4096xf32>
    %3829 = stablehlo.transpose %arg11, dims = [1, 0] {result_layout = dense<[0, 1]> : tensor<2xindex>, xla_shape = "f32[4096,11008]{0,1}"} : (tensor<11008x4096xf32>) -> tensor<4096x11008xf32>
    %3830 = stablehlo.dot %3828, %3829, precision = [DEFAULT, DEFAULT] : (tensor<4096x4096xf32>, tensor<4096x11008xf32>) -> tensor<4096x11008xf32>
    %3831 = stablehlo.reshape %3830 : (tensor<4096x11008xf32>) -> tensor<2x2048x11008xf32>
    %3832 = stablehlo.multiply %3827, %3831 : tensor<2x2048x11008xf32>
    %3833 = stablehlo.reshape %3832 : (tensor<2x2048x11008xf32>) -> tensor<4096x11008xf32>
    %3834 = stablehlo.transpose %arg10, dims = [1, 0] {result_layout = dense<[0, 1]> : tensor<2xindex>, xla_shape = "f32[11008,4096]{0,1}"} : (tensor<4096x11008xf32>) -> tensor<11008x4096xf32>
    %3835 = stablehlo.dot %3833, %3834, precision = [DEFAULT, DEFAULT] : (tensor<4096x11008xf32>, tensor<11008x4096xf32>) -> tensor<4096x4096xf32>
    %3836 = stablehlo.reshape %3835 : (tensor<4096x4096xf32>) -> tensor<2x2048x4096xf32>
    %3837 = stablehlo.add %3809, %3836 : tensor<2x2048x4096xf32>
    %3838 = stablehlo.power %3837, %1 : tensor<2x2048x4096xf32>
    %3839 = stablehlo.reduce(%3838 init: %8) across dimensions = [2] : (tensor<2x2048x4096xf32>, tensor<f32>) -> tensor<2x2048xf32>
     reducer(%arg364: tensor<f32>, %arg365: tensor<f32>)  {
      %3977 = stablehlo.add %arg364, %arg365 : tensor<f32>
      stablehlo.return %3977 : tensor<f32>
    }
    %3840 = stablehlo.multiply %3839, %0 : tensor<2x2048xf32>
    %3841 = stablehlo.reshape %3840 : (tensor<2x2048xf32>) -> tensor<2x2048x1xf32>
    %3842 = stablehlo.broadcast_in_dim %arg2, dims = [] : (tensor<f32>) -> tensor<2x2048x1xf32>
    %3843 = stablehlo.add %3841, %3842 : tensor<2x2048x1xf32>
    %3844 = stablehlo.rsqrt %3843 : tensor<2x2048x1xf32>
    %3845 = stablehlo.reshape %3844 : (tensor<2x2048x1xf32>) -> tensor<2x2048xf32>
    %3846 = stablehlo.broadcast_in_dim %3845, dims = [0, 1] : (tensor<2x2048xf32>) -> tensor<2x2048x4096xf32>
    %3847 = stablehlo.multiply %3837, %3846 : tensor<2x2048x4096xf32>
    %3848 = stablehlo.broadcast_in_dim %arg9, dims = [2] : (tensor<4096xf32>) -> tensor<2x2048x4096xf32>
    %3849 = stablehlo.multiply %3847, %3848 : tensor<2x2048x4096xf32>
    %3850 = stablehlo.reshape %3849 : (tensor<2x2048x4096xf32>) -> tensor<4096x4096xf32>
    %3851 = stablehlo.transpose %arg362, dims = [1, 0] {result_layout = dense<[0, 1]> : tensor<2xindex>, xla_shape = "f32[4096,4096]{0,1}"} : (tensor<4096x4096xf32>) -> tensor<4096x4096xf32>
    %3852 = stablehlo.dot %3850, %3851, precision = [DEFAULT, DEFAULT] : (tensor<4096x4096xf32>, tensor<4096x4096xf32>) -> tensor<4096x4096xf32>
    %3853 = stablehlo.reshape %3852 : (tensor<4096x4096xf32>) -> tensor<2x2048x32x64x2xf32>
    %3854 = stablehlo.slice %3853 [0:2, 0:2048, 0:32, 0:64, 0:1] : (tensor<2x2048x32x64x2xf32>) -> tensor<2x2048x32x64x1xf32>
    %3855 = stablehlo.reshape %3854 : (tensor<2x2048x32x64x1xf32>) -> tensor<2x2048x32x64xf32>
    %3856 = stablehlo.slice %3853 [0:2, 0:2048, 0:32, 0:64, 1:2] : (tensor<2x2048x32x64x2xf32>) -> tensor<2x2048x32x64x1xf32>
    %3857 = stablehlo.reshape %3856 : (tensor<2x2048x32x64x1xf32>) -> tensor<2x2048x32x64xf32>
    %3858 = stablehlo.complex %3855, %3857 : tensor<2x2048x32x64xcomplex<f32>>
    %3859 = stablehlo.broadcast_in_dim %37, dims = [1, 3] : (tensor<2048x64xcomplex<f32>>) -> tensor<2x2048x32x64xcomplex<f32>>
    %3860 = stablehlo.multiply %3858, %3859 : tensor<2x2048x32x64xcomplex<f32>>
    %3861 = stablehlo.real %3860 : (tensor<2x2048x32x64xcomplex<f32>>) -> tensor<2x2048x32x64xf32>
    %3862 = stablehlo.reshape %3861 : (tensor<2x2048x32x64xf32>) -> tensor<2x2048x32x64x1xf32>
    %3863 = stablehlo.imag %3860 : (tensor<2x2048x32x64xcomplex<f32>>) -> tensor<2x2048x32x64xf32>
    %3864 = stablehlo.reshape %3863 : (tensor<2x2048x32x64xf32>) -> tensor<2x2048x32x64x1xf32>
    %3865 = stablehlo.concatenate %3862, %3864, dim = 4 : (tensor<2x2048x32x64x1xf32>, tensor<2x2048x32x64x1xf32>) -> tensor<2x2048x32x64x2xf32>
    %3866 = stablehlo.reshape %3865 : (tensor<2x2048x32x64x2xf32>) -> tensor<2x2048x32x128xf32>
    %3867 = stablehlo.transpose %3866, dims = [0, 2, 1, 3] {result_layout = dense<[3, 1, 2, 0]> : tensor<4xindex>, xla_shape = "f32[2,32,2048,128]{3,1,2,0}"} : (tensor<2x2048x32x128xf32>) -> tensor<2x32x2048x128xf32>
    %3868 = stablehlo.reshape %3867 : (tensor<2x32x2048x128xf32>) -> tensor<64x2048x128xf32>
    %3869 = stablehlo.compare  LT, %arg199, %2 : (tensor<2048xi64>, tensor<2048xi64>) -> tensor<2048xi1>
    %3870 = stablehlo.broadcast_in_dim %arg200, dims = [] : (tensor<i64>) -> tensor<2048xi64>
    %3871 = stablehlo.add %arg199, %3870 : tensor<2048xi64>
    %3872 = stablehlo.select %3869, %3871, %arg199 : tensor<2048xi1>, tensor<2048xi64>
    %3873 = stablehlo.reshape %3872 : (tensor<2048xi64>) -> tensor<2048x1xi64>
    %3874 = stablehlo.reshape %3849 : (tensor<2x2048x4096xf32>) -> tensor<4096x4096xf32>
    %3875 = stablehlo.transpose %arg360, dims = [1, 0] {result_layout = dense<[0, 1]> : tensor<2xindex>, xla_shape = "f32[4096,4096]{0,1}"} : (tensor<4096x4096xf32>) -> tensor<4096x4096xf32>
    %3876 = stablehlo.dot %3874, %3875, precision = [DEFAULT, DEFAULT] : (tensor<4096x4096xf32>, tensor<4096x4096xf32>) -> tensor<4096x4096xf32>
    %3877 = stablehlo.reshape %3876 : (tensor<4096x4096xf32>) -> tensor<2x2048x32x64x2xf32>
    %3878 = stablehlo.slice %3877 [0:2, 0:2048, 0:32, 0:64, 0:1] : (tensor<2x2048x32x64x2xf32>) -> tensor<2x2048x32x64x1xf32>
    %3879 = stablehlo.reshape %3878 : (tensor<2x2048x32x64x1xf32>) -> tensor<2x2048x32x64xf32>
    %3880 = stablehlo.slice %3877 [0:2, 0:2048, 0:32, 0:64, 1:2] : (tensor<2x2048x32x64x2xf32>) -> tensor<2x2048x32x64x1xf32>
    %3881 = stablehlo.reshape %3880 : (tensor<2x2048x32x64x1xf32>) -> tensor<2x2048x32x64xf32>
    %3882 = stablehlo.complex %3879, %3881 : tensor<2x2048x32x64xcomplex<f32>>
    %3883 = stablehlo.broadcast_in_dim %37, dims = [1, 3] : (tensor<2048x64xcomplex<f32>>) -> tensor<2x2048x32x64xcomplex<f32>>
    %3884 = stablehlo.multiply %3882, %3883 : tensor<2x2048x32x64xcomplex<f32>>
    %3885 = stablehlo.real %3884 : (tensor<2x2048x32x64xcomplex<f32>>) -> tensor<2x2048x32x64xf32>
    %3886 = stablehlo.reshape %3885 : (tensor<2x2048x32x64xf32>) -> tensor<2x2048x32x64x1xf32>
    %3887 = stablehlo.imag %3884 : (tensor<2x2048x32x64xcomplex<f32>>) -> tensor<2x2048x32x64xf32>
    %3888 = stablehlo.reshape %3887 : (tensor<2x2048x32x64xf32>) -> tensor<2x2048x32x64x1xf32>
    %3889 = stablehlo.concatenate %3886, %3888, dim = 4 : (tensor<2x2048x32x64x1xf32>, tensor<2x2048x32x64x1xf32>) -> tensor<2x2048x32x64x2xf32>
    %3890 = stablehlo.reshape %3889 : (tensor<2x2048x32x64x2xf32>) -> tensor<2x2048x32x128xf32>
    %3891 = "stablehlo.scatter"(%arg361, %3873, %3890) ({
    ^bb0(%arg364: tensor<f32>, %arg365: tensor<f32>):
      stablehlo.return %arg365 : tensor<f32>
    }) {indices_are_sorted = false, scatter_dimension_numbers = #stablehlo.scatter<update_window_dims = [0, 2, 3], inserted_window_dims = [1], scatter_dims_to_operand_dims = [1], index_vector_dim = 1>, unique_indices = false} : (tensor<2x2304x32x128xf32>, tensor<2048x1xi64>, tensor<2x2048x32x128xf32>) -> tensor<2x2304x32x128xf32>
    %3892 = stablehlo.convert %arg7 : (tensor<2048xi64>) -> tensor<2048xui32>
    %3893 = "stablehlo.gather"(%3891, %3892) {dimension_numbers = #stablehlo.gather<offset_dims = [0, 2, 3], collapsed_slice_dims = [1], start_index_map = [1], index_vector_dim = 1>, indices_are_sorted = false, slice_sizes = dense<[2, 1, 32, 128]> : tensor<4xi64>} : (tensor<2x2304x32x128xf32>, tensor<2048xui32>) -> tensor<2x2048x32x128xf32>
    %3894 = stablehlo.transpose %3893, dims = [0, 2, 3, 1] : (tensor<2x2048x32x128xf32>) -> tensor<2x32x128x2048xf32>
    %3895 = stablehlo.reshape %3894 : (tensor<2x32x128x2048xf32>) -> tensor<64x128x2048xf32>
    %3896 = stablehlo.dot_general %3868, %3895, batching_dims = [0] x [0], contracting_dims = [2] x [1], precision = [DEFAULT, DEFAULT] : (tensor<64x2048x128xf32>, tensor<64x128x2048xf32>) -> tensor<64x2048x2048xf32>
    %3897 = stablehlo.reshape %3896 : (tensor<64x2048x2048xf32>) -> tensor<2x32x2048x2048xf32>
    %3898 = stablehlo.broadcast_in_dim %arg203, dims = [] : (tensor<f32>) -> tensor<2x32x2048x2048xf32>
    %3899 = stablehlo.divide %3897, %3898 : tensor<2x32x2048x2048xf32>
    %3900 = stablehlo.reshape %86 : (tensor<1x1x2048x2048xf32>) -> tensor<2048x2048xf32>
    %3901 = stablehlo.broadcast_in_dim %3900, dims = [2, 3] : (tensor<2048x2048xf32>) -> tensor<2x32x2048x2048xf32>
    %3902 = stablehlo.add %3899, %3901 : tensor<2x32x2048x2048xf32>
    %3903 = stablehlo.reduce(%3902 init: %7) across dimensions = [3] : (tensor<2x32x2048x2048xf32>, tensor<f32>) -> tensor<2x32x2048xf32>
     reducer(%arg364: tensor<f32>, %arg365: tensor<f32>)  {
      %3977 = stablehlo.maximum %arg364, %arg365 : tensor<f32>
      stablehlo.return %3977 : tensor<f32>
    }
    %3904 = stablehlo.broadcast_in_dim %3903, dims = [0, 1, 2] : (tensor<2x32x2048xf32>) -> tensor<2x32x2048x2048xf32>
    %3905 = stablehlo.subtract %3902, %3904 : tensor<2x32x2048x2048xf32>
    %3906 = stablehlo.exponential %3905 : tensor<2x32x2048x2048xf32>
    %3907 = stablehlo.reduce(%3906 init: %8) across dimensions = [3] : (tensor<2x32x2048x2048xf32>, tensor<f32>) -> tensor<2x32x2048xf32>
     reducer(%arg364: tensor<f32>, %arg365: tensor<f32>)  {
      %3977 = stablehlo.add %arg364, %arg365 : tensor<f32>
      stablehlo.return %3977 : tensor<f32>
    }
    %3908 = stablehlo.broadcast_in_dim %3907, dims = [0, 1, 2] : (tensor<2x32x2048xf32>) -> tensor<2x32x2048x2048xf32>
    %3909 = stablehlo.divide %3906, %3908 : tensor<2x32x2048x2048xf32>
    %3910 = stablehlo.reshape %3909 : (tensor<2x32x2048x2048xf32>) -> tensor<64x2048x2048xf32>
    %3911 = stablehlo.compare  LT, %arg199, %2 : (tensor<2048xi64>, tensor<2048xi64>) -> tensor<2048xi1>
    %3912 = stablehlo.broadcast_in_dim %arg200, dims = [] : (tensor<i64>) -> tensor<2048xi64>
    %3913 = stablehlo.add %arg199, %3912 : tensor<2048xi64>
    %3914 = stablehlo.select %3911, %3913, %arg199 : tensor<2048xi1>, tensor<2048xi64>
    %3915 = stablehlo.reshape %3914 : (tensor<2048xi64>) -> tensor<2048x1xi64>
    %3916 = stablehlo.reshape %3849 : (tensor<2x2048x4096xf32>) -> tensor<4096x4096xf32>
    %3917 = stablehlo.transpose %arg8, dims = [1, 0] {result_layout = dense<[0, 1]> : tensor<2xindex>, xla_shape = "f32[4096,4096]{0,1}"} : (tensor<4096x4096xf32>) -> tensor<4096x4096xf32>
    %3918 = stablehlo.dot %3916, %3917, precision = [DEFAULT, DEFAULT] : (tensor<4096x4096xf32>, tensor<4096x4096xf32>) -> tensor<4096x4096xf32>
    %3919 = stablehlo.reshape %3918 : (tensor<4096x4096xf32>) -> tensor<2x2048x32x128xf32>
    %3920 = "stablehlo.scatter"(%arg359, %3915, %3919) ({
    ^bb0(%arg364: tensor<f32>, %arg365: tensor<f32>):
      stablehlo.return %arg365 : tensor<f32>
    }) {indices_are_sorted = false, scatter_dimension_numbers = #stablehlo.scatter<update_window_dims = [0, 2, 3], inserted_window_dims = [1], scatter_dims_to_operand_dims = [1], index_vector_dim = 1>, unique_indices = false} : (tensor<2x2304x32x128xf32>, tensor<2048x1xi64>, tensor<2x2048x32x128xf32>) -> tensor<2x2304x32x128xf32>
    %3921 = stablehlo.convert %arg7 : (tensor<2048xi64>) -> tensor<2048xui32>
    %3922 = "stablehlo.gather"(%3920, %3921) {dimension_numbers = #stablehlo.gather<offset_dims = [0, 2, 3], collapsed_slice_dims = [1], start_index_map = [1], index_vector_dim = 1>, indices_are_sorted = false, slice_sizes = dense<[2, 1, 32, 128]> : tensor<4xi64>} : (tensor<2x2304x32x128xf32>, tensor<2048xui32>) -> tensor<2x2048x32x128xf32>
    %3923 = stablehlo.transpose %3922, dims = [0, 2, 1, 3] {result_layout = dense<[3, 1, 2, 0]> : tensor<4xindex>, xla_shape = "f32[2,32,2048,128]{3,1,2,0}"} : (tensor<2x2048x32x128xf32>) -> tensor<2x32x2048x128xf32>
    %3924 = stablehlo.reshape %3923 : (tensor<2x32x2048x128xf32>) -> tensor<64x2048x128xf32>
    %3925 = stablehlo.dot_general %3910, %3924, batching_dims = [0] x [0], contracting_dims = [2] x [1], precision = [DEFAULT, DEFAULT] : (tensor<64x2048x2048xf32>, tensor<64x2048x128xf32>) -> tensor<64x2048x128xf32>
    %3926 = stablehlo.reshape %3925 : (tensor<64x2048x128xf32>) -> tensor<2x32x2048x128xf32>
    %3927 = stablehlo.transpose %3926, dims = [0, 2, 1, 3] {result_layout = dense<[3, 1, 2, 0]> : tensor<4xindex>, xla_shape = "f32[2,2048,32,128]{3,1,2,0}"} : (tensor<2x32x2048x128xf32>) -> tensor<2x2048x32x128xf32>
    %3928 = stablehlo.reshape %3927 : (tensor<2x2048x32x128xf32>) -> tensor<4096x4096xf32>
    %3929 = stablehlo.transpose %arg6, dims = [1, 0] {result_layout = dense<[0, 1]> : tensor<2xindex>, xla_shape = "f32[4096,4096]{0,1}"} : (tensor<4096x4096xf32>) -> tensor<4096x4096xf32>
    %3930 = stablehlo.dot %3928, %3929, precision = [DEFAULT, DEFAULT] : (tensor<4096x4096xf32>, tensor<4096x4096xf32>) -> tensor<4096x4096xf32>
    %3931 = stablehlo.reshape %3930 : (tensor<4096x4096xf32>) -> tensor<2x2048x4096xf32>
    %3932 = stablehlo.add %3837, %3931 : tensor<2x2048x4096xf32>
    %3933 = stablehlo.power %3932, %1 : tensor<2x2048x4096xf32>
    %3934 = stablehlo.reduce(%3933 init: %8) across dimensions = [2] : (tensor<2x2048x4096xf32>, tensor<f32>) -> tensor<2x2048xf32>
     reducer(%arg364: tensor<f32>, %arg365: tensor<f32>)  {
      %3977 = stablehlo.add %arg364, %arg365 : tensor<f32>
      stablehlo.return %3977 : tensor<f32>
    }
    %3935 = stablehlo.multiply %3934, %0 : tensor<2x2048xf32>
    %3936 = stablehlo.reshape %3935 : (tensor<2x2048xf32>) -> tensor<2x2048x1xf32>
    %3937 = stablehlo.broadcast_in_dim %arg2, dims = [] : (tensor<f32>) -> tensor<2x2048x1xf32>
    %3938 = stablehlo.add %3936, %3937 : tensor<2x2048x1xf32>
    %3939 = stablehlo.rsqrt %3938 : tensor<2x2048x1xf32>
    %3940 = stablehlo.reshape %3939 : (tensor<2x2048x1xf32>) -> tensor<2x2048xf32>
    %3941 = stablehlo.broadcast_in_dim %3940, dims = [0, 1] : (tensor<2x2048xf32>) -> tensor<2x2048x4096xf32>
    %3942 = stablehlo.multiply %3932, %3941 : tensor<2x2048x4096xf32>
    %3943 = stablehlo.broadcast_in_dim %arg5, dims = [2] : (tensor<4096xf32>) -> tensor<2x2048x4096xf32>
    %3944 = stablehlo.multiply %3942, %3943 : tensor<2x2048x4096xf32>
    %3945 = stablehlo.reshape %3944 : (tensor<2x2048x4096xf32>) -> tensor<4096x4096xf32>
    %3946 = stablehlo.transpose %arg363, dims = [1, 0] {result_layout = dense<[0, 1]> : tensor<2xindex>, xla_shape = "f32[4096,11008]{0,1}"} : (tensor<11008x4096xf32>) -> tensor<4096x11008xf32>
    %3947 = stablehlo.dot %3945, %3946, precision = [DEFAULT, DEFAULT] : (tensor<4096x4096xf32>, tensor<4096x11008xf32>) -> tensor<4096x11008xf32>
    %3948 = stablehlo.reshape %3947 : (tensor<4096x11008xf32>) -> tensor<2x2048x11008xf32>
    %3949 = stablehlo.logistic %3948 : tensor<2x2048x11008xf32>
    %3950 = stablehlo.multiply %3948, %3949 : tensor<2x2048x11008xf32>
    %3951 = stablehlo.reshape %3944 : (tensor<2x2048x4096xf32>) -> tensor<4096x4096xf32>
    %3952 = stablehlo.transpose %arg4, dims = [1, 0] {result_layout = dense<[0, 1]> : tensor<2xindex>, xla_shape = "f32[4096,11008]{0,1}"} : (tensor<11008x4096xf32>) -> tensor<4096x11008xf32>
    %3953 = stablehlo.dot %3951, %3952, precision = [DEFAULT, DEFAULT] : (tensor<4096x4096xf32>, tensor<4096x11008xf32>) -> tensor<4096x11008xf32>
    %3954 = stablehlo.reshape %3953 : (tensor<4096x11008xf32>) -> tensor<2x2048x11008xf32>
    %3955 = stablehlo.multiply %3950, %3954 : tensor<2x2048x11008xf32>
    %3956 = stablehlo.reshape %3955 : (tensor<2x2048x11008xf32>) -> tensor<4096x11008xf32>
    %3957 = stablehlo.transpose %arg3, dims = [1, 0] {result_layout = dense<[0, 1]> : tensor<2xindex>, xla_shape = "f32[11008,4096]{0,1}"} : (tensor<4096x11008xf32>) -> tensor<11008x4096xf32>
    %3958 = stablehlo.dot %3956, %3957, precision = [DEFAULT, DEFAULT] : (tensor<4096x11008xf32>, tensor<11008x4096xf32>) -> tensor<4096x4096xf32>
    %3959 = stablehlo.reshape %3958 : (tensor<4096x4096xf32>) -> tensor<2x2048x4096xf32>
    %3960 = stablehlo.add %3932, %3959 : tensor<2x2048x4096xf32>
    %3961 = stablehlo.power %3960, %1 : tensor<2x2048x4096xf32>
    %3962 = stablehlo.reduce(%3961 init: %8) across dimensions = [2] : (tensor<2x2048x4096xf32>, tensor<f32>) -> tensor<2x2048xf32>
     reducer(%arg364: tensor<f32>, %arg365: tensor<f32>)  {
      %3977 = stablehlo.add %arg364, %arg365 : tensor<f32>
      stablehlo.return %3977 : tensor<f32>
    }
    %3963 = stablehlo.multiply %3962, %0 : tensor<2x2048xf32>
    %3964 = stablehlo.reshape %3963 : (tensor<2x2048xf32>) -> tensor<2x2048x1xf32>
    %3965 = stablehlo.broadcast_in_dim %arg2, dims = [] : (tensor<f32>) -> tensor<2x2048x1xf32>
    %3966 = stablehlo.add %3964, %3965 : tensor<2x2048x1xf32>
    %3967 = stablehlo.rsqrt %3966 : tensor<2x2048x1xf32>
    %3968 = stablehlo.reshape %3967 : (tensor<2x2048x1xf32>) -> tensor<2x2048xf32>
    %3969 = stablehlo.broadcast_in_dim %3968, dims = [0, 1] : (tensor<2x2048xf32>) -> tensor<2x2048x4096xf32>
    %3970 = stablehlo.multiply %3960, %3969 : tensor<2x2048x4096xf32>
    %3971 = stablehlo.broadcast_in_dim %arg1, dims = [2] : (tensor<4096xf32>) -> tensor<2x2048x4096xf32>
    %3972 = stablehlo.multiply %3970, %3971 : tensor<2x2048x4096xf32>
    %3973 = stablehlo.reshape %3972 : (tensor<2x2048x4096xf32>) -> tensor<4096x4096xf32>
    %3974 = stablehlo.transpose %arg0, dims = [1, 0] {result_layout = dense<[0, 1]> : tensor<2xindex>, xla_shape = "f32[4096,32000]{0,1}"} : (tensor<32000x4096xf32>) -> tensor<4096x32000xf32>
    %3975 = stablehlo.dot %3973, %3974, precision = [DEFAULT, DEFAULT] : (tensor<4096x4096xf32>, tensor<4096x32000xf32>) -> tensor<4096x32000xf32>
    %3976 = stablehlo.reshape %3975 : (tensor<4096x32000xf32>) -> tensor<2x2048x32000xf32>
    return %3976, %70, %107, %201, %230, %324, %353, %447, %476, %570, %599, %693, %722, %816, %845, %939, %968, %1062, %1091, %1185, %1214, %1308, %1337, %1431, %1460, %1554, %1583, %1677, %1706, %1800, %1829, %1923, %1952, %2046, %2075, %2169, %2198, %2292, %2321, %2415, %2444, %2538, %2567, %2661, %2690, %2784, %2813, %2907, %2936, %3030, %3059, %3153, %3182, %3276, %3305, %3399, %3428, %3522, %3551, %3645, %3674, %3768, %3797, %3891, %3920 : tensor<2x2048x32000xf32>, tensor<2x2304x32x128xf32>, tensor<2x2304x32x128xf32>, tensor<2x2304x32x128xf32>, tensor<2x2304x32x128xf32>, tensor<2x2304x32x128xf32>, tensor<2x2304x32x128xf32>, tensor<2x2304x32x128xf32>, tensor<2x2304x32x128xf32>, tensor<2x2304x32x128xf32>, tensor<2x2304x32x128xf32>, tensor<2x2304x32x128xf32>, tensor<2x2304x32x128xf32>, tensor<2x2304x32x128xf32>, tensor<2x2304x32x128xf32>, tensor<2x2304x32x128xf32>, tensor<2x2304x32x128xf32>, tensor<2x2304x32x128xf32>, tensor<2x2304x32x128xf32>, tensor<2x2304x32x128xf32>, tensor<2x2304x32x128xf32>, tensor<2x2304x32x128xf32>, tensor<2x2304x32x128xf32>, tensor<2x2304x32x128xf32>, tensor<2x2304x32x128xf32>, tensor<2x2304x32x128xf32>, tensor<2x2304x32x128xf32>, tensor<2x2304x32x128xf32>, tensor<2x2304x32x128xf32>, tensor<2x2304x32x128xf32>, tensor<2x2304x32x128xf32>, tensor<2x2304x32x128xf32>, tensor<2x2304x32x128xf32>, tensor<2x2304x32x128xf32>, tensor<2x2304x32x128xf32>, tensor<2x2304x32x128xf32>, tensor<2x2304x32x128xf32>, tensor<2x2304x32x128xf32>, tensor<2x2304x32x128xf32>, tensor<2x2304x32x128xf32>, tensor<2x2304x32x128xf32>, tensor<2x2304x32x128xf32>, tensor<2x2304x32x128xf32>, tensor<2x2304x32x128xf32>, tensor<2x2304x32x128xf32>, tensor<2x2304x32x128xf32>, tensor<2x2304x32x128xf32>, tensor<2x2304x32x128xf32>, tensor<2x2304x32x128xf32>, tensor<2x2304x32x128xf32>, tensor<2x2304x32x128xf32>, tensor<2x2304x32x128xf32>, tensor<2x2304x32x128xf32>, tensor<2x2304x32x128xf32>, tensor<2x2304x32x128xf32>, tensor<2x2304x32x128xf32>, tensor<2x2304x32x128xf32>, tensor<2x2304x32x128xf32>, tensor<2x2304x32x128xf32>, tensor<2x2304x32x128xf32>, tensor<2x2304x32x128xf32>, tensor<2x2304x32x128xf32>, tensor<2x2304x32x128xf32>, tensor<2x2304x32x128xf32>, tensor<2x2304x32x128xf32>
  }
}
