module @IrToHlo.842 attributes {mhlo.cross_program_prefetches = [], mhlo.is_dynamic = false, mhlo.use_auto_spmd_partitioning = false} {
  func.func @main(%arg0: tensor<32000x128xf32>, %arg1: tensor<128xf32>, %arg2: tensor<f32>, %arg3: tensor<128x352xf32>, %arg4: tensor<352x128xf32>, %arg5: tensor<128xf32>, %arg6: tensor<128x128xf32>, %arg7: tensor<2048xi64>, %arg8: tensor<128x128xf32>, %arg9: tensor<128xf32>, %arg10: tensor<128x352xf32>, %arg11: tensor<352x128xf32>, %arg12: tensor<128xf32>, %arg13: tensor<128x128xf32>, %arg14: tensor<128x128xf32>, %arg15: tensor<128xf32>, %arg16: tensor<128x352xf32>, %arg17: tensor<352x128xf32>, %arg18: tensor<128xf32>, %arg19: tensor<128x128xf32>, %arg20: tensor<128x128xf32>, %arg21: tensor<128xf32>, %arg22: tensor<2x2048xi64>, %arg23: tensor<i64>, %arg24: tensor<32000x128xf32>, %arg25: tensor<2048xi64>, %arg26: tensor<i64>, %arg27: tensor<2x2304x2x64xf32>, %arg28: tensor<f32>, %arg29: tensor<f32>, %arg30: tensor<4608x32xcomplex<f32>>, %arg31: tensor<128x128xf32>, %arg32: tensor<2x2304x2x64xf32>, %arg33: tensor<128x128xf32>, %arg34: tensor<352x128xf32>, %arg35: tensor<2x2304x2x64xf32>, %arg36: tensor<128x128xf32>, %arg37: tensor<2x2304x2x64xf32>, %arg38: tensor<128x128xf32>, %arg39: tensor<352x128xf32>, %arg40: tensor<2x2304x2x64xf32>, %arg41: tensor<128x128xf32>, %arg42: tensor<2x2304x2x64xf32>, %arg43: tensor<128x128xf32>, %arg44: tensor<352x128xf32>) -> (tensor<2x2048x32000xf32>, tensor<2x2304x2x64xf32>, tensor<2x2304x2x64xf32>, tensor<2x2304x2x64xf32>, tensor<2x2304x2x64xf32>, tensor<2x2304x2x64xf32>, tensor<2x2304x2x64xf32>) {
    %0 = stablehlo.constant dense<7.812500e-03> : tensor<2x2048xf32>
    %1 = stablehlo.constant dense<2.000000e+00> : tensor<2x2048x128xf32>
    %2 = stablehlo.constant dense<0> : tensor<2048xi64>
    %3 = stablehlo.constant dense<0.000000e+00> : tensor<1x1x2048x2048xf32>
    %4 = stablehlo.constant dense<1> : tensor<2048x2048xi64>
    %5 = stablehlo.constant dense<"…"> : tensor<2048xi64>
    %6 = stablehlo.constant dense<0> : tensor<2x2048xi64>
    %7 = stablehlo.constant dense<0xFF800000> : tensor<f32>
    %8 = stablehlo.constant dense<0.000000e+00> : tensor<f32>
    %9 = stablehlo.compare  LT, %arg22, %6 : (tensor<2x2048xi64>, tensor<2x2048xi64>) -> tensor<2x2048xi1>
    %10 = stablehlo.broadcast_in_dim %arg23, dims = [] : (tensor<i64>) -> tensor<2x2048xi64>
    %11 = stablehlo.add %arg22, %10 : tensor<2x2048xi64>
    %12 = stablehlo.select %9, %11, %arg22 : tensor<2x2048xi1>, tensor<2x2048xi64>
    %13 = stablehlo.reshape %12 : (tensor<2x2048xi64>) -> tensor<2x2048x1xi64>
    %14 = "stablehlo.gather"(%arg24, %13) {dimension_numbers = #stablehlo.gather<offset_dims = [2], collapsed_slice_dims = [0], start_index_map = [0], index_vector_dim = 2>, indices_are_sorted = false, slice_sizes = dense<[1, 128]> : tensor<2xi64>} : (tensor<32000x128xf32>, tensor<2x2048x1xi64>) -> tensor<2x2048x128xf32>
    %15 = stablehlo.power %14, %1 : tensor<2x2048x128xf32>
    %16 = stablehlo.reduce(%15 init: %8) across dimensions = [2] : (tensor<2x2048x128xf32>, tensor<f32>) -> tensor<2x2048xf32>
     reducer(%arg45: tensor<f32>, %arg46: tensor<f32>)  {
      %410 = stablehlo.add %arg45, %arg46 : tensor<f32>
      stablehlo.return %410 : tensor<f32>
    }
    %17 = stablehlo.multiply %16, %0 : tensor<2x2048xf32>
    %18 = stablehlo.reshape %17 : (tensor<2x2048xf32>) -> tensor<2x2048x1xf32>
    %19 = stablehlo.broadcast_in_dim %arg2, dims = [] : (tensor<f32>) -> tensor<2x2048x1xf32>
    %20 = stablehlo.add %18, %19 : tensor<2x2048x1xf32>
    %21 = stablehlo.rsqrt %20 : tensor<2x2048x1xf32>
    %22 = stablehlo.reshape %21 : (tensor<2x2048x1xf32>) -> tensor<2x2048xf32>
    %23 = stablehlo.broadcast_in_dim %22, dims = [0, 1] : (tensor<2x2048xf32>) -> tensor<2x2048x128xf32>
    %24 = stablehlo.multiply %14, %23 : tensor<2x2048x128xf32>
    %25 = stablehlo.broadcast_in_dim %arg21, dims = [2] : (tensor<128xf32>) -> tensor<2x2048x128xf32>
    %26 = stablehlo.multiply %24, %25 : tensor<2x2048x128xf32>
    %27 = stablehlo.reshape %26 : (tensor<2x2048x128xf32>) -> tensor<4096x128xf32>
    %28 = stablehlo.transpose %arg33, dims = [1, 0] {result_layout = dense<[0, 1]> : tensor<2xindex>, xla_shape = "f32[128,128]{0,1}"} : (tensor<128x128xf32>) -> tensor<128x128xf32>
    %29 = stablehlo.dot %27, %28, precision = [DEFAULT, DEFAULT] : (tensor<4096x128xf32>, tensor<128x128xf32>) -> tensor<4096x128xf32>
    %30 = stablehlo.reshape %29 : (tensor<4096x128xf32>) -> tensor<2x2048x2x32x2xf32>
    %31 = stablehlo.slice %30 [0:2, 0:2048, 0:2, 0:32, 0:1] : (tensor<2x2048x2x32x2xf32>) -> tensor<2x2048x2x32x1xf32>
    %32 = stablehlo.reshape %31 : (tensor<2x2048x2x32x1xf32>) -> tensor<2x2048x2x32xf32>
    %33 = stablehlo.slice %30 [0:2, 0:2048, 0:2, 0:32, 1:2] : (tensor<2x2048x2x32x2xf32>) -> tensor<2x2048x2x32x1xf32>
    %34 = stablehlo.reshape %33 : (tensor<2x2048x2x32x1xf32>) -> tensor<2x2048x2x32xf32>
    %35 = stablehlo.complex %32, %34 : tensor<2x2048x2x32xcomplex<f32>>
    %36 = stablehlo.convert %arg25 : (tensor<2048xi64>) -> tensor<2048xui32>
    %37 = "stablehlo.gather"(%arg30, %36) {dimension_numbers = #stablehlo.gather<offset_dims = [1], collapsed_slice_dims = [0], start_index_map = [0], index_vector_dim = 1>, indices_are_sorted = false, slice_sizes = dense<[1, 32]> : tensor<2xi64>} : (tensor<4608x32xcomplex<f32>>, tensor<2048xui32>) -> tensor<2048x32xcomplex<f32>>
    %38 = stablehlo.broadcast_in_dim %37, dims = [1, 3] : (tensor<2048x32xcomplex<f32>>) -> tensor<2x2048x2x32xcomplex<f32>>
    %39 = stablehlo.multiply %35, %38 : tensor<2x2048x2x32xcomplex<f32>>
    %40 = stablehlo.real %39 : (tensor<2x2048x2x32xcomplex<f32>>) -> tensor<2x2048x2x32xf32>
    %41 = stablehlo.reshape %40 : (tensor<2x2048x2x32xf32>) -> tensor<2x2048x2x32x1xf32>
    %42 = stablehlo.imag %39 : (tensor<2x2048x2x32xcomplex<f32>>) -> tensor<2x2048x2x32xf32>
    %43 = stablehlo.reshape %42 : (tensor<2x2048x2x32xf32>) -> tensor<2x2048x2x32x1xf32>
    %44 = stablehlo.concatenate %41, %43, dim = 4 : (tensor<2x2048x2x32x1xf32>, tensor<2x2048x2x32x1xf32>) -> tensor<2x2048x2x32x2xf32>
    %45 = stablehlo.reshape %44 : (tensor<2x2048x2x32x2xf32>) -> tensor<2x2048x2x64xf32>
    %46 = stablehlo.transpose %45, dims = [0, 2, 1, 3] {result_layout = dense<[3, 1, 2, 0]> : tensor<4xindex>, xla_shape = "f32[2,2,2048,64]{3,1,2,0}"} : (tensor<2x2048x2x64xf32>) -> tensor<2x2x2048x64xf32>
    %47 = stablehlo.reshape %46 : (tensor<2x2x2048x64xf32>) -> tensor<4x2048x64xf32>
    %48 = stablehlo.compare  LT, %arg25, %2 : (tensor<2048xi64>, tensor<2048xi64>) -> tensor<2048xi1>
    %49 = stablehlo.broadcast_in_dim %arg26, dims = [] : (tensor<i64>) -> tensor<2048xi64>
    %50 = stablehlo.add %arg25, %49 : tensor<2048xi64>
    %51 = stablehlo.select %48, %50, %arg25 : tensor<2048xi1>, tensor<2048xi64>
    %52 = stablehlo.reshape %51 : (tensor<2048xi64>) -> tensor<2048x1xi64>
    %53 = stablehlo.reshape %26 : (tensor<2x2048x128xf32>) -> tensor<4096x128xf32>
    %54 = stablehlo.transpose %arg31, dims = [1, 0] {result_layout = dense<[0, 1]> : tensor<2xindex>, xla_shape = "f32[128,128]{0,1}"} : (tensor<128x128xf32>) -> tensor<128x128xf32>
    %55 = stablehlo.dot %53, %54, precision = [DEFAULT, DEFAULT] : (tensor<4096x128xf32>, tensor<128x128xf32>) -> tensor<4096x128xf32>
    %56 = stablehlo.reshape %55 : (tensor<4096x128xf32>) -> tensor<2x2048x2x32x2xf32>
    %57 = stablehlo.slice %56 [0:2, 0:2048, 0:2, 0:32, 0:1] : (tensor<2x2048x2x32x2xf32>) -> tensor<2x2048x2x32x1xf32>
    %58 = stablehlo.reshape %57 : (tensor<2x2048x2x32x1xf32>) -> tensor<2x2048x2x32xf32>
    %59 = stablehlo.slice %56 [0:2, 0:2048, 0:2, 0:32, 1:2] : (tensor<2x2048x2x32x2xf32>) -> tensor<2x2048x2x32x1xf32>
    %60 = stablehlo.reshape %59 : (tensor<2x2048x2x32x1xf32>) -> tensor<2x2048x2x32xf32>
    %61 = stablehlo.complex %58, %60 : tensor<2x2048x2x32xcomplex<f32>>
    %62 = stablehlo.broadcast_in_dim %37, dims = [1, 3] : (tensor<2048x32xcomplex<f32>>) -> tensor<2x2048x2x32xcomplex<f32>>
    %63 = stablehlo.multiply %61, %62 : tensor<2x2048x2x32xcomplex<f32>>
    %64 = stablehlo.real %63 : (tensor<2x2048x2x32xcomplex<f32>>) -> tensor<2x2048x2x32xf32>
    %65 = stablehlo.reshape %64 : (tensor<2x2048x2x32xf32>) -> tensor<2x2048x2x32x1xf32>
    %66 = stablehlo.imag %63 : (tensor<2x2048x2x32xcomplex<f32>>) -> tensor<2x2048x2x32xf32>
    %67 = stablehlo.reshape %66 : (tensor<2x2048x2x32xf32>) -> tensor<2x2048x2x32x1xf32>
    %68 = stablehlo.concatenate %65, %67, dim = 4 : (tensor<2x2048x2x32x1xf32>, tensor<2x2048x2x32x1xf32>) -> tensor<2x2048x2x32x2xf32>
    %69 = stablehlo.reshape %68 : (tensor<2x2048x2x32x2xf32>) -> tensor<2x2048x2x64xf32>
    %70 = "stablehlo.scatter"(%arg32, %52, %69) ({
    ^bb0(%arg45: tensor<f32>, %arg46: tensor<f32>):
      stablehlo.return %arg46 : tensor<f32>
    }) {indices_are_sorted = false, scatter_dimension_numbers = #stablehlo.scatter<update_window_dims = [0, 2, 3], inserted_window_dims = [1], scatter_dims_to_operand_dims = [1], index_vector_dim = 1>, unique_indices = false} : (tensor<2x2304x2x64xf32>, tensor<2048x1xi64>, tensor<2x2048x2x64xf32>) -> tensor<2x2304x2x64xf32>
    %71 = stablehlo.convert %arg7 : (tensor<2048xi64>) -> tensor<2048xui32>
    %72 = "stablehlo.gather"(%70, %71) {dimension_numbers = #stablehlo.gather<offset_dims = [0, 2, 3], collapsed_slice_dims = [1], start_index_map = [1], index_vector_dim = 1>, indices_are_sorted = false, slice_sizes = dense<[2, 1, 2, 64]> : tensor<4xi64>} : (tensor<2x2304x2x64xf32>, tensor<2048xui32>) -> tensor<2x2048x2x64xf32>
    %73 = stablehlo.transpose %72, dims = [0, 2, 3, 1] : (tensor<2x2048x2x64xf32>) -> tensor<2x2x64x2048xf32>
    %74 = stablehlo.reshape %73 : (tensor<2x2x64x2048xf32>) -> tensor<4x64x2048xf32>
    %75 = stablehlo.dot_general %47, %74, batching_dims = [0] x [0], contracting_dims = [2] x [1], precision = [DEFAULT, DEFAULT] : (tensor<4x2048x64xf32>, tensor<4x64x2048xf32>) -> tensor<4x2048x2048xf32>
    %76 = stablehlo.reshape %75 : (tensor<4x2048x2048xf32>) -> tensor<2x2x2048x2048xf32>
    %77 = stablehlo.broadcast_in_dim %arg29, dims = [] : (tensor<f32>) -> tensor<2x2x2048x2048xf32>
    %78 = stablehlo.divide %76, %77 : tensor<2x2x2048x2048xf32>
    %79 = stablehlo.broadcast_in_dim %5, dims = [1] : (tensor<2048xi64>) -> tensor<2048x2048xi64>
    %80 = stablehlo.broadcast_in_dim %5, dims = [0] : (tensor<2048xi64>) -> tensor<2048x2048xi64>
    %81 = stablehlo.subtract %79, %80 : tensor<2048x2048xi64>
    %82 = stablehlo.compare  GE, %81, %4 : (tensor<2048x2048xi64>, tensor<2048x2048xi64>) -> tensor<2048x2048xi1>
    %83 = stablehlo.reshape %82 : (tensor<2048x2048xi1>) -> tensor<1x1x2048x2048xi1>
    %84 = stablehlo.reshape %arg28 : (tensor<f32>) -> tensor<1x1xf32>
    %85 = stablehlo.broadcast_in_dim %84, dims = [0, 1] : (tensor<1x1xf32>) -> tensor<1x1x2048x2048xf32>
    %86 = stablehlo.select %83, %85, %3 : tensor<1x1x2048x2048xi1>, tensor<1x1x2048x2048xf32>
    %87 = stablehlo.reshape %86 : (tensor<1x1x2048x2048xf32>) -> tensor<2048x2048xf32>
    %88 = stablehlo.broadcast_in_dim %87, dims = [2, 3] : (tensor<2048x2048xf32>) -> tensor<2x2x2048x2048xf32>
    %89 = stablehlo.add %78, %88 : tensor<2x2x2048x2048xf32>
    %90 = stablehlo.reduce(%89 init: %7) across dimensions = [3] : (tensor<2x2x2048x2048xf32>, tensor<f32>) -> tensor<2x2x2048xf32>
     reducer(%arg45: tensor<f32>, %arg46: tensor<f32>)  {
      %410 = stablehlo.maximum %arg45, %arg46 : tensor<f32>
      stablehlo.return %410 : tensor<f32>
    }
    %91 = stablehlo.broadcast_in_dim %90, dims = [0, 1, 2] : (tensor<2x2x2048xf32>) -> tensor<2x2x2048x2048xf32>
    %92 = stablehlo.subtract %89, %91 : tensor<2x2x2048x2048xf32>
    %93 = stablehlo.exponential %92 : tensor<2x2x2048x2048xf32>
    %94 = stablehlo.reduce(%93 init: %8) across dimensions = [3] : (tensor<2x2x2048x2048xf32>, tensor<f32>) -> tensor<2x2x2048xf32>
     reducer(%arg45: tensor<f32>, %arg46: tensor<f32>)  {
      %410 = stablehlo.add %arg45, %arg46 : tensor<f32>
      stablehlo.return %410 : tensor<f32>
    }
    %95 = stablehlo.broadcast_in_dim %94, dims = [0, 1, 2] : (tensor<2x2x2048xf32>) -> tensor<2x2x2048x2048xf32>
    %96 = stablehlo.divide %93, %95 : tensor<2x2x2048x2048xf32>
    %97 = stablehlo.reshape %96 : (tensor<2x2x2048x2048xf32>) -> tensor<4x2048x2048xf32>
    %98 = stablehlo.compare  LT, %arg25, %2 : (tensor<2048xi64>, tensor<2048xi64>) -> tensor<2048xi1>
    %99 = stablehlo.broadcast_in_dim %arg26, dims = [] : (tensor<i64>) -> tensor<2048xi64>
    %100 = stablehlo.add %arg25, %99 : tensor<2048xi64>
    %101 = stablehlo.select %98, %100, %arg25 : tensor<2048xi1>, tensor<2048xi64>
    %102 = stablehlo.reshape %101 : (tensor<2048xi64>) -> tensor<2048x1xi64>
    %103 = stablehlo.reshape %26 : (tensor<2x2048x128xf32>) -> tensor<4096x128xf32>
    %104 = stablehlo.transpose %arg20, dims = [1, 0] {result_layout = dense<[0, 1]> : tensor<2xindex>, xla_shape = "f32[128,128]{0,1}"} : (tensor<128x128xf32>) -> tensor<128x128xf32>
    %105 = stablehlo.dot %103, %104, precision = [DEFAULT, DEFAULT] : (tensor<4096x128xf32>, tensor<128x128xf32>) -> tensor<4096x128xf32>
    %106 = stablehlo.reshape %105 : (tensor<4096x128xf32>) -> tensor<2x2048x2x64xf32>
    %107 = "stablehlo.scatter"(%arg27, %102, %106) ({
    ^bb0(%arg45: tensor<f32>, %arg46: tensor<f32>):
      stablehlo.return %arg46 : tensor<f32>
    }) {indices_are_sorted = false, scatter_dimension_numbers = #stablehlo.scatter<update_window_dims = [0, 2, 3], inserted_window_dims = [1], scatter_dims_to_operand_dims = [1], index_vector_dim = 1>, unique_indices = false} : (tensor<2x2304x2x64xf32>, tensor<2048x1xi64>, tensor<2x2048x2x64xf32>) -> tensor<2x2304x2x64xf32>
    %108 = stablehlo.convert %arg7 : (tensor<2048xi64>) -> tensor<2048xui32>
    %109 = "stablehlo.gather"(%107, %108) {dimension_numbers = #stablehlo.gather<offset_dims = [0, 2, 3], collapsed_slice_dims = [1], start_index_map = [1], index_vector_dim = 1>, indices_are_sorted = false, slice_sizes = dense<[2, 1, 2, 64]> : tensor<4xi64>} : (tensor<2x2304x2x64xf32>, tensor<2048xui32>) -> tensor<2x2048x2x64xf32>
    %110 = stablehlo.transpose %109, dims = [0, 2, 1, 3] {result_layout = dense<[3, 1, 2, 0]> : tensor<4xindex>, xla_shape = "f32[2,2,2048,64]{3,1,2,0}"} : (tensor<2x2048x2x64xf32>) -> tensor<2x2x2048x64xf32>
    %111 = stablehlo.reshape %110 : (tensor<2x2x2048x64xf32>) -> tensor<4x2048x64xf32>
    %112 = stablehlo.dot_general %97, %111, batching_dims = [0] x [0], contracting_dims = [2] x [1], precision = [DEFAULT, DEFAULT] : (tensor<4x2048x2048xf32>, tensor<4x2048x64xf32>) -> tensor<4x2048x64xf32>
    %113 = stablehlo.reshape %112 : (tensor<4x2048x64xf32>) -> tensor<2x2x2048x64xf32>
    %114 = stablehlo.transpose %113, dims = [0, 2, 1, 3] {result_layout = dense<[3, 1, 2, 0]> : tensor<4xindex>, xla_shape = "f32[2,2048,2,64]{3,1,2,0}"} : (tensor<2x2x2048x64xf32>) -> tensor<2x2048x2x64xf32>
    %115 = stablehlo.reshape %114 : (tensor<2x2048x2x64xf32>) -> tensor<4096x128xf32>
    %116 = stablehlo.transpose %arg19, dims = [1, 0] {result_layout = dense<[0, 1]> : tensor<2xindex>, xla_shape = "f32[128,128]{0,1}"} : (tensor<128x128xf32>) -> tensor<128x128xf32>
    %117 = stablehlo.dot %115, %116, precision = [DEFAULT, DEFAULT] : (tensor<4096x128xf32>, tensor<128x128xf32>) -> tensor<4096x128xf32>
    %118 = stablehlo.reshape %117 : (tensor<4096x128xf32>) -> tensor<2x2048x128xf32>
    %119 = stablehlo.add %14, %118 : tensor<2x2048x128xf32>
    %120 = stablehlo.power %119, %1 : tensor<2x2048x128xf32>
    %121 = stablehlo.reduce(%120 init: %8) across dimensions = [2] : (tensor<2x2048x128xf32>, tensor<f32>) -> tensor<2x2048xf32>
     reducer(%arg45: tensor<f32>, %arg46: tensor<f32>)  {
      %410 = stablehlo.add %arg45, %arg46 : tensor<f32>
      stablehlo.return %410 : tensor<f32>
    }
    %122 = stablehlo.multiply %121, %0 : tensor<2x2048xf32>
    %123 = stablehlo.reshape %122 : (tensor<2x2048xf32>) -> tensor<2x2048x1xf32>
    %124 = stablehlo.broadcast_in_dim %arg2, dims = [] : (tensor<f32>) -> tensor<2x2048x1xf32>
    %125 = stablehlo.add %123, %124 : tensor<2x2048x1xf32>
    %126 = stablehlo.rsqrt %125 : tensor<2x2048x1xf32>
    %127 = stablehlo.reshape %126 : (tensor<2x2048x1xf32>) -> tensor<2x2048xf32>
    %128 = stablehlo.broadcast_in_dim %127, dims = [0, 1] : (tensor<2x2048xf32>) -> tensor<2x2048x128xf32>
    %129 = stablehlo.multiply %119, %128 : tensor<2x2048x128xf32>
    %130 = stablehlo.broadcast_in_dim %arg18, dims = [2] : (tensor<128xf32>) -> tensor<2x2048x128xf32>
    %131 = stablehlo.multiply %129, %130 : tensor<2x2048x128xf32>
    %132 = stablehlo.reshape %131 : (tensor<2x2048x128xf32>) -> tensor<4096x128xf32>
    %133 = stablehlo.transpose %arg34, dims = [1, 0] {result_layout = dense<[0, 1]> : tensor<2xindex>, xla_shape = "f32[128,352]{0,1}"} : (tensor<352x128xf32>) -> tensor<128x352xf32>
    %134 = stablehlo.dot %132, %133, precision = [DEFAULT, DEFAULT] : (tensor<4096x128xf32>, tensor<128x352xf32>) -> tensor<4096x352xf32>
    %135 = stablehlo.reshape %134 : (tensor<4096x352xf32>) -> tensor<2x2048x352xf32>
    %136 = stablehlo.logistic %135 : tensor<2x2048x352xf32>
    %137 = stablehlo.multiply %135, %136 : tensor<2x2048x352xf32>
    %138 = stablehlo.reshape %131 : (tensor<2x2048x128xf32>) -> tensor<4096x128xf32>
    %139 = stablehlo.transpose %arg17, dims = [1, 0] {result_layout = dense<[0, 1]> : tensor<2xindex>, xla_shape = "f32[128,352]{0,1}"} : (tensor<352x128xf32>) -> tensor<128x352xf32>
    %140 = stablehlo.dot %138, %139, precision = [DEFAULT, DEFAULT] : (tensor<4096x128xf32>, tensor<128x352xf32>) -> tensor<4096x352xf32>
    %141 = stablehlo.reshape %140 : (tensor<4096x352xf32>) -> tensor<2x2048x352xf32>
    %142 = stablehlo.multiply %137, %141 : tensor<2x2048x352xf32>
    %143 = stablehlo.reshape %142 : (tensor<2x2048x352xf32>) -> tensor<4096x352xf32>
    %144 = stablehlo.transpose %arg16, dims = [1, 0] {result_layout = dense<[0, 1]> : tensor<2xindex>, xla_shape = "f32[352,128]{0,1}"} : (tensor<128x352xf32>) -> tensor<352x128xf32>
    %145 = stablehlo.dot %143, %144, precision = [DEFAULT, DEFAULT] : (tensor<4096x352xf32>, tensor<352x128xf32>) -> tensor<4096x128xf32>
    %146 = stablehlo.reshape %145 : (tensor<4096x128xf32>) -> tensor<2x2048x128xf32>
    %147 = stablehlo.add %119, %146 : tensor<2x2048x128xf32>
    %148 = stablehlo.power %147, %1 : tensor<2x2048x128xf32>
    %149 = stablehlo.reduce(%148 init: %8) across dimensions = [2] : (tensor<2x2048x128xf32>, tensor<f32>) -> tensor<2x2048xf32>
     reducer(%arg45: tensor<f32>, %arg46: tensor<f32>)  {
      %410 = stablehlo.add %arg45, %arg46 : tensor<f32>
      stablehlo.return %410 : tensor<f32>
    }
    %150 = stablehlo.multiply %149, %0 : tensor<2x2048xf32>
    %151 = stablehlo.reshape %150 : (tensor<2x2048xf32>) -> tensor<2x2048x1xf32>
    %152 = stablehlo.broadcast_in_dim %arg2, dims = [] : (tensor<f32>) -> tensor<2x2048x1xf32>
    %153 = stablehlo.add %151, %152 : tensor<2x2048x1xf32>
    %154 = stablehlo.rsqrt %153 : tensor<2x2048x1xf32>
    %155 = stablehlo.reshape %154 : (tensor<2x2048x1xf32>) -> tensor<2x2048xf32>
    %156 = stablehlo.broadcast_in_dim %155, dims = [0, 1] : (tensor<2x2048xf32>) -> tensor<2x2048x128xf32>
    %157 = stablehlo.multiply %147, %156 : tensor<2x2048x128xf32>
    %158 = stablehlo.broadcast_in_dim %arg15, dims = [2] : (tensor<128xf32>) -> tensor<2x2048x128xf32>
    %159 = stablehlo.multiply %157, %158 : tensor<2x2048x128xf32>
    %160 = stablehlo.reshape %159 : (tensor<2x2048x128xf32>) -> tensor<4096x128xf32>
    %161 = stablehlo.transpose %arg38, dims = [1, 0] {result_layout = dense<[0, 1]> : tensor<2xindex>, xla_shape = "f32[128,128]{0,1}"} : (tensor<128x128xf32>) -> tensor<128x128xf32>
    %162 = stablehlo.dot %160, %161, precision = [DEFAULT, DEFAULT] : (tensor<4096x128xf32>, tensor<128x128xf32>) -> tensor<4096x128xf32>
    %163 = stablehlo.reshape %162 : (tensor<4096x128xf32>) -> tensor<2x2048x2x32x2xf32>
    %164 = stablehlo.slice %163 [0:2, 0:2048, 0:2, 0:32, 0:1] : (tensor<2x2048x2x32x2xf32>) -> tensor<2x2048x2x32x1xf32>
    %165 = stablehlo.reshape %164 : (tensor<2x2048x2x32x1xf32>) -> tensor<2x2048x2x32xf32>
    %166 = stablehlo.slice %163 [0:2, 0:2048, 0:2, 0:32, 1:2] : (tensor<2x2048x2x32x2xf32>) -> tensor<2x2048x2x32x1xf32>
    %167 = stablehlo.reshape %166 : (tensor<2x2048x2x32x1xf32>) -> tensor<2x2048x2x32xf32>
    %168 = stablehlo.complex %165, %167 : tensor<2x2048x2x32xcomplex<f32>>
    %169 = stablehlo.broadcast_in_dim %37, dims = [1, 3] : (tensor<2048x32xcomplex<f32>>) -> tensor<2x2048x2x32xcomplex<f32>>
    %170 = stablehlo.multiply %168, %169 : tensor<2x2048x2x32xcomplex<f32>>
    %171 = stablehlo.real %170 : (tensor<2x2048x2x32xcomplex<f32>>) -> tensor<2x2048x2x32xf32>
    %172 = stablehlo.reshape %171 : (tensor<2x2048x2x32xf32>) -> tensor<2x2048x2x32x1xf32>
    %173 = stablehlo.imag %170 : (tensor<2x2048x2x32xcomplex<f32>>) -> tensor<2x2048x2x32xf32>
    %174 = stablehlo.reshape %173 : (tensor<2x2048x2x32xf32>) -> tensor<2x2048x2x32x1xf32>
    %175 = stablehlo.concatenate %172, %174, dim = 4 : (tensor<2x2048x2x32x1xf32>, tensor<2x2048x2x32x1xf32>) -> tensor<2x2048x2x32x2xf32>
    %176 = stablehlo.reshape %175 : (tensor<2x2048x2x32x2xf32>) -> tensor<2x2048x2x64xf32>
    %177 = stablehlo.transpose %176, dims = [0, 2, 1, 3] {result_layout = dense<[3, 1, 2, 0]> : tensor<4xindex>, xla_shape = "f32[2,2,2048,64]{3,1,2,0}"} : (tensor<2x2048x2x64xf32>) -> tensor<2x2x2048x64xf32>
    %178 = stablehlo.reshape %177 : (tensor<2x2x2048x64xf32>) -> tensor<4x2048x64xf32>
    %179 = stablehlo.compare  LT, %arg25, %2 : (tensor<2048xi64>, tensor<2048xi64>) -> tensor<2048xi1>
    %180 = stablehlo.broadcast_in_dim %arg26, dims = [] : (tensor<i64>) -> tensor<2048xi64>
    %181 = stablehlo.add %arg25, %180 : tensor<2048xi64>
    %182 = stablehlo.select %179, %181, %arg25 : tensor<2048xi1>, tensor<2048xi64>
    %183 = stablehlo.reshape %182 : (tensor<2048xi64>) -> tensor<2048x1xi64>
    %184 = stablehlo.reshape %159 : (tensor<2x2048x128xf32>) -> tensor<4096x128xf32>
    %185 = stablehlo.transpose %arg36, dims = [1, 0] {result_layout = dense<[0, 1]> : tensor<2xindex>, xla_shape = "f32[128,128]{0,1}"} : (tensor<128x128xf32>) -> tensor<128x128xf32>
    %186 = stablehlo.dot %184, %185, precision = [DEFAULT, DEFAULT] : (tensor<4096x128xf32>, tensor<128x128xf32>) -> tensor<4096x128xf32>
    %187 = stablehlo.reshape %186 : (tensor<4096x128xf32>) -> tensor<2x2048x2x32x2xf32>
    %188 = stablehlo.slice %187 [0:2, 0:2048, 0:2, 0:32, 0:1] : (tensor<2x2048x2x32x2xf32>) -> tensor<2x2048x2x32x1xf32>
    %189 = stablehlo.reshape %188 : (tensor<2x2048x2x32x1xf32>) -> tensor<2x2048x2x32xf32>
    %190 = stablehlo.slice %187 [0:2, 0:2048, 0:2, 0:32, 1:2] : (tensor<2x2048x2x32x2xf32>) -> tensor<2x2048x2x32x1xf32>
    %191 = stablehlo.reshape %190 : (tensor<2x2048x2x32x1xf32>) -> tensor<2x2048x2x32xf32>
    %192 = stablehlo.complex %189, %191 : tensor<2x2048x2x32xcomplex<f32>>
    %193 = stablehlo.broadcast_in_dim %37, dims = [1, 3] : (tensor<2048x32xcomplex<f32>>) -> tensor<2x2048x2x32xcomplex<f32>>
    %194 = stablehlo.multiply %192, %193 : tensor<2x2048x2x32xcomplex<f32>>
    %195 = stablehlo.real %194 : (tensor<2x2048x2x32xcomplex<f32>>) -> tensor<2x2048x2x32xf32>
    %196 = stablehlo.reshape %195 : (tensor<2x2048x2x32xf32>) -> tensor<2x2048x2x32x1xf32>
    %197 = stablehlo.imag %194 : (tensor<2x2048x2x32xcomplex<f32>>) -> tensor<2x2048x2x32xf32>
    %198 = stablehlo.reshape %197 : (tensor<2x2048x2x32xf32>) -> tensor<2x2048x2x32x1xf32>
    %199 = stablehlo.concatenate %196, %198, dim = 4 : (tensor<2x2048x2x32x1xf32>, tensor<2x2048x2x32x1xf32>) -> tensor<2x2048x2x32x2xf32>
    %200 = stablehlo.reshape %199 : (tensor<2x2048x2x32x2xf32>) -> tensor<2x2048x2x64xf32>
    %201 = "stablehlo.scatter"(%arg37, %183, %200) ({
    ^bb0(%arg45: tensor<f32>, %arg46: tensor<f32>):
      stablehlo.return %arg46 : tensor<f32>
    }) {indices_are_sorted = false, scatter_dimension_numbers = #stablehlo.scatter<update_window_dims = [0, 2, 3], inserted_window_dims = [1], scatter_dims_to_operand_dims = [1], index_vector_dim = 1>, unique_indices = false} : (tensor<2x2304x2x64xf32>, tensor<2048x1xi64>, tensor<2x2048x2x64xf32>) -> tensor<2x2304x2x64xf32>
    %202 = stablehlo.convert %arg7 : (tensor<2048xi64>) -> tensor<2048xui32>
    %203 = "stablehlo.gather"(%201, %202) {dimension_numbers = #stablehlo.gather<offset_dims = [0, 2, 3], collapsed_slice_dims = [1], start_index_map = [1], index_vector_dim = 1>, indices_are_sorted = false, slice_sizes = dense<[2, 1, 2, 64]> : tensor<4xi64>} : (tensor<2x2304x2x64xf32>, tensor<2048xui32>) -> tensor<2x2048x2x64xf32>
    %204 = stablehlo.transpose %203, dims = [0, 2, 3, 1] : (tensor<2x2048x2x64xf32>) -> tensor<2x2x64x2048xf32>
    %205 = stablehlo.reshape %204 : (tensor<2x2x64x2048xf32>) -> tensor<4x64x2048xf32>
    %206 = stablehlo.dot_general %178, %205, batching_dims = [0] x [0], contracting_dims = [2] x [1], precision = [DEFAULT, DEFAULT] : (tensor<4x2048x64xf32>, tensor<4x64x2048xf32>) -> tensor<4x2048x2048xf32>
    %207 = stablehlo.reshape %206 : (tensor<4x2048x2048xf32>) -> tensor<2x2x2048x2048xf32>
    %208 = stablehlo.broadcast_in_dim %arg29, dims = [] : (tensor<f32>) -> tensor<2x2x2048x2048xf32>
    %209 = stablehlo.divide %207, %208 : tensor<2x2x2048x2048xf32>
    %210 = stablehlo.reshape %86 : (tensor<1x1x2048x2048xf32>) -> tensor<2048x2048xf32>
    %211 = stablehlo.broadcast_in_dim %210, dims = [2, 3] : (tensor<2048x2048xf32>) -> tensor<2x2x2048x2048xf32>
    %212 = stablehlo.add %209, %211 : tensor<2x2x2048x2048xf32>
    %213 = stablehlo.reduce(%212 init: %7) across dimensions = [3] : (tensor<2x2x2048x2048xf32>, tensor<f32>) -> tensor<2x2x2048xf32>
     reducer(%arg45: tensor<f32>, %arg46: tensor<f32>)  {
      %410 = stablehlo.maximum %arg45, %arg46 : tensor<f32>
      stablehlo.return %410 : tensor<f32>
    }
    %214 = stablehlo.broadcast_in_dim %213, dims = [0, 1, 2] : (tensor<2x2x2048xf32>) -> tensor<2x2x2048x2048xf32>
    %215 = stablehlo.subtract %212, %214 : tensor<2x2x2048x2048xf32>
    %216 = stablehlo.exponential %215 : tensor<2x2x2048x2048xf32>
    %217 = stablehlo.reduce(%216 init: %8) across dimensions = [3] : (tensor<2x2x2048x2048xf32>, tensor<f32>) -> tensor<2x2x2048xf32>
     reducer(%arg45: tensor<f32>, %arg46: tensor<f32>)  {
      %410 = stablehlo.add %arg45, %arg46 : tensor<f32>
      stablehlo.return %410 : tensor<f32>
    }
    %218 = stablehlo.broadcast_in_dim %217, dims = [0, 1, 2] : (tensor<2x2x2048xf32>) -> tensor<2x2x2048x2048xf32>
    %219 = stablehlo.divide %216, %218 : tensor<2x2x2048x2048xf32>
    %220 = stablehlo.reshape %219 : (tensor<2x2x2048x2048xf32>) -> tensor<4x2048x2048xf32>
    %221 = stablehlo.compare  LT, %arg25, %2 : (tensor<2048xi64>, tensor<2048xi64>) -> tensor<2048xi1>
    %222 = stablehlo.broadcast_in_dim %arg26, dims = [] : (tensor<i64>) -> tensor<2048xi64>
    %223 = stablehlo.add %arg25, %222 : tensor<2048xi64>
    %224 = stablehlo.select %221, %223, %arg25 : tensor<2048xi1>, tensor<2048xi64>
    %225 = stablehlo.reshape %224 : (tensor<2048xi64>) -> tensor<2048x1xi64>
    %226 = stablehlo.reshape %159 : (tensor<2x2048x128xf32>) -> tensor<4096x128xf32>
    %227 = stablehlo.transpose %arg14, dims = [1, 0] {result_layout = dense<[0, 1]> : tensor<2xindex>, xla_shape = "f32[128,128]{0,1}"} : (tensor<128x128xf32>) -> tensor<128x128xf32>
    %228 = stablehlo.dot %226, %227, precision = [DEFAULT, DEFAULT] : (tensor<4096x128xf32>, tensor<128x128xf32>) -> tensor<4096x128xf32>
    %229 = stablehlo.reshape %228 : (tensor<4096x128xf32>) -> tensor<2x2048x2x64xf32>
    %230 = "stablehlo.scatter"(%arg35, %225, %229) ({
    ^bb0(%arg45: tensor<f32>, %arg46: tensor<f32>):
      stablehlo.return %arg46 : tensor<f32>
    }) {indices_are_sorted = false, scatter_dimension_numbers = #stablehlo.scatter<update_window_dims = [0, 2, 3], inserted_window_dims = [1], scatter_dims_to_operand_dims = [1], index_vector_dim = 1>, unique_indices = false} : (tensor<2x2304x2x64xf32>, tensor<2048x1xi64>, tensor<2x2048x2x64xf32>) -> tensor<2x2304x2x64xf32>
    %231 = stablehlo.convert %arg7 : (tensor<2048xi64>) -> tensor<2048xui32>
    %232 = "stablehlo.gather"(%230, %231) {dimension_numbers = #stablehlo.gather<offset_dims = [0, 2, 3], collapsed_slice_dims = [1], start_index_map = [1], index_vector_dim = 1>, indices_are_sorted = false, slice_sizes = dense<[2, 1, 2, 64]> : tensor<4xi64>} : (tensor<2x2304x2x64xf32>, tensor<2048xui32>) -> tensor<2x2048x2x64xf32>
    %233 = stablehlo.transpose %232, dims = [0, 2, 1, 3] {result_layout = dense<[3, 1, 2, 0]> : tensor<4xindex>, xla_shape = "f32[2,2,2048,64]{3,1,2,0}"} : (tensor<2x2048x2x64xf32>) -> tensor<2x2x2048x64xf32>
    %234 = stablehlo.reshape %233 : (tensor<2x2x2048x64xf32>) -> tensor<4x2048x64xf32>
    %235 = stablehlo.dot_general %220, %234, batching_dims = [0] x [0], contracting_dims = [2] x [1], precision = [DEFAULT, DEFAULT] : (tensor<4x2048x2048xf32>, tensor<4x2048x64xf32>) -> tensor<4x2048x64xf32>
    %236 = stablehlo.reshape %235 : (tensor<4x2048x64xf32>) -> tensor<2x2x2048x64xf32>
    %237 = stablehlo.transpose %236, dims = [0, 2, 1, 3] {result_layout = dense<[3, 1, 2, 0]> : tensor<4xindex>, xla_shape = "f32[2,2048,2,64]{3,1,2,0}"} : (tensor<2x2x2048x64xf32>) -> tensor<2x2048x2x64xf32>
    %238 = stablehlo.reshape %237 : (tensor<2x2048x2x64xf32>) -> tensor<4096x128xf32>
    %239 = stablehlo.transpose %arg13, dims = [1, 0] {result_layout = dense<[0, 1]> : tensor<2xindex>, xla_shape = "f32[128,128]{0,1}"} : (tensor<128x128xf32>) -> tensor<128x128xf32>
    %240 = stablehlo.dot %238, %239, precision = [DEFAULT, DEFAULT] : (tensor<4096x128xf32>, tensor<128x128xf32>) -> tensor<4096x128xf32>
    %241 = stablehlo.reshape %240 : (tensor<4096x128xf32>) -> tensor<2x2048x128xf32>
    %242 = stablehlo.add %147, %241 : tensor<2x2048x128xf32>
    %243 = stablehlo.power %242, %1 : tensor<2x2048x128xf32>
    %244 = stablehlo.reduce(%243 init: %8) across dimensions = [2] : (tensor<2x2048x128xf32>, tensor<f32>) -> tensor<2x2048xf32>
     reducer(%arg45: tensor<f32>, %arg46: tensor<f32>)  {
      %410 = stablehlo.add %arg45, %arg46 : tensor<f32>
      stablehlo.return %410 : tensor<f32>
    }
    %245 = stablehlo.multiply %244, %0 : tensor<2x2048xf32>
    %246 = stablehlo.reshape %245 : (tensor<2x2048xf32>) -> tensor<2x2048x1xf32>
    %247 = stablehlo.broadcast_in_dim %arg2, dims = [] : (tensor<f32>) -> tensor<2x2048x1xf32>
    %248 = stablehlo.add %246, %247 : tensor<2x2048x1xf32>
    %249 = stablehlo.rsqrt %248 : tensor<2x2048x1xf32>
    %250 = stablehlo.reshape %249 : (tensor<2x2048x1xf32>) -> tensor<2x2048xf32>
    %251 = stablehlo.broadcast_in_dim %250, dims = [0, 1] : (tensor<2x2048xf32>) -> tensor<2x2048x128xf32>
    %252 = stablehlo.multiply %242, %251 : tensor<2x2048x128xf32>
    %253 = stablehlo.broadcast_in_dim %arg12, dims = [2] : (tensor<128xf32>) -> tensor<2x2048x128xf32>
    %254 = stablehlo.multiply %252, %253 : tensor<2x2048x128xf32>
    %255 = stablehlo.reshape %254 : (tensor<2x2048x128xf32>) -> tensor<4096x128xf32>
    %256 = stablehlo.transpose %arg39, dims = [1, 0] {result_layout = dense<[0, 1]> : tensor<2xindex>, xla_shape = "f32[128,352]{0,1}"} : (tensor<352x128xf32>) -> tensor<128x352xf32>
    %257 = stablehlo.dot %255, %256, precision = [DEFAULT, DEFAULT] : (tensor<4096x128xf32>, tensor<128x352xf32>) -> tensor<4096x352xf32>
    %258 = stablehlo.reshape %257 : (tensor<4096x352xf32>) -> tensor<2x2048x352xf32>
    %259 = stablehlo.logistic %258 : tensor<2x2048x352xf32>
    %260 = stablehlo.multiply %258, %259 : tensor<2x2048x352xf32>
    %261 = stablehlo.reshape %254 : (tensor<2x2048x128xf32>) -> tensor<4096x128xf32>
    %262 = stablehlo.transpose %arg11, dims = [1, 0] {result_layout = dense<[0, 1]> : tensor<2xindex>, xla_shape = "f32[128,352]{0,1}"} : (tensor<352x128xf32>) -> tensor<128x352xf32>
    %263 = stablehlo.dot %261, %262, precision = [DEFAULT, DEFAULT] : (tensor<4096x128xf32>, tensor<128x352xf32>) -> tensor<4096x352xf32>
    %264 = stablehlo.reshape %263 : (tensor<4096x352xf32>) -> tensor<2x2048x352xf32>
    %265 = stablehlo.multiply %260, %264 : tensor<2x2048x352xf32>
    %266 = stablehlo.reshape %265 : (tensor<2x2048x352xf32>) -> tensor<4096x352xf32>
    %267 = stablehlo.transpose %arg10, dims = [1, 0] {result_layout = dense<[0, 1]> : tensor<2xindex>, xla_shape = "f32[352,128]{0,1}"} : (tensor<128x352xf32>) -> tensor<352x128xf32>
    %268 = stablehlo.dot %266, %267, precision = [DEFAULT, DEFAULT] : (tensor<4096x352xf32>, tensor<352x128xf32>) -> tensor<4096x128xf32>
    %269 = stablehlo.reshape %268 : (tensor<4096x128xf32>) -> tensor<2x2048x128xf32>
    %270 = stablehlo.add %242, %269 : tensor<2x2048x128xf32>
    %271 = stablehlo.power %270, %1 : tensor<2x2048x128xf32>
    %272 = stablehlo.reduce(%271 init: %8) across dimensions = [2] : (tensor<2x2048x128xf32>, tensor<f32>) -> tensor<2x2048xf32>
     reducer(%arg45: tensor<f32>, %arg46: tensor<f32>)  {
      %410 = stablehlo.add %arg45, %arg46 : tensor<f32>
      stablehlo.return %410 : tensor<f32>
    }
    %273 = stablehlo.multiply %272, %0 : tensor<2x2048xf32>
    %274 = stablehlo.reshape %273 : (tensor<2x2048xf32>) -> tensor<2x2048x1xf32>
    %275 = stablehlo.broadcast_in_dim %arg2, dims = [] : (tensor<f32>) -> tensor<2x2048x1xf32>
    %276 = stablehlo.add %274, %275 : tensor<2x2048x1xf32>
    %277 = stablehlo.rsqrt %276 : tensor<2x2048x1xf32>
    %278 = stablehlo.reshape %277 : (tensor<2x2048x1xf32>) -> tensor<2x2048xf32>
    %279 = stablehlo.broadcast_in_dim %278, dims = [0, 1] : (tensor<2x2048xf32>) -> tensor<2x2048x128xf32>
    %280 = stablehlo.multiply %270, %279 : tensor<2x2048x128xf32>
    %281 = stablehlo.broadcast_in_dim %arg9, dims = [2] : (tensor<128xf32>) -> tensor<2x2048x128xf32>
    %282 = stablehlo.multiply %280, %281 : tensor<2x2048x128xf32>
    %283 = stablehlo.reshape %282 : (tensor<2x2048x128xf32>) -> tensor<4096x128xf32>
    %284 = stablehlo.transpose %arg43, dims = [1, 0] {result_layout = dense<[0, 1]> : tensor<2xindex>, xla_shape = "f32[128,128]{0,1}"} : (tensor<128x128xf32>) -> tensor<128x128xf32>
    %285 = stablehlo.dot %283, %284, precision = [DEFAULT, DEFAULT] : (tensor<4096x128xf32>, tensor<128x128xf32>) -> tensor<4096x128xf32>
    %286 = stablehlo.reshape %285 : (tensor<4096x128xf32>) -> tensor<2x2048x2x32x2xf32>
    %287 = stablehlo.slice %286 [0:2, 0:2048, 0:2, 0:32, 0:1] : (tensor<2x2048x2x32x2xf32>) -> tensor<2x2048x2x32x1xf32>
    %288 = stablehlo.reshape %287 : (tensor<2x2048x2x32x1xf32>) -> tensor<2x2048x2x32xf32>
    %289 = stablehlo.slice %286 [0:2, 0:2048, 0:2, 0:32, 1:2] : (tensor<2x2048x2x32x2xf32>) -> tensor<2x2048x2x32x1xf32>
    %290 = stablehlo.reshape %289 : (tensor<2x2048x2x32x1xf32>) -> tensor<2x2048x2x32xf32>
    %291 = stablehlo.complex %288, %290 : tensor<2x2048x2x32xcomplex<f32>>
    %292 = stablehlo.broadcast_in_dim %37, dims = [1, 3] : (tensor<2048x32xcomplex<f32>>) -> tensor<2x2048x2x32xcomplex<f32>>
    %293 = stablehlo.multiply %291, %292 : tensor<2x2048x2x32xcomplex<f32>>
    %294 = stablehlo.real %293 : (tensor<2x2048x2x32xcomplex<f32>>) -> tensor<2x2048x2x32xf32>
    %295 = stablehlo.reshape %294 : (tensor<2x2048x2x32xf32>) -> tensor<2x2048x2x32x1xf32>
    %296 = stablehlo.imag %293 : (tensor<2x2048x2x32xcomplex<f32>>) -> tensor<2x2048x2x32xf32>
    %297 = stablehlo.reshape %296 : (tensor<2x2048x2x32xf32>) -> tensor<2x2048x2x32x1xf32>
    %298 = stablehlo.concatenate %295, %297, dim = 4 : (tensor<2x2048x2x32x1xf32>, tensor<2x2048x2x32x1xf32>) -> tensor<2x2048x2x32x2xf32>
    %299 = stablehlo.reshape %298 : (tensor<2x2048x2x32x2xf32>) -> tensor<2x2048x2x64xf32>
    %300 = stablehlo.transpose %299, dims = [0, 2, 1, 3] {result_layout = dense<[3, 1, 2, 0]> : tensor<4xindex>, xla_shape = "f32[2,2,2048,64]{3,1,2,0}"} : (tensor<2x2048x2x64xf32>) -> tensor<2x2x2048x64xf32>
    %301 = stablehlo.reshape %300 : (tensor<2x2x2048x64xf32>) -> tensor<4x2048x64xf32>
    %302 = stablehlo.compare  LT, %arg25, %2 : (tensor<2048xi64>, tensor<2048xi64>) -> tensor<2048xi1>
    %303 = stablehlo.broadcast_in_dim %arg26, dims = [] : (tensor<i64>) -> tensor<2048xi64>
    %304 = stablehlo.add %arg25, %303 : tensor<2048xi64>
    %305 = stablehlo.select %302, %304, %arg25 : tensor<2048xi1>, tensor<2048xi64>
    %306 = stablehlo.reshape %305 : (tensor<2048xi64>) -> tensor<2048x1xi64>
    %307 = stablehlo.reshape %282 : (tensor<2x2048x128xf32>) -> tensor<4096x128xf32>
    %308 = stablehlo.transpose %arg41, dims = [1, 0] {result_layout = dense<[0, 1]> : tensor<2xindex>, xla_shape = "f32[128,128]{0,1}"} : (tensor<128x128xf32>) -> tensor<128x128xf32>
    %309 = stablehlo.dot %307, %308, precision = [DEFAULT, DEFAULT] : (tensor<4096x128xf32>, tensor<128x128xf32>) -> tensor<4096x128xf32>
    %310 = stablehlo.reshape %309 : (tensor<4096x128xf32>) -> tensor<2x2048x2x32x2xf32>
    %311 = stablehlo.slice %310 [0:2, 0:2048, 0:2, 0:32, 0:1] : (tensor<2x2048x2x32x2xf32>) -> tensor<2x2048x2x32x1xf32>
    %312 = stablehlo.reshape %311 : (tensor<2x2048x2x32x1xf32>) -> tensor<2x2048x2x32xf32>
    %313 = stablehlo.slice %310 [0:2, 0:2048, 0:2, 0:32, 1:2] : (tensor<2x2048x2x32x2xf32>) -> tensor<2x2048x2x32x1xf32>
    %314 = stablehlo.reshape %313 : (tensor<2x2048x2x32x1xf32>) -> tensor<2x2048x2x32xf32>
    %315 = stablehlo.complex %312, %314 : tensor<2x2048x2x32xcomplex<f32>>
    %316 = stablehlo.broadcast_in_dim %37, dims = [1, 3] : (tensor<2048x32xcomplex<f32>>) -> tensor<2x2048x2x32xcomplex<f32>>
    %317 = stablehlo.multiply %315, %316 : tensor<2x2048x2x32xcomplex<f32>>
    %318 = stablehlo.real %317 : (tensor<2x2048x2x32xcomplex<f32>>) -> tensor<2x2048x2x32xf32>
    %319 = stablehlo.reshape %318 : (tensor<2x2048x2x32xf32>) -> tensor<2x2048x2x32x1xf32>
    %320 = stablehlo.imag %317 : (tensor<2x2048x2x32xcomplex<f32>>) -> tensor<2x2048x2x32xf32>
    %321 = stablehlo.reshape %320 : (tensor<2x2048x2x32xf32>) -> tensor<2x2048x2x32x1xf32>
    %322 = stablehlo.concatenate %319, %321, dim = 4 : (tensor<2x2048x2x32x1xf32>, tensor<2x2048x2x32x1xf32>) -> tensor<2x2048x2x32x2xf32>
    %323 = stablehlo.reshape %322 : (tensor<2x2048x2x32x2xf32>) -> tensor<2x2048x2x64xf32>
    %324 = "stablehlo.scatter"(%arg42, %306, %323) ({
    ^bb0(%arg45: tensor<f32>, %arg46: tensor<f32>):
      stablehlo.return %arg46 : tensor<f32>
    }) {indices_are_sorted = false, scatter_dimension_numbers = #stablehlo.scatter<update_window_dims = [0, 2, 3], inserted_window_dims = [1], scatter_dims_to_operand_dims = [1], index_vector_dim = 1>, unique_indices = false} : (tensor<2x2304x2x64xf32>, tensor<2048x1xi64>, tensor<2x2048x2x64xf32>) -> tensor<2x2304x2x64xf32>
    %325 = stablehlo.convert %arg7 : (tensor<2048xi64>) -> tensor<2048xui32>
    %326 = "stablehlo.gather"(%324, %325) {dimension_numbers = #stablehlo.gather<offset_dims = [0, 2, 3], collapsed_slice_dims = [1], start_index_map = [1], index_vector_dim = 1>, indices_are_sorted = false, slice_sizes = dense<[2, 1, 2, 64]> : tensor<4xi64>} : (tensor<2x2304x2x64xf32>, tensor<2048xui32>) -> tensor<2x2048x2x64xf32>
    %327 = stablehlo.transpose %326, dims = [0, 2, 3, 1] : (tensor<2x2048x2x64xf32>) -> tensor<2x2x64x2048xf32>
    %328 = stablehlo.reshape %327 : (tensor<2x2x64x2048xf32>) -> tensor<4x64x2048xf32>
    %329 = stablehlo.dot_general %301, %328, batching_dims = [0] x [0], contracting_dims = [2] x [1], precision = [DEFAULT, DEFAULT] : (tensor<4x2048x64xf32>, tensor<4x64x2048xf32>) -> tensor<4x2048x2048xf32>
    %330 = stablehlo.reshape %329 : (tensor<4x2048x2048xf32>) -> tensor<2x2x2048x2048xf32>
    %331 = stablehlo.broadcast_in_dim %arg29, dims = [] : (tensor<f32>) -> tensor<2x2x2048x2048xf32>
    %332 = stablehlo.divide %330, %331 : tensor<2x2x2048x2048xf32>
    %333 = stablehlo.reshape %86 : (tensor<1x1x2048x2048xf32>) -> tensor<2048x2048xf32>
    %334 = stablehlo.broadcast_in_dim %333, dims = [2, 3] : (tensor<2048x2048xf32>) -> tensor<2x2x2048x2048xf32>
    %335 = stablehlo.add %332, %334 : tensor<2x2x2048x2048xf32>
    %336 = stablehlo.reduce(%335 init: %7) across dimensions = [3] : (tensor<2x2x2048x2048xf32>, tensor<f32>) -> tensor<2x2x2048xf32>
     reducer(%arg45: tensor<f32>, %arg46: tensor<f32>)  {
      %410 = stablehlo.maximum %arg45, %arg46 : tensor<f32>
      stablehlo.return %410 : tensor<f32>
    }
    %337 = stablehlo.broadcast_in_dim %336, dims = [0, 1, 2] : (tensor<2x2x2048xf32>) -> tensor<2x2x2048x2048xf32>
    %338 = stablehlo.subtract %335, %337 : tensor<2x2x2048x2048xf32>
    %339 = stablehlo.exponential %338 : tensor<2x2x2048x2048xf32>
    %340 = stablehlo.reduce(%339 init: %8) across dimensions = [3] : (tensor<2x2x2048x2048xf32>, tensor<f32>) -> tensor<2x2x2048xf32>
     reducer(%arg45: tensor<f32>, %arg46: tensor<f32>)  {
      %410 = stablehlo.add %arg45, %arg46 : tensor<f32>
      stablehlo.return %410 : tensor<f32>
    }
    %341 = stablehlo.broadcast_in_dim %340, dims = [0, 1, 2] : (tensor<2x2x2048xf32>) -> tensor<2x2x2048x2048xf32>
    %342 = stablehlo.divide %339, %341 : tensor<2x2x2048x2048xf32>
    %343 = stablehlo.reshape %342 : (tensor<2x2x2048x2048xf32>) -> tensor<4x2048x2048xf32>
    %344 = stablehlo.compare  LT, %arg25, %2 : (tensor<2048xi64>, tensor<2048xi64>) -> tensor<2048xi1>
    %345 = stablehlo.broadcast_in_dim %arg26, dims = [] : (tensor<i64>) -> tensor<2048xi64>
    %346 = stablehlo.add %arg25, %345 : tensor<2048xi64>
    %347 = stablehlo.select %344, %346, %arg25 : tensor<2048xi1>, tensor<2048xi64>
    %348 = stablehlo.reshape %347 : (tensor<2048xi64>) -> tensor<2048x1xi64>
    %349 = stablehlo.reshape %282 : (tensor<2x2048x128xf32>) -> tensor<4096x128xf32>
    %350 = stablehlo.transpose %arg8, dims = [1, 0] {result_layout = dense<[0, 1]> : tensor<2xindex>, xla_shape = "f32[128,128]{0,1}"} : (tensor<128x128xf32>) -> tensor<128x128xf32>
    %351 = stablehlo.dot %349, %350, precision = [DEFAULT, DEFAULT] : (tensor<4096x128xf32>, tensor<128x128xf32>) -> tensor<4096x128xf32>
    %352 = stablehlo.reshape %351 : (tensor<4096x128xf32>) -> tensor<2x2048x2x64xf32>
    %353 = "stablehlo.scatter"(%arg40, %348, %352) ({
    ^bb0(%arg45: tensor<f32>, %arg46: tensor<f32>):
      stablehlo.return %arg46 : tensor<f32>
    }) {indices_are_sorted = false, scatter_dimension_numbers = #stablehlo.scatter<update_window_dims = [0, 2, 3], inserted_window_dims = [1], scatter_dims_to_operand_dims = [1], index_vector_dim = 1>, unique_indices = false} : (tensor<2x2304x2x64xf32>, tensor<2048x1xi64>, tensor<2x2048x2x64xf32>) -> tensor<2x2304x2x64xf32>
    %354 = stablehlo.convert %arg7 : (tensor<2048xi64>) -> tensor<2048xui32>
    %355 = "stablehlo.gather"(%353, %354) {dimension_numbers = #stablehlo.gather<offset_dims = [0, 2, 3], collapsed_slice_dims = [1], start_index_map = [1], index_vector_dim = 1>, indices_are_sorted = false, slice_sizes = dense<[2, 1, 2, 64]> : tensor<4xi64>} : (tensor<2x2304x2x64xf32>, tensor<2048xui32>) -> tensor<2x2048x2x64xf32>
    %356 = stablehlo.transpose %355, dims = [0, 2, 1, 3] {result_layout = dense<[3, 1, 2, 0]> : tensor<4xindex>, xla_shape = "f32[2,2,2048,64]{3,1,2,0}"} : (tensor<2x2048x2x64xf32>) -> tensor<2x2x2048x64xf32>
    %357 = stablehlo.reshape %356 : (tensor<2x2x2048x64xf32>) -> tensor<4x2048x64xf32>
    %358 = stablehlo.dot_general %343, %357, batching_dims = [0] x [0], contracting_dims = [2] x [1], precision = [DEFAULT, DEFAULT] : (tensor<4x2048x2048xf32>, tensor<4x2048x64xf32>) -> tensor<4x2048x64xf32>
    %359 = stablehlo.reshape %358 : (tensor<4x2048x64xf32>) -> tensor<2x2x2048x64xf32>
    %360 = stablehlo.transpose %359, dims = [0, 2, 1, 3] {result_layout = dense<[3, 1, 2, 0]> : tensor<4xindex>, xla_shape = "f32[2,2048,2,64]{3,1,2,0}"} : (tensor<2x2x2048x64xf32>) -> tensor<2x2048x2x64xf32>
    %361 = stablehlo.reshape %360 : (tensor<2x2048x2x64xf32>) -> tensor<4096x128xf32>
    %362 = stablehlo.transpose %arg6, dims = [1, 0] {result_layout = dense<[0, 1]> : tensor<2xindex>, xla_shape = "f32[128,128]{0,1}"} : (tensor<128x128xf32>) -> tensor<128x128xf32>
    %363 = stablehlo.dot %361, %362, precision = [DEFAULT, DEFAULT] : (tensor<4096x128xf32>, tensor<128x128xf32>) -> tensor<4096x128xf32>
    %364 = stablehlo.reshape %363 : (tensor<4096x128xf32>) -> tensor<2x2048x128xf32>
    %365 = stablehlo.add %270, %364 : tensor<2x2048x128xf32>
    %366 = stablehlo.power %365, %1 : tensor<2x2048x128xf32>
    %367 = stablehlo.reduce(%366 init: %8) across dimensions = [2] : (tensor<2x2048x128xf32>, tensor<f32>) -> tensor<2x2048xf32>
     reducer(%arg45: tensor<f32>, %arg46: tensor<f32>)  {
      %410 = stablehlo.add %arg45, %arg46 : tensor<f32>
      stablehlo.return %410 : tensor<f32>
    }
    %368 = stablehlo.multiply %367, %0 : tensor<2x2048xf32>
    %369 = stablehlo.reshape %368 : (tensor<2x2048xf32>) -> tensor<2x2048x1xf32>
    %370 = stablehlo.broadcast_in_dim %arg2, dims = [] : (tensor<f32>) -> tensor<2x2048x1xf32>
    %371 = stablehlo.add %369, %370 : tensor<2x2048x1xf32>
    %372 = stablehlo.rsqrt %371 : tensor<2x2048x1xf32>
    %373 = stablehlo.reshape %372 : (tensor<2x2048x1xf32>) -> tensor<2x2048xf32>
    %374 = stablehlo.broadcast_in_dim %373, dims = [0, 1] : (tensor<2x2048xf32>) -> tensor<2x2048x128xf32>
    %375 = stablehlo.multiply %365, %374 : tensor<2x2048x128xf32>
    %376 = stablehlo.broadcast_in_dim %arg5, dims = [2] : (tensor<128xf32>) -> tensor<2x2048x128xf32>
    %377 = stablehlo.multiply %375, %376 : tensor<2x2048x128xf32>
    %378 = stablehlo.reshape %377 : (tensor<2x2048x128xf32>) -> tensor<4096x128xf32>
    %379 = stablehlo.transpose %arg44, dims = [1, 0] {result_layout = dense<[0, 1]> : tensor<2xindex>, xla_shape = "f32[128,352]{0,1}"} : (tensor<352x128xf32>) -> tensor<128x352xf32>
    %380 = stablehlo.dot %378, %379, precision = [DEFAULT, DEFAULT] : (tensor<4096x128xf32>, tensor<128x352xf32>) -> tensor<4096x352xf32>
    %381 = stablehlo.reshape %380 : (tensor<4096x352xf32>) -> tensor<2x2048x352xf32>
    %382 = stablehlo.logistic %381 : tensor<2x2048x352xf32>
    %383 = stablehlo.multiply %381, %382 : tensor<2x2048x352xf32>
    %384 = stablehlo.reshape %377 : (tensor<2x2048x128xf32>) -> tensor<4096x128xf32>
    %385 = stablehlo.transpose %arg4, dims = [1, 0] {result_layout = dense<[0, 1]> : tensor<2xindex>, xla_shape = "f32[128,352]{0,1}"} : (tensor<352x128xf32>) -> tensor<128x352xf32>
    %386 = stablehlo.dot %384, %385, precision = [DEFAULT, DEFAULT] : (tensor<4096x128xf32>, tensor<128x352xf32>) -> tensor<4096x352xf32>
    %387 = stablehlo.reshape %386 : (tensor<4096x352xf32>) -> tensor<2x2048x352xf32>
    %388 = stablehlo.multiply %383, %387 : tensor<2x2048x352xf32>
    %389 = stablehlo.reshape %388 : (tensor<2x2048x352xf32>) -> tensor<4096x352xf32>
    %390 = stablehlo.transpose %arg3, dims = [1, 0] {result_layout = dense<[0, 1]> : tensor<2xindex>, xla_shape = "f32[352,128]{0,1}"} : (tensor<128x352xf32>) -> tensor<352x128xf32>
    %391 = stablehlo.dot %389, %390, precision = [DEFAULT, DEFAULT] : (tensor<4096x352xf32>, tensor<352x128xf32>) -> tensor<4096x128xf32>
    %392 = stablehlo.reshape %391 : (tensor<4096x128xf32>) -> tensor<2x2048x128xf32>
    %393 = stablehlo.add %365, %392 : tensor<2x2048x128xf32>
    %394 = stablehlo.power %393, %1 : tensor<2x2048x128xf32>
    %395 = stablehlo.reduce(%394 init: %8) across dimensions = [2] : (tensor<2x2048x128xf32>, tensor<f32>) -> tensor<2x2048xf32>
     reducer(%arg45: tensor<f32>, %arg46: tensor<f32>)  {
      %410 = stablehlo.add %arg45, %arg46 : tensor<f32>
      stablehlo.return %410 : tensor<f32>
    }
    %396 = stablehlo.multiply %395, %0 : tensor<2x2048xf32>
    %397 = stablehlo.reshape %396 : (tensor<2x2048xf32>) -> tensor<2x2048x1xf32>
    %398 = stablehlo.broadcast_in_dim %arg2, dims = [] : (tensor<f32>) -> tensor<2x2048x1xf32>
    %399 = stablehlo.add %397, %398 : tensor<2x2048x1xf32>
    %400 = stablehlo.rsqrt %399 : tensor<2x2048x1xf32>
    %401 = stablehlo.reshape %400 : (tensor<2x2048x1xf32>) -> tensor<2x2048xf32>
    %402 = stablehlo.broadcast_in_dim %401, dims = [0, 1] : (tensor<2x2048xf32>) -> tensor<2x2048x128xf32>
    %403 = stablehlo.multiply %393, %402 : tensor<2x2048x128xf32>
    %404 = stablehlo.broadcast_in_dim %arg1, dims = [2] : (tensor<128xf32>) -> tensor<2x2048x128xf32>
    %405 = stablehlo.multiply %403, %404 : tensor<2x2048x128xf32>
    %406 = stablehlo.reshape %405 : (tensor<2x2048x128xf32>) -> tensor<4096x128xf32>
    %407 = stablehlo.transpose %arg0, dims = [1, 0] {result_layout = dense<[0, 1]> : tensor<2xindex>, xla_shape = "f32[128,32000]{0,1}"} : (tensor<32000x128xf32>) -> tensor<128x32000xf32>
    %408 = stablehlo.dot %406, %407, precision = [DEFAULT, DEFAULT] : (tensor<4096x128xf32>, tensor<128x32000xf32>) -> tensor<4096x32000xf32>
    %409 = stablehlo.reshape %408 : (tensor<4096x32000xf32>) -> tensor<2x2048x32000xf32>
    return %409, %70, %107, %201, %230, %324, %353 : tensor<2x2048x32000xf32>, tensor<2x2304x2x64xf32>, tensor<2x2304x2x64xf32>, tensor<2x2304x2x64xf32>, tensor<2x2304x2x64xf32>, tensor<2x2304x2x64xf32>, tensor<2x2304x2x64xf32>
  }
}
