module @IrToHlo.7512 attributes {mhlo.cross_program_prefetches = [], mhlo.is_dynamic = false, mhlo.use_auto_spmd_partitioning = false} {
  func.func @main(%arg0: tensor<32000x4096xf32>, %arg1: tensor<4096xf32>, %arg2: tensor<f32>, %arg3: tensor<4096x11008xf32>, %arg4: tensor<11008x4096xf32>, %arg5: tensor<4096xf32>, %arg6: tensor<4096x4096xf32>, %arg7: tensor<2048xi64>, %arg8: tensor<4096x4096xf32>, %arg9: tensor<4096xf32>, %arg10: tensor<4096x11008xf32>, %arg11: tensor<11008x4096xf32>, %arg12: tensor<4096xf32>, %arg13: tensor<4096x4096xf32>, %arg14: tensor<4096x4096xf32>, %arg15: tensor<4096xf32>, %arg16: tensor<4096x11008xf32>, %arg17: tensor<11008x4096xf32>, %arg18: tensor<4096xf32>, %arg19: tensor<4096x4096xf32>, %arg20: tensor<4096x4096xf32>, %arg21: tensor<4096xf32>, %arg22: tensor<4096x11008xf32>, %arg23: tensor<11008x4096xf32>, %arg24: tensor<4096xf32>, %arg25: tensor<4096x4096xf32>, %arg26: tensor<4096x4096xf32>, %arg27: tensor<4096xf32>, %arg28: tensor<4096x11008xf32>, %arg29: tensor<11008x4096xf32>, %arg30: tensor<4096xf32>, %arg31: tensor<4096x4096xf32>, %arg32: tensor<4096x4096xf32>, %arg33: tensor<4096xf32>, %arg34: tensor<4096x11008xf32>, %arg35: tensor<11008x4096xf32>, %arg36: tensor<4096xf32>, %arg37: tensor<4096x4096xf32>, %arg38: tensor<4096x4096xf32>, %arg39: tensor<4096xf32>, %arg40: tensor<4096x11008xf32>, %arg41: tensor<11008x4096xf32>, %arg42: tensor<4096xf32>, %arg43: tensor<4096x4096xf32>, %arg44: tensor<4096x4096xf32>, %arg45: tensor<4096xf32>, %arg46: tensor<4096x11008xf32>, %arg47: tensor<11008x4096xf32>, %arg48: tensor<4096xf32>, %arg49: tensor<4096x4096xf32>, %arg50: tensor<4096x4096xf32>, %arg51: tensor<4096xf32>, %arg52: tensor<4096x11008xf32>, %arg53: tensor<11008x4096xf32>, %arg54: tensor<4096xf32>, %arg55: tensor<4096x4096xf32>, %arg56: tensor<4096x4096xf32>, %arg57: tensor<4096xf32>, %arg58: tensor<4096x11008xf32>, %arg59: tensor<11008x4096xf32>, %arg60: tensor<4096xf32>, %arg61: tensor<4096x4096xf32>, %arg62: tensor<4096x4096xf32>, %arg63: tensor<4096xf32>, %arg64: tensor<4096x11008xf32>, %arg65: tensor<11008x4096xf32>, %arg66: tensor<4096xf32>, %arg67: tensor<4096x4096xf32>, %arg68: tensor<4096x4096xf32>, %arg69: tensor<4096xf32>, %arg70: tensor<4096x11008xf32>, %arg71: tensor<11008x4096xf32>, %arg72: tensor<4096xf32>, %arg73: tensor<4096x4096xf32>, %arg74: tensor<4096x4096xf32>, %arg75: tensor<4096xf32>, %arg76: tensor<4096x11008xf32>, %arg77: tensor<11008x4096xf32>, %arg78: tensor<4096xf32>, %arg79: tensor<4096x4096xf32>, %arg80: tensor<4096x4096xf32>, %arg81: tensor<4096xf32>, %arg82: tensor<4096x11008xf32>, %arg83: tensor<11008x4096xf32>, %arg84: tensor<4096xf32>, %arg85: tensor<4096x4096xf32>, %arg86: tensor<4096x4096xf32>, %arg87: tensor<4096xf32>, %arg88: tensor<4096x11008xf32>, %arg89: tensor<11008x4096xf32>, %arg90: tensor<4096xf32>, %arg91: tensor<4096x4096xf32>, %arg92: tensor<4096x4096xf32>, %arg93: tensor<4096xf32>, %arg94: tensor<4096x11008xf32>, %arg95: tensor<11008x4096xf32>, %arg96: tensor<4096xf32>, %arg97: tensor<4096x4096xf32>, %arg98: tensor<4096x4096xf32>, %arg99: tensor<4096xf32>, %arg100: tensor<4096x11008xf32>, %arg101: tensor<11008x4096xf32>, %arg102: tensor<4096xf32>, %arg103: tensor<4096x4096xf32>, %arg104: tensor<4096x4096xf32>, %arg105: tensor<4096xf32>, %arg106: tensor<4096x11008xf32>, %arg107: tensor<11008x4096xf32>, %arg108: tensor<4096xf32>, %arg109: tensor<4096x4096xf32>, %arg110: tensor<4096x4096xf32>, %arg111: tensor<4096xf32>, %arg112: tensor<4096x11008xf32>, %arg113: tensor<11008x4096xf32>, %arg114: tensor<4096xf32>, %arg115: tensor<4096x4096xf32>, %arg116: tensor<4096x4096xf32>, %arg117: tensor<4096xf32>, %arg118: tensor<4096x11008xf32>, %arg119: tensor<11008x4096xf32>, %arg120: tensor<4096xf32>, %arg121: tensor<4096x4096xf32>, %arg122: tensor<4096x4096xf32>, %arg123: tensor<4096xf32>, %arg124: tensor<4096x11008xf32>, %arg125: tensor<11008x4096xf32>, %arg126: tensor<4096xf32>, %arg127: tensor<4096x4096xf32>, %arg128: tensor<4096x4096xf32>, %arg129: tensor<4096xf32>, %arg130: tensor<4096x11008xf32>, %arg131: tensor<11008x4096xf32>, %arg132: tensor<4096xf32>, %arg133: tensor<4096x4096xf32>, %arg134: tensor<4096x4096xf32>, %arg135: tensor<4096xf32>, %arg136: tensor<4096x11008xf32>, %arg137: tensor<11008x4096xf32>, %arg138: tensor<4096xf32>, %arg139: tensor<4096x4096xf32>, %arg140: tensor<4096x4096xf32>, %arg141: tensor<4096xf32>, %arg142: tensor<4096x11008xf32>, %arg143: tensor<11008x4096xf32>, %arg144: tensor<4096xf32>, %arg145: tensor<4096x4096xf32>, %arg146: tensor<4096x4096xf32>, %arg147: tensor<4096xf32>, %arg148: tensor<4096x11008xf32>, %arg149: tensor<11008x4096xf32>, %arg150: tensor<4096xf32>, %arg151: tensor<4096x4096xf32>, %arg152: tensor<4096x4096xf32>, %arg153: tensor<4096xf32>, %arg154: tensor<4096x11008xf32>, %arg155: tensor<11008x4096xf32>, %arg156: tensor<4096xf32>, %arg157: tensor<4096x4096xf32>, %arg158: tensor<4096x4096xf32>, %arg159: tensor<4096xf32>, %arg160: tensor<4096x11008xf32>, %arg161: tensor<11008x4096xf32>, %arg162: tensor<4096xf32>, %arg163: tensor<4096x4096xf32>, %arg164: tensor<4096x4096xf32>, %arg165: tensor<4096xf32>, %arg166: tensor<4096x11008xf32>, %arg167: tensor<11008x4096xf32>, %arg168: tensor<4096xf32>, %arg169: tensor<4096x4096xf32>, %arg170: tensor<4096x4096xf32>, %arg171: tensor<4096xf32>, %arg172: tensor<4096x11008xf32>, %arg173: tensor<11008x4096xf32>, %arg174: tensor<4096xf32>, %arg175: tensor<4096x4096xf32>, %arg176: tensor<4096x4096xf32>, %arg177: tensor<4096xf32>, %arg178: tensor<4096x11008xf32>, %arg179: tensor<11008x4096xf32>, %arg180: tensor<4096xf32>, %arg181: tensor<4096x4096xf32>, %arg182: tensor<4096x4096xf32>, %arg183: tensor<4096xf32>, %arg184: tensor<4096x11008xf32>, %arg185: tensor<11008x4096xf32>, %arg186: tensor<4096xf32>, %arg187: tensor<4096x4096xf32>, %arg188: tensor<4096x4096xf32>, %arg189: tensor<4096xf32>, %arg190: tensor<4096x11008xf32>, %arg191: tensor<11008x4096xf32>, %arg192: tensor<4096xf32>, %arg193: tensor<4096x4096xf32>, %arg194: tensor<4096x4096xf32>, %arg195: tensor<4096xf32>, %arg196: tensor<2048xi64>, %arg197: tensor<32000x4096xf32>, %arg198: tensor<2048xi64>, %arg199: tensor<i64>, %arg200: tensor<2304x32x128xf32>, %arg201: tensor<f32>, %arg202: tensor<f32>, %arg203: tensor<4608x64xcomplex<f32>>, %arg204: tensor<4096x4096xf32>, %arg205: tensor<2304x32x128xf32>, %arg206: tensor<4096x4096xf32>, %arg207: tensor<11008x4096xf32>, %arg208: tensor<2304x32x128xf32>, %arg209: tensor<4096x4096xf32>, %arg210: tensor<2304x32x128xf32>, %arg211: tensor<4096x4096xf32>, %arg212: tensor<11008x4096xf32>, %arg213: tensor<2304x32x128xf32>, %arg214: tensor<4096x4096xf32>, %arg215: tensor<2304x32x128xf32>, %arg216: tensor<4096x4096xf32>, %arg217: tensor<11008x4096xf32>, %arg218: tensor<2304x32x128xf32>, %arg219: tensor<4096x4096xf32>, %arg220: tensor<2304x32x128xf32>, %arg221: tensor<4096x4096xf32>, %arg222: tensor<11008x4096xf32>, %arg223: tensor<2304x32x128xf32>, %arg224: tensor<4096x4096xf32>, %arg225: tensor<2304x32x128xf32>, %arg226: tensor<4096x4096xf32>, %arg227: tensor<11008x4096xf32>, %arg228: tensor<2304x32x128xf32>, %arg229: tensor<4096x4096xf32>, %arg230: tensor<2304x32x128xf32>, %arg231: tensor<4096x4096xf32>, %arg232: tensor<11008x4096xf32>, %arg233: tensor<2304x32x128xf32>, %arg234: tensor<4096x4096xf32>, %arg235: tensor<2304x32x128xf32>, %arg236: tensor<4096x4096xf32>, %arg237: tensor<11008x4096xf32>, %arg238: tensor<2304x32x128xf32>, %arg239: tensor<4096x4096xf32>, %arg240: tensor<2304x32x128xf32>, %arg241: tensor<4096x4096xf32>, %arg242: tensor<11008x4096xf32>, %arg243: tensor<2304x32x128xf32>, %arg244: tensor<4096x4096xf32>, %arg245: tensor<2304x32x128xf32>, %arg246: tensor<4096x4096xf32>, %arg247: tensor<11008x4096xf32>, %arg248: tensor<2304x32x128xf32>, %arg249: tensor<4096x4096xf32>, %arg250: tensor<2304x32x128xf32>, %arg251: tensor<4096x4096xf32>, %arg252: tensor<11008x4096xf32>, %arg253: tensor<2304x32x128xf32>, %arg254: tensor<4096x4096xf32>, %arg255: tensor<2304x32x128xf32>, %arg256: tensor<4096x4096xf32>, %arg257: tensor<11008x4096xf32>, %arg258: tensor<2304x32x128xf32>, %arg259: tensor<4096x4096xf32>, %arg260: tensor<2304x32x128xf32>, %arg261: tensor<4096x4096xf32>, %arg262: tensor<11008x4096xf32>, %arg263: tensor<2304x32x128xf32>, %arg264: tensor<4096x4096xf32>, %arg265: tensor<2304x32x128xf32>, %arg266: tensor<4096x4096xf32>, %arg267: tensor<11008x4096xf32>, %arg268: tensor<2304x32x128xf32>, %arg269: tensor<4096x4096xf32>, %arg270: tensor<2304x32x128xf32>, %arg271: tensor<4096x4096xf32>, %arg272: tensor<11008x4096xf32>, %arg273: tensor<2304x32x128xf32>, %arg274: tensor<4096x4096xf32>, %arg275: tensor<2304x32x128xf32>, %arg276: tensor<4096x4096xf32>, %arg277: tensor<11008x4096xf32>, %arg278: tensor<2304x32x128xf32>, %arg279: tensor<4096x4096xf32>, %arg280: tensor<2304x32x128xf32>, %arg281: tensor<4096x4096xf32>, %arg282: tensor<11008x4096xf32>, %arg283: tensor<2304x32x128xf32>, %arg284: tensor<4096x4096xf32>, %arg285: tensor<2304x32x128xf32>, %arg286: tensor<4096x4096xf32>, %arg287: tensor<11008x4096xf32>, %arg288: tensor<2304x32x128xf32>, %arg289: tensor<4096x4096xf32>, %arg290: tensor<2304x32x128xf32>, %arg291: tensor<4096x4096xf32>, %arg292: tensor<11008x4096xf32>, %arg293: tensor<2304x32x128xf32>, %arg294: tensor<4096x4096xf32>, %arg295: tensor<2304x32x128xf32>, %arg296: tensor<4096x4096xf32>, %arg297: tensor<11008x4096xf32>, %arg298: tensor<2304x32x128xf32>, %arg299: tensor<4096x4096xf32>, %arg300: tensor<2304x32x128xf32>, %arg301: tensor<4096x4096xf32>, %arg302: tensor<11008x4096xf32>, %arg303: tensor<2304x32x128xf32>, %arg304: tensor<4096x4096xf32>, %arg305: tensor<2304x32x128xf32>, %arg306: tensor<4096x4096xf32>, %arg307: tensor<11008x4096xf32>, %arg308: tensor<2304x32x128xf32>, %arg309: tensor<4096x4096xf32>, %arg310: tensor<2304x32x128xf32>, %arg311: tensor<4096x4096xf32>, %arg312: tensor<11008x4096xf32>, %arg313: tensor<2304x32x128xf32>, %arg314: tensor<4096x4096xf32>, %arg315: tensor<2304x32x128xf32>, %arg316: tensor<4096x4096xf32>, %arg317: tensor<11008x4096xf32>, %arg318: tensor<2304x32x128xf32>, %arg319: tensor<4096x4096xf32>, %arg320: tensor<2304x32x128xf32>, %arg321: tensor<4096x4096xf32>, %arg322: tensor<11008x4096xf32>, %arg323: tensor<2304x32x128xf32>, %arg324: tensor<4096x4096xf32>, %arg325: tensor<2304x32x128xf32>, %arg326: tensor<4096x4096xf32>, %arg327: tensor<11008x4096xf32>, %arg328: tensor<2304x32x128xf32>, %arg329: tensor<4096x4096xf32>, %arg330: tensor<2304x32x128xf32>, %arg331: tensor<4096x4096xf32>, %arg332: tensor<11008x4096xf32>, %arg333: tensor<2304x32x128xf32>, %arg334: tensor<4096x4096xf32>, %arg335: tensor<2304x32x128xf32>, %arg336: tensor<4096x4096xf32>, %arg337: tensor<11008x4096xf32>, %arg338: tensor<2304x32x128xf32>, %arg339: tensor<4096x4096xf32>, %arg340: tensor<2304x32x128xf32>, %arg341: tensor<4096x4096xf32>, %arg342: tensor<11008x4096xf32>, %arg343: tensor<2304x32x128xf32>, %arg344: tensor<4096x4096xf32>, %arg345: tensor<2304x32x128xf32>, %arg346: tensor<4096x4096xf32>, %arg347: tensor<11008x4096xf32>, %arg348: tensor<2304x32x128xf32>, %arg349: tensor<4096x4096xf32>, %arg350: tensor<2304x32x128xf32>, %arg351: tensor<4096x4096xf32>, %arg352: tensor<11008x4096xf32>, %arg353: tensor<2304x32x128xf32>, %arg354: tensor<4096x4096xf32>, %arg355: tensor<2304x32x128xf32>, %arg356: tensor<4096x4096xf32>, %arg357: tensor<11008x4096xf32>, %arg358: tensor<2304x32x128xf32>, %arg359: tensor<4096x4096xf32>, %arg360: tensor<2304x32x128xf32>, %arg361: tensor<4096x4096xf32>, %arg362: tensor<11008x4096xf32>) -> (tensor<2048x32000xf32>, tensor<2304x32x128xf32>, tensor<2304x32x128xf32>, tensor<2304x32x128xf32>, tensor<2304x32x128xf32>, tensor<2304x32x128xf32>, tensor<2304x32x128xf32>, tensor<2304x32x128xf32>, tensor<2304x32x128xf32>, tensor<2304x32x128xf32>, tensor<2304x32x128xf32>, tensor<2304x32x128xf32>, tensor<2304x32x128xf32>, tensor<2304x32x128xf32>, tensor<2304x32x128xf32>, tensor<2304x32x128xf32>, tensor<2304x32x128xf32>, tensor<2304x32x128xf32>, tensor<2304x32x128xf32>, tensor<2304x32x128xf32>, tensor<2304x32x128xf32>, tensor<2304x32x128xf32>, tensor<2304x32x128xf32>, tensor<2304x32x128xf32>, tensor<2304x32x128xf32>, tensor<2304x32x128xf32>, tensor<2304x32x128xf32>, tensor<2304x32x128xf32>, tensor<2304x32x128xf32>, tensor<2304x32x128xf32>, tensor<2304x32x128xf32>, tensor<2304x32x128xf32>, tensor<2304x32x128xf32>, tensor<2304x32x128xf32>, tensor<2304x32x128xf32>, tensor<2304x32x128xf32>, tensor<2304x32x128xf32>, tensor<2304x32x128xf32>, tensor<2304x32x128xf32>, tensor<2304x32x128xf32>, tensor<2304x32x128xf32>, tensor<2304x32x128xf32>, tensor<2304x32x128xf32>, tensor<2304x32x128xf32>, tensor<2304x32x128xf32>, tensor<2304x32x128xf32>, tensor<2304x32x128xf32>, tensor<2304x32x128xf32>, tensor<2304x32x128xf32>, tensor<2304x32x128xf32>, tensor<2304x32x128xf32>, tensor<2304x32x128xf32>, tensor<2304x32x128xf32>, tensor<2304x32x128xf32>, tensor<2304x32x128xf32>, tensor<2304x32x128xf32>, tensor<2304x32x128xf32>, tensor<2304x32x128xf32>, tensor<2304x32x128xf32>, tensor<2304x32x128xf32>, tensor<2304x32x128xf32>, tensor<2304x32x128xf32>, tensor<2304x32x128xf32>, tensor<2304x32x128xf32>, tensor<2304x32x128xf32>) {
    %0 = stablehlo.constant dense<2.44140625E-4> : tensor<2048xf32>
    %1 = stablehlo.constant dense<2.000000e+00> : tensor<2048x4096xf32>
    %2 = stablehlo.constant dense<0> : tensor<2048xi64>
    %3 = stablehlo.constant dense<0.000000e+00> : tensor<1x1x2048x2048xf32>
    %4 = stablehlo.constant dense<1> : tensor<2048x2048xi64>
    %5 = stablehlo.constant dense<"…"> : tensor<2048xi64>
    %6 = stablehlo.constant dense<0xFF800000> : tensor<f32>
    %7 = stablehlo.constant dense<0.000000e+00> : tensor<f32>
    %8 = stablehlo.convert %arg196 : (tensor<2048xi64>) -> tensor<2048xui32>
    %9 = "stablehlo.gather"(%arg197, %8) {dimension_numbers = #stablehlo.gather<offset_dims = [1], collapsed_slice_dims = [0], start_index_map = [0], index_vector_dim = 1>, indices_are_sorted = false, slice_sizes = dense<[1, 4096]> : tensor<2xi64>} : (tensor<32000x4096xf32>, tensor<2048xui32>) -> tensor<2048x4096xf32>
    %10 = stablehlo.power %9, %1 : tensor<2048x4096xf32>
    %11 = stablehlo.reduce(%10 init: %7) across dimensions = [1] : (tensor<2048x4096xf32>, tensor<f32>) -> tensor<2048xf32>
     reducer(%arg363: tensor<f32>, %arg364: tensor<f32>)  {
      %3554 = stablehlo.add %arg363, %arg364 : tensor<f32>
      stablehlo.return %3554 : tensor<f32>
    }
    %12 = stablehlo.multiply %11, %0 : tensor<2048xf32>
    %13 = stablehlo.reshape %12 : (tensor<2048xf32>) -> tensor<2048x1xf32>
    %14 = stablehlo.broadcast_in_dim %arg2, dims = [] : (tensor<f32>) -> tensor<2048x1xf32>
    %15 = stablehlo.add %13, %14 : tensor<2048x1xf32>
    %16 = stablehlo.rsqrt %15 : tensor<2048x1xf32>
    %17 = stablehlo.reshape %16 : (tensor<2048x1xf32>) -> tensor<2048xf32>
    %18 = stablehlo.broadcast_in_dim %17, dims = [0] : (tensor<2048xf32>) -> tensor<2048x4096xf32>
    %19 = stablehlo.multiply %9, %18 : tensor<2048x4096xf32>
    %20 = stablehlo.broadcast_in_dim %arg195, dims = [1] : (tensor<4096xf32>) -> tensor<2048x4096xf32>
    %21 = stablehlo.multiply %19, %20 : tensor<2048x4096xf32>
    %22 = stablehlo.transpose %arg206, dims = [1, 0] {result_layout = dense<[0, 1]> : tensor<2xindex>, xla_shape = "f32[4096,4096]{0,1}"} : (tensor<4096x4096xf32>) -> tensor<4096x4096xf32>
    %23 = stablehlo.dot %21, %22, precision = [DEFAULT, DEFAULT] : (tensor<2048x4096xf32>, tensor<4096x4096xf32>) -> tensor<2048x4096xf32>
    %24 = stablehlo.reshape %23 : (tensor<2048x4096xf32>) -> tensor<2048x32x64x2xf32>
    %25 = stablehlo.slice %24 [0:2048, 0:32, 0:64, 0:1] : (tensor<2048x32x64x2xf32>) -> tensor<2048x32x64x1xf32>
    %26 = stablehlo.reshape %25 : (tensor<2048x32x64x1xf32>) -> tensor<2048x32x64xf32>
    %27 = stablehlo.slice %24 [0:2048, 0:32, 0:64, 1:2] : (tensor<2048x32x64x2xf32>) -> tensor<2048x32x64x1xf32>
    %28 = stablehlo.reshape %27 : (tensor<2048x32x64x1xf32>) -> tensor<2048x32x64xf32>
    %29 = stablehlo.complex %26, %28 : tensor<2048x32x64xcomplex<f32>>
    %30 = stablehlo.convert %arg198 : (tensor<2048xi64>) -> tensor<2048xui32>
    %31 = "stablehlo.gather"(%arg203, %30) {dimension_numbers = #stablehlo.gather<offset_dims = [1], collapsed_slice_dims = [0], start_index_map = [0], index_vector_dim = 1>, indices_are_sorted = false, slice_sizes = dense<[1, 64]> : tensor<2xi64>} : (tensor<4608x64xcomplex<f32>>, tensor<2048xui32>) -> tensor<2048x64xcomplex<f32>>
    %32 = stablehlo.broadcast_in_dim %31, dims = [0, 2] : (tensor<2048x64xcomplex<f32>>) -> tensor<2048x32x64xcomplex<f32>>
    %33 = stablehlo.multiply %29, %32 : tensor<2048x32x64xcomplex<f32>>
    %34 = stablehlo.real %33 : (tensor<2048x32x64xcomplex<f32>>) -> tensor<2048x32x64xf32>
    %35 = stablehlo.reshape %34 : (tensor<2048x32x64xf32>) -> tensor<2048x32x64x1xf32>
    %36 = stablehlo.imag %33 : (tensor<2048x32x64xcomplex<f32>>) -> tensor<2048x32x64xf32>
    %37 = stablehlo.reshape %36 : (tensor<2048x32x64xf32>) -> tensor<2048x32x64x1xf32>
    %38 = stablehlo.concatenate %35, %37, dim = 3 : (tensor<2048x32x64x1xf32>, tensor<2048x32x64x1xf32>) -> tensor<2048x32x64x2xf32>
    %39 = stablehlo.reshape %38 : (tensor<2048x32x64x2xf32>) -> tensor<2048x32x128xf32>
    %40 = stablehlo.transpose %39, dims = [1, 0, 2] {result_layout = dense<[2, 0, 1]> : tensor<3xindex>, xla_shape = "f32[32,2048,128]{2,0,1}"} : (tensor<2048x32x128xf32>) -> tensor<32x2048x128xf32>
    %41 = stablehlo.compare  LT, %arg198, %2 : (tensor<2048xi64>, tensor<2048xi64>) -> tensor<2048xi1>
    %42 = stablehlo.broadcast_in_dim %arg199, dims = [] : (tensor<i64>) -> tensor<2048xi64>
    %43 = stablehlo.add %arg198, %42 : tensor<2048xi64>
    %44 = stablehlo.select %41, %43, %arg198 : tensor<2048xi1>, tensor<2048xi64>
    %45 = stablehlo.reshape %44 : (tensor<2048xi64>) -> tensor<2048x1xi64>
    %46 = stablehlo.transpose %arg204, dims = [1, 0] {result_layout = dense<[0, 1]> : tensor<2xindex>, xla_shape = "f32[4096,4096]{0,1}"} : (tensor<4096x4096xf32>) -> tensor<4096x4096xf32>
    %47 = stablehlo.dot %21, %46, precision = [DEFAULT, DEFAULT] : (tensor<2048x4096xf32>, tensor<4096x4096xf32>) -> tensor<2048x4096xf32>
    %48 = stablehlo.reshape %47 : (tensor<2048x4096xf32>) -> tensor<2048x32x64x2xf32>
    %49 = stablehlo.slice %48 [0:2048, 0:32, 0:64, 0:1] : (tensor<2048x32x64x2xf32>) -> tensor<2048x32x64x1xf32>
    %50 = stablehlo.reshape %49 : (tensor<2048x32x64x1xf32>) -> tensor<2048x32x64xf32>
    %51 = stablehlo.slice %48 [0:2048, 0:32, 0:64, 1:2] : (tensor<2048x32x64x2xf32>) -> tensor<2048x32x64x1xf32>
    %52 = stablehlo.reshape %51 : (tensor<2048x32x64x1xf32>) -> tensor<2048x32x64xf32>
    %53 = stablehlo.complex %50, %52 : tensor<2048x32x64xcomplex<f32>>
    %54 = stablehlo.broadcast_in_dim %31, dims = [0, 2] : (tensor<2048x64xcomplex<f32>>) -> tensor<2048x32x64xcomplex<f32>>
    %55 = stablehlo.multiply %53, %54 : tensor<2048x32x64xcomplex<f32>>
    %56 = stablehlo.real %55 : (tensor<2048x32x64xcomplex<f32>>) -> tensor<2048x32x64xf32>
    %57 = stablehlo.reshape %56 : (tensor<2048x32x64xf32>) -> tensor<2048x32x64x1xf32>
    %58 = stablehlo.imag %55 : (tensor<2048x32x64xcomplex<f32>>) -> tensor<2048x32x64xf32>
    %59 = stablehlo.reshape %58 : (tensor<2048x32x64xf32>) -> tensor<2048x32x64x1xf32>
    %60 = stablehlo.concatenate %57, %59, dim = 3 : (tensor<2048x32x64x1xf32>, tensor<2048x32x64x1xf32>) -> tensor<2048x32x64x2xf32>
    %61 = stablehlo.reshape %60 : (tensor<2048x32x64x2xf32>) -> tensor<2048x32x128xf32>
    %62 = "stablehlo.scatter"(%arg205, %45, %61) ({
    ^bb0(%arg363: tensor<f32>, %arg364: tensor<f32>):
      stablehlo.return %arg364 : tensor<f32>
    }) {indices_are_sorted = false, scatter_dimension_numbers = #stablehlo.scatter<update_window_dims = [1, 2], inserted_window_dims = [0], scatter_dims_to_operand_dims = [0], index_vector_dim = 1>, unique_indices = false} : (tensor<2304x32x128xf32>, tensor<2048x1xi64>, tensor<2048x32x128xf32>) -> tensor<2304x32x128xf32>
    %63 = stablehlo.convert %arg7 : (tensor<2048xi64>) -> tensor<2048xui32>
    %64 = "stablehlo.gather"(%62, %63) {dimension_numbers = #stablehlo.gather<offset_dims = [1, 2], collapsed_slice_dims = [0], start_index_map = [0], index_vector_dim = 1>, indices_are_sorted = false, slice_sizes = dense<[1, 32, 128]> : tensor<3xi64>} : (tensor<2304x32x128xf32>, tensor<2048xui32>) -> tensor<2048x32x128xf32>
    %65 = stablehlo.transpose %64, dims = [1, 2, 0] : (tensor<2048x32x128xf32>) -> tensor<32x128x2048xf32>
    %66 = stablehlo.dot_general %40, %65, batching_dims = [0] x [0], contracting_dims = [2] x [1], precision = [DEFAULT, DEFAULT] : (tensor<32x2048x128xf32>, tensor<32x128x2048xf32>) -> tensor<32x2048x2048xf32>
    %67 = stablehlo.broadcast_in_dim %arg202, dims = [] : (tensor<f32>) -> tensor<32x2048x2048xf32>
    %68 = stablehlo.divide %66, %67 : tensor<32x2048x2048xf32>
    %69 = stablehlo.reshape %68 : (tensor<32x2048x2048xf32>) -> tensor<1x32x2048x2048xf32>
    %70 = stablehlo.broadcast_in_dim %5, dims = [1] : (tensor<2048xi64>) -> tensor<2048x2048xi64>
    %71 = stablehlo.broadcast_in_dim %5, dims = [0] : (tensor<2048xi64>) -> tensor<2048x2048xi64>
    %72 = stablehlo.subtract %70, %71 : tensor<2048x2048xi64>
    %73 = stablehlo.compare  GE, %72, %4 : (tensor<2048x2048xi64>, tensor<2048x2048xi64>) -> tensor<2048x2048xi1>
    %74 = stablehlo.reshape %73 : (tensor<2048x2048xi1>) -> tensor<1x1x2048x2048xi1>
    %75 = stablehlo.reshape %arg201 : (tensor<f32>) -> tensor<1x1xf32>
    %76 = stablehlo.broadcast_in_dim %75, dims = [0, 1] : (tensor<1x1xf32>) -> tensor<1x1x2048x2048xf32>
    %77 = stablehlo.select %74, %76, %3 : tensor<1x1x2048x2048xi1>, tensor<1x1x2048x2048xf32>
    %78 = stablehlo.reshape %77 : (tensor<1x1x2048x2048xf32>) -> tensor<1x2048x2048xf32>
    %79 = stablehlo.broadcast_in_dim %78, dims = [0, 2, 3] : (tensor<1x2048x2048xf32>) -> tensor<1x32x2048x2048xf32>
    %80 = stablehlo.add %69, %79 : tensor<1x32x2048x2048xf32>
    %81 = stablehlo.reduce(%80 init: %6) across dimensions = [3] : (tensor<1x32x2048x2048xf32>, tensor<f32>) -> tensor<1x32x2048xf32>
     reducer(%arg363: tensor<f32>, %arg364: tensor<f32>)  {
      %3554 = stablehlo.maximum %arg363, %arg364 : tensor<f32>
      stablehlo.return %3554 : tensor<f32>
    }
    %82 = stablehlo.broadcast_in_dim %81, dims = [0, 1, 2] : (tensor<1x32x2048xf32>) -> tensor<1x32x2048x2048xf32>
    %83 = stablehlo.subtract %80, %82 : tensor<1x32x2048x2048xf32>
    %84 = stablehlo.exponential %83 : tensor<1x32x2048x2048xf32>
    %85 = stablehlo.reduce(%84 init: %7) across dimensions = [3] : (tensor<1x32x2048x2048xf32>, tensor<f32>) -> tensor<1x32x2048xf32>
     reducer(%arg363: tensor<f32>, %arg364: tensor<f32>)  {
      %3554 = stablehlo.add %arg363, %arg364 : tensor<f32>
      stablehlo.return %3554 : tensor<f32>
    }
    %86 = stablehlo.broadcast_in_dim %85, dims = [0, 1, 2] : (tensor<1x32x2048xf32>) -> tensor<1x32x2048x2048xf32>
    %87 = stablehlo.divide %84, %86 : tensor<1x32x2048x2048xf32>
    %88 = stablehlo.reshape %87 : (tensor<1x32x2048x2048xf32>) -> tensor<32x2048x2048xf32>
    %89 = stablehlo.compare  LT, %arg198, %2 : (tensor<2048xi64>, tensor<2048xi64>) -> tensor<2048xi1>
    %90 = stablehlo.broadcast_in_dim %arg199, dims = [] : (tensor<i64>) -> tensor<2048xi64>
    %91 = stablehlo.add %arg198, %90 : tensor<2048xi64>
    %92 = stablehlo.select %89, %91, %arg198 : tensor<2048xi1>, tensor<2048xi64>
    %93 = stablehlo.reshape %92 : (tensor<2048xi64>) -> tensor<2048x1xi64>
    %94 = stablehlo.transpose %arg194, dims = [1, 0] {result_layout = dense<[0, 1]> : tensor<2xindex>, xla_shape = "f32[4096,4096]{0,1}"} : (tensor<4096x4096xf32>) -> tensor<4096x4096xf32>
    %95 = stablehlo.dot %21, %94, precision = [DEFAULT, DEFAULT] : (tensor<2048x4096xf32>, tensor<4096x4096xf32>) -> tensor<2048x4096xf32>
    %96 = stablehlo.reshape %95 : (tensor<2048x4096xf32>) -> tensor<2048x32x128xf32>
    %97 = "stablehlo.scatter"(%arg200, %93, %96) ({
    ^bb0(%arg363: tensor<f32>, %arg364: tensor<f32>):
      stablehlo.return %arg364 : tensor<f32>
    }) {indices_are_sorted = false, scatter_dimension_numbers = #stablehlo.scatter<update_window_dims = [1, 2], inserted_window_dims = [0], scatter_dims_to_operand_dims = [0], index_vector_dim = 1>, unique_indices = false} : (tensor<2304x32x128xf32>, tensor<2048x1xi64>, tensor<2048x32x128xf32>) -> tensor<2304x32x128xf32>
    %98 = stablehlo.convert %arg7 : (tensor<2048xi64>) -> tensor<2048xui32>
    %99 = "stablehlo.gather"(%97, %98) {dimension_numbers = #stablehlo.gather<offset_dims = [1, 2], collapsed_slice_dims = [0], start_index_map = [0], index_vector_dim = 1>, indices_are_sorted = false, slice_sizes = dense<[1, 32, 128]> : tensor<3xi64>} : (tensor<2304x32x128xf32>, tensor<2048xui32>) -> tensor<2048x32x128xf32>
    %100 = stablehlo.transpose %99, dims = [1, 0, 2] {result_layout = dense<[2, 0, 1]> : tensor<3xindex>, xla_shape = "f32[32,2048,128]{2,0,1}"} : (tensor<2048x32x128xf32>) -> tensor<32x2048x128xf32>
    %101 = stablehlo.dot_general %88, %100, batching_dims = [0] x [0], contracting_dims = [2] x [1], precision = [DEFAULT, DEFAULT] : (tensor<32x2048x2048xf32>, tensor<32x2048x128xf32>) -> tensor<32x2048x128xf32>
    %102 = stablehlo.reshape %101 : (tensor<32x2048x128xf32>) -> tensor<1x32x2048x128xf32>
    %103 = stablehlo.transpose %102, dims = [0, 2, 1, 3] {result_layout = dense<[3, 1, 2, 0]> : tensor<4xindex>, xla_shape = "f32[1,2048,32,128]{3,1,2,0}"} : (tensor<1x32x2048x128xf32>) -> tensor<1x2048x32x128xf32>
    %104 = stablehlo.reshape %103 : (tensor<1x2048x32x128xf32>) -> tensor<2048x4096xf32>
    %105 = stablehlo.transpose %arg193, dims = [1, 0] {result_layout = dense<[0, 1]> : tensor<2xindex>, xla_shape = "f32[4096,4096]{0,1}"} : (tensor<4096x4096xf32>) -> tensor<4096x4096xf32>
    %106 = stablehlo.dot %104, %105, precision = [DEFAULT, DEFAULT] : (tensor<2048x4096xf32>, tensor<4096x4096xf32>) -> tensor<2048x4096xf32>
    %107 = stablehlo.add %9, %106 : tensor<2048x4096xf32>
    %108 = stablehlo.power %107, %1 : tensor<2048x4096xf32>
    %109 = stablehlo.reduce(%108 init: %7) across dimensions = [1] : (tensor<2048x4096xf32>, tensor<f32>) -> tensor<2048xf32>
     reducer(%arg363: tensor<f32>, %arg364: tensor<f32>)  {
      %3554 = stablehlo.add %arg363, %arg364 : tensor<f32>
      stablehlo.return %3554 : tensor<f32>
    }
    %110 = stablehlo.multiply %109, %0 : tensor<2048xf32>
    %111 = stablehlo.reshape %110 : (tensor<2048xf32>) -> tensor<2048x1xf32>
    %112 = stablehlo.broadcast_in_dim %arg2, dims = [] : (tensor<f32>) -> tensor<2048x1xf32>
    %113 = stablehlo.add %111, %112 : tensor<2048x1xf32>
    %114 = stablehlo.rsqrt %113 : tensor<2048x1xf32>
    %115 = stablehlo.reshape %114 : (tensor<2048x1xf32>) -> tensor<2048xf32>
    %116 = stablehlo.broadcast_in_dim %115, dims = [0] : (tensor<2048xf32>) -> tensor<2048x4096xf32>
    %117 = stablehlo.multiply %107, %116 : tensor<2048x4096xf32>
    %118 = stablehlo.broadcast_in_dim %arg192, dims = [1] : (tensor<4096xf32>) -> tensor<2048x4096xf32>
    %119 = stablehlo.multiply %117, %118 : tensor<2048x4096xf32>
    %120 = stablehlo.transpose %arg207, dims = [1, 0] {result_layout = dense<[0, 1]> : tensor<2xindex>, xla_shape = "f32[4096,11008]{0,1}"} : (tensor<11008x4096xf32>) -> tensor<4096x11008xf32>
    %121 = stablehlo.dot %119, %120, precision = [DEFAULT, DEFAULT] : (tensor<2048x4096xf32>, tensor<4096x11008xf32>) -> tensor<2048x11008xf32>
    %122 = stablehlo.logistic %121 : tensor<2048x11008xf32>
    %123 = stablehlo.multiply %121, %122 : tensor<2048x11008xf32>
    %124 = stablehlo.transpose %arg191, dims = [1, 0] {result_layout = dense<[0, 1]> : tensor<2xindex>, xla_shape = "f32[4096,11008]{0,1}"} : (tensor<11008x4096xf32>) -> tensor<4096x11008xf32>
    %125 = stablehlo.dot %119, %124, precision = [DEFAULT, DEFAULT] : (tensor<2048x4096xf32>, tensor<4096x11008xf32>) -> tensor<2048x11008xf32>
    %126 = stablehlo.multiply %123, %125 : tensor<2048x11008xf32>
    %127 = stablehlo.transpose %arg190, dims = [1, 0] {result_layout = dense<[0, 1]> : tensor<2xindex>, xla_shape = "f32[11008,4096]{0,1}"} : (tensor<4096x11008xf32>) -> tensor<11008x4096xf32>
    %128 = stablehlo.dot %126, %127, precision = [DEFAULT, DEFAULT] : (tensor<2048x11008xf32>, tensor<11008x4096xf32>) -> tensor<2048x4096xf32>
    %129 = stablehlo.add %107, %128 : tensor<2048x4096xf32>
    %130 = stablehlo.power %129, %1 : tensor<2048x4096xf32>
    %131 = stablehlo.reduce(%130 init: %7) across dimensions = [1] : (tensor<2048x4096xf32>, tensor<f32>) -> tensor<2048xf32>
     reducer(%arg363: tensor<f32>, %arg364: tensor<f32>)  {
      %3554 = stablehlo.add %arg363, %arg364 : tensor<f32>
      stablehlo.return %3554 : tensor<f32>
    }
    %132 = stablehlo.multiply %131, %0 : tensor<2048xf32>
    %133 = stablehlo.reshape %132 : (tensor<2048xf32>) -> tensor<2048x1xf32>
    %134 = stablehlo.broadcast_in_dim %arg2, dims = [] : (tensor<f32>) -> tensor<2048x1xf32>
    %135 = stablehlo.add %133, %134 : tensor<2048x1xf32>
    %136 = stablehlo.rsqrt %135 : tensor<2048x1xf32>
    %137 = stablehlo.reshape %136 : (tensor<2048x1xf32>) -> tensor<2048xf32>
    %138 = stablehlo.broadcast_in_dim %137, dims = [0] : (tensor<2048xf32>) -> tensor<2048x4096xf32>
    %139 = stablehlo.multiply %129, %138 : tensor<2048x4096xf32>
    %140 = stablehlo.broadcast_in_dim %arg189, dims = [1] : (tensor<4096xf32>) -> tensor<2048x4096xf32>
    %141 = stablehlo.multiply %139, %140 : tensor<2048x4096xf32>
    %142 = stablehlo.transpose %arg211, dims = [1, 0] {result_layout = dense<[0, 1]> : tensor<2xindex>, xla_shape = "f32[4096,4096]{0,1}"} : (tensor<4096x4096xf32>) -> tensor<4096x4096xf32>
    %143 = stablehlo.dot %141, %142, precision = [DEFAULT, DEFAULT] : (tensor<2048x4096xf32>, tensor<4096x4096xf32>) -> tensor<2048x4096xf32>
    %144 = stablehlo.reshape %143 : (tensor<2048x4096xf32>) -> tensor<2048x32x64x2xf32>
    %145 = stablehlo.slice %144 [0:2048, 0:32, 0:64, 0:1] : (tensor<2048x32x64x2xf32>) -> tensor<2048x32x64x1xf32>
    %146 = stablehlo.reshape %145 : (tensor<2048x32x64x1xf32>) -> tensor<2048x32x64xf32>
    %147 = stablehlo.slice %144 [0:2048, 0:32, 0:64, 1:2] : (tensor<2048x32x64x2xf32>) -> tensor<2048x32x64x1xf32>
    %148 = stablehlo.reshape %147 : (tensor<2048x32x64x1xf32>) -> tensor<2048x32x64xf32>
    %149 = stablehlo.complex %146, %148 : tensor<2048x32x64xcomplex<f32>>
    %150 = stablehlo.broadcast_in_dim %31, dims = [0, 2] : (tensor<2048x64xcomplex<f32>>) -> tensor<2048x32x64xcomplex<f32>>
    %151 = stablehlo.multiply %149, %150 : tensor<2048x32x64xcomplex<f32>>
    %152 = stablehlo.real %151 : (tensor<2048x32x64xcomplex<f32>>) -> tensor<2048x32x64xf32>
    %153 = stablehlo.reshape %152 : (tensor<2048x32x64xf32>) -> tensor<2048x32x64x1xf32>
    %154 = stablehlo.imag %151 : (tensor<2048x32x64xcomplex<f32>>) -> tensor<2048x32x64xf32>
    %155 = stablehlo.reshape %154 : (tensor<2048x32x64xf32>) -> tensor<2048x32x64x1xf32>
    %156 = stablehlo.concatenate %153, %155, dim = 3 : (tensor<2048x32x64x1xf32>, tensor<2048x32x64x1xf32>) -> tensor<2048x32x64x2xf32>
    %157 = stablehlo.reshape %156 : (tensor<2048x32x64x2xf32>) -> tensor<2048x32x128xf32>
    %158 = stablehlo.transpose %157, dims = [1, 0, 2] {result_layout = dense<[2, 0, 1]> : tensor<3xindex>, xla_shape = "f32[32,2048,128]{2,0,1}"} : (tensor<2048x32x128xf32>) -> tensor<32x2048x128xf32>
    %159 = stablehlo.compare  LT, %arg198, %2 : (tensor<2048xi64>, tensor<2048xi64>) -> tensor<2048xi1>
    %160 = stablehlo.broadcast_in_dim %arg199, dims = [] : (tensor<i64>) -> tensor<2048xi64>
    %161 = stablehlo.add %arg198, %160 : tensor<2048xi64>
    %162 = stablehlo.select %159, %161, %arg198 : tensor<2048xi1>, tensor<2048xi64>
    %163 = stablehlo.reshape %162 : (tensor<2048xi64>) -> tensor<2048x1xi64>
    %164 = stablehlo.transpose %arg209, dims = [1, 0] {result_layout = dense<[0, 1]> : tensor<2xindex>, xla_shape = "f32[4096,4096]{0,1}"} : (tensor<4096x4096xf32>) -> tensor<4096x4096xf32>
    %165 = stablehlo.dot %141, %164, precision = [DEFAULT, DEFAULT] : (tensor<2048x4096xf32>, tensor<4096x4096xf32>) -> tensor<2048x4096xf32>
    %166 = stablehlo.reshape %165 : (tensor<2048x4096xf32>) -> tensor<2048x32x64x2xf32>
    %167 = stablehlo.slice %166 [0:2048, 0:32, 0:64, 0:1] : (tensor<2048x32x64x2xf32>) -> tensor<2048x32x64x1xf32>
    %168 = stablehlo.reshape %167 : (tensor<2048x32x64x1xf32>) -> tensor<2048x32x64xf32>
    %169 = stablehlo.slice %166 [0:2048, 0:32, 0:64, 1:2] : (tensor<2048x32x64x2xf32>) -> tensor<2048x32x64x1xf32>
    %170 = stablehlo.reshape %169 : (tensor<2048x32x64x1xf32>) -> tensor<2048x32x64xf32>
    %171 = stablehlo.complex %168, %170 : tensor<2048x32x64xcomplex<f32>>
    %172 = stablehlo.broadcast_in_dim %31, dims = [0, 2] : (tensor<2048x64xcomplex<f32>>) -> tensor<2048x32x64xcomplex<f32>>
    %173 = stablehlo.multiply %171, %172 : tensor<2048x32x64xcomplex<f32>>
    %174 = stablehlo.real %173 : (tensor<2048x32x64xcomplex<f32>>) -> tensor<2048x32x64xf32>
    %175 = stablehlo.reshape %174 : (tensor<2048x32x64xf32>) -> tensor<2048x32x64x1xf32>
    %176 = stablehlo.imag %173 : (tensor<2048x32x64xcomplex<f32>>) -> tensor<2048x32x64xf32>
    %177 = stablehlo.reshape %176 : (tensor<2048x32x64xf32>) -> tensor<2048x32x64x1xf32>
    %178 = stablehlo.concatenate %175, %177, dim = 3 : (tensor<2048x32x64x1xf32>, tensor<2048x32x64x1xf32>) -> tensor<2048x32x64x2xf32>
    %179 = stablehlo.reshape %178 : (tensor<2048x32x64x2xf32>) -> tensor<2048x32x128xf32>
    %180 = "stablehlo.scatter"(%arg210, %163, %179) ({
    ^bb0(%arg363: tensor<f32>, %arg364: tensor<f32>):
      stablehlo.return %arg364 : tensor<f32>
    }) {indices_are_sorted = false, scatter_dimension_numbers = #stablehlo.scatter<update_window_dims = [1, 2], inserted_window_dims = [0], scatter_dims_to_operand_dims = [0], index_vector_dim = 1>, unique_indices = false} : (tensor<2304x32x128xf32>, tensor<2048x1xi64>, tensor<2048x32x128xf32>) -> tensor<2304x32x128xf32>
    %181 = stablehlo.convert %arg7 : (tensor<2048xi64>) -> tensor<2048xui32>
    %182 = "stablehlo.gather"(%180, %181) {dimension_numbers = #stablehlo.gather<offset_dims = [1, 2], collapsed_slice_dims = [0], start_index_map = [0], index_vector_dim = 1>, indices_are_sorted = false, slice_sizes = dense<[1, 32, 128]> : tensor<3xi64>} : (tensor<2304x32x128xf32>, tensor<2048xui32>) -> tensor<2048x32x128xf32>
    %183 = stablehlo.transpose %182, dims = [1, 2, 0] : (tensor<2048x32x128xf32>) -> tensor<32x128x2048xf32>
    %184 = stablehlo.dot_general %158, %183, batching_dims = [0] x [0], contracting_dims = [2] x [1], precision = [DEFAULT, DEFAULT] : (tensor<32x2048x128xf32>, tensor<32x128x2048xf32>) -> tensor<32x2048x2048xf32>
    %185 = stablehlo.broadcast_in_dim %arg202, dims = [] : (tensor<f32>) -> tensor<32x2048x2048xf32>
    %186 = stablehlo.divide %184, %185 : tensor<32x2048x2048xf32>
    %187 = stablehlo.reshape %186 : (tensor<32x2048x2048xf32>) -> tensor<1x32x2048x2048xf32>
    %188 = stablehlo.reshape %77 : (tensor<1x1x2048x2048xf32>) -> tensor<1x2048x2048xf32>
    %189 = stablehlo.broadcast_in_dim %188, dims = [0, 2, 3] : (tensor<1x2048x2048xf32>) -> tensor<1x32x2048x2048xf32>
    %190 = stablehlo.add %187, %189 : tensor<1x32x2048x2048xf32>
    %191 = stablehlo.reduce(%190 init: %6) across dimensions = [3] : (tensor<1x32x2048x2048xf32>, tensor<f32>) -> tensor<1x32x2048xf32>
     reducer(%arg363: tensor<f32>, %arg364: tensor<f32>)  {
      %3554 = stablehlo.maximum %arg363, %arg364 : tensor<f32>
      stablehlo.return %3554 : tensor<f32>
    }
    %192 = stablehlo.broadcast_in_dim %191, dims = [0, 1, 2] : (tensor<1x32x2048xf32>) -> tensor<1x32x2048x2048xf32>
    %193 = stablehlo.subtract %190, %192 : tensor<1x32x2048x2048xf32>
    %194 = stablehlo.exponential %193 : tensor<1x32x2048x2048xf32>
    %195 = stablehlo.reduce(%194 init: %7) across dimensions = [3] : (tensor<1x32x2048x2048xf32>, tensor<f32>) -> tensor<1x32x2048xf32>
     reducer(%arg363: tensor<f32>, %arg364: tensor<f32>)  {
      %3554 = stablehlo.add %arg363, %arg364 : tensor<f32>
      stablehlo.return %3554 : tensor<f32>
    }
    %196 = stablehlo.broadcast_in_dim %195, dims = [0, 1, 2] : (tensor<1x32x2048xf32>) -> tensor<1x32x2048x2048xf32>
    %197 = stablehlo.divide %194, %196 : tensor<1x32x2048x2048xf32>
    %198 = stablehlo.reshape %197 : (tensor<1x32x2048x2048xf32>) -> tensor<32x2048x2048xf32>
    %199 = stablehlo.compare  LT, %arg198, %2 : (tensor<2048xi64>, tensor<2048xi64>) -> tensor<2048xi1>
    %200 = stablehlo.broadcast_in_dim %arg199, dims = [] : (tensor<i64>) -> tensor<2048xi64>
    %201 = stablehlo.add %arg198, %200 : tensor<2048xi64>
    %202 = stablehlo.select %199, %201, %arg198 : tensor<2048xi1>, tensor<2048xi64>
    %203 = stablehlo.reshape %202 : (tensor<2048xi64>) -> tensor<2048x1xi64>
    %204 = stablehlo.transpose %arg188, dims = [1, 0] {result_layout = dense<[0, 1]> : tensor<2xindex>, xla_shape = "f32[4096,4096]{0,1}"} : (tensor<4096x4096xf32>) -> tensor<4096x4096xf32>
    %205 = stablehlo.dot %141, %204, precision = [DEFAULT, DEFAULT] : (tensor<2048x4096xf32>, tensor<4096x4096xf32>) -> tensor<2048x4096xf32>
    %206 = stablehlo.reshape %205 : (tensor<2048x4096xf32>) -> tensor<2048x32x128xf32>
    %207 = "stablehlo.scatter"(%arg208, %203, %206) ({
    ^bb0(%arg363: tensor<f32>, %arg364: tensor<f32>):
      stablehlo.return %arg364 : tensor<f32>
    }) {indices_are_sorted = false, scatter_dimension_numbers = #stablehlo.scatter<update_window_dims = [1, 2], inserted_window_dims = [0], scatter_dims_to_operand_dims = [0], index_vector_dim = 1>, unique_indices = false} : (tensor<2304x32x128xf32>, tensor<2048x1xi64>, tensor<2048x32x128xf32>) -> tensor<2304x32x128xf32>
    %208 = stablehlo.convert %arg7 : (tensor<2048xi64>) -> tensor<2048xui32>
    %209 = "stablehlo.gather"(%207, %208) {dimension_numbers = #stablehlo.gather<offset_dims = [1, 2], collapsed_slice_dims = [0], start_index_map = [0], index_vector_dim = 1>, indices_are_sorted = false, slice_sizes = dense<[1, 32, 128]> : tensor<3xi64>} : (tensor<2304x32x128xf32>, tensor<2048xui32>) -> tensor<2048x32x128xf32>
    %210 = stablehlo.transpose %209, dims = [1, 0, 2] {result_layout = dense<[2, 0, 1]> : tensor<3xindex>, xla_shape = "f32[32,2048,128]{2,0,1}"} : (tensor<2048x32x128xf32>) -> tensor<32x2048x128xf32>
    %211 = stablehlo.dot_general %198, %210, batching_dims = [0] x [0], contracting_dims = [2] x [1], precision = [DEFAULT, DEFAULT] : (tensor<32x2048x2048xf32>, tensor<32x2048x128xf32>) -> tensor<32x2048x128xf32>
    %212 = stablehlo.reshape %211 : (tensor<32x2048x128xf32>) -> tensor<1x32x2048x128xf32>
    %213 = stablehlo.transpose %212, dims = [0, 2, 1, 3] {result_layout = dense<[3, 1, 2, 0]> : tensor<4xindex>, xla_shape = "f32[1,2048,32,128]{3,1,2,0}"} : (tensor<1x32x2048x128xf32>) -> tensor<1x2048x32x128xf32>
    %214 = stablehlo.reshape %213 : (tensor<1x2048x32x128xf32>) -> tensor<2048x4096xf32>
    %215 = stablehlo.transpose %arg187, dims = [1, 0] {result_layout = dense<[0, 1]> : tensor<2xindex>, xla_shape = "f32[4096,4096]{0,1}"} : (tensor<4096x4096xf32>) -> tensor<4096x4096xf32>
    %216 = stablehlo.dot %214, %215, precision = [DEFAULT, DEFAULT] : (tensor<2048x4096xf32>, tensor<4096x4096xf32>) -> tensor<2048x4096xf32>
    %217 = stablehlo.add %129, %216 : tensor<2048x4096xf32>
    %218 = stablehlo.power %217, %1 : tensor<2048x4096xf32>
    %219 = stablehlo.reduce(%218 init: %7) across dimensions = [1] : (tensor<2048x4096xf32>, tensor<f32>) -> tensor<2048xf32>
     reducer(%arg363: tensor<f32>, %arg364: tensor<f32>)  {
      %3554 = stablehlo.add %arg363, %arg364 : tensor<f32>
      stablehlo.return %3554 : tensor<f32>
    }
    %220 = stablehlo.multiply %219, %0 : tensor<2048xf32>
    %221 = stablehlo.reshape %220 : (tensor<2048xf32>) -> tensor<2048x1xf32>
    %222 = stablehlo.broadcast_in_dim %arg2, dims = [] : (tensor<f32>) -> tensor<2048x1xf32>
    %223 = stablehlo.add %221, %222 : tensor<2048x1xf32>
    %224 = stablehlo.rsqrt %223 : tensor<2048x1xf32>
    %225 = stablehlo.reshape %224 : (tensor<2048x1xf32>) -> tensor<2048xf32>
    %226 = stablehlo.broadcast_in_dim %225, dims = [0] : (tensor<2048xf32>) -> tensor<2048x4096xf32>
    %227 = stablehlo.multiply %217, %226 : tensor<2048x4096xf32>
    %228 = stablehlo.broadcast_in_dim %arg186, dims = [1] : (tensor<4096xf32>) -> tensor<2048x4096xf32>
    %229 = stablehlo.multiply %227, %228 : tensor<2048x4096xf32>
    %230 = stablehlo.transpose %arg212, dims = [1, 0] {result_layout = dense<[0, 1]> : tensor<2xindex>, xla_shape = "f32[4096,11008]{0,1}"} : (tensor<11008x4096xf32>) -> tensor<4096x11008xf32>
    %231 = stablehlo.dot %229, %230, precision = [DEFAULT, DEFAULT] : (tensor<2048x4096xf32>, tensor<4096x11008xf32>) -> tensor<2048x11008xf32>
    %232 = stablehlo.logistic %231 : tensor<2048x11008xf32>
    %233 = stablehlo.multiply %231, %232 : tensor<2048x11008xf32>
    %234 = stablehlo.transpose %arg185, dims = [1, 0] {result_layout = dense<[0, 1]> : tensor<2xindex>, xla_shape = "f32[4096,11008]{0,1}"} : (tensor<11008x4096xf32>) -> tensor<4096x11008xf32>
    %235 = stablehlo.dot %229, %234, precision = [DEFAULT, DEFAULT] : (tensor<2048x4096xf32>, tensor<4096x11008xf32>) -> tensor<2048x11008xf32>
    %236 = stablehlo.multiply %233, %235 : tensor<2048x11008xf32>
    %237 = stablehlo.transpose %arg184, dims = [1, 0] {result_layout = dense<[0, 1]> : tensor<2xindex>, xla_shape = "f32[11008,4096]{0,1}"} : (tensor<4096x11008xf32>) -> tensor<11008x4096xf32>
    %238 = stablehlo.dot %236, %237, precision = [DEFAULT, DEFAULT] : (tensor<2048x11008xf32>, tensor<11008x4096xf32>) -> tensor<2048x4096xf32>
    %239 = stablehlo.add %217, %238 : tensor<2048x4096xf32>
    %240 = stablehlo.power %239, %1 : tensor<2048x4096xf32>
    %241 = stablehlo.reduce(%240 init: %7) across dimensions = [1] : (tensor<2048x4096xf32>, tensor<f32>) -> tensor<2048xf32>
     reducer(%arg363: tensor<f32>, %arg364: tensor<f32>)  {
      %3554 = stablehlo.add %arg363, %arg364 : tensor<f32>
      stablehlo.return %3554 : tensor<f32>
    }
    %242 = stablehlo.multiply %241, %0 : tensor<2048xf32>
    %243 = stablehlo.reshape %242 : (tensor<2048xf32>) -> tensor<2048x1xf32>
    %244 = stablehlo.broadcast_in_dim %arg2, dims = [] : (tensor<f32>) -> tensor<2048x1xf32>
    %245 = stablehlo.add %243, %244 : tensor<2048x1xf32>
    %246 = stablehlo.rsqrt %245 : tensor<2048x1xf32>
    %247 = stablehlo.reshape %246 : (tensor<2048x1xf32>) -> tensor<2048xf32>
    %248 = stablehlo.broadcast_in_dim %247, dims = [0] : (tensor<2048xf32>) -> tensor<2048x4096xf32>
    %249 = stablehlo.multiply %239, %248 : tensor<2048x4096xf32>
    %250 = stablehlo.broadcast_in_dim %arg183, dims = [1] : (tensor<4096xf32>) -> tensor<2048x4096xf32>
    %251 = stablehlo.multiply %249, %250 : tensor<2048x4096xf32>
    %252 = stablehlo.transpose %arg216, dims = [1, 0] {result_layout = dense<[0, 1]> : tensor<2xindex>, xla_shape = "f32[4096,4096]{0,1}"} : (tensor<4096x4096xf32>) -> tensor<4096x4096xf32>
    %253 = stablehlo.dot %251, %252, precision = [DEFAULT, DEFAULT] : (tensor<2048x4096xf32>, tensor<4096x4096xf32>) -> tensor<2048x4096xf32>
    %254 = stablehlo.reshape %253 : (tensor<2048x4096xf32>) -> tensor<2048x32x64x2xf32>
    %255 = stablehlo.slice %254 [0:2048, 0:32, 0:64, 0:1] : (tensor<2048x32x64x2xf32>) -> tensor<2048x32x64x1xf32>
    %256 = stablehlo.reshape %255 : (tensor<2048x32x64x1xf32>) -> tensor<2048x32x64xf32>
    %257 = stablehlo.slice %254 [0:2048, 0:32, 0:64, 1:2] : (tensor<2048x32x64x2xf32>) -> tensor<2048x32x64x1xf32>
    %258 = stablehlo.reshape %257 : (tensor<2048x32x64x1xf32>) -> tensor<2048x32x64xf32>
    %259 = stablehlo.complex %256, %258 : tensor<2048x32x64xcomplex<f32>>
    %260 = stablehlo.broadcast_in_dim %31, dims = [0, 2] : (tensor<2048x64xcomplex<f32>>) -> tensor<2048x32x64xcomplex<f32>>
    %261 = stablehlo.multiply %259, %260 : tensor<2048x32x64xcomplex<f32>>
    %262 = stablehlo.real %261 : (tensor<2048x32x64xcomplex<f32>>) -> tensor<2048x32x64xf32>
    %263 = stablehlo.reshape %262 : (tensor<2048x32x64xf32>) -> tensor<2048x32x64x1xf32>
    %264 = stablehlo.imag %261 : (tensor<2048x32x64xcomplex<f32>>) -> tensor<2048x32x64xf32>
    %265 = stablehlo.reshape %264 : (tensor<2048x32x64xf32>) -> tensor<2048x32x64x1xf32>
    %266 = stablehlo.concatenate %263, %265, dim = 3 : (tensor<2048x32x64x1xf32>, tensor<2048x32x64x1xf32>) -> tensor<2048x32x64x2xf32>
    %267 = stablehlo.reshape %266 : (tensor<2048x32x64x2xf32>) -> tensor<2048x32x128xf32>
    %268 = stablehlo.transpose %267, dims = [1, 0, 2] {result_layout = dense<[2, 0, 1]> : tensor<3xindex>, xla_shape = "f32[32,2048,128]{2,0,1}"} : (tensor<2048x32x128xf32>) -> tensor<32x2048x128xf32>
    %269 = stablehlo.compare  LT, %arg198, %2 : (tensor<2048xi64>, tensor<2048xi64>) -> tensor<2048xi1>
    %270 = stablehlo.broadcast_in_dim %arg199, dims = [] : (tensor<i64>) -> tensor<2048xi64>
    %271 = stablehlo.add %arg198, %270 : tensor<2048xi64>
    %272 = stablehlo.select %269, %271, %arg198 : tensor<2048xi1>, tensor<2048xi64>
    %273 = stablehlo.reshape %272 : (tensor<2048xi64>) -> tensor<2048x1xi64>
    %274 = stablehlo.transpose %arg214, dims = [1, 0] {result_layout = dense<[0, 1]> : tensor<2xindex>, xla_shape = "f32[4096,4096]{0,1}"} : (tensor<4096x4096xf32>) -> tensor<4096x4096xf32>
    %275 = stablehlo.dot %251, %274, precision = [DEFAULT, DEFAULT] : (tensor<2048x4096xf32>, tensor<4096x4096xf32>) -> tensor<2048x4096xf32>
    %276 = stablehlo.reshape %275 : (tensor<2048x4096xf32>) -> tensor<2048x32x64x2xf32>
    %277 = stablehlo.slice %276 [0:2048, 0:32, 0:64, 0:1] : (tensor<2048x32x64x2xf32>) -> tensor<2048x32x64x1xf32>
    %278 = stablehlo.reshape %277 : (tensor<2048x32x64x1xf32>) -> tensor<2048x32x64xf32>
    %279 = stablehlo.slice %276 [0:2048, 0:32, 0:64, 1:2] : (tensor<2048x32x64x2xf32>) -> tensor<2048x32x64x1xf32>
    %280 = stablehlo.reshape %279 : (tensor<2048x32x64x1xf32>) -> tensor<2048x32x64xf32>
    %281 = stablehlo.complex %278, %280 : tensor<2048x32x64xcomplex<f32>>
    %282 = stablehlo.broadcast_in_dim %31, dims = [0, 2] : (tensor<2048x64xcomplex<f32>>) -> tensor<2048x32x64xcomplex<f32>>
    %283 = stablehlo.multiply %281, %282 : tensor<2048x32x64xcomplex<f32>>
    %284 = stablehlo.real %283 : (tensor<2048x32x64xcomplex<f32>>) -> tensor<2048x32x64xf32>
    %285 = stablehlo.reshape %284 : (tensor<2048x32x64xf32>) -> tensor<2048x32x64x1xf32>
    %286 = stablehlo.imag %283 : (tensor<2048x32x64xcomplex<f32>>) -> tensor<2048x32x64xf32>
    %287 = stablehlo.reshape %286 : (tensor<2048x32x64xf32>) -> tensor<2048x32x64x1xf32>
    %288 = stablehlo.concatenate %285, %287, dim = 3 : (tensor<2048x32x64x1xf32>, tensor<2048x32x64x1xf32>) -> tensor<2048x32x64x2xf32>
    %289 = stablehlo.reshape %288 : (tensor<2048x32x64x2xf32>) -> tensor<2048x32x128xf32>
    %290 = "stablehlo.scatter"(%arg215, %273, %289) ({
    ^bb0(%arg363: tensor<f32>, %arg364: tensor<f32>):
      stablehlo.return %arg364 : tensor<f32>
    }) {indices_are_sorted = false, scatter_dimension_numbers = #stablehlo.scatter<update_window_dims = [1, 2], inserted_window_dims = [0], scatter_dims_to_operand_dims = [0], index_vector_dim = 1>, unique_indices = false} : (tensor<2304x32x128xf32>, tensor<2048x1xi64>, tensor<2048x32x128xf32>) -> tensor<2304x32x128xf32>
    %291 = stablehlo.convert %arg7 : (tensor<2048xi64>) -> tensor<2048xui32>
    %292 = "stablehlo.gather"(%290, %291) {dimension_numbers = #stablehlo.gather<offset_dims = [1, 2], collapsed_slice_dims = [0], start_index_map = [0], index_vector_dim = 1>, indices_are_sorted = false, slice_sizes = dense<[1, 32, 128]> : tensor<3xi64>} : (tensor<2304x32x128xf32>, tensor<2048xui32>) -> tensor<2048x32x128xf32>
    %293 = stablehlo.transpose %292, dims = [1, 2, 0] : (tensor<2048x32x128xf32>) -> tensor<32x128x2048xf32>
    %294 = stablehlo.dot_general %268, %293, batching_dims = [0] x [0], contracting_dims = [2] x [1], precision = [DEFAULT, DEFAULT] : (tensor<32x2048x128xf32>, tensor<32x128x2048xf32>) -> tensor<32x2048x2048xf32>
    %295 = stablehlo.broadcast_in_dim %arg202, dims = [] : (tensor<f32>) -> tensor<32x2048x2048xf32>
    %296 = stablehlo.divide %294, %295 : tensor<32x2048x2048xf32>
    %297 = stablehlo.reshape %296 : (tensor<32x2048x2048xf32>) -> tensor<1x32x2048x2048xf32>
    %298 = stablehlo.reshape %77 : (tensor<1x1x2048x2048xf32>) -> tensor<1x2048x2048xf32>
    %299 = stablehlo.broadcast_in_dim %298, dims = [0, 2, 3] : (tensor<1x2048x2048xf32>) -> tensor<1x32x2048x2048xf32>
    %300 = stablehlo.add %297, %299 : tensor<1x32x2048x2048xf32>
    %301 = stablehlo.reduce(%300 init: %6) across dimensions = [3] : (tensor<1x32x2048x2048xf32>, tensor<f32>) -> tensor<1x32x2048xf32>
     reducer(%arg363: tensor<f32>, %arg364: tensor<f32>)  {
      %3554 = stablehlo.maximum %arg363, %arg364 : tensor<f32>
      stablehlo.return %3554 : tensor<f32>
    }
    %302 = stablehlo.broadcast_in_dim %301, dims = [0, 1, 2] : (tensor<1x32x2048xf32>) -> tensor<1x32x2048x2048xf32>
    %303 = stablehlo.subtract %300, %302 : tensor<1x32x2048x2048xf32>
    %304 = stablehlo.exponential %303 : tensor<1x32x2048x2048xf32>
    %305 = stablehlo.reduce(%304 init: %7) across dimensions = [3] : (tensor<1x32x2048x2048xf32>, tensor<f32>) -> tensor<1x32x2048xf32>
     reducer(%arg363: tensor<f32>, %arg364: tensor<f32>)  {
      %3554 = stablehlo.add %arg363, %arg364 : tensor<f32>
      stablehlo.return %3554 : tensor<f32>
    }
    %306 = stablehlo.broadcast_in_dim %305, dims = [0, 1, 2] : (tensor<1x32x2048xf32>) -> tensor<1x32x2048x2048xf32>
    %307 = stablehlo.divide %304, %306 : tensor<1x32x2048x2048xf32>
    %308 = stablehlo.reshape %307 : (tensor<1x32x2048x2048xf32>) -> tensor<32x2048x2048xf32>
    %309 = stablehlo.compare  LT, %arg198, %2 : (tensor<2048xi64>, tensor<2048xi64>) -> tensor<2048xi1>
    %310 = stablehlo.broadcast_in_dim %arg199, dims = [] : (tensor<i64>) -> tensor<2048xi64>
    %311 = stablehlo.add %arg198, %310 : tensor<2048xi64>
    %312 = stablehlo.select %309, %311, %arg198 : tensor<2048xi1>, tensor<2048xi64>
    %313 = stablehlo.reshape %312 : (tensor<2048xi64>) -> tensor<2048x1xi64>
    %314 = stablehlo.transpose %arg182, dims = [1, 0] {result_layout = dense<[0, 1]> : tensor<2xindex>, xla_shape = "f32[4096,4096]{0,1}"} : (tensor<4096x4096xf32>) -> tensor<4096x4096xf32>
    %315 = stablehlo.dot %251, %314, precision = [DEFAULT, DEFAULT] : (tensor<2048x4096xf32>, tensor<4096x4096xf32>) -> tensor<2048x4096xf32>
    %316 = stablehlo.reshape %315 : (tensor<2048x4096xf32>) -> tensor<2048x32x128xf32>
    %317 = "stablehlo.scatter"(%arg213, %313, %316) ({
    ^bb0(%arg363: tensor<f32>, %arg364: tensor<f32>):
      stablehlo.return %arg364 : tensor<f32>
    }) {indices_are_sorted = false, scatter_dimension_numbers = #stablehlo.scatter<update_window_dims = [1, 2], inserted_window_dims = [0], scatter_dims_to_operand_dims = [0], index_vector_dim = 1>, unique_indices = false} : (tensor<2304x32x128xf32>, tensor<2048x1xi64>, tensor<2048x32x128xf32>) -> tensor<2304x32x128xf32>
    %318 = stablehlo.convert %arg7 : (tensor<2048xi64>) -> tensor<2048xui32>
    %319 = "stablehlo.gather"(%317, %318) {dimension_numbers = #stablehlo.gather<offset_dims = [1, 2], collapsed_slice_dims = [0], start_index_map = [0], index_vector_dim = 1>, indices_are_sorted = false, slice_sizes = dense<[1, 32, 128]> : tensor<3xi64>} : (tensor<2304x32x128xf32>, tensor<2048xui32>) -> tensor<2048x32x128xf32>
    %320 = stablehlo.transpose %319, dims = [1, 0, 2] {result_layout = dense<[2, 0, 1]> : tensor<3xindex>, xla_shape = "f32[32,2048,128]{2,0,1}"} : (tensor<2048x32x128xf32>) -> tensor<32x2048x128xf32>
    %321 = stablehlo.dot_general %308, %320, batching_dims = [0] x [0], contracting_dims = [2] x [1], precision = [DEFAULT, DEFAULT] : (tensor<32x2048x2048xf32>, tensor<32x2048x128xf32>) -> tensor<32x2048x128xf32>
    %322 = stablehlo.reshape %321 : (tensor<32x2048x128xf32>) -> tensor<1x32x2048x128xf32>
    %323 = stablehlo.transpose %322, dims = [0, 2, 1, 3] {result_layout = dense<[3, 1, 2, 0]> : tensor<4xindex>, xla_shape = "f32[1,2048,32,128]{3,1,2,0}"} : (tensor<1x32x2048x128xf32>) -> tensor<1x2048x32x128xf32>
    %324 = stablehlo.reshape %323 : (tensor<1x2048x32x128xf32>) -> tensor<2048x4096xf32>
    %325 = stablehlo.transpose %arg181, dims = [1, 0] {result_layout = dense<[0, 1]> : tensor<2xindex>, xla_shape = "f32[4096,4096]{0,1}"} : (tensor<4096x4096xf32>) -> tensor<4096x4096xf32>
    %326 = stablehlo.dot %324, %325, precision = [DEFAULT, DEFAULT] : (tensor<2048x4096xf32>, tensor<4096x4096xf32>) -> tensor<2048x4096xf32>
    %327 = stablehlo.add %239, %326 : tensor<2048x4096xf32>
    %328 = stablehlo.power %327, %1 : tensor<2048x4096xf32>
    %329 = stablehlo.reduce(%328 init: %7) across dimensions = [1] : (tensor<2048x4096xf32>, tensor<f32>) -> tensor<2048xf32>
     reducer(%arg363: tensor<f32>, %arg364: tensor<f32>)  {
      %3554 = stablehlo.add %arg363, %arg364 : tensor<f32>
      stablehlo.return %3554 : tensor<f32>
    }
    %330 = stablehlo.multiply %329, %0 : tensor<2048xf32>
    %331 = stablehlo.reshape %330 : (tensor<2048xf32>) -> tensor<2048x1xf32>
    %332 = stablehlo.broadcast_in_dim %arg2, dims = [] : (tensor<f32>) -> tensor<2048x1xf32>
    %333 = stablehlo.add %331, %332 : tensor<2048x1xf32>
    %334 = stablehlo.rsqrt %333 : tensor<2048x1xf32>
    %335 = stablehlo.reshape %334 : (tensor<2048x1xf32>) -> tensor<2048xf32>
    %336 = stablehlo.broadcast_in_dim %335, dims = [0] : (tensor<2048xf32>) -> tensor<2048x4096xf32>
    %337 = stablehlo.multiply %327, %336 : tensor<2048x4096xf32>
    %338 = stablehlo.broadcast_in_dim %arg180, dims = [1] : (tensor<4096xf32>) -> tensor<2048x4096xf32>
    %339 = stablehlo.multiply %337, %338 : tensor<2048x4096xf32>
    %340 = stablehlo.transpose %arg217, dims = [1, 0] {result_layout = dense<[0, 1]> : tensor<2xindex>, xla_shape = "f32[4096,11008]{0,1}"} : (tensor<11008x4096xf32>) -> tensor<4096x11008xf32>
    %341 = stablehlo.dot %339, %340, precision = [DEFAULT, DEFAULT] : (tensor<2048x4096xf32>, tensor<4096x11008xf32>) -> tensor<2048x11008xf32>
    %342 = stablehlo.logistic %341 : tensor<2048x11008xf32>
    %343 = stablehlo.multiply %341, %342 : tensor<2048x11008xf32>
    %344 = stablehlo.transpose %arg179, dims = [1, 0] {result_layout = dense<[0, 1]> : tensor<2xindex>, xla_shape = "f32[4096,11008]{0,1}"} : (tensor<11008x4096xf32>) -> tensor<4096x11008xf32>
    %345 = stablehlo.dot %339, %344, precision = [DEFAULT, DEFAULT] : (tensor<2048x4096xf32>, tensor<4096x11008xf32>) -> tensor<2048x11008xf32>
    %346 = stablehlo.multiply %343, %345 : tensor<2048x11008xf32>
    %347 = stablehlo.transpose %arg178, dims = [1, 0] {result_layout = dense<[0, 1]> : tensor<2xindex>, xla_shape = "f32[11008,4096]{0,1}"} : (tensor<4096x11008xf32>) -> tensor<11008x4096xf32>
    %348 = stablehlo.dot %346, %347, precision = [DEFAULT, DEFAULT] : (tensor<2048x11008xf32>, tensor<11008x4096xf32>) -> tensor<2048x4096xf32>
    %349 = stablehlo.add %327, %348 : tensor<2048x4096xf32>
    %350 = stablehlo.power %349, %1 : tensor<2048x4096xf32>
    %351 = stablehlo.reduce(%350 init: %7) across dimensions = [1] : (tensor<2048x4096xf32>, tensor<f32>) -> tensor<2048xf32>
     reducer(%arg363: tensor<f32>, %arg364: tensor<f32>)  {
      %3554 = stablehlo.add %arg363, %arg364 : tensor<f32>
      stablehlo.return %3554 : tensor<f32>
    }
    %352 = stablehlo.multiply %351, %0 : tensor<2048xf32>
    %353 = stablehlo.reshape %352 : (tensor<2048xf32>) -> tensor<2048x1xf32>
    %354 = stablehlo.broadcast_in_dim %arg2, dims = [] : (tensor<f32>) -> tensor<2048x1xf32>
    %355 = stablehlo.add %353, %354 : tensor<2048x1xf32>
    %356 = stablehlo.rsqrt %355 : tensor<2048x1xf32>
    %357 = stablehlo.reshape %356 : (tensor<2048x1xf32>) -> tensor<2048xf32>
    %358 = stablehlo.broadcast_in_dim %357, dims = [0] : (tensor<2048xf32>) -> tensor<2048x4096xf32>
    %359 = stablehlo.multiply %349, %358 : tensor<2048x4096xf32>
    %360 = stablehlo.broadcast_in_dim %arg177, dims = [1] : (tensor<4096xf32>) -> tensor<2048x4096xf32>
    %361 = stablehlo.multiply %359, %360 : tensor<2048x4096xf32>
    %362 = stablehlo.transpose %arg221, dims = [1, 0] {result_layout = dense<[0, 1]> : tensor<2xindex>, xla_shape = "f32[4096,4096]{0,1}"} : (tensor<4096x4096xf32>) -> tensor<4096x4096xf32>
    %363 = stablehlo.dot %361, %362, precision = [DEFAULT, DEFAULT] : (tensor<2048x4096xf32>, tensor<4096x4096xf32>) -> tensor<2048x4096xf32>
    %364 = stablehlo.reshape %363 : (tensor<2048x4096xf32>) -> tensor<2048x32x64x2xf32>
    %365 = stablehlo.slice %364 [0:2048, 0:32, 0:64, 0:1] : (tensor<2048x32x64x2xf32>) -> tensor<2048x32x64x1xf32>
    %366 = stablehlo.reshape %365 : (tensor<2048x32x64x1xf32>) -> tensor<2048x32x64xf32>
    %367 = stablehlo.slice %364 [0:2048, 0:32, 0:64, 1:2] : (tensor<2048x32x64x2xf32>) -> tensor<2048x32x64x1xf32>
    %368 = stablehlo.reshape %367 : (tensor<2048x32x64x1xf32>) -> tensor<2048x32x64xf32>
    %369 = stablehlo.complex %366, %368 : tensor<2048x32x64xcomplex<f32>>
    %370 = stablehlo.broadcast_in_dim %31, dims = [0, 2] : (tensor<2048x64xcomplex<f32>>) -> tensor<2048x32x64xcomplex<f32>>
    %371 = stablehlo.multiply %369, %370 : tensor<2048x32x64xcomplex<f32>>
    %372 = stablehlo.real %371 : (tensor<2048x32x64xcomplex<f32>>) -> tensor<2048x32x64xf32>
    %373 = stablehlo.reshape %372 : (tensor<2048x32x64xf32>) -> tensor<2048x32x64x1xf32>
    %374 = stablehlo.imag %371 : (tensor<2048x32x64xcomplex<f32>>) -> tensor<2048x32x64xf32>
    %375 = stablehlo.reshape %374 : (tensor<2048x32x64xf32>) -> tensor<2048x32x64x1xf32>
    %376 = stablehlo.concatenate %373, %375, dim = 3 : (tensor<2048x32x64x1xf32>, tensor<2048x32x64x1xf32>) -> tensor<2048x32x64x2xf32>
    %377 = stablehlo.reshape %376 : (tensor<2048x32x64x2xf32>) -> tensor<2048x32x128xf32>
    %378 = stablehlo.transpose %377, dims = [1, 0, 2] {result_layout = dense<[2, 0, 1]> : tensor<3xindex>, xla_shape = "f32[32,2048,128]{2,0,1}"} : (tensor<2048x32x128xf32>) -> tensor<32x2048x128xf32>
    %379 = stablehlo.compare  LT, %arg198, %2 : (tensor<2048xi64>, tensor<2048xi64>) -> tensor<2048xi1>
    %380 = stablehlo.broadcast_in_dim %arg199, dims = [] : (tensor<i64>) -> tensor<2048xi64>
    %381 = stablehlo.add %arg198, %380 : tensor<2048xi64>
    %382 = stablehlo.select %379, %381, %arg198 : tensor<2048xi1>, tensor<2048xi64>
    %383 = stablehlo.reshape %382 : (tensor<2048xi64>) -> tensor<2048x1xi64>
    %384 = stablehlo.transpose %arg219, dims = [1, 0] {result_layout = dense<[0, 1]> : tensor<2xindex>, xla_shape = "f32[4096,4096]{0,1}"} : (tensor<4096x4096xf32>) -> tensor<4096x4096xf32>
    %385 = stablehlo.dot %361, %384, precision = [DEFAULT, DEFAULT] : (tensor<2048x4096xf32>, tensor<4096x4096xf32>) -> tensor<2048x4096xf32>
    %386 = stablehlo.reshape %385 : (tensor<2048x4096xf32>) -> tensor<2048x32x64x2xf32>
    %387 = stablehlo.slice %386 [0:2048, 0:32, 0:64, 0:1] : (tensor<2048x32x64x2xf32>) -> tensor<2048x32x64x1xf32>
    %388 = stablehlo.reshape %387 : (tensor<2048x32x64x1xf32>) -> tensor<2048x32x64xf32>
    %389 = stablehlo.slice %386 [0:2048, 0:32, 0:64, 1:2] : (tensor<2048x32x64x2xf32>) -> tensor<2048x32x64x1xf32>
    %390 = stablehlo.reshape %389 : (tensor<2048x32x64x1xf32>) -> tensor<2048x32x64xf32>
    %391 = stablehlo.complex %388, %390 : tensor<2048x32x64xcomplex<f32>>
    %392 = stablehlo.broadcast_in_dim %31, dims = [0, 2] : (tensor<2048x64xcomplex<f32>>) -> tensor<2048x32x64xcomplex<f32>>
    %393 = stablehlo.multiply %391, %392 : tensor<2048x32x64xcomplex<f32>>
    %394 = stablehlo.real %393 : (tensor<2048x32x64xcomplex<f32>>) -> tensor<2048x32x64xf32>
    %395 = stablehlo.reshape %394 : (tensor<2048x32x64xf32>) -> tensor<2048x32x64x1xf32>
    %396 = stablehlo.imag %393 : (tensor<2048x32x64xcomplex<f32>>) -> tensor<2048x32x64xf32>
    %397 = stablehlo.reshape %396 : (tensor<2048x32x64xf32>) -> tensor<2048x32x64x1xf32>
    %398 = stablehlo.concatenate %395, %397, dim = 3 : (tensor<2048x32x64x1xf32>, tensor<2048x32x64x1xf32>) -> tensor<2048x32x64x2xf32>
    %399 = stablehlo.reshape %398 : (tensor<2048x32x64x2xf32>) -> tensor<2048x32x128xf32>
    %400 = "stablehlo.scatter"(%arg220, %383, %399) ({
    ^bb0(%arg363: tensor<f32>, %arg364: tensor<f32>):
      stablehlo.return %arg364 : tensor<f32>
    }) {indices_are_sorted = false, scatter_dimension_numbers = #stablehlo.scatter<update_window_dims = [1, 2], inserted_window_dims = [0], scatter_dims_to_operand_dims = [0], index_vector_dim = 1>, unique_indices = false} : (tensor<2304x32x128xf32>, tensor<2048x1xi64>, tensor<2048x32x128xf32>) -> tensor<2304x32x128xf32>
    %401 = stablehlo.convert %arg7 : (tensor<2048xi64>) -> tensor<2048xui32>
    %402 = "stablehlo.gather"(%400, %401) {dimension_numbers = #stablehlo.gather<offset_dims = [1, 2], collapsed_slice_dims = [0], start_index_map = [0], index_vector_dim = 1>, indices_are_sorted = false, slice_sizes = dense<[1, 32, 128]> : tensor<3xi64>} : (tensor<2304x32x128xf32>, tensor<2048xui32>) -> tensor<2048x32x128xf32>
    %403 = stablehlo.transpose %402, dims = [1, 2, 0] : (tensor<2048x32x128xf32>) -> tensor<32x128x2048xf32>
    %404 = stablehlo.dot_general %378, %403, batching_dims = [0] x [0], contracting_dims = [2] x [1], precision = [DEFAULT, DEFAULT] : (tensor<32x2048x128xf32>, tensor<32x128x2048xf32>) -> tensor<32x2048x2048xf32>
    %405 = stablehlo.broadcast_in_dim %arg202, dims = [] : (tensor<f32>) -> tensor<32x2048x2048xf32>
    %406 = stablehlo.divide %404, %405 : tensor<32x2048x2048xf32>
    %407 = stablehlo.reshape %406 : (tensor<32x2048x2048xf32>) -> tensor<1x32x2048x2048xf32>
    %408 = stablehlo.reshape %77 : (tensor<1x1x2048x2048xf32>) -> tensor<1x2048x2048xf32>
    %409 = stablehlo.broadcast_in_dim %408, dims = [0, 2, 3] : (tensor<1x2048x2048xf32>) -> tensor<1x32x2048x2048xf32>
    %410 = stablehlo.add %407, %409 : tensor<1x32x2048x2048xf32>
    %411 = stablehlo.reduce(%410 init: %6) across dimensions = [3] : (tensor<1x32x2048x2048xf32>, tensor<f32>) -> tensor<1x32x2048xf32>
     reducer(%arg363: tensor<f32>, %arg364: tensor<f32>)  {
      %3554 = stablehlo.maximum %arg363, %arg364 : tensor<f32>
      stablehlo.return %3554 : tensor<f32>
    }
    %412 = stablehlo.broadcast_in_dim %411, dims = [0, 1, 2] : (tensor<1x32x2048xf32>) -> tensor<1x32x2048x2048xf32>
    %413 = stablehlo.subtract %410, %412 : tensor<1x32x2048x2048xf32>
    %414 = stablehlo.exponential %413 : tensor<1x32x2048x2048xf32>
    %415 = stablehlo.reduce(%414 init: %7) across dimensions = [3] : (tensor<1x32x2048x2048xf32>, tensor<f32>) -> tensor<1x32x2048xf32>
     reducer(%arg363: tensor<f32>, %arg364: tensor<f32>)  {
      %3554 = stablehlo.add %arg363, %arg364 : tensor<f32>
      stablehlo.return %3554 : tensor<f32>
    }
    %416 = stablehlo.broadcast_in_dim %415, dims = [0, 1, 2] : (tensor<1x32x2048xf32>) -> tensor<1x32x2048x2048xf32>
    %417 = stablehlo.divide %414, %416 : tensor<1x32x2048x2048xf32>
    %418 = stablehlo.reshape %417 : (tensor<1x32x2048x2048xf32>) -> tensor<32x2048x2048xf32>
    %419 = stablehlo.compare  LT, %arg198, %2 : (tensor<2048xi64>, tensor<2048xi64>) -> tensor<2048xi1>
    %420 = stablehlo.broadcast_in_dim %arg199, dims = [] : (tensor<i64>) -> tensor<2048xi64>
    %421 = stablehlo.add %arg198, %420 : tensor<2048xi64>
    %422 = stablehlo.select %419, %421, %arg198 : tensor<2048xi1>, tensor<2048xi64>
    %423 = stablehlo.reshape %422 : (tensor<2048xi64>) -> tensor<2048x1xi64>
    %424 = stablehlo.transpose %arg176, dims = [1, 0] {result_layout = dense<[0, 1]> : tensor<2xindex>, xla_shape = "f32[4096,4096]{0,1}"} : (tensor<4096x4096xf32>) -> tensor<4096x4096xf32>
    %425 = stablehlo.dot %361, %424, precision = [DEFAULT, DEFAULT] : (tensor<2048x4096xf32>, tensor<4096x4096xf32>) -> tensor<2048x4096xf32>
    %426 = stablehlo.reshape %425 : (tensor<2048x4096xf32>) -> tensor<2048x32x128xf32>
    %427 = "stablehlo.scatter"(%arg218, %423, %426) ({
    ^bb0(%arg363: tensor<f32>, %arg364: tensor<f32>):
      stablehlo.return %arg364 : tensor<f32>
    }) {indices_are_sorted = false, scatter_dimension_numbers = #stablehlo.scatter<update_window_dims = [1, 2], inserted_window_dims = [0], scatter_dims_to_operand_dims = [0], index_vector_dim = 1>, unique_indices = false} : (tensor<2304x32x128xf32>, tensor<2048x1xi64>, tensor<2048x32x128xf32>) -> tensor<2304x32x128xf32>
    %428 = stablehlo.convert %arg7 : (tensor<2048xi64>) -> tensor<2048xui32>
    %429 = "stablehlo.gather"(%427, %428) {dimension_numbers = #stablehlo.gather<offset_dims = [1, 2], collapsed_slice_dims = [0], start_index_map = [0], index_vector_dim = 1>, indices_are_sorted = false, slice_sizes = dense<[1, 32, 128]> : tensor<3xi64>} : (tensor<2304x32x128xf32>, tensor<2048xui32>) -> tensor<2048x32x128xf32>
    %430 = stablehlo.transpose %429, dims = [1, 0, 2] {result_layout = dense<[2, 0, 1]> : tensor<3xindex>, xla_shape = "f32[32,2048,128]{2,0,1}"} : (tensor<2048x32x128xf32>) -> tensor<32x2048x128xf32>
    %431 = stablehlo.dot_general %418, %430, batching_dims = [0] x [0], contracting_dims = [2] x [1], precision = [DEFAULT, DEFAULT] : (tensor<32x2048x2048xf32>, tensor<32x2048x128xf32>) -> tensor<32x2048x128xf32>
    %432 = stablehlo.reshape %431 : (tensor<32x2048x128xf32>) -> tensor<1x32x2048x128xf32>
    %433 = stablehlo.transpose %432, dims = [0, 2, 1, 3] {result_layout = dense<[3, 1, 2, 0]> : tensor<4xindex>, xla_shape = "f32[1,2048,32,128]{3,1,2,0}"} : (tensor<1x32x2048x128xf32>) -> tensor<1x2048x32x128xf32>
    %434 = stablehlo.reshape %433 : (tensor<1x2048x32x128xf32>) -> tensor<2048x4096xf32>
    %435 = stablehlo.transpose %arg175, dims = [1, 0] {result_layout = dense<[0, 1]> : tensor<2xindex>, xla_shape = "f32[4096,4096]{0,1}"} : (tensor<4096x4096xf32>) -> tensor<4096x4096xf32>
    %436 = stablehlo.dot %434, %435, precision = [DEFAULT, DEFAULT] : (tensor<2048x4096xf32>, tensor<4096x4096xf32>) -> tensor<2048x4096xf32>
    %437 = stablehlo.add %349, %436 : tensor<2048x4096xf32>
    %438 = stablehlo.power %437, %1 : tensor<2048x4096xf32>
    %439 = stablehlo.reduce(%438 init: %7) across dimensions = [1] : (tensor<2048x4096xf32>, tensor<f32>) -> tensor<2048xf32>
     reducer(%arg363: tensor<f32>, %arg364: tensor<f32>)  {
      %3554 = stablehlo.add %arg363, %arg364 : tensor<f32>
      stablehlo.return %3554 : tensor<f32>
    }
    %440 = stablehlo.multiply %439, %0 : tensor<2048xf32>
    %441 = stablehlo.reshape %440 : (tensor<2048xf32>) -> tensor<2048x1xf32>
    %442 = stablehlo.broadcast_in_dim %arg2, dims = [] : (tensor<f32>) -> tensor<2048x1xf32>
    %443 = stablehlo.add %441, %442 : tensor<2048x1xf32>
    %444 = stablehlo.rsqrt %443 : tensor<2048x1xf32>
    %445 = stablehlo.reshape %444 : (tensor<2048x1xf32>) -> tensor<2048xf32>
    %446 = stablehlo.broadcast_in_dim %445, dims = [0] : (tensor<2048xf32>) -> tensor<2048x4096xf32>
    %447 = stablehlo.multiply %437, %446 : tensor<2048x4096xf32>
    %448 = stablehlo.broadcast_in_dim %arg174, dims = [1] : (tensor<4096xf32>) -> tensor<2048x4096xf32>
    %449 = stablehlo.multiply %447, %448 : tensor<2048x4096xf32>
    %450 = stablehlo.transpose %arg222, dims = [1, 0] {result_layout = dense<[0, 1]> : tensor<2xindex>, xla_shape = "f32[4096,11008]{0,1}"} : (tensor<11008x4096xf32>) -> tensor<4096x11008xf32>
    %451 = stablehlo.dot %449, %450, precision = [DEFAULT, DEFAULT] : (tensor<2048x4096xf32>, tensor<4096x11008xf32>) -> tensor<2048x11008xf32>
    %452 = stablehlo.logistic %451 : tensor<2048x11008xf32>
    %453 = stablehlo.multiply %451, %452 : tensor<2048x11008xf32>
    %454 = stablehlo.transpose %arg173, dims = [1, 0] {result_layout = dense<[0, 1]> : tensor<2xindex>, xla_shape = "f32[4096,11008]{0,1}"} : (tensor<11008x4096xf32>) -> tensor<4096x11008xf32>
    %455 = stablehlo.dot %449, %454, precision = [DEFAULT, DEFAULT] : (tensor<2048x4096xf32>, tensor<4096x11008xf32>) -> tensor<2048x11008xf32>
    %456 = stablehlo.multiply %453, %455 : tensor<2048x11008xf32>
    %457 = stablehlo.transpose %arg172, dims = [1, 0] {result_layout = dense<[0, 1]> : tensor<2xindex>, xla_shape = "f32[11008,4096]{0,1}"} : (tensor<4096x11008xf32>) -> tensor<11008x4096xf32>
    %458 = stablehlo.dot %456, %457, precision = [DEFAULT, DEFAULT] : (tensor<2048x11008xf32>, tensor<11008x4096xf32>) -> tensor<2048x4096xf32>
    %459 = stablehlo.add %437, %458 : tensor<2048x4096xf32>
    %460 = stablehlo.power %459, %1 : tensor<2048x4096xf32>
    %461 = stablehlo.reduce(%460 init: %7) across dimensions = [1] : (tensor<2048x4096xf32>, tensor<f32>) -> tensor<2048xf32>
     reducer(%arg363: tensor<f32>, %arg364: tensor<f32>)  {
      %3554 = stablehlo.add %arg363, %arg364 : tensor<f32>
      stablehlo.return %3554 : tensor<f32>
    }
    %462 = stablehlo.multiply %461, %0 : tensor<2048xf32>
    %463 = stablehlo.reshape %462 : (tensor<2048xf32>) -> tensor<2048x1xf32>
    %464 = stablehlo.broadcast_in_dim %arg2, dims = [] : (tensor<f32>) -> tensor<2048x1xf32>
    %465 = stablehlo.add %463, %464 : tensor<2048x1xf32>
    %466 = stablehlo.rsqrt %465 : tensor<2048x1xf32>
    %467 = stablehlo.reshape %466 : (tensor<2048x1xf32>) -> tensor<2048xf32>
    %468 = stablehlo.broadcast_in_dim %467, dims = [0] : (tensor<2048xf32>) -> tensor<2048x4096xf32>
    %469 = stablehlo.multiply %459, %468 : tensor<2048x4096xf32>
    %470 = stablehlo.broadcast_in_dim %arg171, dims = [1] : (tensor<4096xf32>) -> tensor<2048x4096xf32>
    %471 = stablehlo.multiply %469, %470 : tensor<2048x4096xf32>
    %472 = stablehlo.transpose %arg226, dims = [1, 0] {result_layout = dense<[0, 1]> : tensor<2xindex>, xla_shape = "f32[4096,4096]{0,1}"} : (tensor<4096x4096xf32>) -> tensor<4096x4096xf32>
    %473 = stablehlo.dot %471, %472, precision = [DEFAULT, DEFAULT] : (tensor<2048x4096xf32>, tensor<4096x4096xf32>) -> tensor<2048x4096xf32>
    %474 = stablehlo.reshape %473 : (tensor<2048x4096xf32>) -> tensor<2048x32x64x2xf32>
    %475 = stablehlo.slice %474 [0:2048, 0:32, 0:64, 0:1] : (tensor<2048x32x64x2xf32>) -> tensor<2048x32x64x1xf32>
    %476 = stablehlo.reshape %475 : (tensor<2048x32x64x1xf32>) -> tensor<2048x32x64xf32>
    %477 = stablehlo.slice %474 [0:2048, 0:32, 0:64, 1:2] : (tensor<2048x32x64x2xf32>) -> tensor<2048x32x64x1xf32>
    %478 = stablehlo.reshape %477 : (tensor<2048x32x64x1xf32>) -> tensor<2048x32x64xf32>
    %479 = stablehlo.complex %476, %478 : tensor<2048x32x64xcomplex<f32>>
    %480 = stablehlo.broadcast_in_dim %31, dims = [0, 2] : (tensor<2048x64xcomplex<f32>>) -> tensor<2048x32x64xcomplex<f32>>
    %481 = stablehlo.multiply %479, %480 : tensor<2048x32x64xcomplex<f32>>
    %482 = stablehlo.real %481 : (tensor<2048x32x64xcomplex<f32>>) -> tensor<2048x32x64xf32>
    %483 = stablehlo.reshape %482 : (tensor<2048x32x64xf32>) -> tensor<2048x32x64x1xf32>
    %484 = stablehlo.imag %481 : (tensor<2048x32x64xcomplex<f32>>) -> tensor<2048x32x64xf32>
    %485 = stablehlo.reshape %484 : (tensor<2048x32x64xf32>) -> tensor<2048x32x64x1xf32>
    %486 = stablehlo.concatenate %483, %485, dim = 3 : (tensor<2048x32x64x1xf32>, tensor<2048x32x64x1xf32>) -> tensor<2048x32x64x2xf32>
    %487 = stablehlo.reshape %486 : (tensor<2048x32x64x2xf32>) -> tensor<2048x32x128xf32>
    %488 = stablehlo.transpose %487, dims = [1, 0, 2] {result_layout = dense<[2, 0, 1]> : tensor<3xindex>, xla_shape = "f32[32,2048,128]{2,0,1}"} : (tensor<2048x32x128xf32>) -> tensor<32x2048x128xf32>
    %489 = stablehlo.compare  LT, %arg198, %2 : (tensor<2048xi64>, tensor<2048xi64>) -> tensor<2048xi1>
    %490 = stablehlo.broadcast_in_dim %arg199, dims = [] : (tensor<i64>) -> tensor<2048xi64>
    %491 = stablehlo.add %arg198, %490 : tensor<2048xi64>
    %492 = stablehlo.select %489, %491, %arg198 : tensor<2048xi1>, tensor<2048xi64>
    %493 = stablehlo.reshape %492 : (tensor<2048xi64>) -> tensor<2048x1xi64>
    %494 = stablehlo.transpose %arg224, dims = [1, 0] {result_layout = dense<[0, 1]> : tensor<2xindex>, xla_shape = "f32[4096,4096]{0,1}"} : (tensor<4096x4096xf32>) -> tensor<4096x4096xf32>
    %495 = stablehlo.dot %471, %494, precision = [DEFAULT, DEFAULT] : (tensor<2048x4096xf32>, tensor<4096x4096xf32>) -> tensor<2048x4096xf32>
    %496 = stablehlo.reshape %495 : (tensor<2048x4096xf32>) -> tensor<2048x32x64x2xf32>
    %497 = stablehlo.slice %496 [0:2048, 0:32, 0:64, 0:1] : (tensor<2048x32x64x2xf32>) -> tensor<2048x32x64x1xf32>
    %498 = stablehlo.reshape %497 : (tensor<2048x32x64x1xf32>) -> tensor<2048x32x64xf32>
    %499 = stablehlo.slice %496 [0:2048, 0:32, 0:64, 1:2] : (tensor<2048x32x64x2xf32>) -> tensor<2048x32x64x1xf32>
    %500 = stablehlo.reshape %499 : (tensor<2048x32x64x1xf32>) -> tensor<2048x32x64xf32>
    %501 = stablehlo.complex %498, %500 : tensor<2048x32x64xcomplex<f32>>
    %502 = stablehlo.broadcast_in_dim %31, dims = [0, 2] : (tensor<2048x64xcomplex<f32>>) -> tensor<2048x32x64xcomplex<f32>>
    %503 = stablehlo.multiply %501, %502 : tensor<2048x32x64xcomplex<f32>>
    %504 = stablehlo.real %503 : (tensor<2048x32x64xcomplex<f32>>) -> tensor<2048x32x64xf32>
    %505 = stablehlo.reshape %504 : (tensor<2048x32x64xf32>) -> tensor<2048x32x64x1xf32>
    %506 = stablehlo.imag %503 : (tensor<2048x32x64xcomplex<f32>>) -> tensor<2048x32x64xf32>
    %507 = stablehlo.reshape %506 : (tensor<2048x32x64xf32>) -> tensor<2048x32x64x1xf32>
    %508 = stablehlo.concatenate %505, %507, dim = 3 : (tensor<2048x32x64x1xf32>, tensor<2048x32x64x1xf32>) -> tensor<2048x32x64x2xf32>
    %509 = stablehlo.reshape %508 : (tensor<2048x32x64x2xf32>) -> tensor<2048x32x128xf32>
    %510 = "stablehlo.scatter"(%arg225, %493, %509) ({
    ^bb0(%arg363: tensor<f32>, %arg364: tensor<f32>):
      stablehlo.return %arg364 : tensor<f32>
    }) {indices_are_sorted = false, scatter_dimension_numbers = #stablehlo.scatter<update_window_dims = [1, 2], inserted_window_dims = [0], scatter_dims_to_operand_dims = [0], index_vector_dim = 1>, unique_indices = false} : (tensor<2304x32x128xf32>, tensor<2048x1xi64>, tensor<2048x32x128xf32>) -> tensor<2304x32x128xf32>
    %511 = stablehlo.convert %arg7 : (tensor<2048xi64>) -> tensor<2048xui32>
    %512 = "stablehlo.gather"(%510, %511) {dimension_numbers = #stablehlo.gather<offset_dims = [1, 2], collapsed_slice_dims = [0], start_index_map = [0], index_vector_dim = 1>, indices_are_sorted = false, slice_sizes = dense<[1, 32, 128]> : tensor<3xi64>} : (tensor<2304x32x128xf32>, tensor<2048xui32>) -> tensor<2048x32x128xf32>
    %513 = stablehlo.transpose %512, dims = [1, 2, 0] : (tensor<2048x32x128xf32>) -> tensor<32x128x2048xf32>
    %514 = stablehlo.dot_general %488, %513, batching_dims = [0] x [0], contracting_dims = [2] x [1], precision = [DEFAULT, DEFAULT] : (tensor<32x2048x128xf32>, tensor<32x128x2048xf32>) -> tensor<32x2048x2048xf32>
    %515 = stablehlo.broadcast_in_dim %arg202, dims = [] : (tensor<f32>) -> tensor<32x2048x2048xf32>
    %516 = stablehlo.divide %514, %515 : tensor<32x2048x2048xf32>
    %517 = stablehlo.reshape %516 : (tensor<32x2048x2048xf32>) -> tensor<1x32x2048x2048xf32>
    %518 = stablehlo.reshape %77 : (tensor<1x1x2048x2048xf32>) -> tensor<1x2048x2048xf32>
    %519 = stablehlo.broadcast_in_dim %518, dims = [0, 2, 3] : (tensor<1x2048x2048xf32>) -> tensor<1x32x2048x2048xf32>
    %520 = stablehlo.add %517, %519 : tensor<1x32x2048x2048xf32>
    %521 = stablehlo.reduce(%520 init: %6) across dimensions = [3] : (tensor<1x32x2048x2048xf32>, tensor<f32>) -> tensor<1x32x2048xf32>
     reducer(%arg363: tensor<f32>, %arg364: tensor<f32>)  {
      %3554 = stablehlo.maximum %arg363, %arg364 : tensor<f32>
      stablehlo.return %3554 : tensor<f32>
    }
    %522 = stablehlo.broadcast_in_dim %521, dims = [0, 1, 2] : (tensor<1x32x2048xf32>) -> tensor<1x32x2048x2048xf32>
    %523 = stablehlo.subtract %520, %522 : tensor<1x32x2048x2048xf32>
    %524 = stablehlo.exponential %523 : tensor<1x32x2048x2048xf32>
    %525 = stablehlo.reduce(%524 init: %7) across dimensions = [3] : (tensor<1x32x2048x2048xf32>, tensor<f32>) -> tensor<1x32x2048xf32>
     reducer(%arg363: tensor<f32>, %arg364: tensor<f32>)  {
      %3554 = stablehlo.add %arg363, %arg364 : tensor<f32>
      stablehlo.return %3554 : tensor<f32>
    }
    %526 = stablehlo.broadcast_in_dim %525, dims = [0, 1, 2] : (tensor<1x32x2048xf32>) -> tensor<1x32x2048x2048xf32>
    %527 = stablehlo.divide %524, %526 : tensor<1x32x2048x2048xf32>
    %528 = stablehlo.reshape %527 : (tensor<1x32x2048x2048xf32>) -> tensor<32x2048x2048xf32>
    %529 = stablehlo.compare  LT, %arg198, %2 : (tensor<2048xi64>, tensor<2048xi64>) -> tensor<2048xi1>
    %530 = stablehlo.broadcast_in_dim %arg199, dims = [] : (tensor<i64>) -> tensor<2048xi64>
    %531 = stablehlo.add %arg198, %530 : tensor<2048xi64>
    %532 = stablehlo.select %529, %531, %arg198 : tensor<2048xi1>, tensor<2048xi64>
    %533 = stablehlo.reshape %532 : (tensor<2048xi64>) -> tensor<2048x1xi64>
    %534 = stablehlo.transpose %arg170, dims = [1, 0] {result_layout = dense<[0, 1]> : tensor<2xindex>, xla_shape = "f32[4096,4096]{0,1}"} : (tensor<4096x4096xf32>) -> tensor<4096x4096xf32>
    %535 = stablehlo.dot %471, %534, precision = [DEFAULT, DEFAULT] : (tensor<2048x4096xf32>, tensor<4096x4096xf32>) -> tensor<2048x4096xf32>
    %536 = stablehlo.reshape %535 : (tensor<2048x4096xf32>) -> tensor<2048x32x128xf32>
    %537 = "stablehlo.scatter"(%arg223, %533, %536) ({
    ^bb0(%arg363: tensor<f32>, %arg364: tensor<f32>):
      stablehlo.return %arg364 : tensor<f32>
    }) {indices_are_sorted = false, scatter_dimension_numbers = #stablehlo.scatter<update_window_dims = [1, 2], inserted_window_dims = [0], scatter_dims_to_operand_dims = [0], index_vector_dim = 1>, unique_indices = false} : (tensor<2304x32x128xf32>, tensor<2048x1xi64>, tensor<2048x32x128xf32>) -> tensor<2304x32x128xf32>
    %538 = stablehlo.convert %arg7 : (tensor<2048xi64>) -> tensor<2048xui32>
    %539 = "stablehlo.gather"(%537, %538) {dimension_numbers = #stablehlo.gather<offset_dims = [1, 2], collapsed_slice_dims = [0], start_index_map = [0], index_vector_dim = 1>, indices_are_sorted = false, slice_sizes = dense<[1, 32, 128]> : tensor<3xi64>} : (tensor<2304x32x128xf32>, tensor<2048xui32>) -> tensor<2048x32x128xf32>
    %540 = stablehlo.transpose %539, dims = [1, 0, 2] {result_layout = dense<[2, 0, 1]> : tensor<3xindex>, xla_shape = "f32[32,2048,128]{2,0,1}"} : (tensor<2048x32x128xf32>) -> tensor<32x2048x128xf32>
    %541 = stablehlo.dot_general %528, %540, batching_dims = [0] x [0], contracting_dims = [2] x [1], precision = [DEFAULT, DEFAULT] : (tensor<32x2048x2048xf32>, tensor<32x2048x128xf32>) -> tensor<32x2048x128xf32>
    %542 = stablehlo.reshape %541 : (tensor<32x2048x128xf32>) -> tensor<1x32x2048x128xf32>
    %543 = stablehlo.transpose %542, dims = [0, 2, 1, 3] {result_layout = dense<[3, 1, 2, 0]> : tensor<4xindex>, xla_shape = "f32[1,2048,32,128]{3,1,2,0}"} : (tensor<1x32x2048x128xf32>) -> tensor<1x2048x32x128xf32>
    %544 = stablehlo.reshape %543 : (tensor<1x2048x32x128xf32>) -> tensor<2048x4096xf32>
    %545 = stablehlo.transpose %arg169, dims = [1, 0] {result_layout = dense<[0, 1]> : tensor<2xindex>, xla_shape = "f32[4096,4096]{0,1}"} : (tensor<4096x4096xf32>) -> tensor<4096x4096xf32>
    %546 = stablehlo.dot %544, %545, precision = [DEFAULT, DEFAULT] : (tensor<2048x4096xf32>, tensor<4096x4096xf32>) -> tensor<2048x4096xf32>
    %547 = stablehlo.add %459, %546 : tensor<2048x4096xf32>
    %548 = stablehlo.power %547, %1 : tensor<2048x4096xf32>
    %549 = stablehlo.reduce(%548 init: %7) across dimensions = [1] : (tensor<2048x4096xf32>, tensor<f32>) -> tensor<2048xf32>
     reducer(%arg363: tensor<f32>, %arg364: tensor<f32>)  {
      %3554 = stablehlo.add %arg363, %arg364 : tensor<f32>
      stablehlo.return %3554 : tensor<f32>
    }
    %550 = stablehlo.multiply %549, %0 : tensor<2048xf32>
    %551 = stablehlo.reshape %550 : (tensor<2048xf32>) -> tensor<2048x1xf32>
    %552 = stablehlo.broadcast_in_dim %arg2, dims = [] : (tensor<f32>) -> tensor<2048x1xf32>
    %553 = stablehlo.add %551, %552 : tensor<2048x1xf32>
    %554 = stablehlo.rsqrt %553 : tensor<2048x1xf32>
    %555 = stablehlo.reshape %554 : (tensor<2048x1xf32>) -> tensor<2048xf32>
    %556 = stablehlo.broadcast_in_dim %555, dims = [0] : (tensor<2048xf32>) -> tensor<2048x4096xf32>
    %557 = stablehlo.multiply %547, %556 : tensor<2048x4096xf32>
    %558 = stablehlo.broadcast_in_dim %arg168, dims = [1] : (tensor<4096xf32>) -> tensor<2048x4096xf32>
    %559 = stablehlo.multiply %557, %558 : tensor<2048x4096xf32>
    %560 = stablehlo.transpose %arg227, dims = [1, 0] {result_layout = dense<[0, 1]> : tensor<2xindex>, xla_shape = "f32[4096,11008]{0,1}"} : (tensor<11008x4096xf32>) -> tensor<4096x11008xf32>
    %561 = stablehlo.dot %559, %560, precision = [DEFAULT, DEFAULT] : (tensor<2048x4096xf32>, tensor<4096x11008xf32>) -> tensor<2048x11008xf32>
    %562 = stablehlo.logistic %561 : tensor<2048x11008xf32>
    %563 = stablehlo.multiply %561, %562 : tensor<2048x11008xf32>
    %564 = stablehlo.transpose %arg167, dims = [1, 0] {result_layout = dense<[0, 1]> : tensor<2xindex>, xla_shape = "f32[4096,11008]{0,1}"} : (tensor<11008x4096xf32>) -> tensor<4096x11008xf32>
    %565 = stablehlo.dot %559, %564, precision = [DEFAULT, DEFAULT] : (tensor<2048x4096xf32>, tensor<4096x11008xf32>) -> tensor<2048x11008xf32>
    %566 = stablehlo.multiply %563, %565 : tensor<2048x11008xf32>
    %567 = stablehlo.transpose %arg166, dims = [1, 0] {result_layout = dense<[0, 1]> : tensor<2xindex>, xla_shape = "f32[11008,4096]{0,1}"} : (tensor<4096x11008xf32>) -> tensor<11008x4096xf32>
    %568 = stablehlo.dot %566, %567, precision = [DEFAULT, DEFAULT] : (tensor<2048x11008xf32>, tensor<11008x4096xf32>) -> tensor<2048x4096xf32>
    %569 = stablehlo.add %547, %568 : tensor<2048x4096xf32>
    %570 = stablehlo.power %569, %1 : tensor<2048x4096xf32>
    %571 = stablehlo.reduce(%570 init: %7) across dimensions = [1] : (tensor<2048x4096xf32>, tensor<f32>) -> tensor<2048xf32>
     reducer(%arg363: tensor<f32>, %arg364: tensor<f32>)  {
      %3554 = stablehlo.add %arg363, %arg364 : tensor<f32>
      stablehlo.return %3554 : tensor<f32>
    }
    %572 = stablehlo.multiply %571, %0 : tensor<2048xf32>
    %573 = stablehlo.reshape %572 : (tensor<2048xf32>) -> tensor<2048x1xf32>
    %574 = stablehlo.broadcast_in_dim %arg2, dims = [] : (tensor<f32>) -> tensor<2048x1xf32>
    %575 = stablehlo.add %573, %574 : tensor<2048x1xf32>
    %576 = stablehlo.rsqrt %575 : tensor<2048x1xf32>
    %577 = stablehlo.reshape %576 : (tensor<2048x1xf32>) -> tensor<2048xf32>
    %578 = stablehlo.broadcast_in_dim %577, dims = [0] : (tensor<2048xf32>) -> tensor<2048x4096xf32>
    %579 = stablehlo.multiply %569, %578 : tensor<2048x4096xf32>
    %580 = stablehlo.broadcast_in_dim %arg165, dims = [1] : (tensor<4096xf32>) -> tensor<2048x4096xf32>
    %581 = stablehlo.multiply %579, %580 : tensor<2048x4096xf32>
    %582 = stablehlo.transpose %arg231, dims = [1, 0] {result_layout = dense<[0, 1]> : tensor<2xindex>, xla_shape = "f32[4096,4096]{0,1}"} : (tensor<4096x4096xf32>) -> tensor<4096x4096xf32>
    %583 = stablehlo.dot %581, %582, precision = [DEFAULT, DEFAULT] : (tensor<2048x4096xf32>, tensor<4096x4096xf32>) -> tensor<2048x4096xf32>
    %584 = stablehlo.reshape %583 : (tensor<2048x4096xf32>) -> tensor<2048x32x64x2xf32>
    %585 = stablehlo.slice %584 [0:2048, 0:32, 0:64, 0:1] : (tensor<2048x32x64x2xf32>) -> tensor<2048x32x64x1xf32>
    %586 = stablehlo.reshape %585 : (tensor<2048x32x64x1xf32>) -> tensor<2048x32x64xf32>
    %587 = stablehlo.slice %584 [0:2048, 0:32, 0:64, 1:2] : (tensor<2048x32x64x2xf32>) -> tensor<2048x32x64x1xf32>
    %588 = stablehlo.reshape %587 : (tensor<2048x32x64x1xf32>) -> tensor<2048x32x64xf32>
    %589 = stablehlo.complex %586, %588 : tensor<2048x32x64xcomplex<f32>>
    %590 = stablehlo.broadcast_in_dim %31, dims = [0, 2] : (tensor<2048x64xcomplex<f32>>) -> tensor<2048x32x64xcomplex<f32>>
    %591 = stablehlo.multiply %589, %590 : tensor<2048x32x64xcomplex<f32>>
    %592 = stablehlo.real %591 : (tensor<2048x32x64xcomplex<f32>>) -> tensor<2048x32x64xf32>
    %593 = stablehlo.reshape %592 : (tensor<2048x32x64xf32>) -> tensor<2048x32x64x1xf32>
    %594 = stablehlo.imag %591 : (tensor<2048x32x64xcomplex<f32>>) -> tensor<2048x32x64xf32>
    %595 = stablehlo.reshape %594 : (tensor<2048x32x64xf32>) -> tensor<2048x32x64x1xf32>
    %596 = stablehlo.concatenate %593, %595, dim = 3 : (tensor<2048x32x64x1xf32>, tensor<2048x32x64x1xf32>) -> tensor<2048x32x64x2xf32>
    %597 = stablehlo.reshape %596 : (tensor<2048x32x64x2xf32>) -> tensor<2048x32x128xf32>
    %598 = stablehlo.transpose %597, dims = [1, 0, 2] {result_layout = dense<[2, 0, 1]> : tensor<3xindex>, xla_shape = "f32[32,2048,128]{2,0,1}"} : (tensor<2048x32x128xf32>) -> tensor<32x2048x128xf32>
    %599 = stablehlo.compare  LT, %arg198, %2 : (tensor<2048xi64>, tensor<2048xi64>) -> tensor<2048xi1>
    %600 = stablehlo.broadcast_in_dim %arg199, dims = [] : (tensor<i64>) -> tensor<2048xi64>
    %601 = stablehlo.add %arg198, %600 : tensor<2048xi64>
    %602 = stablehlo.select %599, %601, %arg198 : tensor<2048xi1>, tensor<2048xi64>
    %603 = stablehlo.reshape %602 : (tensor<2048xi64>) -> tensor<2048x1xi64>
    %604 = stablehlo.transpose %arg229, dims = [1, 0] {result_layout = dense<[0, 1]> : tensor<2xindex>, xla_shape = "f32[4096,4096]{0,1}"} : (tensor<4096x4096xf32>) -> tensor<4096x4096xf32>
    %605 = stablehlo.dot %581, %604, precision = [DEFAULT, DEFAULT] : (tensor<2048x4096xf32>, tensor<4096x4096xf32>) -> tensor<2048x4096xf32>
    %606 = stablehlo.reshape %605 : (tensor<2048x4096xf32>) -> tensor<2048x32x64x2xf32>
    %607 = stablehlo.slice %606 [0:2048, 0:32, 0:64, 0:1] : (tensor<2048x32x64x2xf32>) -> tensor<2048x32x64x1xf32>
    %608 = stablehlo.reshape %607 : (tensor<2048x32x64x1xf32>) -> tensor<2048x32x64xf32>
    %609 = stablehlo.slice %606 [0:2048, 0:32, 0:64, 1:2] : (tensor<2048x32x64x2xf32>) -> tensor<2048x32x64x1xf32>
    %610 = stablehlo.reshape %609 : (tensor<2048x32x64x1xf32>) -> tensor<2048x32x64xf32>
    %611 = stablehlo.complex %608, %610 : tensor<2048x32x64xcomplex<f32>>
    %612 = stablehlo.broadcast_in_dim %31, dims = [0, 2] : (tensor<2048x64xcomplex<f32>>) -> tensor<2048x32x64xcomplex<f32>>
    %613 = stablehlo.multiply %611, %612 : tensor<2048x32x64xcomplex<f32>>
    %614 = stablehlo.real %613 : (tensor<2048x32x64xcomplex<f32>>) -> tensor<2048x32x64xf32>
    %615 = stablehlo.reshape %614 : (tensor<2048x32x64xf32>) -> tensor<2048x32x64x1xf32>
    %616 = stablehlo.imag %613 : (tensor<2048x32x64xcomplex<f32>>) -> tensor<2048x32x64xf32>
    %617 = stablehlo.reshape %616 : (tensor<2048x32x64xf32>) -> tensor<2048x32x64x1xf32>
    %618 = stablehlo.concatenate %615, %617, dim = 3 : (tensor<2048x32x64x1xf32>, tensor<2048x32x64x1xf32>) -> tensor<2048x32x64x2xf32>
    %619 = stablehlo.reshape %618 : (tensor<2048x32x64x2xf32>) -> tensor<2048x32x128xf32>
    %620 = "stablehlo.scatter"(%arg230, %603, %619) ({
    ^bb0(%arg363: tensor<f32>, %arg364: tensor<f32>):
      stablehlo.return %arg364 : tensor<f32>
    }) {indices_are_sorted = false, scatter_dimension_numbers = #stablehlo.scatter<update_window_dims = [1, 2], inserted_window_dims = [0], scatter_dims_to_operand_dims = [0], index_vector_dim = 1>, unique_indices = false} : (tensor<2304x32x128xf32>, tensor<2048x1xi64>, tensor<2048x32x128xf32>) -> tensor<2304x32x128xf32>
    %621 = stablehlo.convert %arg7 : (tensor<2048xi64>) -> tensor<2048xui32>
    %622 = "stablehlo.gather"(%620, %621) {dimension_numbers = #stablehlo.gather<offset_dims = [1, 2], collapsed_slice_dims = [0], start_index_map = [0], index_vector_dim = 1>, indices_are_sorted = false, slice_sizes = dense<[1, 32, 128]> : tensor<3xi64>} : (tensor<2304x32x128xf32>, tensor<2048xui32>) -> tensor<2048x32x128xf32>
    %623 = stablehlo.transpose %622, dims = [1, 2, 0] : (tensor<2048x32x128xf32>) -> tensor<32x128x2048xf32>
    %624 = stablehlo.dot_general %598, %623, batching_dims = [0] x [0], contracting_dims = [2] x [1], precision = [DEFAULT, DEFAULT] : (tensor<32x2048x128xf32>, tensor<32x128x2048xf32>) -> tensor<32x2048x2048xf32>
    %625 = stablehlo.broadcast_in_dim %arg202, dims = [] : (tensor<f32>) -> tensor<32x2048x2048xf32>
    %626 = stablehlo.divide %624, %625 : tensor<32x2048x2048xf32>
    %627 = stablehlo.reshape %626 : (tensor<32x2048x2048xf32>) -> tensor<1x32x2048x2048xf32>
    %628 = stablehlo.reshape %77 : (tensor<1x1x2048x2048xf32>) -> tensor<1x2048x2048xf32>
    %629 = stablehlo.broadcast_in_dim %628, dims = [0, 2, 3] : (tensor<1x2048x2048xf32>) -> tensor<1x32x2048x2048xf32>
    %630 = stablehlo.add %627, %629 : tensor<1x32x2048x2048xf32>
    %631 = stablehlo.reduce(%630 init: %6) across dimensions = [3] : (tensor<1x32x2048x2048xf32>, tensor<f32>) -> tensor<1x32x2048xf32>
     reducer(%arg363: tensor<f32>, %arg364: tensor<f32>)  {
      %3554 = stablehlo.maximum %arg363, %arg364 : tensor<f32>
      stablehlo.return %3554 : tensor<f32>
    }
    %632 = stablehlo.broadcast_in_dim %631, dims = [0, 1, 2] : (tensor<1x32x2048xf32>) -> tensor<1x32x2048x2048xf32>
    %633 = stablehlo.subtract %630, %632 : tensor<1x32x2048x2048xf32>
    %634 = stablehlo.exponential %633 : tensor<1x32x2048x2048xf32>
    %635 = stablehlo.reduce(%634 init: %7) across dimensions = [3] : (tensor<1x32x2048x2048xf32>, tensor<f32>) -> tensor<1x32x2048xf32>
     reducer(%arg363: tensor<f32>, %arg364: tensor<f32>)  {
      %3554 = stablehlo.add %arg363, %arg364 : tensor<f32>
      stablehlo.return %3554 : tensor<f32>
    }
    %636 = stablehlo.broadcast_in_dim %635, dims = [0, 1, 2] : (tensor<1x32x2048xf32>) -> tensor<1x32x2048x2048xf32>
    %637 = stablehlo.divide %634, %636 : tensor<1x32x2048x2048xf32>
    %638 = stablehlo.reshape %637 : (tensor<1x32x2048x2048xf32>) -> tensor<32x2048x2048xf32>
    %639 = stablehlo.compare  LT, %arg198, %2 : (tensor<2048xi64>, tensor<2048xi64>) -> tensor<2048xi1>
    %640 = stablehlo.broadcast_in_dim %arg199, dims = [] : (tensor<i64>) -> tensor<2048xi64>
    %641 = stablehlo.add %arg198, %640 : tensor<2048xi64>
    %642 = stablehlo.select %639, %641, %arg198 : tensor<2048xi1>, tensor<2048xi64>
    %643 = stablehlo.reshape %642 : (tensor<2048xi64>) -> tensor<2048x1xi64>
    %644 = stablehlo.transpose %arg164, dims = [1, 0] {result_layout = dense<[0, 1]> : tensor<2xindex>, xla_shape = "f32[4096,4096]{0,1}"} : (tensor<4096x4096xf32>) -> tensor<4096x4096xf32>
    %645 = stablehlo.dot %581, %644, precision = [DEFAULT, DEFAULT] : (tensor<2048x4096xf32>, tensor<4096x4096xf32>) -> tensor<2048x4096xf32>
    %646 = stablehlo.reshape %645 : (tensor<2048x4096xf32>) -> tensor<2048x32x128xf32>
    %647 = "stablehlo.scatter"(%arg228, %643, %646) ({
    ^bb0(%arg363: tensor<f32>, %arg364: tensor<f32>):
      stablehlo.return %arg364 : tensor<f32>
    }) {indices_are_sorted = false, scatter_dimension_numbers = #stablehlo.scatter<update_window_dims = [1, 2], inserted_window_dims = [0], scatter_dims_to_operand_dims = [0], index_vector_dim = 1>, unique_indices = false} : (tensor<2304x32x128xf32>, tensor<2048x1xi64>, tensor<2048x32x128xf32>) -> tensor<2304x32x128xf32>
    %648 = stablehlo.convert %arg7 : (tensor<2048xi64>) -> tensor<2048xui32>
    %649 = "stablehlo.gather"(%647, %648) {dimension_numbers = #stablehlo.gather<offset_dims = [1, 2], collapsed_slice_dims = [0], start_index_map = [0], index_vector_dim = 1>, indices_are_sorted = false, slice_sizes = dense<[1, 32, 128]> : tensor<3xi64>} : (tensor<2304x32x128xf32>, tensor<2048xui32>) -> tensor<2048x32x128xf32>
    %650 = stablehlo.transpose %649, dims = [1, 0, 2] {result_layout = dense<[2, 0, 1]> : tensor<3xindex>, xla_shape = "f32[32,2048,128]{2,0,1}"} : (tensor<2048x32x128xf32>) -> tensor<32x2048x128xf32>
    %651 = stablehlo.dot_general %638, %650, batching_dims = [0] x [0], contracting_dims = [2] x [1], precision = [DEFAULT, DEFAULT] : (tensor<32x2048x2048xf32>, tensor<32x2048x128xf32>) -> tensor<32x2048x128xf32>
    %652 = stablehlo.reshape %651 : (tensor<32x2048x128xf32>) -> tensor<1x32x2048x128xf32>
    %653 = stablehlo.transpose %652, dims = [0, 2, 1, 3] {result_layout = dense<[3, 1, 2, 0]> : tensor<4xindex>, xla_shape = "f32[1,2048,32,128]{3,1,2,0}"} : (tensor<1x32x2048x128xf32>) -> tensor<1x2048x32x128xf32>
    %654 = stablehlo.reshape %653 : (tensor<1x2048x32x128xf32>) -> tensor<2048x4096xf32>
    %655 = stablehlo.transpose %arg163, dims = [1, 0] {result_layout = dense<[0, 1]> : tensor<2xindex>, xla_shape = "f32[4096,4096]{0,1}"} : (tensor<4096x4096xf32>) -> tensor<4096x4096xf32>
    %656 = stablehlo.dot %654, %655, precision = [DEFAULT, DEFAULT] : (tensor<2048x4096xf32>, tensor<4096x4096xf32>) -> tensor<2048x4096xf32>
    %657 = stablehlo.add %569, %656 : tensor<2048x4096xf32>
    %658 = stablehlo.power %657, %1 : tensor<2048x4096xf32>
    %659 = stablehlo.reduce(%658 init: %7) across dimensions = [1] : (tensor<2048x4096xf32>, tensor<f32>) -> tensor<2048xf32>
     reducer(%arg363: tensor<f32>, %arg364: tensor<f32>)  {
      %3554 = stablehlo.add %arg363, %arg364 : tensor<f32>
      stablehlo.return %3554 : tensor<f32>
    }
    %660 = stablehlo.multiply %659, %0 : tensor<2048xf32>
    %661 = stablehlo.reshape %660 : (tensor<2048xf32>) -> tensor<2048x1xf32>
    %662 = stablehlo.broadcast_in_dim %arg2, dims = [] : (tensor<f32>) -> tensor<2048x1xf32>
    %663 = stablehlo.add %661, %662 : tensor<2048x1xf32>
    %664 = stablehlo.rsqrt %663 : tensor<2048x1xf32>
    %665 = stablehlo.reshape %664 : (tensor<2048x1xf32>) -> tensor<2048xf32>
    %666 = stablehlo.broadcast_in_dim %665, dims = [0] : (tensor<2048xf32>) -> tensor<2048x4096xf32>
    %667 = stablehlo.multiply %657, %666 : tensor<2048x4096xf32>
    %668 = stablehlo.broadcast_in_dim %arg162, dims = [1] : (tensor<4096xf32>) -> tensor<2048x4096xf32>
    %669 = stablehlo.multiply %667, %668 : tensor<2048x4096xf32>
    %670 = stablehlo.transpose %arg232, dims = [1, 0] {result_layout = dense<[0, 1]> : tensor<2xindex>, xla_shape = "f32[4096,11008]{0,1}"} : (tensor<11008x4096xf32>) -> tensor<4096x11008xf32>
    %671 = stablehlo.dot %669, %670, precision = [DEFAULT, DEFAULT] : (tensor<2048x4096xf32>, tensor<4096x11008xf32>) -> tensor<2048x11008xf32>
    %672 = stablehlo.logistic %671 : tensor<2048x11008xf32>
    %673 = stablehlo.multiply %671, %672 : tensor<2048x11008xf32>
    %674 = stablehlo.transpose %arg161, dims = [1, 0] {result_layout = dense<[0, 1]> : tensor<2xindex>, xla_shape = "f32[4096,11008]{0,1}"} : (tensor<11008x4096xf32>) -> tensor<4096x11008xf32>
    %675 = stablehlo.dot %669, %674, precision = [DEFAULT, DEFAULT] : (tensor<2048x4096xf32>, tensor<4096x11008xf32>) -> tensor<2048x11008xf32>
    %676 = stablehlo.multiply %673, %675 : tensor<2048x11008xf32>
    %677 = stablehlo.transpose %arg160, dims = [1, 0] {result_layout = dense<[0, 1]> : tensor<2xindex>, xla_shape = "f32[11008,4096]{0,1}"} : (tensor<4096x11008xf32>) -> tensor<11008x4096xf32>
    %678 = stablehlo.dot %676, %677, precision = [DEFAULT, DEFAULT] : (tensor<2048x11008xf32>, tensor<11008x4096xf32>) -> tensor<2048x4096xf32>
    %679 = stablehlo.add %657, %678 : tensor<2048x4096xf32>
    %680 = stablehlo.power %679, %1 : tensor<2048x4096xf32>
    %681 = stablehlo.reduce(%680 init: %7) across dimensions = [1] : (tensor<2048x4096xf32>, tensor<f32>) -> tensor<2048xf32>
     reducer(%arg363: tensor<f32>, %arg364: tensor<f32>)  {
      %3554 = stablehlo.add %arg363, %arg364 : tensor<f32>
      stablehlo.return %3554 : tensor<f32>
    }
    %682 = stablehlo.multiply %681, %0 : tensor<2048xf32>
    %683 = stablehlo.reshape %682 : (tensor<2048xf32>) -> tensor<2048x1xf32>
    %684 = stablehlo.broadcast_in_dim %arg2, dims = [] : (tensor<f32>) -> tensor<2048x1xf32>
    %685 = stablehlo.add %683, %684 : tensor<2048x1xf32>
    %686 = stablehlo.rsqrt %685 : tensor<2048x1xf32>
    %687 = stablehlo.reshape %686 : (tensor<2048x1xf32>) -> tensor<2048xf32>
    %688 = stablehlo.broadcast_in_dim %687, dims = [0] : (tensor<2048xf32>) -> tensor<2048x4096xf32>
    %689 = stablehlo.multiply %679, %688 : tensor<2048x4096xf32>
    %690 = stablehlo.broadcast_in_dim %arg159, dims = [1] : (tensor<4096xf32>) -> tensor<2048x4096xf32>
    %691 = stablehlo.multiply %689, %690 : tensor<2048x4096xf32>
    %692 = stablehlo.transpose %arg236, dims = [1, 0] {result_layout = dense<[0, 1]> : tensor<2xindex>, xla_shape = "f32[4096,4096]{0,1}"} : (tensor<4096x4096xf32>) -> tensor<4096x4096xf32>
    %693 = stablehlo.dot %691, %692, precision = [DEFAULT, DEFAULT] : (tensor<2048x4096xf32>, tensor<4096x4096xf32>) -> tensor<2048x4096xf32>
    %694 = stablehlo.reshape %693 : (tensor<2048x4096xf32>) -> tensor<2048x32x64x2xf32>
    %695 = stablehlo.slice %694 [0:2048, 0:32, 0:64, 0:1] : (tensor<2048x32x64x2xf32>) -> tensor<2048x32x64x1xf32>
    %696 = stablehlo.reshape %695 : (tensor<2048x32x64x1xf32>) -> tensor<2048x32x64xf32>
    %697 = stablehlo.slice %694 [0:2048, 0:32, 0:64, 1:2] : (tensor<2048x32x64x2xf32>) -> tensor<2048x32x64x1xf32>
    %698 = stablehlo.reshape %697 : (tensor<2048x32x64x1xf32>) -> tensor<2048x32x64xf32>
    %699 = stablehlo.complex %696, %698 : tensor<2048x32x64xcomplex<f32>>
    %700 = stablehlo.broadcast_in_dim %31, dims = [0, 2] : (tensor<2048x64xcomplex<f32>>) -> tensor<2048x32x64xcomplex<f32>>
    %701 = stablehlo.multiply %699, %700 : tensor<2048x32x64xcomplex<f32>>
    %702 = stablehlo.real %701 : (tensor<2048x32x64xcomplex<f32>>) -> tensor<2048x32x64xf32>
    %703 = stablehlo.reshape %702 : (tensor<2048x32x64xf32>) -> tensor<2048x32x64x1xf32>
    %704 = stablehlo.imag %701 : (tensor<2048x32x64xcomplex<f32>>) -> tensor<2048x32x64xf32>
    %705 = stablehlo.reshape %704 : (tensor<2048x32x64xf32>) -> tensor<2048x32x64x1xf32>
    %706 = stablehlo.concatenate %703, %705, dim = 3 : (tensor<2048x32x64x1xf32>, tensor<2048x32x64x1xf32>) -> tensor<2048x32x64x2xf32>
    %707 = stablehlo.reshape %706 : (tensor<2048x32x64x2xf32>) -> tensor<2048x32x128xf32>
    %708 = stablehlo.transpose %707, dims = [1, 0, 2] {result_layout = dense<[2, 0, 1]> : tensor<3xindex>, xla_shape = "f32[32,2048,128]{2,0,1}"} : (tensor<2048x32x128xf32>) -> tensor<32x2048x128xf32>
    %709 = stablehlo.compare  LT, %arg198, %2 : (tensor<2048xi64>, tensor<2048xi64>) -> tensor<2048xi1>
    %710 = stablehlo.broadcast_in_dim %arg199, dims = [] : (tensor<i64>) -> tensor<2048xi64>
    %711 = stablehlo.add %arg198, %710 : tensor<2048xi64>
    %712 = stablehlo.select %709, %711, %arg198 : tensor<2048xi1>, tensor<2048xi64>
    %713 = stablehlo.reshape %712 : (tensor<2048xi64>) -> tensor<2048x1xi64>
    %714 = stablehlo.transpose %arg234, dims = [1, 0] {result_layout = dense<[0, 1]> : tensor<2xindex>, xla_shape = "f32[4096,4096]{0,1}"} : (tensor<4096x4096xf32>) -> tensor<4096x4096xf32>
    %715 = stablehlo.dot %691, %714, precision = [DEFAULT, DEFAULT] : (tensor<2048x4096xf32>, tensor<4096x4096xf32>) -> tensor<2048x4096xf32>
    %716 = stablehlo.reshape %715 : (tensor<2048x4096xf32>) -> tensor<2048x32x64x2xf32>
    %717 = stablehlo.slice %716 [0:2048, 0:32, 0:64, 0:1] : (tensor<2048x32x64x2xf32>) -> tensor<2048x32x64x1xf32>
    %718 = stablehlo.reshape %717 : (tensor<2048x32x64x1xf32>) -> tensor<2048x32x64xf32>
    %719 = stablehlo.slice %716 [0:2048, 0:32, 0:64, 1:2] : (tensor<2048x32x64x2xf32>) -> tensor<2048x32x64x1xf32>
    %720 = stablehlo.reshape %719 : (tensor<2048x32x64x1xf32>) -> tensor<2048x32x64xf32>
    %721 = stablehlo.complex %718, %720 : tensor<2048x32x64xcomplex<f32>>
    %722 = stablehlo.broadcast_in_dim %31, dims = [0, 2] : (tensor<2048x64xcomplex<f32>>) -> tensor<2048x32x64xcomplex<f32>>
    %723 = stablehlo.multiply %721, %722 : tensor<2048x32x64xcomplex<f32>>
    %724 = stablehlo.real %723 : (tensor<2048x32x64xcomplex<f32>>) -> tensor<2048x32x64xf32>
    %725 = stablehlo.reshape %724 : (tensor<2048x32x64xf32>) -> tensor<2048x32x64x1xf32>
    %726 = stablehlo.imag %723 : (tensor<2048x32x64xcomplex<f32>>) -> tensor<2048x32x64xf32>
    %727 = stablehlo.reshape %726 : (tensor<2048x32x64xf32>) -> tensor<2048x32x64x1xf32>
    %728 = stablehlo.concatenate %725, %727, dim = 3 : (tensor<2048x32x64x1xf32>, tensor<2048x32x64x1xf32>) -> tensor<2048x32x64x2xf32>
    %729 = stablehlo.reshape %728 : (tensor<2048x32x64x2xf32>) -> tensor<2048x32x128xf32>
    %730 = "stablehlo.scatter"(%arg235, %713, %729) ({
    ^bb0(%arg363: tensor<f32>, %arg364: tensor<f32>):
      stablehlo.return %arg364 : tensor<f32>
    }) {indices_are_sorted = false, scatter_dimension_numbers = #stablehlo.scatter<update_window_dims = [1, 2], inserted_window_dims = [0], scatter_dims_to_operand_dims = [0], index_vector_dim = 1>, unique_indices = false} : (tensor<2304x32x128xf32>, tensor<2048x1xi64>, tensor<2048x32x128xf32>) -> tensor<2304x32x128xf32>
    %731 = stablehlo.convert %arg7 : (tensor<2048xi64>) -> tensor<2048xui32>
    %732 = "stablehlo.gather"(%730, %731) {dimension_numbers = #stablehlo.gather<offset_dims = [1, 2], collapsed_slice_dims = [0], start_index_map = [0], index_vector_dim = 1>, indices_are_sorted = false, slice_sizes = dense<[1, 32, 128]> : tensor<3xi64>} : (tensor<2304x32x128xf32>, tensor<2048xui32>) -> tensor<2048x32x128xf32>
    %733 = stablehlo.transpose %732, dims = [1, 2, 0] : (tensor<2048x32x128xf32>) -> tensor<32x128x2048xf32>
    %734 = stablehlo.dot_general %708, %733, batching_dims = [0] x [0], contracting_dims = [2] x [1], precision = [DEFAULT, DEFAULT] : (tensor<32x2048x128xf32>, tensor<32x128x2048xf32>) -> tensor<32x2048x2048xf32>
    %735 = stablehlo.broadcast_in_dim %arg202, dims = [] : (tensor<f32>) -> tensor<32x2048x2048xf32>
    %736 = stablehlo.divide %734, %735 : tensor<32x2048x2048xf32>
    %737 = stablehlo.reshape %736 : (tensor<32x2048x2048xf32>) -> tensor<1x32x2048x2048xf32>
    %738 = stablehlo.reshape %77 : (tensor<1x1x2048x2048xf32>) -> tensor<1x2048x2048xf32>
    %739 = stablehlo.broadcast_in_dim %738, dims = [0, 2, 3] : (tensor<1x2048x2048xf32>) -> tensor<1x32x2048x2048xf32>
    %740 = stablehlo.add %737, %739 : tensor<1x32x2048x2048xf32>
    %741 = stablehlo.reduce(%740 init: %6) across dimensions = [3] : (tensor<1x32x2048x2048xf32>, tensor<f32>) -> tensor<1x32x2048xf32>
     reducer(%arg363: tensor<f32>, %arg364: tensor<f32>)  {
      %3554 = stablehlo.maximum %arg363, %arg364 : tensor<f32>
      stablehlo.return %3554 : tensor<f32>
    }
    %742 = stablehlo.broadcast_in_dim %741, dims = [0, 1, 2] : (tensor<1x32x2048xf32>) -> tensor<1x32x2048x2048xf32>
    %743 = stablehlo.subtract %740, %742 : tensor<1x32x2048x2048xf32>
    %744 = stablehlo.exponential %743 : tensor<1x32x2048x2048xf32>
    %745 = stablehlo.reduce(%744 init: %7) across dimensions = [3] : (tensor<1x32x2048x2048xf32>, tensor<f32>) -> tensor<1x32x2048xf32>
     reducer(%arg363: tensor<f32>, %arg364: tensor<f32>)  {
      %3554 = stablehlo.add %arg363, %arg364 : tensor<f32>
      stablehlo.return %3554 : tensor<f32>
    }
    %746 = stablehlo.broadcast_in_dim %745, dims = [0, 1, 2] : (tensor<1x32x2048xf32>) -> tensor<1x32x2048x2048xf32>
    %747 = stablehlo.divide %744, %746 : tensor<1x32x2048x2048xf32>
    %748 = stablehlo.reshape %747 : (tensor<1x32x2048x2048xf32>) -> tensor<32x2048x2048xf32>
    %749 = stablehlo.compare  LT, %arg198, %2 : (tensor<2048xi64>, tensor<2048xi64>) -> tensor<2048xi1>
    %750 = stablehlo.broadcast_in_dim %arg199, dims = [] : (tensor<i64>) -> tensor<2048xi64>
    %751 = stablehlo.add %arg198, %750 : tensor<2048xi64>
    %752 = stablehlo.select %749, %751, %arg198 : tensor<2048xi1>, tensor<2048xi64>
    %753 = stablehlo.reshape %752 : (tensor<2048xi64>) -> tensor<2048x1xi64>
    %754 = stablehlo.transpose %arg158, dims = [1, 0] {result_layout = dense<[0, 1]> : tensor<2xindex>, xla_shape = "f32[4096,4096]{0,1}"} : (tensor<4096x4096xf32>) -> tensor<4096x4096xf32>
    %755 = stablehlo.dot %691, %754, precision = [DEFAULT, DEFAULT] : (tensor<2048x4096xf32>, tensor<4096x4096xf32>) -> tensor<2048x4096xf32>
    %756 = stablehlo.reshape %755 : (tensor<2048x4096xf32>) -> tensor<2048x32x128xf32>
    %757 = "stablehlo.scatter"(%arg233, %753, %756) ({
    ^bb0(%arg363: tensor<f32>, %arg364: tensor<f32>):
      stablehlo.return %arg364 : tensor<f32>
    }) {indices_are_sorted = false, scatter_dimension_numbers = #stablehlo.scatter<update_window_dims = [1, 2], inserted_window_dims = [0], scatter_dims_to_operand_dims = [0], index_vector_dim = 1>, unique_indices = false} : (tensor<2304x32x128xf32>, tensor<2048x1xi64>, tensor<2048x32x128xf32>) -> tensor<2304x32x128xf32>
    %758 = stablehlo.convert %arg7 : (tensor<2048xi64>) -> tensor<2048xui32>
    %759 = "stablehlo.gather"(%757, %758) {dimension_numbers = #stablehlo.gather<offset_dims = [1, 2], collapsed_slice_dims = [0], start_index_map = [0], index_vector_dim = 1>, indices_are_sorted = false, slice_sizes = dense<[1, 32, 128]> : tensor<3xi64>} : (tensor<2304x32x128xf32>, tensor<2048xui32>) -> tensor<2048x32x128xf32>
    %760 = stablehlo.transpose %759, dims = [1, 0, 2] {result_layout = dense<[2, 0, 1]> : tensor<3xindex>, xla_shape = "f32[32,2048,128]{2,0,1}"} : (tensor<2048x32x128xf32>) -> tensor<32x2048x128xf32>
    %761 = stablehlo.dot_general %748, %760, batching_dims = [0] x [0], contracting_dims = [2] x [1], precision = [DEFAULT, DEFAULT] : (tensor<32x2048x2048xf32>, tensor<32x2048x128xf32>) -> tensor<32x2048x128xf32>
    %762 = stablehlo.reshape %761 : (tensor<32x2048x128xf32>) -> tensor<1x32x2048x128xf32>
    %763 = stablehlo.transpose %762, dims = [0, 2, 1, 3] {result_layout = dense<[3, 1, 2, 0]> : tensor<4xindex>, xla_shape = "f32[1,2048,32,128]{3,1,2,0}"} : (tensor<1x32x2048x128xf32>) -> tensor<1x2048x32x128xf32>
    %764 = stablehlo.reshape %763 : (tensor<1x2048x32x128xf32>) -> tensor<2048x4096xf32>
    %765 = stablehlo.transpose %arg157, dims = [1, 0] {result_layout = dense<[0, 1]> : tensor<2xindex>, xla_shape = "f32[4096,4096]{0,1}"} : (tensor<4096x4096xf32>) -> tensor<4096x4096xf32>
    %766 = stablehlo.dot %764, %765, precision = [DEFAULT, DEFAULT] : (tensor<2048x4096xf32>, tensor<4096x4096xf32>) -> tensor<2048x4096xf32>
    %767 = stablehlo.add %679, %766 : tensor<2048x4096xf32>
    %768 = stablehlo.power %767, %1 : tensor<2048x4096xf32>
    %769 = stablehlo.reduce(%768 init: %7) across dimensions = [1] : (tensor<2048x4096xf32>, tensor<f32>) -> tensor<2048xf32>
     reducer(%arg363: tensor<f32>, %arg364: tensor<f32>)  {
      %3554 = stablehlo.add %arg363, %arg364 : tensor<f32>
      stablehlo.return %3554 : tensor<f32>
    }
    %770 = stablehlo.multiply %769, %0 : tensor<2048xf32>
    %771 = stablehlo.reshape %770 : (tensor<2048xf32>) -> tensor<2048x1xf32>
    %772 = stablehlo.broadcast_in_dim %arg2, dims = [] : (tensor<f32>) -> tensor<2048x1xf32>
    %773 = stablehlo.add %771, %772 : tensor<2048x1xf32>
    %774 = stablehlo.rsqrt %773 : tensor<2048x1xf32>
    %775 = stablehlo.reshape %774 : (tensor<2048x1xf32>) -> tensor<2048xf32>
    %776 = stablehlo.broadcast_in_dim %775, dims = [0] : (tensor<2048xf32>) -> tensor<2048x4096xf32>
    %777 = stablehlo.multiply %767, %776 : tensor<2048x4096xf32>
    %778 = stablehlo.broadcast_in_dim %arg156, dims = [1] : (tensor<4096xf32>) -> tensor<2048x4096xf32>
    %779 = stablehlo.multiply %777, %778 : tensor<2048x4096xf32>
    %780 = stablehlo.transpose %arg237, dims = [1, 0] {result_layout = dense<[0, 1]> : tensor<2xindex>, xla_shape = "f32[4096,11008]{0,1}"} : (tensor<11008x4096xf32>) -> tensor<4096x11008xf32>
    %781 = stablehlo.dot %779, %780, precision = [DEFAULT, DEFAULT] : (tensor<2048x4096xf32>, tensor<4096x11008xf32>) -> tensor<2048x11008xf32>
    %782 = stablehlo.logistic %781 : tensor<2048x11008xf32>
    %783 = stablehlo.multiply %781, %782 : tensor<2048x11008xf32>
    %784 = stablehlo.transpose %arg155, dims = [1, 0] {result_layout = dense<[0, 1]> : tensor<2xindex>, xla_shape = "f32[4096,11008]{0,1}"} : (tensor<11008x4096xf32>) -> tensor<4096x11008xf32>
    %785 = stablehlo.dot %779, %784, precision = [DEFAULT, DEFAULT] : (tensor<2048x4096xf32>, tensor<4096x11008xf32>) -> tensor<2048x11008xf32>
    %786 = stablehlo.multiply %783, %785 : tensor<2048x11008xf32>
    %787 = stablehlo.transpose %arg154, dims = [1, 0] {result_layout = dense<[0, 1]> : tensor<2xindex>, xla_shape = "f32[11008,4096]{0,1}"} : (tensor<4096x11008xf32>) -> tensor<11008x4096xf32>
    %788 = stablehlo.dot %786, %787, precision = [DEFAULT, DEFAULT] : (tensor<2048x11008xf32>, tensor<11008x4096xf32>) -> tensor<2048x4096xf32>
    %789 = stablehlo.add %767, %788 : tensor<2048x4096xf32>
    %790 = stablehlo.power %789, %1 : tensor<2048x4096xf32>
    %791 = stablehlo.reduce(%790 init: %7) across dimensions = [1] : (tensor<2048x4096xf32>, tensor<f32>) -> tensor<2048xf32>
     reducer(%arg363: tensor<f32>, %arg364: tensor<f32>)  {
      %3554 = stablehlo.add %arg363, %arg364 : tensor<f32>
      stablehlo.return %3554 : tensor<f32>
    }
    %792 = stablehlo.multiply %791, %0 : tensor<2048xf32>
    %793 = stablehlo.reshape %792 : (tensor<2048xf32>) -> tensor<2048x1xf32>
    %794 = stablehlo.broadcast_in_dim %arg2, dims = [] : (tensor<f32>) -> tensor<2048x1xf32>
    %795 = stablehlo.add %793, %794 : tensor<2048x1xf32>
    %796 = stablehlo.rsqrt %795 : tensor<2048x1xf32>
    %797 = stablehlo.reshape %796 : (tensor<2048x1xf32>) -> tensor<2048xf32>
    %798 = stablehlo.broadcast_in_dim %797, dims = [0] : (tensor<2048xf32>) -> tensor<2048x4096xf32>
    %799 = stablehlo.multiply %789, %798 : tensor<2048x4096xf32>
    %800 = stablehlo.broadcast_in_dim %arg153, dims = [1] : (tensor<4096xf32>) -> tensor<2048x4096xf32>
    %801 = stablehlo.multiply %799, %800 : tensor<2048x4096xf32>
    %802 = stablehlo.transpose %arg241, dims = [1, 0] {result_layout = dense<[0, 1]> : tensor<2xindex>, xla_shape = "f32[4096,4096]{0,1}"} : (tensor<4096x4096xf32>) -> tensor<4096x4096xf32>
    %803 = stablehlo.dot %801, %802, precision = [DEFAULT, DEFAULT] : (tensor<2048x4096xf32>, tensor<4096x4096xf32>) -> tensor<2048x4096xf32>
    %804 = stablehlo.reshape %803 : (tensor<2048x4096xf32>) -> tensor<2048x32x64x2xf32>
    %805 = stablehlo.slice %804 [0:2048, 0:32, 0:64, 0:1] : (tensor<2048x32x64x2xf32>) -> tensor<2048x32x64x1xf32>
    %806 = stablehlo.reshape %805 : (tensor<2048x32x64x1xf32>) -> tensor<2048x32x64xf32>
    %807 = stablehlo.slice %804 [0:2048, 0:32, 0:64, 1:2] : (tensor<2048x32x64x2xf32>) -> tensor<2048x32x64x1xf32>
    %808 = stablehlo.reshape %807 : (tensor<2048x32x64x1xf32>) -> tensor<2048x32x64xf32>
    %809 = stablehlo.complex %806, %808 : tensor<2048x32x64xcomplex<f32>>
    %810 = stablehlo.broadcast_in_dim %31, dims = [0, 2] : (tensor<2048x64xcomplex<f32>>) -> tensor<2048x32x64xcomplex<f32>>
    %811 = stablehlo.multiply %809, %810 : tensor<2048x32x64xcomplex<f32>>
    %812 = stablehlo.real %811 : (tensor<2048x32x64xcomplex<f32>>) -> tensor<2048x32x64xf32>
    %813 = stablehlo.reshape %812 : (tensor<2048x32x64xf32>) -> tensor<2048x32x64x1xf32>
    %814 = stablehlo.imag %811 : (tensor<2048x32x64xcomplex<f32>>) -> tensor<2048x32x64xf32>
    %815 = stablehlo.reshape %814 : (tensor<2048x32x64xf32>) -> tensor<2048x32x64x1xf32>
    %816 = stablehlo.concatenate %813, %815, dim = 3 : (tensor<2048x32x64x1xf32>, tensor<2048x32x64x1xf32>) -> tensor<2048x32x64x2xf32>
    %817 = stablehlo.reshape %816 : (tensor<2048x32x64x2xf32>) -> tensor<2048x32x128xf32>
    %818 = stablehlo.transpose %817, dims = [1, 0, 2] {result_layout = dense<[2, 0, 1]> : tensor<3xindex>, xla_shape = "f32[32,2048,128]{2,0,1}"} : (tensor<2048x32x128xf32>) -> tensor<32x2048x128xf32>
    %819 = stablehlo.compare  LT, %arg198, %2 : (tensor<2048xi64>, tensor<2048xi64>) -> tensor<2048xi1>
    %820 = stablehlo.broadcast_in_dim %arg199, dims = [] : (tensor<i64>) -> tensor<2048xi64>
    %821 = stablehlo.add %arg198, %820 : tensor<2048xi64>
    %822 = stablehlo.select %819, %821, %arg198 : tensor<2048xi1>, tensor<2048xi64>
    %823 = stablehlo.reshape %822 : (tensor<2048xi64>) -> tensor<2048x1xi64>
    %824 = stablehlo.transpose %arg239, dims = [1, 0] {result_layout = dense<[0, 1]> : tensor<2xindex>, xla_shape = "f32[4096,4096]{0,1}"} : (tensor<4096x4096xf32>) -> tensor<4096x4096xf32>
    %825 = stablehlo.dot %801, %824, precision = [DEFAULT, DEFAULT] : (tensor<2048x4096xf32>, tensor<4096x4096xf32>) -> tensor<2048x4096xf32>
    %826 = stablehlo.reshape %825 : (tensor<2048x4096xf32>) -> tensor<2048x32x64x2xf32>
    %827 = stablehlo.slice %826 [0:2048, 0:32, 0:64, 0:1] : (tensor<2048x32x64x2xf32>) -> tensor<2048x32x64x1xf32>
    %828 = stablehlo.reshape %827 : (tensor<2048x32x64x1xf32>) -> tensor<2048x32x64xf32>
    %829 = stablehlo.slice %826 [0:2048, 0:32, 0:64, 1:2] : (tensor<2048x32x64x2xf32>) -> tensor<2048x32x64x1xf32>
    %830 = stablehlo.reshape %829 : (tensor<2048x32x64x1xf32>) -> tensor<2048x32x64xf32>
    %831 = stablehlo.complex %828, %830 : tensor<2048x32x64xcomplex<f32>>
    %832 = stablehlo.broadcast_in_dim %31, dims = [0, 2] : (tensor<2048x64xcomplex<f32>>) -> tensor<2048x32x64xcomplex<f32>>
    %833 = stablehlo.multiply %831, %832 : tensor<2048x32x64xcomplex<f32>>
    %834 = stablehlo.real %833 : (tensor<2048x32x64xcomplex<f32>>) -> tensor<2048x32x64xf32>
    %835 = stablehlo.reshape %834 : (tensor<2048x32x64xf32>) -> tensor<2048x32x64x1xf32>
    %836 = stablehlo.imag %833 : (tensor<2048x32x64xcomplex<f32>>) -> tensor<2048x32x64xf32>
    %837 = stablehlo.reshape %836 : (tensor<2048x32x64xf32>) -> tensor<2048x32x64x1xf32>
    %838 = stablehlo.concatenate %835, %837, dim = 3 : (tensor<2048x32x64x1xf32>, tensor<2048x32x64x1xf32>) -> tensor<2048x32x64x2xf32>
    %839 = stablehlo.reshape %838 : (tensor<2048x32x64x2xf32>) -> tensor<2048x32x128xf32>
    %840 = "stablehlo.scatter"(%arg240, %823, %839) ({
    ^bb0(%arg363: tensor<f32>, %arg364: tensor<f32>):
      stablehlo.return %arg364 : tensor<f32>
    }) {indices_are_sorted = false, scatter_dimension_numbers = #stablehlo.scatter<update_window_dims = [1, 2], inserted_window_dims = [0], scatter_dims_to_operand_dims = [0], index_vector_dim = 1>, unique_indices = false} : (tensor<2304x32x128xf32>, tensor<2048x1xi64>, tensor<2048x32x128xf32>) -> tensor<2304x32x128xf32>
    %841 = stablehlo.convert %arg7 : (tensor<2048xi64>) -> tensor<2048xui32>
    %842 = "stablehlo.gather"(%840, %841) {dimension_numbers = #stablehlo.gather<offset_dims = [1, 2], collapsed_slice_dims = [0], start_index_map = [0], index_vector_dim = 1>, indices_are_sorted = false, slice_sizes = dense<[1, 32, 128]> : tensor<3xi64>} : (tensor<2304x32x128xf32>, tensor<2048xui32>) -> tensor<2048x32x128xf32>
    %843 = stablehlo.transpose %842, dims = [1, 2, 0] : (tensor<2048x32x128xf32>) -> tensor<32x128x2048xf32>
    %844 = stablehlo.dot_general %818, %843, batching_dims = [0] x [0], contracting_dims = [2] x [1], precision = [DEFAULT, DEFAULT] : (tensor<32x2048x128xf32>, tensor<32x128x2048xf32>) -> tensor<32x2048x2048xf32>
    %845 = stablehlo.broadcast_in_dim %arg202, dims = [] : (tensor<f32>) -> tensor<32x2048x2048xf32>
    %846 = stablehlo.divide %844, %845 : tensor<32x2048x2048xf32>
    %847 = stablehlo.reshape %846 : (tensor<32x2048x2048xf32>) -> tensor<1x32x2048x2048xf32>
    %848 = stablehlo.reshape %77 : (tensor<1x1x2048x2048xf32>) -> tensor<1x2048x2048xf32>
    %849 = stablehlo.broadcast_in_dim %848, dims = [0, 2, 3] : (tensor<1x2048x2048xf32>) -> tensor<1x32x2048x2048xf32>
    %850 = stablehlo.add %847, %849 : tensor<1x32x2048x2048xf32>
    %851 = stablehlo.reduce(%850 init: %6) across dimensions = [3] : (tensor<1x32x2048x2048xf32>, tensor<f32>) -> tensor<1x32x2048xf32>
     reducer(%arg363: tensor<f32>, %arg364: tensor<f32>)  {
      %3554 = stablehlo.maximum %arg363, %arg364 : tensor<f32>
      stablehlo.return %3554 : tensor<f32>
    }
    %852 = stablehlo.broadcast_in_dim %851, dims = [0, 1, 2] : (tensor<1x32x2048xf32>) -> tensor<1x32x2048x2048xf32>
    %853 = stablehlo.subtract %850, %852 : tensor<1x32x2048x2048xf32>
    %854 = stablehlo.exponential %853 : tensor<1x32x2048x2048xf32>
    %855 = stablehlo.reduce(%854 init: %7) across dimensions = [3] : (tensor<1x32x2048x2048xf32>, tensor<f32>) -> tensor<1x32x2048xf32>
     reducer(%arg363: tensor<f32>, %arg364: tensor<f32>)  {
      %3554 = stablehlo.add %arg363, %arg364 : tensor<f32>
      stablehlo.return %3554 : tensor<f32>
    }
    %856 = stablehlo.broadcast_in_dim %855, dims = [0, 1, 2] : (tensor<1x32x2048xf32>) -> tensor<1x32x2048x2048xf32>
    %857 = stablehlo.divide %854, %856 : tensor<1x32x2048x2048xf32>
    %858 = stablehlo.reshape %857 : (tensor<1x32x2048x2048xf32>) -> tensor<32x2048x2048xf32>
    %859 = stablehlo.compare  LT, %arg198, %2 : (tensor<2048xi64>, tensor<2048xi64>) -> tensor<2048xi1>
    %860 = stablehlo.broadcast_in_dim %arg199, dims = [] : (tensor<i64>) -> tensor<2048xi64>
    %861 = stablehlo.add %arg198, %860 : tensor<2048xi64>
    %862 = stablehlo.select %859, %861, %arg198 : tensor<2048xi1>, tensor<2048xi64>
    %863 = stablehlo.reshape %862 : (tensor<2048xi64>) -> tensor<2048x1xi64>
    %864 = stablehlo.transpose %arg152, dims = [1, 0] {result_layout = dense<[0, 1]> : tensor<2xindex>, xla_shape = "f32[4096,4096]{0,1}"} : (tensor<4096x4096xf32>) -> tensor<4096x4096xf32>
    %865 = stablehlo.dot %801, %864, precision = [DEFAULT, DEFAULT] : (tensor<2048x4096xf32>, tensor<4096x4096xf32>) -> tensor<2048x4096xf32>
    %866 = stablehlo.reshape %865 : (tensor<2048x4096xf32>) -> tensor<2048x32x128xf32>
    %867 = "stablehlo.scatter"(%arg238, %863, %866) ({
    ^bb0(%arg363: tensor<f32>, %arg364: tensor<f32>):
      stablehlo.return %arg364 : tensor<f32>
    }) {indices_are_sorted = false, scatter_dimension_numbers = #stablehlo.scatter<update_window_dims = [1, 2], inserted_window_dims = [0], scatter_dims_to_operand_dims = [0], index_vector_dim = 1>, unique_indices = false} : (tensor<2304x32x128xf32>, tensor<2048x1xi64>, tensor<2048x32x128xf32>) -> tensor<2304x32x128xf32>
    %868 = stablehlo.convert %arg7 : (tensor<2048xi64>) -> tensor<2048xui32>
    %869 = "stablehlo.gather"(%867, %868) {dimension_numbers = #stablehlo.gather<offset_dims = [1, 2], collapsed_slice_dims = [0], start_index_map = [0], index_vector_dim = 1>, indices_are_sorted = false, slice_sizes = dense<[1, 32, 128]> : tensor<3xi64>} : (tensor<2304x32x128xf32>, tensor<2048xui32>) -> tensor<2048x32x128xf32>
    %870 = stablehlo.transpose %869, dims = [1, 0, 2] {result_layout = dense<[2, 0, 1]> : tensor<3xindex>, xla_shape = "f32[32,2048,128]{2,0,1}"} : (tensor<2048x32x128xf32>) -> tensor<32x2048x128xf32>
    %871 = stablehlo.dot_general %858, %870, batching_dims = [0] x [0], contracting_dims = [2] x [1], precision = [DEFAULT, DEFAULT] : (tensor<32x2048x2048xf32>, tensor<32x2048x128xf32>) -> tensor<32x2048x128xf32>
    %872 = stablehlo.reshape %871 : (tensor<32x2048x128xf32>) -> tensor<1x32x2048x128xf32>
    %873 = stablehlo.transpose %872, dims = [0, 2, 1, 3] {result_layout = dense<[3, 1, 2, 0]> : tensor<4xindex>, xla_shape = "f32[1,2048,32,128]{3,1,2,0}"} : (tensor<1x32x2048x128xf32>) -> tensor<1x2048x32x128xf32>
    %874 = stablehlo.reshape %873 : (tensor<1x2048x32x128xf32>) -> tensor<2048x4096xf32>
    %875 = stablehlo.transpose %arg151, dims = [1, 0] {result_layout = dense<[0, 1]> : tensor<2xindex>, xla_shape = "f32[4096,4096]{0,1}"} : (tensor<4096x4096xf32>) -> tensor<4096x4096xf32>
    %876 = stablehlo.dot %874, %875, precision = [DEFAULT, DEFAULT] : (tensor<2048x4096xf32>, tensor<4096x4096xf32>) -> tensor<2048x4096xf32>
    %877 = stablehlo.add %789, %876 : tensor<2048x4096xf32>
    %878 = stablehlo.power %877, %1 : tensor<2048x4096xf32>
    %879 = stablehlo.reduce(%878 init: %7) across dimensions = [1] : (tensor<2048x4096xf32>, tensor<f32>) -> tensor<2048xf32>
     reducer(%arg363: tensor<f32>, %arg364: tensor<f32>)  {
      %3554 = stablehlo.add %arg363, %arg364 : tensor<f32>
      stablehlo.return %3554 : tensor<f32>
    }
    %880 = stablehlo.multiply %879, %0 : tensor<2048xf32>
    %881 = stablehlo.reshape %880 : (tensor<2048xf32>) -> tensor<2048x1xf32>
    %882 = stablehlo.broadcast_in_dim %arg2, dims = [] : (tensor<f32>) -> tensor<2048x1xf32>
    %883 = stablehlo.add %881, %882 : tensor<2048x1xf32>
    %884 = stablehlo.rsqrt %883 : tensor<2048x1xf32>
    %885 = stablehlo.reshape %884 : (tensor<2048x1xf32>) -> tensor<2048xf32>
    %886 = stablehlo.broadcast_in_dim %885, dims = [0] : (tensor<2048xf32>) -> tensor<2048x4096xf32>
    %887 = stablehlo.multiply %877, %886 : tensor<2048x4096xf32>
    %888 = stablehlo.broadcast_in_dim %arg150, dims = [1] : (tensor<4096xf32>) -> tensor<2048x4096xf32>
    %889 = stablehlo.multiply %887, %888 : tensor<2048x4096xf32>
    %890 = stablehlo.transpose %arg242, dims = [1, 0] {result_layout = dense<[0, 1]> : tensor<2xindex>, xla_shape = "f32[4096,11008]{0,1}"} : (tensor<11008x4096xf32>) -> tensor<4096x11008xf32>
    %891 = stablehlo.dot %889, %890, precision = [DEFAULT, DEFAULT] : (tensor<2048x4096xf32>, tensor<4096x11008xf32>) -> tensor<2048x11008xf32>
    %892 = stablehlo.logistic %891 : tensor<2048x11008xf32>
    %893 = stablehlo.multiply %891, %892 : tensor<2048x11008xf32>
    %894 = stablehlo.transpose %arg149, dims = [1, 0] {result_layout = dense<[0, 1]> : tensor<2xindex>, xla_shape = "f32[4096,11008]{0,1}"} : (tensor<11008x4096xf32>) -> tensor<4096x11008xf32>
    %895 = stablehlo.dot %889, %894, precision = [DEFAULT, DEFAULT] : (tensor<2048x4096xf32>, tensor<4096x11008xf32>) -> tensor<2048x11008xf32>
    %896 = stablehlo.multiply %893, %895 : tensor<2048x11008xf32>
    %897 = stablehlo.transpose %arg148, dims = [1, 0] {result_layout = dense<[0, 1]> : tensor<2xindex>, xla_shape = "f32[11008,4096]{0,1}"} : (tensor<4096x11008xf32>) -> tensor<11008x4096xf32>
    %898 = stablehlo.dot %896, %897, precision = [DEFAULT, DEFAULT] : (tensor<2048x11008xf32>, tensor<11008x4096xf32>) -> tensor<2048x4096xf32>
    %899 = stablehlo.add %877, %898 : tensor<2048x4096xf32>
    %900 = stablehlo.power %899, %1 : tensor<2048x4096xf32>
    %901 = stablehlo.reduce(%900 init: %7) across dimensions = [1] : (tensor<2048x4096xf32>, tensor<f32>) -> tensor<2048xf32>
     reducer(%arg363: tensor<f32>, %arg364: tensor<f32>)  {
      %3554 = stablehlo.add %arg363, %arg364 : tensor<f32>
      stablehlo.return %3554 : tensor<f32>
    }
    %902 = stablehlo.multiply %901, %0 : tensor<2048xf32>
    %903 = stablehlo.reshape %902 : (tensor<2048xf32>) -> tensor<2048x1xf32>
    %904 = stablehlo.broadcast_in_dim %arg2, dims = [] : (tensor<f32>) -> tensor<2048x1xf32>
    %905 = stablehlo.add %903, %904 : tensor<2048x1xf32>
    %906 = stablehlo.rsqrt %905 : tensor<2048x1xf32>
    %907 = stablehlo.reshape %906 : (tensor<2048x1xf32>) -> tensor<2048xf32>
    %908 = stablehlo.broadcast_in_dim %907, dims = [0] : (tensor<2048xf32>) -> tensor<2048x4096xf32>
    %909 = stablehlo.multiply %899, %908 : tensor<2048x4096xf32>
    %910 = stablehlo.broadcast_in_dim %arg147, dims = [1] : (tensor<4096xf32>) -> tensor<2048x4096xf32>
    %911 = stablehlo.multiply %909, %910 : tensor<2048x4096xf32>
    %912 = stablehlo.transpose %arg246, dims = [1, 0] {result_layout = dense<[0, 1]> : tensor<2xindex>, xla_shape = "f32[4096,4096]{0,1}"} : (tensor<4096x4096xf32>) -> tensor<4096x4096xf32>
    %913 = stablehlo.dot %911, %912, precision = [DEFAULT, DEFAULT] : (tensor<2048x4096xf32>, tensor<4096x4096xf32>) -> tensor<2048x4096xf32>
    %914 = stablehlo.reshape %913 : (tensor<2048x4096xf32>) -> tensor<2048x32x64x2xf32>
    %915 = stablehlo.slice %914 [0:2048, 0:32, 0:64, 0:1] : (tensor<2048x32x64x2xf32>) -> tensor<2048x32x64x1xf32>
    %916 = stablehlo.reshape %915 : (tensor<2048x32x64x1xf32>) -> tensor<2048x32x64xf32>
    %917 = stablehlo.slice %914 [0:2048, 0:32, 0:64, 1:2] : (tensor<2048x32x64x2xf32>) -> tensor<2048x32x64x1xf32>
    %918 = stablehlo.reshape %917 : (tensor<2048x32x64x1xf32>) -> tensor<2048x32x64xf32>
    %919 = stablehlo.complex %916, %918 : tensor<2048x32x64xcomplex<f32>>
    %920 = stablehlo.broadcast_in_dim %31, dims = [0, 2] : (tensor<2048x64xcomplex<f32>>) -> tensor<2048x32x64xcomplex<f32>>
    %921 = stablehlo.multiply %919, %920 : tensor<2048x32x64xcomplex<f32>>
    %922 = stablehlo.real %921 : (tensor<2048x32x64xcomplex<f32>>) -> tensor<2048x32x64xf32>
    %923 = stablehlo.reshape %922 : (tensor<2048x32x64xf32>) -> tensor<2048x32x64x1xf32>
    %924 = stablehlo.imag %921 : (tensor<2048x32x64xcomplex<f32>>) -> tensor<2048x32x64xf32>
    %925 = stablehlo.reshape %924 : (tensor<2048x32x64xf32>) -> tensor<2048x32x64x1xf32>
    %926 = stablehlo.concatenate %923, %925, dim = 3 : (tensor<2048x32x64x1xf32>, tensor<2048x32x64x1xf32>) -> tensor<2048x32x64x2xf32>
    %927 = stablehlo.reshape %926 : (tensor<2048x32x64x2xf32>) -> tensor<2048x32x128xf32>
    %928 = stablehlo.transpose %927, dims = [1, 0, 2] {result_layout = dense<[2, 0, 1]> : tensor<3xindex>, xla_shape = "f32[32,2048,128]{2,0,1}"} : (tensor<2048x32x128xf32>) -> tensor<32x2048x128xf32>
    %929 = stablehlo.compare  LT, %arg198, %2 : (tensor<2048xi64>, tensor<2048xi64>) -> tensor<2048xi1>
    %930 = stablehlo.broadcast_in_dim %arg199, dims = [] : (tensor<i64>) -> tensor<2048xi64>
    %931 = stablehlo.add %arg198, %930 : tensor<2048xi64>
    %932 = stablehlo.select %929, %931, %arg198 : tensor<2048xi1>, tensor<2048xi64>
    %933 = stablehlo.reshape %932 : (tensor<2048xi64>) -> tensor<2048x1xi64>
    %934 = stablehlo.transpose %arg244, dims = [1, 0] {result_layout = dense<[0, 1]> : tensor<2xindex>, xla_shape = "f32[4096,4096]{0,1}"} : (tensor<4096x4096xf32>) -> tensor<4096x4096xf32>
    %935 = stablehlo.dot %911, %934, precision = [DEFAULT, DEFAULT] : (tensor<2048x4096xf32>, tensor<4096x4096xf32>) -> tensor<2048x4096xf32>
    %936 = stablehlo.reshape %935 : (tensor<2048x4096xf32>) -> tensor<2048x32x64x2xf32>
    %937 = stablehlo.slice %936 [0:2048, 0:32, 0:64, 0:1] : (tensor<2048x32x64x2xf32>) -> tensor<2048x32x64x1xf32>
    %938 = stablehlo.reshape %937 : (tensor<2048x32x64x1xf32>) -> tensor<2048x32x64xf32>
    %939 = stablehlo.slice %936 [0:2048, 0:32, 0:64, 1:2] : (tensor<2048x32x64x2xf32>) -> tensor<2048x32x64x1xf32>
    %940 = stablehlo.reshape %939 : (tensor<2048x32x64x1xf32>) -> tensor<2048x32x64xf32>
    %941 = stablehlo.complex %938, %940 : tensor<2048x32x64xcomplex<f32>>
    %942 = stablehlo.broadcast_in_dim %31, dims = [0, 2] : (tensor<2048x64xcomplex<f32>>) -> tensor<2048x32x64xcomplex<f32>>
    %943 = stablehlo.multiply %941, %942 : tensor<2048x32x64xcomplex<f32>>
    %944 = stablehlo.real %943 : (tensor<2048x32x64xcomplex<f32>>) -> tensor<2048x32x64xf32>
    %945 = stablehlo.reshape %944 : (tensor<2048x32x64xf32>) -> tensor<2048x32x64x1xf32>
    %946 = stablehlo.imag %943 : (tensor<2048x32x64xcomplex<f32>>) -> tensor<2048x32x64xf32>
    %947 = stablehlo.reshape %946 : (tensor<2048x32x64xf32>) -> tensor<2048x32x64x1xf32>
    %948 = stablehlo.concatenate %945, %947, dim = 3 : (tensor<2048x32x64x1xf32>, tensor<2048x32x64x1xf32>) -> tensor<2048x32x64x2xf32>
    %949 = stablehlo.reshape %948 : (tensor<2048x32x64x2xf32>) -> tensor<2048x32x128xf32>
    %950 = "stablehlo.scatter"(%arg245, %933, %949) ({
    ^bb0(%arg363: tensor<f32>, %arg364: tensor<f32>):
      stablehlo.return %arg364 : tensor<f32>
    }) {indices_are_sorted = false, scatter_dimension_numbers = #stablehlo.scatter<update_window_dims = [1, 2], inserted_window_dims = [0], scatter_dims_to_operand_dims = [0], index_vector_dim = 1>, unique_indices = false} : (tensor<2304x32x128xf32>, tensor<2048x1xi64>, tensor<2048x32x128xf32>) -> tensor<2304x32x128xf32>
    %951 = stablehlo.convert %arg7 : (tensor<2048xi64>) -> tensor<2048xui32>
    %952 = "stablehlo.gather"(%950, %951) {dimension_numbers = #stablehlo.gather<offset_dims = [1, 2], collapsed_slice_dims = [0], start_index_map = [0], index_vector_dim = 1>, indices_are_sorted = false, slice_sizes = dense<[1, 32, 128]> : tensor<3xi64>} : (tensor<2304x32x128xf32>, tensor<2048xui32>) -> tensor<2048x32x128xf32>
    %953 = stablehlo.transpose %952, dims = [1, 2, 0] : (tensor<2048x32x128xf32>) -> tensor<32x128x2048xf32>
    %954 = stablehlo.dot_general %928, %953, batching_dims = [0] x [0], contracting_dims = [2] x [1], precision = [DEFAULT, DEFAULT] : (tensor<32x2048x128xf32>, tensor<32x128x2048xf32>) -> tensor<32x2048x2048xf32>
    %955 = stablehlo.broadcast_in_dim %arg202, dims = [] : (tensor<f32>) -> tensor<32x2048x2048xf32>
    %956 = stablehlo.divide %954, %955 : tensor<32x2048x2048xf32>
    %957 = stablehlo.reshape %956 : (tensor<32x2048x2048xf32>) -> tensor<1x32x2048x2048xf32>
    %958 = stablehlo.reshape %77 : (tensor<1x1x2048x2048xf32>) -> tensor<1x2048x2048xf32>
    %959 = stablehlo.broadcast_in_dim %958, dims = [0, 2, 3] : (tensor<1x2048x2048xf32>) -> tensor<1x32x2048x2048xf32>
    %960 = stablehlo.add %957, %959 : tensor<1x32x2048x2048xf32>
    %961 = stablehlo.reduce(%960 init: %6) across dimensions = [3] : (tensor<1x32x2048x2048xf32>, tensor<f32>) -> tensor<1x32x2048xf32>
     reducer(%arg363: tensor<f32>, %arg364: tensor<f32>)  {
      %3554 = stablehlo.maximum %arg363, %arg364 : tensor<f32>
      stablehlo.return %3554 : tensor<f32>
    }
    %962 = stablehlo.broadcast_in_dim %961, dims = [0, 1, 2] : (tensor<1x32x2048xf32>) -> tensor<1x32x2048x2048xf32>
    %963 = stablehlo.subtract %960, %962 : tensor<1x32x2048x2048xf32>
    %964 = stablehlo.exponential %963 : tensor<1x32x2048x2048xf32>
    %965 = stablehlo.reduce(%964 init: %7) across dimensions = [3] : (tensor<1x32x2048x2048xf32>, tensor<f32>) -> tensor<1x32x2048xf32>
     reducer(%arg363: tensor<f32>, %arg364: tensor<f32>)  {
      %3554 = stablehlo.add %arg363, %arg364 : tensor<f32>
      stablehlo.return %3554 : tensor<f32>
    }
    %966 = stablehlo.broadcast_in_dim %965, dims = [0, 1, 2] : (tensor<1x32x2048xf32>) -> tensor<1x32x2048x2048xf32>
    %967 = stablehlo.divide %964, %966 : tensor<1x32x2048x2048xf32>
    %968 = stablehlo.reshape %967 : (tensor<1x32x2048x2048xf32>) -> tensor<32x2048x2048xf32>
    %969 = stablehlo.compare  LT, %arg198, %2 : (tensor<2048xi64>, tensor<2048xi64>) -> tensor<2048xi1>
    %970 = stablehlo.broadcast_in_dim %arg199, dims = [] : (tensor<i64>) -> tensor<2048xi64>
    %971 = stablehlo.add %arg198, %970 : tensor<2048xi64>
    %972 = stablehlo.select %969, %971, %arg198 : tensor<2048xi1>, tensor<2048xi64>
    %973 = stablehlo.reshape %972 : (tensor<2048xi64>) -> tensor<2048x1xi64>
    %974 = stablehlo.transpose %arg146, dims = [1, 0] {result_layout = dense<[0, 1]> : tensor<2xindex>, xla_shape = "f32[4096,4096]{0,1}"} : (tensor<4096x4096xf32>) -> tensor<4096x4096xf32>
    %975 = stablehlo.dot %911, %974, precision = [DEFAULT, DEFAULT] : (tensor<2048x4096xf32>, tensor<4096x4096xf32>) -> tensor<2048x4096xf32>
    %976 = stablehlo.reshape %975 : (tensor<2048x4096xf32>) -> tensor<2048x32x128xf32>
    %977 = "stablehlo.scatter"(%arg243, %973, %976) ({
    ^bb0(%arg363: tensor<f32>, %arg364: tensor<f32>):
      stablehlo.return %arg364 : tensor<f32>
    }) {indices_are_sorted = false, scatter_dimension_numbers = #stablehlo.scatter<update_window_dims = [1, 2], inserted_window_dims = [0], scatter_dims_to_operand_dims = [0], index_vector_dim = 1>, unique_indices = false} : (tensor<2304x32x128xf32>, tensor<2048x1xi64>, tensor<2048x32x128xf32>) -> tensor<2304x32x128xf32>
    %978 = stablehlo.convert %arg7 : (tensor<2048xi64>) -> tensor<2048xui32>
    %979 = "stablehlo.gather"(%977, %978) {dimension_numbers = #stablehlo.gather<offset_dims = [1, 2], collapsed_slice_dims = [0], start_index_map = [0], index_vector_dim = 1>, indices_are_sorted = false, slice_sizes = dense<[1, 32, 128]> : tensor<3xi64>} : (tensor<2304x32x128xf32>, tensor<2048xui32>) -> tensor<2048x32x128xf32>
    %980 = stablehlo.transpose %979, dims = [1, 0, 2] {result_layout = dense<[2, 0, 1]> : tensor<3xindex>, xla_shape = "f32[32,2048,128]{2,0,1}"} : (tensor<2048x32x128xf32>) -> tensor<32x2048x128xf32>
    %981 = stablehlo.dot_general %968, %980, batching_dims = [0] x [0], contracting_dims = [2] x [1], precision = [DEFAULT, DEFAULT] : (tensor<32x2048x2048xf32>, tensor<32x2048x128xf32>) -> tensor<32x2048x128xf32>
    %982 = stablehlo.reshape %981 : (tensor<32x2048x128xf32>) -> tensor<1x32x2048x128xf32>
    %983 = stablehlo.transpose %982, dims = [0, 2, 1, 3] {result_layout = dense<[3, 1, 2, 0]> : tensor<4xindex>, xla_shape = "f32[1,2048,32,128]{3,1,2,0}"} : (tensor<1x32x2048x128xf32>) -> tensor<1x2048x32x128xf32>
    %984 = stablehlo.reshape %983 : (tensor<1x2048x32x128xf32>) -> tensor<2048x4096xf32>
    %985 = stablehlo.transpose %arg145, dims = [1, 0] {result_layout = dense<[0, 1]> : tensor<2xindex>, xla_shape = "f32[4096,4096]{0,1}"} : (tensor<4096x4096xf32>) -> tensor<4096x4096xf32>
    %986 = stablehlo.dot %984, %985, precision = [DEFAULT, DEFAULT] : (tensor<2048x4096xf32>, tensor<4096x4096xf32>) -> tensor<2048x4096xf32>
    %987 = stablehlo.add %899, %986 : tensor<2048x4096xf32>
    %988 = stablehlo.power %987, %1 : tensor<2048x4096xf32>
    %989 = stablehlo.reduce(%988 init: %7) across dimensions = [1] : (tensor<2048x4096xf32>, tensor<f32>) -> tensor<2048xf32>
     reducer(%arg363: tensor<f32>, %arg364: tensor<f32>)  {
      %3554 = stablehlo.add %arg363, %arg364 : tensor<f32>
      stablehlo.return %3554 : tensor<f32>
    }
    %990 = stablehlo.multiply %989, %0 : tensor<2048xf32>
    %991 = stablehlo.reshape %990 : (tensor<2048xf32>) -> tensor<2048x1xf32>
    %992 = stablehlo.broadcast_in_dim %arg2, dims = [] : (tensor<f32>) -> tensor<2048x1xf32>
    %993 = stablehlo.add %991, %992 : tensor<2048x1xf32>
    %994 = stablehlo.rsqrt %993 : tensor<2048x1xf32>
    %995 = stablehlo.reshape %994 : (tensor<2048x1xf32>) -> tensor<2048xf32>
    %996 = stablehlo.broadcast_in_dim %995, dims = [0] : (tensor<2048xf32>) -> tensor<2048x4096xf32>
    %997 = stablehlo.multiply %987, %996 : tensor<2048x4096xf32>
    %998 = stablehlo.broadcast_in_dim %arg144, dims = [1] : (tensor<4096xf32>) -> tensor<2048x4096xf32>
    %999 = stablehlo.multiply %997, %998 : tensor<2048x4096xf32>
    %1000 = stablehlo.transpose %arg247, dims = [1, 0] {result_layout = dense<[0, 1]> : tensor<2xindex>, xla_shape = "f32[4096,11008]{0,1}"} : (tensor<11008x4096xf32>) -> tensor<4096x11008xf32>
    %1001 = stablehlo.dot %999, %1000, precision = [DEFAULT, DEFAULT] : (tensor<2048x4096xf32>, tensor<4096x11008xf32>) -> tensor<2048x11008xf32>
    %1002 = stablehlo.logistic %1001 : tensor<2048x11008xf32>
    %1003 = stablehlo.multiply %1001, %1002 : tensor<2048x11008xf32>
    %1004 = stablehlo.transpose %arg143, dims = [1, 0] {result_layout = dense<[0, 1]> : tensor<2xindex>, xla_shape = "f32[4096,11008]{0,1}"} : (tensor<11008x4096xf32>) -> tensor<4096x11008xf32>
    %1005 = stablehlo.dot %999, %1004, precision = [DEFAULT, DEFAULT] : (tensor<2048x4096xf32>, tensor<4096x11008xf32>) -> tensor<2048x11008xf32>
    %1006 = stablehlo.multiply %1003, %1005 : tensor<2048x11008xf32>
    %1007 = stablehlo.transpose %arg142, dims = [1, 0] {result_layout = dense<[0, 1]> : tensor<2xindex>, xla_shape = "f32[11008,4096]{0,1}"} : (tensor<4096x11008xf32>) -> tensor<11008x4096xf32>
    %1008 = stablehlo.dot %1006, %1007, precision = [DEFAULT, DEFAULT] : (tensor<2048x11008xf32>, tensor<11008x4096xf32>) -> tensor<2048x4096xf32>
    %1009 = stablehlo.add %987, %1008 : tensor<2048x4096xf32>
    %1010 = stablehlo.power %1009, %1 : tensor<2048x4096xf32>
    %1011 = stablehlo.reduce(%1010 init: %7) across dimensions = [1] : (tensor<2048x4096xf32>, tensor<f32>) -> tensor<2048xf32>
     reducer(%arg363: tensor<f32>, %arg364: tensor<f32>)  {
      %3554 = stablehlo.add %arg363, %arg364 : tensor<f32>
      stablehlo.return %3554 : tensor<f32>
    }
    %1012 = stablehlo.multiply %1011, %0 : tensor<2048xf32>
    %1013 = stablehlo.reshape %1012 : (tensor<2048xf32>) -> tensor<2048x1xf32>
    %1014 = stablehlo.broadcast_in_dim %arg2, dims = [] : (tensor<f32>) -> tensor<2048x1xf32>
    %1015 = stablehlo.add %1013, %1014 : tensor<2048x1xf32>
    %1016 = stablehlo.rsqrt %1015 : tensor<2048x1xf32>
    %1017 = stablehlo.reshape %1016 : (tensor<2048x1xf32>) -> tensor<2048xf32>
    %1018 = stablehlo.broadcast_in_dim %1017, dims = [0] : (tensor<2048xf32>) -> tensor<2048x4096xf32>
    %1019 = stablehlo.multiply %1009, %1018 : tensor<2048x4096xf32>
    %1020 = stablehlo.broadcast_in_dim %arg141, dims = [1] : (tensor<4096xf32>) -> tensor<2048x4096xf32>
    %1021 = stablehlo.multiply %1019, %1020 : tensor<2048x4096xf32>
    %1022 = stablehlo.transpose %arg251, dims = [1, 0] {result_layout = dense<[0, 1]> : tensor<2xindex>, xla_shape = "f32[4096,4096]{0,1}"} : (tensor<4096x4096xf32>) -> tensor<4096x4096xf32>
    %1023 = stablehlo.dot %1021, %1022, precision = [DEFAULT, DEFAULT] : (tensor<2048x4096xf32>, tensor<4096x4096xf32>) -> tensor<2048x4096xf32>
    %1024 = stablehlo.reshape %1023 : (tensor<2048x4096xf32>) -> tensor<2048x32x64x2xf32>
    %1025 = stablehlo.slice %1024 [0:2048, 0:32, 0:64, 0:1] : (tensor<2048x32x64x2xf32>) -> tensor<2048x32x64x1xf32>
    %1026 = stablehlo.reshape %1025 : (tensor<2048x32x64x1xf32>) -> tensor<2048x32x64xf32>
    %1027 = stablehlo.slice %1024 [0:2048, 0:32, 0:64, 1:2] : (tensor<2048x32x64x2xf32>) -> tensor<2048x32x64x1xf32>
    %1028 = stablehlo.reshape %1027 : (tensor<2048x32x64x1xf32>) -> tensor<2048x32x64xf32>
    %1029 = stablehlo.complex %1026, %1028 : tensor<2048x32x64xcomplex<f32>>
    %1030 = stablehlo.broadcast_in_dim %31, dims = [0, 2] : (tensor<2048x64xcomplex<f32>>) -> tensor<2048x32x64xcomplex<f32>>
    %1031 = stablehlo.multiply %1029, %1030 : tensor<2048x32x64xcomplex<f32>>
    %1032 = stablehlo.real %1031 : (tensor<2048x32x64xcomplex<f32>>) -> tensor<2048x32x64xf32>
    %1033 = stablehlo.reshape %1032 : (tensor<2048x32x64xf32>) -> tensor<2048x32x64x1xf32>
    %1034 = stablehlo.imag %1031 : (tensor<2048x32x64xcomplex<f32>>) -> tensor<2048x32x64xf32>
    %1035 = stablehlo.reshape %1034 : (tensor<2048x32x64xf32>) -> tensor<2048x32x64x1xf32>
    %1036 = stablehlo.concatenate %1033, %1035, dim = 3 : (tensor<2048x32x64x1xf32>, tensor<2048x32x64x1xf32>) -> tensor<2048x32x64x2xf32>
    %1037 = stablehlo.reshape %1036 : (tensor<2048x32x64x2xf32>) -> tensor<2048x32x128xf32>
    %1038 = stablehlo.transpose %1037, dims = [1, 0, 2] {result_layout = dense<[2, 0, 1]> : tensor<3xindex>, xla_shape = "f32[32,2048,128]{2,0,1}"} : (tensor<2048x32x128xf32>) -> tensor<32x2048x128xf32>
    %1039 = stablehlo.compare  LT, %arg198, %2 : (tensor<2048xi64>, tensor<2048xi64>) -> tensor<2048xi1>
    %1040 = stablehlo.broadcast_in_dim %arg199, dims = [] : (tensor<i64>) -> tensor<2048xi64>
    %1041 = stablehlo.add %arg198, %1040 : tensor<2048xi64>
    %1042 = stablehlo.select %1039, %1041, %arg198 : tensor<2048xi1>, tensor<2048xi64>
    %1043 = stablehlo.reshape %1042 : (tensor<2048xi64>) -> tensor<2048x1xi64>
    %1044 = stablehlo.transpose %arg249, dims = [1, 0] {result_layout = dense<[0, 1]> : tensor<2xindex>, xla_shape = "f32[4096,4096]{0,1}"} : (tensor<4096x4096xf32>) -> tensor<4096x4096xf32>
    %1045 = stablehlo.dot %1021, %1044, precision = [DEFAULT, DEFAULT] : (tensor<2048x4096xf32>, tensor<4096x4096xf32>) -> tensor<2048x4096xf32>
    %1046 = stablehlo.reshape %1045 : (tensor<2048x4096xf32>) -> tensor<2048x32x64x2xf32>
    %1047 = stablehlo.slice %1046 [0:2048, 0:32, 0:64, 0:1] : (tensor<2048x32x64x2xf32>) -> tensor<2048x32x64x1xf32>
    %1048 = stablehlo.reshape %1047 : (tensor<2048x32x64x1xf32>) -> tensor<2048x32x64xf32>
    %1049 = stablehlo.slice %1046 [0:2048, 0:32, 0:64, 1:2] : (tensor<2048x32x64x2xf32>) -> tensor<2048x32x64x1xf32>
    %1050 = stablehlo.reshape %1049 : (tensor<2048x32x64x1xf32>) -> tensor<2048x32x64xf32>
    %1051 = stablehlo.complex %1048, %1050 : tensor<2048x32x64xcomplex<f32>>
    %1052 = stablehlo.broadcast_in_dim %31, dims = [0, 2] : (tensor<2048x64xcomplex<f32>>) -> tensor<2048x32x64xcomplex<f32>>
    %1053 = stablehlo.multiply %1051, %1052 : tensor<2048x32x64xcomplex<f32>>
    %1054 = stablehlo.real %1053 : (tensor<2048x32x64xcomplex<f32>>) -> tensor<2048x32x64xf32>
    %1055 = stablehlo.reshape %1054 : (tensor<2048x32x64xf32>) -> tensor<2048x32x64x1xf32>
    %1056 = stablehlo.imag %1053 : (tensor<2048x32x64xcomplex<f32>>) -> tensor<2048x32x64xf32>
    %1057 = stablehlo.reshape %1056 : (tensor<2048x32x64xf32>) -> tensor<2048x32x64x1xf32>
    %1058 = stablehlo.concatenate %1055, %1057, dim = 3 : (tensor<2048x32x64x1xf32>, tensor<2048x32x64x1xf32>) -> tensor<2048x32x64x2xf32>
    %1059 = stablehlo.reshape %1058 : (tensor<2048x32x64x2xf32>) -> tensor<2048x32x128xf32>
    %1060 = "stablehlo.scatter"(%arg250, %1043, %1059) ({
    ^bb0(%arg363: tensor<f32>, %arg364: tensor<f32>):
      stablehlo.return %arg364 : tensor<f32>
    }) {indices_are_sorted = false, scatter_dimension_numbers = #stablehlo.scatter<update_window_dims = [1, 2], inserted_window_dims = [0], scatter_dims_to_operand_dims = [0], index_vector_dim = 1>, unique_indices = false} : (tensor<2304x32x128xf32>, tensor<2048x1xi64>, tensor<2048x32x128xf32>) -> tensor<2304x32x128xf32>
    %1061 = stablehlo.convert %arg7 : (tensor<2048xi64>) -> tensor<2048xui32>
    %1062 = "stablehlo.gather"(%1060, %1061) {dimension_numbers = #stablehlo.gather<offset_dims = [1, 2], collapsed_slice_dims = [0], start_index_map = [0], index_vector_dim = 1>, indices_are_sorted = false, slice_sizes = dense<[1, 32, 128]> : tensor<3xi64>} : (tensor<2304x32x128xf32>, tensor<2048xui32>) -> tensor<2048x32x128xf32>
    %1063 = stablehlo.transpose %1062, dims = [1, 2, 0] : (tensor<2048x32x128xf32>) -> tensor<32x128x2048xf32>
    %1064 = stablehlo.dot_general %1038, %1063, batching_dims = [0] x [0], contracting_dims = [2] x [1], precision = [DEFAULT, DEFAULT] : (tensor<32x2048x128xf32>, tensor<32x128x2048xf32>) -> tensor<32x2048x2048xf32>
    %1065 = stablehlo.broadcast_in_dim %arg202, dims = [] : (tensor<f32>) -> tensor<32x2048x2048xf32>
    %1066 = stablehlo.divide %1064, %1065 : tensor<32x2048x2048xf32>
    %1067 = stablehlo.reshape %1066 : (tensor<32x2048x2048xf32>) -> tensor<1x32x2048x2048xf32>
    %1068 = stablehlo.reshape %77 : (tensor<1x1x2048x2048xf32>) -> tensor<1x2048x2048xf32>
    %1069 = stablehlo.broadcast_in_dim %1068, dims = [0, 2, 3] : (tensor<1x2048x2048xf32>) -> tensor<1x32x2048x2048xf32>
    %1070 = stablehlo.add %1067, %1069 : tensor<1x32x2048x2048xf32>
    %1071 = stablehlo.reduce(%1070 init: %6) across dimensions = [3] : (tensor<1x32x2048x2048xf32>, tensor<f32>) -> tensor<1x32x2048xf32>
     reducer(%arg363: tensor<f32>, %arg364: tensor<f32>)  {
      %3554 = stablehlo.maximum %arg363, %arg364 : tensor<f32>
      stablehlo.return %3554 : tensor<f32>
    }
    %1072 = stablehlo.broadcast_in_dim %1071, dims = [0, 1, 2] : (tensor<1x32x2048xf32>) -> tensor<1x32x2048x2048xf32>
    %1073 = stablehlo.subtract %1070, %1072 : tensor<1x32x2048x2048xf32>
    %1074 = stablehlo.exponential %1073 : tensor<1x32x2048x2048xf32>
    %1075 = stablehlo.reduce(%1074 init: %7) across dimensions = [3] : (tensor<1x32x2048x2048xf32>, tensor<f32>) -> tensor<1x32x2048xf32>
     reducer(%arg363: tensor<f32>, %arg364: tensor<f32>)  {
      %3554 = stablehlo.add %arg363, %arg364 : tensor<f32>
      stablehlo.return %3554 : tensor<f32>
    }
    %1076 = stablehlo.broadcast_in_dim %1075, dims = [0, 1, 2] : (tensor<1x32x2048xf32>) -> tensor<1x32x2048x2048xf32>
    %1077 = stablehlo.divide %1074, %1076 : tensor<1x32x2048x2048xf32>
    %1078 = stablehlo.reshape %1077 : (tensor<1x32x2048x2048xf32>) -> tensor<32x2048x2048xf32>
    %1079 = stablehlo.compare  LT, %arg198, %2 : (tensor<2048xi64>, tensor<2048xi64>) -> tensor<2048xi1>
    %1080 = stablehlo.broadcast_in_dim %arg199, dims = [] : (tensor<i64>) -> tensor<2048xi64>
    %1081 = stablehlo.add %arg198, %1080 : tensor<2048xi64>
    %1082 = stablehlo.select %1079, %1081, %arg198 : tensor<2048xi1>, tensor<2048xi64>
    %1083 = stablehlo.reshape %1082 : (tensor<2048xi64>) -> tensor<2048x1xi64>
    %1084 = stablehlo.transpose %arg140, dims = [1, 0] {result_layout = dense<[0, 1]> : tensor<2xindex>, xla_shape = "f32[4096,4096]{0,1}"} : (tensor<4096x4096xf32>) -> tensor<4096x4096xf32>
    %1085 = stablehlo.dot %1021, %1084, precision = [DEFAULT, DEFAULT] : (tensor<2048x4096xf32>, tensor<4096x4096xf32>) -> tensor<2048x4096xf32>
    %1086 = stablehlo.reshape %1085 : (tensor<2048x4096xf32>) -> tensor<2048x32x128xf32>
    %1087 = "stablehlo.scatter"(%arg248, %1083, %1086) ({
    ^bb0(%arg363: tensor<f32>, %arg364: tensor<f32>):
      stablehlo.return %arg364 : tensor<f32>
    }) {indices_are_sorted = false, scatter_dimension_numbers = #stablehlo.scatter<update_window_dims = [1, 2], inserted_window_dims = [0], scatter_dims_to_operand_dims = [0], index_vector_dim = 1>, unique_indices = false} : (tensor<2304x32x128xf32>, tensor<2048x1xi64>, tensor<2048x32x128xf32>) -> tensor<2304x32x128xf32>
    %1088 = stablehlo.convert %arg7 : (tensor<2048xi64>) -> tensor<2048xui32>
    %1089 = "stablehlo.gather"(%1087, %1088) {dimension_numbers = #stablehlo.gather<offset_dims = [1, 2], collapsed_slice_dims = [0], start_index_map = [0], index_vector_dim = 1>, indices_are_sorted = false, slice_sizes = dense<[1, 32, 128]> : tensor<3xi64>} : (tensor<2304x32x128xf32>, tensor<2048xui32>) -> tensor<2048x32x128xf32>
    %1090 = stablehlo.transpose %1089, dims = [1, 0, 2] {result_layout = dense<[2, 0, 1]> : tensor<3xindex>, xla_shape = "f32[32,2048,128]{2,0,1}"} : (tensor<2048x32x128xf32>) -> tensor<32x2048x128xf32>
    %1091 = stablehlo.dot_general %1078, %1090, batching_dims = [0] x [0], contracting_dims = [2] x [1], precision = [DEFAULT, DEFAULT] : (tensor<32x2048x2048xf32>, tensor<32x2048x128xf32>) -> tensor<32x2048x128xf32>
    %1092 = stablehlo.reshape %1091 : (tensor<32x2048x128xf32>) -> tensor<1x32x2048x128xf32>
    %1093 = stablehlo.transpose %1092, dims = [0, 2, 1, 3] {result_layout = dense<[3, 1, 2, 0]> : tensor<4xindex>, xla_shape = "f32[1,2048,32,128]{3,1,2,0}"} : (tensor<1x32x2048x128xf32>) -> tensor<1x2048x32x128xf32>
    %1094 = stablehlo.reshape %1093 : (tensor<1x2048x32x128xf32>) -> tensor<2048x4096xf32>
    %1095 = stablehlo.transpose %arg139, dims = [1, 0] {result_layout = dense<[0, 1]> : tensor<2xindex>, xla_shape = "f32[4096,4096]{0,1}"} : (tensor<4096x4096xf32>) -> tensor<4096x4096xf32>
    %1096 = stablehlo.dot %1094, %1095, precision = [DEFAULT, DEFAULT] : (tensor<2048x4096xf32>, tensor<4096x4096xf32>) -> tensor<2048x4096xf32>
    %1097 = stablehlo.add %1009, %1096 : tensor<2048x4096xf32>
    %1098 = stablehlo.power %1097, %1 : tensor<2048x4096xf32>
    %1099 = stablehlo.reduce(%1098 init: %7) across dimensions = [1] : (tensor<2048x4096xf32>, tensor<f32>) -> tensor<2048xf32>
     reducer(%arg363: tensor<f32>, %arg364: tensor<f32>)  {
      %3554 = stablehlo.add %arg363, %arg364 : tensor<f32>
      stablehlo.return %3554 : tensor<f32>
    }
    %1100 = stablehlo.multiply %1099, %0 : tensor<2048xf32>
    %1101 = stablehlo.reshape %1100 : (tensor<2048xf32>) -> tensor<2048x1xf32>
    %1102 = stablehlo.broadcast_in_dim %arg2, dims = [] : (tensor<f32>) -> tensor<2048x1xf32>
    %1103 = stablehlo.add %1101, %1102 : tensor<2048x1xf32>
    %1104 = stablehlo.rsqrt %1103 : tensor<2048x1xf32>
    %1105 = stablehlo.reshape %1104 : (tensor<2048x1xf32>) -> tensor<2048xf32>
    %1106 = stablehlo.broadcast_in_dim %1105, dims = [0] : (tensor<2048xf32>) -> tensor<2048x4096xf32>
    %1107 = stablehlo.multiply %1097, %1106 : tensor<2048x4096xf32>
    %1108 = stablehlo.broadcast_in_dim %arg138, dims = [1] : (tensor<4096xf32>) -> tensor<2048x4096xf32>
    %1109 = stablehlo.multiply %1107, %1108 : tensor<2048x4096xf32>
    %1110 = stablehlo.transpose %arg252, dims = [1, 0] {result_layout = dense<[0, 1]> : tensor<2xindex>, xla_shape = "f32[4096,11008]{0,1}"} : (tensor<11008x4096xf32>) -> tensor<4096x11008xf32>
    %1111 = stablehlo.dot %1109, %1110, precision = [DEFAULT, DEFAULT] : (tensor<2048x4096xf32>, tensor<4096x11008xf32>) -> tensor<2048x11008xf32>
    %1112 = stablehlo.logistic %1111 : tensor<2048x11008xf32>
    %1113 = stablehlo.multiply %1111, %1112 : tensor<2048x11008xf32>
    %1114 = stablehlo.transpose %arg137, dims = [1, 0] {result_layout = dense<[0, 1]> : tensor<2xindex>, xla_shape = "f32[4096,11008]{0,1}"} : (tensor<11008x4096xf32>) -> tensor<4096x11008xf32>
    %1115 = stablehlo.dot %1109, %1114, precision = [DEFAULT, DEFAULT] : (tensor<2048x4096xf32>, tensor<4096x11008xf32>) -> tensor<2048x11008xf32>
    %1116 = stablehlo.multiply %1113, %1115 : tensor<2048x11008xf32>
    %1117 = stablehlo.transpose %arg136, dims = [1, 0] {result_layout = dense<[0, 1]> : tensor<2xindex>, xla_shape = "f32[11008,4096]{0,1}"} : (tensor<4096x11008xf32>) -> tensor<11008x4096xf32>
    %1118 = stablehlo.dot %1116, %1117, precision = [DEFAULT, DEFAULT] : (tensor<2048x11008xf32>, tensor<11008x4096xf32>) -> tensor<2048x4096xf32>
    %1119 = stablehlo.add %1097, %1118 : tensor<2048x4096xf32>
    %1120 = stablehlo.power %1119, %1 : tensor<2048x4096xf32>
    %1121 = stablehlo.reduce(%1120 init: %7) across dimensions = [1] : (tensor<2048x4096xf32>, tensor<f32>) -> tensor<2048xf32>
     reducer(%arg363: tensor<f32>, %arg364: tensor<f32>)  {
      %3554 = stablehlo.add %arg363, %arg364 : tensor<f32>
      stablehlo.return %3554 : tensor<f32>
    }
    %1122 = stablehlo.multiply %1121, %0 : tensor<2048xf32>
    %1123 = stablehlo.reshape %1122 : (tensor<2048xf32>) -> tensor<2048x1xf32>
    %1124 = stablehlo.broadcast_in_dim %arg2, dims = [] : (tensor<f32>) -> tensor<2048x1xf32>
    %1125 = stablehlo.add %1123, %1124 : tensor<2048x1xf32>
    %1126 = stablehlo.rsqrt %1125 : tensor<2048x1xf32>
    %1127 = stablehlo.reshape %1126 : (tensor<2048x1xf32>) -> tensor<2048xf32>
    %1128 = stablehlo.broadcast_in_dim %1127, dims = [0] : (tensor<2048xf32>) -> tensor<2048x4096xf32>
    %1129 = stablehlo.multiply %1119, %1128 : tensor<2048x4096xf32>
    %1130 = stablehlo.broadcast_in_dim %arg135, dims = [1] : (tensor<4096xf32>) -> tensor<2048x4096xf32>
    %1131 = stablehlo.multiply %1129, %1130 : tensor<2048x4096xf32>
    %1132 = stablehlo.transpose %arg256, dims = [1, 0] {result_layout = dense<[0, 1]> : tensor<2xindex>, xla_shape = "f32[4096,4096]{0,1}"} : (tensor<4096x4096xf32>) -> tensor<4096x4096xf32>
    %1133 = stablehlo.dot %1131, %1132, precision = [DEFAULT, DEFAULT] : (tensor<2048x4096xf32>, tensor<4096x4096xf32>) -> tensor<2048x4096xf32>
    %1134 = stablehlo.reshape %1133 : (tensor<2048x4096xf32>) -> tensor<2048x32x64x2xf32>
    %1135 = stablehlo.slice %1134 [0:2048, 0:32, 0:64, 0:1] : (tensor<2048x32x64x2xf32>) -> tensor<2048x32x64x1xf32>
    %1136 = stablehlo.reshape %1135 : (tensor<2048x32x64x1xf32>) -> tensor<2048x32x64xf32>
    %1137 = stablehlo.slice %1134 [0:2048, 0:32, 0:64, 1:2] : (tensor<2048x32x64x2xf32>) -> tensor<2048x32x64x1xf32>
…
    %3165 = stablehlo.reduce(%3164 init: %7) across dimensions = [3] : (tensor<1x32x2048x2048xf32>, tensor<f32>) -> tensor<1x32x2048xf32>
     reducer(%arg363: tensor<f32>, %arg364: tensor<f32>)  {
      %3554 = stablehlo.add %arg363, %arg364 : tensor<f32>
      stablehlo.return %3554 : tensor<f32>
    }
    %3166 = stablehlo.broadcast_in_dim %3165, dims = [0, 1, 2] : (tensor<1x32x2048xf32>) -> tensor<1x32x2048x2048xf32>
    %3167 = stablehlo.divide %3164, %3166 : tensor<1x32x2048x2048xf32>
    %3168 = stablehlo.reshape %3167 : (tensor<1x32x2048x2048xf32>) -> tensor<32x2048x2048xf32>
    %3169 = stablehlo.compare  LT, %arg198, %2 : (tensor<2048xi64>, tensor<2048xi64>) -> tensor<2048xi1>
    %3170 = stablehlo.broadcast_in_dim %arg199, dims = [] : (tensor<i64>) -> tensor<2048xi64>
    %3171 = stablehlo.add %arg198, %3170 : tensor<2048xi64>
    %3172 = stablehlo.select %3169, %3171, %arg198 : tensor<2048xi1>, tensor<2048xi64>
    %3173 = stablehlo.reshape %3172 : (tensor<2048xi64>) -> tensor<2048x1xi64>
    %3174 = stablehlo.transpose %arg26, dims = [1, 0] {result_layout = dense<[0, 1]> : tensor<2xindex>, xla_shape = "f32[4096,4096]{0,1}"} : (tensor<4096x4096xf32>) -> tensor<4096x4096xf32>
    %3175 = stablehlo.dot %3111, %3174, precision = [DEFAULT, DEFAULT] : (tensor<2048x4096xf32>, tensor<4096x4096xf32>) -> tensor<2048x4096xf32>
    %3176 = stablehlo.reshape %3175 : (tensor<2048x4096xf32>) -> tensor<2048x32x128xf32>
    %3177 = "stablehlo.scatter"(%arg343, %3173, %3176) ({
    ^bb0(%arg363: tensor<f32>, %arg364: tensor<f32>):
      stablehlo.return %arg364 : tensor<f32>
    }) {indices_are_sorted = false, scatter_dimension_numbers = #stablehlo.scatter<update_window_dims = [1, 2], inserted_window_dims = [0], scatter_dims_to_operand_dims = [0], index_vector_dim = 1>, unique_indices = false} : (tensor<2304x32x128xf32>, tensor<2048x1xi64>, tensor<2048x32x128xf32>) -> tensor<2304x32x128xf32>
    %3178 = stablehlo.convert %arg7 : (tensor<2048xi64>) -> tensor<2048xui32>
    %3179 = "stablehlo.gather"(%3177, %3178) {dimension_numbers = #stablehlo.gather<offset_dims = [1, 2], collapsed_slice_dims = [0], start_index_map = [0], index_vector_dim = 1>, indices_are_sorted = false, slice_sizes = dense<[1, 32, 128]> : tensor<3xi64>} : (tensor<2304x32x128xf32>, tensor<2048xui32>) -> tensor<2048x32x128xf32>
    %3180 = stablehlo.transpose %3179, dims = [1, 0, 2] {result_layout = dense<[2, 0, 1]> : tensor<3xindex>, xla_shape = "f32[32,2048,128]{2,0,1}"} : (tensor<2048x32x128xf32>) -> tensor<32x2048x128xf32>
    %3181 = stablehlo.dot_general %3168, %3180, batching_dims = [0] x [0], contracting_dims = [2] x [1], precision = [DEFAULT, DEFAULT] : (tensor<32x2048x2048xf32>, tensor<32x2048x128xf32>) -> tensor<32x2048x128xf32>
    %3182 = stablehlo.reshape %3181 : (tensor<32x2048x128xf32>) -> tensor<1x32x2048x128xf32>
    %3183 = stablehlo.transpose %3182, dims = [0, 2, 1, 3] {result_layout = dense<[3, 1, 2, 0]> : tensor<4xindex>, xla_shape = "f32[1,2048,32,128]{3,1,2,0}"} : (tensor<1x32x2048x128xf32>) -> tensor<1x2048x32x128xf32>
    %3184 = stablehlo.reshape %3183 : (tensor<1x2048x32x128xf32>) -> tensor<2048x4096xf32>
    %3185 = stablehlo.transpose %arg25, dims = [1, 0] {result_layout = dense<[0, 1]> : tensor<2xindex>, xla_shape = "f32[4096,4096]{0,1}"} : (tensor<4096x4096xf32>) -> tensor<4096x4096xf32>
    %3186 = stablehlo.dot %3184, %3185, precision = [DEFAULT, DEFAULT] : (tensor<2048x4096xf32>, tensor<4096x4096xf32>) -> tensor<2048x4096xf32>
    %3187 = stablehlo.add %3099, %3186 : tensor<2048x4096xf32>
    %3188 = stablehlo.power %3187, %1 : tensor<2048x4096xf32>
    %3189 = stablehlo.reduce(%3188 init: %7) across dimensions = [1] : (tensor<2048x4096xf32>, tensor<f32>) -> tensor<2048xf32>
     reducer(%arg363: tensor<f32>, %arg364: tensor<f32>)  {
      %3554 = stablehlo.add %arg363, %arg364 : tensor<f32>
      stablehlo.return %3554 : tensor<f32>
    }
    %3190 = stablehlo.multiply %3189, %0 : tensor<2048xf32>
    %3191 = stablehlo.reshape %3190 : (tensor<2048xf32>) -> tensor<2048x1xf32>
    %3192 = stablehlo.broadcast_in_dim %arg2, dims = [] : (tensor<f32>) -> tensor<2048x1xf32>
    %3193 = stablehlo.add %3191, %3192 : tensor<2048x1xf32>
    %3194 = stablehlo.rsqrt %3193 : tensor<2048x1xf32>
    %3195 = stablehlo.reshape %3194 : (tensor<2048x1xf32>) -> tensor<2048xf32>
    %3196 = stablehlo.broadcast_in_dim %3195, dims = [0] : (tensor<2048xf32>) -> tensor<2048x4096xf32>
    %3197 = stablehlo.multiply %3187, %3196 : tensor<2048x4096xf32>
    %3198 = stablehlo.broadcast_in_dim %arg24, dims = [1] : (tensor<4096xf32>) -> tensor<2048x4096xf32>
    %3199 = stablehlo.multiply %3197, %3198 : tensor<2048x4096xf32>
    %3200 = stablehlo.transpose %arg347, dims = [1, 0] {result_layout = dense<[0, 1]> : tensor<2xindex>, xla_shape = "f32[4096,11008]{0,1}"} : (tensor<11008x4096xf32>) -> tensor<4096x11008xf32>
    %3201 = stablehlo.dot %3199, %3200, precision = [DEFAULT, DEFAULT] : (tensor<2048x4096xf32>, tensor<4096x11008xf32>) -> tensor<2048x11008xf32>
    %3202 = stablehlo.logistic %3201 : tensor<2048x11008xf32>
    %3203 = stablehlo.multiply %3201, %3202 : tensor<2048x11008xf32>
    %3204 = stablehlo.transpose %arg23, dims = [1, 0] {result_layout = dense<[0, 1]> : tensor<2xindex>, xla_shape = "f32[4096,11008]{0,1}"} : (tensor<11008x4096xf32>) -> tensor<4096x11008xf32>
    %3205 = stablehlo.dot %3199, %3204, precision = [DEFAULT, DEFAULT] : (tensor<2048x4096xf32>, tensor<4096x11008xf32>) -> tensor<2048x11008xf32>
    %3206 = stablehlo.multiply %3203, %3205 : tensor<2048x11008xf32>
    %3207 = stablehlo.transpose %arg22, dims = [1, 0] {result_layout = dense<[0, 1]> : tensor<2xindex>, xla_shape = "f32[11008,4096]{0,1}"} : (tensor<4096x11008xf32>) -> tensor<11008x4096xf32>
    %3208 = stablehlo.dot %3206, %3207, precision = [DEFAULT, DEFAULT] : (tensor<2048x11008xf32>, tensor<11008x4096xf32>) -> tensor<2048x4096xf32>
    %3209 = stablehlo.add %3187, %3208 : tensor<2048x4096xf32>
    %3210 = stablehlo.power %3209, %1 : tensor<2048x4096xf32>
    %3211 = stablehlo.reduce(%3210 init: %7) across dimensions = [1] : (tensor<2048x4096xf32>, tensor<f32>) -> tensor<2048xf32>
     reducer(%arg363: tensor<f32>, %arg364: tensor<f32>)  {
      %3554 = stablehlo.add %arg363, %arg364 : tensor<f32>
      stablehlo.return %3554 : tensor<f32>
    }
    %3212 = stablehlo.multiply %3211, %0 : tensor<2048xf32>
    %3213 = stablehlo.reshape %3212 : (tensor<2048xf32>) -> tensor<2048x1xf32>
    %3214 = stablehlo.broadcast_in_dim %arg2, dims = [] : (tensor<f32>) -> tensor<2048x1xf32>
    %3215 = stablehlo.add %3213, %3214 : tensor<2048x1xf32>
    %3216 = stablehlo.rsqrt %3215 : tensor<2048x1xf32>
    %3217 = stablehlo.reshape %3216 : (tensor<2048x1xf32>) -> tensor<2048xf32>
    %3218 = stablehlo.broadcast_in_dim %3217, dims = [0] : (tensor<2048xf32>) -> tensor<2048x4096xf32>
    %3219 = stablehlo.multiply %3209, %3218 : tensor<2048x4096xf32>
    %3220 = stablehlo.broadcast_in_dim %arg21, dims = [1] : (tensor<4096xf32>) -> tensor<2048x4096xf32>
    %3221 = stablehlo.multiply %3219, %3220 : tensor<2048x4096xf32>
    %3222 = stablehlo.transpose %arg351, dims = [1, 0] {result_layout = dense<[0, 1]> : tensor<2xindex>, xla_shape = "f32[4096,4096]{0,1}"} : (tensor<4096x4096xf32>) -> tensor<4096x4096xf32>
    %3223 = stablehlo.dot %3221, %3222, precision = [DEFAULT, DEFAULT] : (tensor<2048x4096xf32>, tensor<4096x4096xf32>) -> tensor<2048x4096xf32>
    %3224 = stablehlo.reshape %3223 : (tensor<2048x4096xf32>) -> tensor<2048x32x64x2xf32>
    %3225 = stablehlo.slice %3224 [0:2048, 0:32, 0:64, 0:1] : (tensor<2048x32x64x2xf32>) -> tensor<2048x32x64x1xf32>
    %3226 = stablehlo.reshape %3225 : (tensor<2048x32x64x1xf32>) -> tensor<2048x32x64xf32>
    %3227 = stablehlo.slice %3224 [0:2048, 0:32, 0:64, 1:2] : (tensor<2048x32x64x2xf32>) -> tensor<2048x32x64x1xf32>
    %3228 = stablehlo.reshape %3227 : (tensor<2048x32x64x1xf32>) -> tensor<2048x32x64xf32>
    %3229 = stablehlo.complex %3226, %3228 : tensor<2048x32x64xcomplex<f32>>
    %3230 = stablehlo.broadcast_in_dim %31, dims = [0, 2] : (tensor<2048x64xcomplex<f32>>) -> tensor<2048x32x64xcomplex<f32>>
    %3231 = stablehlo.multiply %3229, %3230 : tensor<2048x32x64xcomplex<f32>>
    %3232 = stablehlo.real %3231 : (tensor<2048x32x64xcomplex<f32>>) -> tensor<2048x32x64xf32>
    %3233 = stablehlo.reshape %3232 : (tensor<2048x32x64xf32>) -> tensor<2048x32x64x1xf32>
    %3234 = stablehlo.imag %3231 : (tensor<2048x32x64xcomplex<f32>>) -> tensor<2048x32x64xf32>
    %3235 = stablehlo.reshape %3234 : (tensor<2048x32x64xf32>) -> tensor<2048x32x64x1xf32>
    %3236 = stablehlo.concatenate %3233, %3235, dim = 3 : (tensor<2048x32x64x1xf32>, tensor<2048x32x64x1xf32>) -> tensor<2048x32x64x2xf32>
    %3237 = stablehlo.reshape %3236 : (tensor<2048x32x64x2xf32>) -> tensor<2048x32x128xf32>
    %3238 = stablehlo.transpose %3237, dims = [1, 0, 2] {result_layout = dense<[2, 0, 1]> : tensor<3xindex>, xla_shape = "f32[32,2048,128]{2,0,1}"} : (tensor<2048x32x128xf32>) -> tensor<32x2048x128xf32>
    %3239 = stablehlo.compare  LT, %arg198, %2 : (tensor<2048xi64>, tensor<2048xi64>) -> tensor<2048xi1>
    %3240 = stablehlo.broadcast_in_dim %arg199, dims = [] : (tensor<i64>) -> tensor<2048xi64>
    %3241 = stablehlo.add %arg198, %3240 : tensor<2048xi64>
    %3242 = stablehlo.select %3239, %3241, %arg198 : tensor<2048xi1>, tensor<2048xi64>
    %3243 = stablehlo.reshape %3242 : (tensor<2048xi64>) -> tensor<2048x1xi64>
    %3244 = stablehlo.transpose %arg349, dims = [1, 0] {result_layout = dense<[0, 1]> : tensor<2xindex>, xla_shape = "f32[4096,4096]{0,1}"} : (tensor<4096x4096xf32>) -> tensor<4096x4096xf32>
    %3245 = stablehlo.dot %3221, %3244, precision = [DEFAULT, DEFAULT] : (tensor<2048x4096xf32>, tensor<4096x4096xf32>) -> tensor<2048x4096xf32>
    %3246 = stablehlo.reshape %3245 : (tensor<2048x4096xf32>) -> tensor<2048x32x64x2xf32>
    %3247 = stablehlo.slice %3246 [0:2048, 0:32, 0:64, 0:1] : (tensor<2048x32x64x2xf32>) -> tensor<2048x32x64x1xf32>
    %3248 = stablehlo.reshape %3247 : (tensor<2048x32x64x1xf32>) -> tensor<2048x32x64xf32>
    %3249 = stablehlo.slice %3246 [0:2048, 0:32, 0:64, 1:2] : (tensor<2048x32x64x2xf32>) -> tensor<2048x32x64x1xf32>
    %3250 = stablehlo.reshape %3249 : (tensor<2048x32x64x1xf32>) -> tensor<2048x32x64xf32>
    %3251 = stablehlo.complex %3248, %3250 : tensor<2048x32x64xcomplex<f32>>
    %3252 = stablehlo.broadcast_in_dim %31, dims = [0, 2] : (tensor<2048x64xcomplex<f32>>) -> tensor<2048x32x64xcomplex<f32>>
    %3253 = stablehlo.multiply %3251, %3252 : tensor<2048x32x64xcomplex<f32>>
    %3254 = stablehlo.real %3253 : (tensor<2048x32x64xcomplex<f32>>) -> tensor<2048x32x64xf32>
    %3255 = stablehlo.reshape %3254 : (tensor<2048x32x64xf32>) -> tensor<2048x32x64x1xf32>
    %3256 = stablehlo.imag %3253 : (tensor<2048x32x64xcomplex<f32>>) -> tensor<2048x32x64xf32>
    %3257 = stablehlo.reshape %3256 : (tensor<2048x32x64xf32>) -> tensor<2048x32x64x1xf32>
    %3258 = stablehlo.concatenate %3255, %3257, dim = 3 : (tensor<2048x32x64x1xf32>, tensor<2048x32x64x1xf32>) -> tensor<2048x32x64x2xf32>
    %3259 = stablehlo.reshape %3258 : (tensor<2048x32x64x2xf32>) -> tensor<2048x32x128xf32>
    %3260 = "stablehlo.scatter"(%arg350, %3243, %3259) ({
    ^bb0(%arg363: tensor<f32>, %arg364: tensor<f32>):
      stablehlo.return %arg364 : tensor<f32>
    }) {indices_are_sorted = false, scatter_dimension_numbers = #stablehlo.scatter<update_window_dims = [1, 2], inserted_window_dims = [0], scatter_dims_to_operand_dims = [0], index_vector_dim = 1>, unique_indices = false} : (tensor<2304x32x128xf32>, tensor<2048x1xi64>, tensor<2048x32x128xf32>) -> tensor<2304x32x128xf32>
    %3261 = stablehlo.convert %arg7 : (tensor<2048xi64>) -> tensor<2048xui32>
    %3262 = "stablehlo.gather"(%3260, %3261) {dimension_numbers = #stablehlo.gather<offset_dims = [1, 2], collapsed_slice_dims = [0], start_index_map = [0], index_vector_dim = 1>, indices_are_sorted = false, slice_sizes = dense<[1, 32, 128]> : tensor<3xi64>} : (tensor<2304x32x128xf32>, tensor<2048xui32>) -> tensor<2048x32x128xf32>
    %3263 = stablehlo.transpose %3262, dims = [1, 2, 0] : (tensor<2048x32x128xf32>) -> tensor<32x128x2048xf32>
    %3264 = stablehlo.dot_general %3238, %3263, batching_dims = [0] x [0], contracting_dims = [2] x [1], precision = [DEFAULT, DEFAULT] : (tensor<32x2048x128xf32>, tensor<32x128x2048xf32>) -> tensor<32x2048x2048xf32>
    %3265 = stablehlo.broadcast_in_dim %arg202, dims = [] : (tensor<f32>) -> tensor<32x2048x2048xf32>
    %3266 = stablehlo.divide %3264, %3265 : tensor<32x2048x2048xf32>
    %3267 = stablehlo.reshape %3266 : (tensor<32x2048x2048xf32>) -> tensor<1x32x2048x2048xf32>
    %3268 = stablehlo.reshape %77 : (tensor<1x1x2048x2048xf32>) -> tensor<1x2048x2048xf32>
    %3269 = stablehlo.broadcast_in_dim %3268, dims = [0, 2, 3] : (tensor<1x2048x2048xf32>) -> tensor<1x32x2048x2048xf32>
    %3270 = stablehlo.add %3267, %3269 : tensor<1x32x2048x2048xf32>
    %3271 = stablehlo.reduce(%3270 init: %6) across dimensions = [3] : (tensor<1x32x2048x2048xf32>, tensor<f32>) -> tensor<1x32x2048xf32>
     reducer(%arg363: tensor<f32>, %arg364: tensor<f32>)  {
      %3554 = stablehlo.maximum %arg363, %arg364 : tensor<f32>
      stablehlo.return %3554 : tensor<f32>
    }
    %3272 = stablehlo.broadcast_in_dim %3271, dims = [0, 1, 2] : (tensor<1x32x2048xf32>) -> tensor<1x32x2048x2048xf32>
    %3273 = stablehlo.subtract %3270, %3272 : tensor<1x32x2048x2048xf32>
    %3274 = stablehlo.exponential %3273 : tensor<1x32x2048x2048xf32>
    %3275 = stablehlo.reduce(%3274 init: %7) across dimensions = [3] : (tensor<1x32x2048x2048xf32>, tensor<f32>) -> tensor<1x32x2048xf32>
     reducer(%arg363: tensor<f32>, %arg364: tensor<f32>)  {
      %3554 = stablehlo.add %arg363, %arg364 : tensor<f32>
      stablehlo.return %3554 : tensor<f32>
    }
    %3276 = stablehlo.broadcast_in_dim %3275, dims = [0, 1, 2] : (tensor<1x32x2048xf32>) -> tensor<1x32x2048x2048xf32>
    %3277 = stablehlo.divide %3274, %3276 : tensor<1x32x2048x2048xf32>
    %3278 = stablehlo.reshape %3277 : (tensor<1x32x2048x2048xf32>) -> tensor<32x2048x2048xf32>
    %3279 = stablehlo.compare  LT, %arg198, %2 : (tensor<2048xi64>, tensor<2048xi64>) -> tensor<2048xi1>
    %3280 = stablehlo.broadcast_in_dim %arg199, dims = [] : (tensor<i64>) -> tensor<2048xi64>
    %3281 = stablehlo.add %arg198, %3280 : tensor<2048xi64>
    %3282 = stablehlo.select %3279, %3281, %arg198 : tensor<2048xi1>, tensor<2048xi64>
    %3283 = stablehlo.reshape %3282 : (tensor<2048xi64>) -> tensor<2048x1xi64>
    %3284 = stablehlo.transpose %arg20, dims = [1, 0] {result_layout = dense<[0, 1]> : tensor<2xindex>, xla_shape = "f32[4096,4096]{0,1}"} : (tensor<4096x4096xf32>) -> tensor<4096x4096xf32>
    %3285 = stablehlo.dot %3221, %3284, precision = [DEFAULT, DEFAULT] : (tensor<2048x4096xf32>, tensor<4096x4096xf32>) -> tensor<2048x4096xf32>
    %3286 = stablehlo.reshape %3285 : (tensor<2048x4096xf32>) -> tensor<2048x32x128xf32>
    %3287 = "stablehlo.scatter"(%arg348, %3283, %3286) ({
    ^bb0(%arg363: tensor<f32>, %arg364: tensor<f32>):
      stablehlo.return %arg364 : tensor<f32>
    }) {indices_are_sorted = false, scatter_dimension_numbers = #stablehlo.scatter<update_window_dims = [1, 2], inserted_window_dims = [0], scatter_dims_to_operand_dims = [0], index_vector_dim = 1>, unique_indices = false} : (tensor<2304x32x128xf32>, tensor<2048x1xi64>, tensor<2048x32x128xf32>) -> tensor<2304x32x128xf32>
    %3288 = stablehlo.convert %arg7 : (tensor<2048xi64>) -> tensor<2048xui32>
    %3289 = "stablehlo.gather"(%3287, %3288) {dimension_numbers = #stablehlo.gather<offset_dims = [1, 2], collapsed_slice_dims = [0], start_index_map = [0], index_vector_dim = 1>, indices_are_sorted = false, slice_sizes = dense<[1, 32, 128]> : tensor<3xi64>} : (tensor<2304x32x128xf32>, tensor<2048xui32>) -> tensor<2048x32x128xf32>
    %3290 = stablehlo.transpose %3289, dims = [1, 0, 2] {result_layout = dense<[2, 0, 1]> : tensor<3xindex>, xla_shape = "f32[32,2048,128]{2,0,1}"} : (tensor<2048x32x128xf32>) -> tensor<32x2048x128xf32>
    %3291 = stablehlo.dot_general %3278, %3290, batching_dims = [0] x [0], contracting_dims = [2] x [1], precision = [DEFAULT, DEFAULT] : (tensor<32x2048x2048xf32>, tensor<32x2048x128xf32>) -> tensor<32x2048x128xf32>
    %3292 = stablehlo.reshape %3291 : (tensor<32x2048x128xf32>) -> tensor<1x32x2048x128xf32>
    %3293 = stablehlo.transpose %3292, dims = [0, 2, 1, 3] {result_layout = dense<[3, 1, 2, 0]> : tensor<4xindex>, xla_shape = "f32[1,2048,32,128]{3,1,2,0}"} : (tensor<1x32x2048x128xf32>) -> tensor<1x2048x32x128xf32>
    %3294 = stablehlo.reshape %3293 : (tensor<1x2048x32x128xf32>) -> tensor<2048x4096xf32>
    %3295 = stablehlo.transpose %arg19, dims = [1, 0] {result_layout = dense<[0, 1]> : tensor<2xindex>, xla_shape = "f32[4096,4096]{0,1}"} : (tensor<4096x4096xf32>) -> tensor<4096x4096xf32>
    %3296 = stablehlo.dot %3294, %3295, precision = [DEFAULT, DEFAULT] : (tensor<2048x4096xf32>, tensor<4096x4096xf32>) -> tensor<2048x4096xf32>
    %3297 = stablehlo.add %3209, %3296 : tensor<2048x4096xf32>
    %3298 = stablehlo.power %3297, %1 : tensor<2048x4096xf32>
    %3299 = stablehlo.reduce(%3298 init: %7) across dimensions = [1] : (tensor<2048x4096xf32>, tensor<f32>) -> tensor<2048xf32>
     reducer(%arg363: tensor<f32>, %arg364: tensor<f32>)  {
      %3554 = stablehlo.add %arg363, %arg364 : tensor<f32>
      stablehlo.return %3554 : tensor<f32>
    }
    %3300 = stablehlo.multiply %3299, %0 : tensor<2048xf32>
    %3301 = stablehlo.reshape %3300 : (tensor<2048xf32>) -> tensor<2048x1xf32>
    %3302 = stablehlo.broadcast_in_dim %arg2, dims = [] : (tensor<f32>) -> tensor<2048x1xf32>
    %3303 = stablehlo.add %3301, %3302 : tensor<2048x1xf32>
    %3304 = stablehlo.rsqrt %3303 : tensor<2048x1xf32>
    %3305 = stablehlo.reshape %3304 : (tensor<2048x1xf32>) -> tensor<2048xf32>
    %3306 = stablehlo.broadcast_in_dim %3305, dims = [0] : (tensor<2048xf32>) -> tensor<2048x4096xf32>
    %3307 = stablehlo.multiply %3297, %3306 : tensor<2048x4096xf32>
    %3308 = stablehlo.broadcast_in_dim %arg18, dims = [1] : (tensor<4096xf32>) -> tensor<2048x4096xf32>
    %3309 = stablehlo.multiply %3307, %3308 : tensor<2048x4096xf32>
    %3310 = stablehlo.transpose %arg352, dims = [1, 0] {result_layout = dense<[0, 1]> : tensor<2xindex>, xla_shape = "f32[4096,11008]{0,1}"} : (tensor<11008x4096xf32>) -> tensor<4096x11008xf32>
    %3311 = stablehlo.dot %3309, %3310, precision = [DEFAULT, DEFAULT] : (tensor<2048x4096xf32>, tensor<4096x11008xf32>) -> tensor<2048x11008xf32>
    %3312 = stablehlo.logistic %3311 : tensor<2048x11008xf32>
    %3313 = stablehlo.multiply %3311, %3312 : tensor<2048x11008xf32>
    %3314 = stablehlo.transpose %arg17, dims = [1, 0] {result_layout = dense<[0, 1]> : tensor<2xindex>, xla_shape = "f32[4096,11008]{0,1}"} : (tensor<11008x4096xf32>) -> tensor<4096x11008xf32>
    %3315 = stablehlo.dot %3309, %3314, precision = [DEFAULT, DEFAULT] : (tensor<2048x4096xf32>, tensor<4096x11008xf32>) -> tensor<2048x11008xf32>
    %3316 = stablehlo.multiply %3313, %3315 : tensor<2048x11008xf32>
    %3317 = stablehlo.transpose %arg16, dims = [1, 0] {result_layout = dense<[0, 1]> : tensor<2xindex>, xla_shape = "f32[11008,4096]{0,1}"} : (tensor<4096x11008xf32>) -> tensor<11008x4096xf32>
    %3318 = stablehlo.dot %3316, %3317, precision = [DEFAULT, DEFAULT] : (tensor<2048x11008xf32>, tensor<11008x4096xf32>) -> tensor<2048x4096xf32>
    %3319 = stablehlo.add %3297, %3318 : tensor<2048x4096xf32>
    %3320 = stablehlo.power %3319, %1 : tensor<2048x4096xf32>
    %3321 = stablehlo.reduce(%3320 init: %7) across dimensions = [1] : (tensor<2048x4096xf32>, tensor<f32>) -> tensor<2048xf32>
     reducer(%arg363: tensor<f32>, %arg364: tensor<f32>)  {
      %3554 = stablehlo.add %arg363, %arg364 : tensor<f32>
      stablehlo.return %3554 : tensor<f32>
    }
    %3322 = stablehlo.multiply %3321, %0 : tensor<2048xf32>
    %3323 = stablehlo.reshape %3322 : (tensor<2048xf32>) -> tensor<2048x1xf32>
    %3324 = stablehlo.broadcast_in_dim %arg2, dims = [] : (tensor<f32>) -> tensor<2048x1xf32>
    %3325 = stablehlo.add %3323, %3324 : tensor<2048x1xf32>
    %3326 = stablehlo.rsqrt %3325 : tensor<2048x1xf32>
    %3327 = stablehlo.reshape %3326 : (tensor<2048x1xf32>) -> tensor<2048xf32>
    %3328 = stablehlo.broadcast_in_dim %3327, dims = [0] : (tensor<2048xf32>) -> tensor<2048x4096xf32>
    %3329 = stablehlo.multiply %3319, %3328 : tensor<2048x4096xf32>
    %3330 = stablehlo.broadcast_in_dim %arg15, dims = [1] : (tensor<4096xf32>) -> tensor<2048x4096xf32>
    %3331 = stablehlo.multiply %3329, %3330 : tensor<2048x4096xf32>
    %3332 = stablehlo.transpose %arg356, dims = [1, 0] {result_layout = dense<[0, 1]> : tensor<2xindex>, xla_shape = "f32[4096,4096]{0,1}"} : (tensor<4096x4096xf32>) -> tensor<4096x4096xf32>
    %3333 = stablehlo.dot %3331, %3332, precision = [DEFAULT, DEFAULT] : (tensor<2048x4096xf32>, tensor<4096x4096xf32>) -> tensor<2048x4096xf32>
    %3334 = stablehlo.reshape %3333 : (tensor<2048x4096xf32>) -> tensor<2048x32x64x2xf32>
    %3335 = stablehlo.slice %3334 [0:2048, 0:32, 0:64, 0:1] : (tensor<2048x32x64x2xf32>) -> tensor<2048x32x64x1xf32>
    %3336 = stablehlo.reshape %3335 : (tensor<2048x32x64x1xf32>) -> tensor<2048x32x64xf32>
    %3337 = stablehlo.slice %3334 [0:2048, 0:32, 0:64, 1:2] : (tensor<2048x32x64x2xf32>) -> tensor<2048x32x64x1xf32>
    %3338 = stablehlo.reshape %3337 : (tensor<2048x32x64x1xf32>) -> tensor<2048x32x64xf32>
    %3339 = stablehlo.complex %3336, %3338 : tensor<2048x32x64xcomplex<f32>>
    %3340 = stablehlo.broadcast_in_dim %31, dims = [0, 2] : (tensor<2048x64xcomplex<f32>>) -> tensor<2048x32x64xcomplex<f32>>
    %3341 = stablehlo.multiply %3339, %3340 : tensor<2048x32x64xcomplex<f32>>
    %3342 = stablehlo.real %3341 : (tensor<2048x32x64xcomplex<f32>>) -> tensor<2048x32x64xf32>
    %3343 = stablehlo.reshape %3342 : (tensor<2048x32x64xf32>) -> tensor<2048x32x64x1xf32>
    %3344 = stablehlo.imag %3341 : (tensor<2048x32x64xcomplex<f32>>) -> tensor<2048x32x64xf32>
    %3345 = stablehlo.reshape %3344 : (tensor<2048x32x64xf32>) -> tensor<2048x32x64x1xf32>
    %3346 = stablehlo.concatenate %3343, %3345, dim = 3 : (tensor<2048x32x64x1xf32>, tensor<2048x32x64x1xf32>) -> tensor<2048x32x64x2xf32>
    %3347 = stablehlo.reshape %3346 : (tensor<2048x32x64x2xf32>) -> tensor<2048x32x128xf32>
    %3348 = stablehlo.transpose %3347, dims = [1, 0, 2] {result_layout = dense<[2, 0, 1]> : tensor<3xindex>, xla_shape = "f32[32,2048,128]{2,0,1}"} : (tensor<2048x32x128xf32>) -> tensor<32x2048x128xf32>
    %3349 = stablehlo.compare  LT, %arg198, %2 : (tensor<2048xi64>, tensor<2048xi64>) -> tensor<2048xi1>
    %3350 = stablehlo.broadcast_in_dim %arg199, dims = [] : (tensor<i64>) -> tensor<2048xi64>
    %3351 = stablehlo.add %arg198, %3350 : tensor<2048xi64>
    %3352 = stablehlo.select %3349, %3351, %arg198 : tensor<2048xi1>, tensor<2048xi64>
    %3353 = stablehlo.reshape %3352 : (tensor<2048xi64>) -> tensor<2048x1xi64>
    %3354 = stablehlo.transpose %arg354, dims = [1, 0] {result_layout = dense<[0, 1]> : tensor<2xindex>, xla_shape = "f32[4096,4096]{0,1}"} : (tensor<4096x4096xf32>) -> tensor<4096x4096xf32>
    %3355 = stablehlo.dot %3331, %3354, precision = [DEFAULT, DEFAULT] : (tensor<2048x4096xf32>, tensor<4096x4096xf32>) -> tensor<2048x4096xf32>
    %3356 = stablehlo.reshape %3355 : (tensor<2048x4096xf32>) -> tensor<2048x32x64x2xf32>
    %3357 = stablehlo.slice %3356 [0:2048, 0:32, 0:64, 0:1] : (tensor<2048x32x64x2xf32>) -> tensor<2048x32x64x1xf32>
    %3358 = stablehlo.reshape %3357 : (tensor<2048x32x64x1xf32>) -> tensor<2048x32x64xf32>
    %3359 = stablehlo.slice %3356 [0:2048, 0:32, 0:64, 1:2] : (tensor<2048x32x64x2xf32>) -> tensor<2048x32x64x1xf32>
    %3360 = stablehlo.reshape %3359 : (tensor<2048x32x64x1xf32>) -> tensor<2048x32x64xf32>
    %3361 = stablehlo.complex %3358, %3360 : tensor<2048x32x64xcomplex<f32>>
    %3362 = stablehlo.broadcast_in_dim %31, dims = [0, 2] : (tensor<2048x64xcomplex<f32>>) -> tensor<2048x32x64xcomplex<f32>>
    %3363 = stablehlo.multiply %3361, %3362 : tensor<2048x32x64xcomplex<f32>>
    %3364 = stablehlo.real %3363 : (tensor<2048x32x64xcomplex<f32>>) -> tensor<2048x32x64xf32>
    %3365 = stablehlo.reshape %3364 : (tensor<2048x32x64xf32>) -> tensor<2048x32x64x1xf32>
    %3366 = stablehlo.imag %3363 : (tensor<2048x32x64xcomplex<f32>>) -> tensor<2048x32x64xf32>
    %3367 = stablehlo.reshape %3366 : (tensor<2048x32x64xf32>) -> tensor<2048x32x64x1xf32>
    %3368 = stablehlo.concatenate %3365, %3367, dim = 3 : (tensor<2048x32x64x1xf32>, tensor<2048x32x64x1xf32>) -> tensor<2048x32x64x2xf32>
    %3369 = stablehlo.reshape %3368 : (tensor<2048x32x64x2xf32>) -> tensor<2048x32x128xf32>
    %3370 = "stablehlo.scatter"(%arg355, %3353, %3369) ({
    ^bb0(%arg363: tensor<f32>, %arg364: tensor<f32>):
      stablehlo.return %arg364 : tensor<f32>
    }) {indices_are_sorted = false, scatter_dimension_numbers = #stablehlo.scatter<update_window_dims = [1, 2], inserted_window_dims = [0], scatter_dims_to_operand_dims = [0], index_vector_dim = 1>, unique_indices = false} : (tensor<2304x32x128xf32>, tensor<2048x1xi64>, tensor<2048x32x128xf32>) -> tensor<2304x32x128xf32>
    %3371 = stablehlo.convert %arg7 : (tensor<2048xi64>) -> tensor<2048xui32>
    %3372 = "stablehlo.gather"(%3370, %3371) {dimension_numbers = #stablehlo.gather<offset_dims = [1, 2], collapsed_slice_dims = [0], start_index_map = [0], index_vector_dim = 1>, indices_are_sorted = false, slice_sizes = dense<[1, 32, 128]> : tensor<3xi64>} : (tensor<2304x32x128xf32>, tensor<2048xui32>) -> tensor<2048x32x128xf32>
    %3373 = stablehlo.transpose %3372, dims = [1, 2, 0] : (tensor<2048x32x128xf32>) -> tensor<32x128x2048xf32>
    %3374 = stablehlo.dot_general %3348, %3373, batching_dims = [0] x [0], contracting_dims = [2] x [1], precision = [DEFAULT, DEFAULT] : (tensor<32x2048x128xf32>, tensor<32x128x2048xf32>) -> tensor<32x2048x2048xf32>
    %3375 = stablehlo.broadcast_in_dim %arg202, dims = [] : (tensor<f32>) -> tensor<32x2048x2048xf32>
    %3376 = stablehlo.divide %3374, %3375 : tensor<32x2048x2048xf32>
    %3377 = stablehlo.reshape %3376 : (tensor<32x2048x2048xf32>) -> tensor<1x32x2048x2048xf32>
    %3378 = stablehlo.reshape %77 : (tensor<1x1x2048x2048xf32>) -> tensor<1x2048x2048xf32>
    %3379 = stablehlo.broadcast_in_dim %3378, dims = [0, 2, 3] : (tensor<1x2048x2048xf32>) -> tensor<1x32x2048x2048xf32>
    %3380 = stablehlo.add %3377, %3379 : tensor<1x32x2048x2048xf32>
    %3381 = stablehlo.reduce(%3380 init: %6) across dimensions = [3] : (tensor<1x32x2048x2048xf32>, tensor<f32>) -> tensor<1x32x2048xf32>
     reducer(%arg363: tensor<f32>, %arg364: tensor<f32>)  {
      %3554 = stablehlo.maximum %arg363, %arg364 : tensor<f32>
      stablehlo.return %3554 : tensor<f32>
    }
    %3382 = stablehlo.broadcast_in_dim %3381, dims = [0, 1, 2] : (tensor<1x32x2048xf32>) -> tensor<1x32x2048x2048xf32>
    %3383 = stablehlo.subtract %3380, %3382 : tensor<1x32x2048x2048xf32>
    %3384 = stablehlo.exponential %3383 : tensor<1x32x2048x2048xf32>
    %3385 = stablehlo.reduce(%3384 init: %7) across dimensions = [3] : (tensor<1x32x2048x2048xf32>, tensor<f32>) -> tensor<1x32x2048xf32>
     reducer(%arg363: tensor<f32>, %arg364: tensor<f32>)  {
      %3554 = stablehlo.add %arg363, %arg364 : tensor<f32>
      stablehlo.return %3554 : tensor<f32>
    }
    %3386 = stablehlo.broadcast_in_dim %3385, dims = [0, 1, 2] : (tensor<1x32x2048xf32>) -> tensor<1x32x2048x2048xf32>
    %3387 = stablehlo.divide %3384, %3386 : tensor<1x32x2048x2048xf32>
    %3388 = stablehlo.reshape %3387 : (tensor<1x32x2048x2048xf32>) -> tensor<32x2048x2048xf32>
    %3389 = stablehlo.compare  LT, %arg198, %2 : (tensor<2048xi64>, tensor<2048xi64>) -> tensor<2048xi1>
    %3390 = stablehlo.broadcast_in_dim %arg199, dims = [] : (tensor<i64>) -> tensor<2048xi64>
    %3391 = stablehlo.add %arg198, %3390 : tensor<2048xi64>
    %3392 = stablehlo.select %3389, %3391, %arg198 : tensor<2048xi1>, tensor<2048xi64>
    %3393 = stablehlo.reshape %3392 : (tensor<2048xi64>) -> tensor<2048x1xi64>
    %3394 = stablehlo.transpose %arg14, dims = [1, 0] {result_layout = dense<[0, 1]> : tensor<2xindex>, xla_shape = "f32[4096,4096]{0,1}"} : (tensor<4096x4096xf32>) -> tensor<4096x4096xf32>
    %3395 = stablehlo.dot %3331, %3394, precision = [DEFAULT, DEFAULT] : (tensor<2048x4096xf32>, tensor<4096x4096xf32>) -> tensor<2048x4096xf32>
    %3396 = stablehlo.reshape %3395 : (tensor<2048x4096xf32>) -> tensor<2048x32x128xf32>
    %3397 = "stablehlo.scatter"(%arg353, %3393, %3396) ({
    ^bb0(%arg363: tensor<f32>, %arg364: tensor<f32>):
      stablehlo.return %arg364 : tensor<f32>
    }) {indices_are_sorted = false, scatter_dimension_numbers = #stablehlo.scatter<update_window_dims = [1, 2], inserted_window_dims = [0], scatter_dims_to_operand_dims = [0], index_vector_dim = 1>, unique_indices = false} : (tensor<2304x32x128xf32>, tensor<2048x1xi64>, tensor<2048x32x128xf32>) -> tensor<2304x32x128xf32>
    %3398 = stablehlo.convert %arg7 : (tensor<2048xi64>) -> tensor<2048xui32>
    %3399 = "stablehlo.gather"(%3397, %3398) {dimension_numbers = #stablehlo.gather<offset_dims = [1, 2], collapsed_slice_dims = [0], start_index_map = [0], index_vector_dim = 1>, indices_are_sorted = false, slice_sizes = dense<[1, 32, 128]> : tensor<3xi64>} : (tensor<2304x32x128xf32>, tensor<2048xui32>) -> tensor<2048x32x128xf32>
    %3400 = stablehlo.transpose %3399, dims = [1, 0, 2] {result_layout = dense<[2, 0, 1]> : tensor<3xindex>, xla_shape = "f32[32,2048,128]{2,0,1}"} : (tensor<2048x32x128xf32>) -> tensor<32x2048x128xf32>
    %3401 = stablehlo.dot_general %3388, %3400, batching_dims = [0] x [0], contracting_dims = [2] x [1], precision = [DEFAULT, DEFAULT] : (tensor<32x2048x2048xf32>, tensor<32x2048x128xf32>) -> tensor<32x2048x128xf32>
    %3402 = stablehlo.reshape %3401 : (tensor<32x2048x128xf32>) -> tensor<1x32x2048x128xf32>
    %3403 = stablehlo.transpose %3402, dims = [0, 2, 1, 3] {result_layout = dense<[3, 1, 2, 0]> : tensor<4xindex>, xla_shape = "f32[1,2048,32,128]{3,1,2,0}"} : (tensor<1x32x2048x128xf32>) -> tensor<1x2048x32x128xf32>
    %3404 = stablehlo.reshape %3403 : (tensor<1x2048x32x128xf32>) -> tensor<2048x4096xf32>
    %3405 = stablehlo.transpose %arg13, dims = [1, 0] {result_layout = dense<[0, 1]> : tensor<2xindex>, xla_shape = "f32[4096,4096]{0,1}"} : (tensor<4096x4096xf32>) -> tensor<4096x4096xf32>
    %3406 = stablehlo.dot %3404, %3405, precision = [DEFAULT, DEFAULT] : (tensor<2048x4096xf32>, tensor<4096x4096xf32>) -> tensor<2048x4096xf32>
    %3407 = stablehlo.add %3319, %3406 : tensor<2048x4096xf32>
    %3408 = stablehlo.power %3407, %1 : tensor<2048x4096xf32>
    %3409 = stablehlo.reduce(%3408 init: %7) across dimensions = [1] : (tensor<2048x4096xf32>, tensor<f32>) -> tensor<2048xf32>
     reducer(%arg363: tensor<f32>, %arg364: tensor<f32>)  {
      %3554 = stablehlo.add %arg363, %arg364 : tensor<f32>
      stablehlo.return %3554 : tensor<f32>
    }
    %3410 = stablehlo.multiply %3409, %0 : tensor<2048xf32>
    %3411 = stablehlo.reshape %3410 : (tensor<2048xf32>) -> tensor<2048x1xf32>
    %3412 = stablehlo.broadcast_in_dim %arg2, dims = [] : (tensor<f32>) -> tensor<2048x1xf32>
    %3413 = stablehlo.add %3411, %3412 : tensor<2048x1xf32>
    %3414 = stablehlo.rsqrt %3413 : tensor<2048x1xf32>
    %3415 = stablehlo.reshape %3414 : (tensor<2048x1xf32>) -> tensor<2048xf32>
    %3416 = stablehlo.broadcast_in_dim %3415, dims = [0] : (tensor<2048xf32>) -> tensor<2048x4096xf32>
    %3417 = stablehlo.multiply %3407, %3416 : tensor<2048x4096xf32>
    %3418 = stablehlo.broadcast_in_dim %arg12, dims = [1] : (tensor<4096xf32>) -> tensor<2048x4096xf32>
    %3419 = stablehlo.multiply %3417, %3418 : tensor<2048x4096xf32>
    %3420 = stablehlo.transpose %arg357, dims = [1, 0] {result_layout = dense<[0, 1]> : tensor<2xindex>, xla_shape = "f32[4096,11008]{0,1}"} : (tensor<11008x4096xf32>) -> tensor<4096x11008xf32>
    %3421 = stablehlo.dot %3419, %3420, precision = [DEFAULT, DEFAULT] : (tensor<2048x4096xf32>, tensor<4096x11008xf32>) -> tensor<2048x11008xf32>
    %3422 = stablehlo.logistic %3421 : tensor<2048x11008xf32>
    %3423 = stablehlo.multiply %3421, %3422 : tensor<2048x11008xf32>
    %3424 = stablehlo.transpose %arg11, dims = [1, 0] {result_layout = dense<[0, 1]> : tensor<2xindex>, xla_shape = "f32[4096,11008]{0,1}"} : (tensor<11008x4096xf32>) -> tensor<4096x11008xf32>
    %3425 = stablehlo.dot %3419, %3424, precision = [DEFAULT, DEFAULT] : (tensor<2048x4096xf32>, tensor<4096x11008xf32>) -> tensor<2048x11008xf32>
    %3426 = stablehlo.multiply %3423, %3425 : tensor<2048x11008xf32>
    %3427 = stablehlo.transpose %arg10, dims = [1, 0] {result_layout = dense<[0, 1]> : tensor<2xindex>, xla_shape = "f32[11008,4096]{0,1}"} : (tensor<4096x11008xf32>) -> tensor<11008x4096xf32>
    %3428 = stablehlo.dot %3426, %3427, precision = [DEFAULT, DEFAULT] : (tensor<2048x11008xf32>, tensor<11008x4096xf32>) -> tensor<2048x4096xf32>
    %3429 = stablehlo.add %3407, %3428 : tensor<2048x4096xf32>
    %3430 = stablehlo.power %3429, %1 : tensor<2048x4096xf32>
    %3431 = stablehlo.reduce(%3430 init: %7) across dimensions = [1] : (tensor<2048x4096xf32>, tensor<f32>) -> tensor<2048xf32>
     reducer(%arg363: tensor<f32>, %arg364: tensor<f32>)  {
      %3554 = stablehlo.add %arg363, %arg364 : tensor<f32>
      stablehlo.return %3554 : tensor<f32>
    }
    %3432 = stablehlo.multiply %3431, %0 : tensor<2048xf32>
    %3433 = stablehlo.reshape %3432 : (tensor<2048xf32>) -> tensor<2048x1xf32>
    %3434 = stablehlo.broadcast_in_dim %arg2, dims = [] : (tensor<f32>) -> tensor<2048x1xf32>
    %3435 = stablehlo.add %3433, %3434 : tensor<2048x1xf32>
    %3436 = stablehlo.rsqrt %3435 : tensor<2048x1xf32>
    %3437 = stablehlo.reshape %3436 : (tensor<2048x1xf32>) -> tensor<2048xf32>
    %3438 = stablehlo.broadcast_in_dim %3437, dims = [0] : (tensor<2048xf32>) -> tensor<2048x4096xf32>
    %3439 = stablehlo.multiply %3429, %3438 : tensor<2048x4096xf32>
    %3440 = stablehlo.broadcast_in_dim %arg9, dims = [1] : (tensor<4096xf32>) -> tensor<2048x4096xf32>
    %3441 = stablehlo.multiply %3439, %3440 : tensor<2048x4096xf32>
    %3442 = stablehlo.transpose %arg361, dims = [1, 0] {result_layout = dense<[0, 1]> : tensor<2xindex>, xla_shape = "f32[4096,4096]{0,1}"} : (tensor<4096x4096xf32>) -> tensor<4096x4096xf32>
    %3443 = stablehlo.dot %3441, %3442, precision = [DEFAULT, DEFAULT] : (tensor<2048x4096xf32>, tensor<4096x4096xf32>) -> tensor<2048x4096xf32>
    %3444 = stablehlo.reshape %3443 : (tensor<2048x4096xf32>) -> tensor<2048x32x64x2xf32>
    %3445 = stablehlo.slice %3444 [0:2048, 0:32, 0:64, 0:1] : (tensor<2048x32x64x2xf32>) -> tensor<2048x32x64x1xf32>
    %3446 = stablehlo.reshape %3445 : (tensor<2048x32x64x1xf32>) -> tensor<2048x32x64xf32>
    %3447 = stablehlo.slice %3444 [0:2048, 0:32, 0:64, 1:2] : (tensor<2048x32x64x2xf32>) -> tensor<2048x32x64x1xf32>
    %3448 = stablehlo.reshape %3447 : (tensor<2048x32x64x1xf32>) -> tensor<2048x32x64xf32>
    %3449 = stablehlo.complex %3446, %3448 : tensor<2048x32x64xcomplex<f32>>
    %3450 = stablehlo.broadcast_in_dim %31, dims = [0, 2] : (tensor<2048x64xcomplex<f32>>) -> tensor<2048x32x64xcomplex<f32>>
    %3451 = stablehlo.multiply %3449, %3450 : tensor<2048x32x64xcomplex<f32>>
    %3452 = stablehlo.real %3451 : (tensor<2048x32x64xcomplex<f32>>) -> tensor<2048x32x64xf32>
    %3453 = stablehlo.reshape %3452 : (tensor<2048x32x64xf32>) -> tensor<2048x32x64x1xf32>
    %3454 = stablehlo.imag %3451 : (tensor<2048x32x64xcomplex<f32>>) -> tensor<2048x32x64xf32>
    %3455 = stablehlo.reshape %3454 : (tensor<2048x32x64xf32>) -> tensor<2048x32x64x1xf32>
    %3456 = stablehlo.concatenate %3453, %3455, dim = 3 : (tensor<2048x32x64x1xf32>, tensor<2048x32x64x1xf32>) -> tensor<2048x32x64x2xf32>
    %3457 = stablehlo.reshape %3456 : (tensor<2048x32x64x2xf32>) -> tensor<2048x32x128xf32>
    %3458 = stablehlo.transpose %3457, dims = [1, 0, 2] {result_layout = dense<[2, 0, 1]> : tensor<3xindex>, xla_shape = "f32[32,2048,128]{2,0,1}"} : (tensor<2048x32x128xf32>) -> tensor<32x2048x128xf32>
    %3459 = stablehlo.compare  LT, %arg198, %2 : (tensor<2048xi64>, tensor<2048xi64>) -> tensor<2048xi1>
    %3460 = stablehlo.broadcast_in_dim %arg199, dims = [] : (tensor<i64>) -> tensor<2048xi64>
    %3461 = stablehlo.add %arg198, %3460 : tensor<2048xi64>
    %3462 = stablehlo.select %3459, %3461, %arg198 : tensor<2048xi1>, tensor<2048xi64>
    %3463 = stablehlo.reshape %3462 : (tensor<2048xi64>) -> tensor<2048x1xi64>
    %3464 = stablehlo.transpose %arg359, dims = [1, 0] {result_layout = dense<[0, 1]> : tensor<2xindex>, xla_shape = "f32[4096,4096]{0,1}"} : (tensor<4096x4096xf32>) -> tensor<4096x4096xf32>
    %3465 = stablehlo.dot %3441, %3464, precision = [DEFAULT, DEFAULT] : (tensor<2048x4096xf32>, tensor<4096x4096xf32>) -> tensor<2048x4096xf32>
    %3466 = stablehlo.reshape %3465 : (tensor<2048x4096xf32>) -> tensor<2048x32x64x2xf32>
    %3467 = stablehlo.slice %3466 [0:2048, 0:32, 0:64, 0:1] : (tensor<2048x32x64x2xf32>) -> tensor<2048x32x64x1xf32>
    %3468 = stablehlo.reshape %3467 : (tensor<2048x32x64x1xf32>) -> tensor<2048x32x64xf32>
    %3469 = stablehlo.slice %3466 [0:2048, 0:32, 0:64, 1:2] : (tensor<2048x32x64x2xf32>) -> tensor<2048x32x64x1xf32>
    %3470 = stablehlo.reshape %3469 : (tensor<2048x32x64x1xf32>) -> tensor<2048x32x64xf32>
    %3471 = stablehlo.complex %3468, %3470 : tensor<2048x32x64xcomplex<f32>>
    %3472 = stablehlo.broadcast_in_dim %31, dims = [0, 2] : (tensor<2048x64xcomplex<f32>>) -> tensor<2048x32x64xcomplex<f32>>
    %3473 = stablehlo.multiply %3471, %3472 : tensor<2048x32x64xcomplex<f32>>
    %3474 = stablehlo.real %3473 : (tensor<2048x32x64xcomplex<f32>>) -> tensor<2048x32x64xf32>
    %3475 = stablehlo.reshape %3474 : (tensor<2048x32x64xf32>) -> tensor<2048x32x64x1xf32>
    %3476 = stablehlo.imag %3473 : (tensor<2048x32x64xcomplex<f32>>) -> tensor<2048x32x64xf32>
    %3477 = stablehlo.reshape %3476 : (tensor<2048x32x64xf32>) -> tensor<2048x32x64x1xf32>
    %3478 = stablehlo.concatenate %3475, %3477, dim = 3 : (tensor<2048x32x64x1xf32>, tensor<2048x32x64x1xf32>) -> tensor<2048x32x64x2xf32>
    %3479 = stablehlo.reshape %3478 : (tensor<2048x32x64x2xf32>) -> tensor<2048x32x128xf32>
    %3480 = "stablehlo.scatter"(%arg360, %3463, %3479) ({
    ^bb0(%arg363: tensor<f32>, %arg364: tensor<f32>):
      stablehlo.return %arg364 : tensor<f32>
    }) {indices_are_sorted = false, scatter_dimension_numbers = #stablehlo.scatter<update_window_dims = [1, 2], inserted_window_dims = [0], scatter_dims_to_operand_dims = [0], index_vector_dim = 1>, unique_indices = false} : (tensor<2304x32x128xf32>, tensor<2048x1xi64>, tensor<2048x32x128xf32>) -> tensor<2304x32x128xf32>
    %3481 = stablehlo.convert %arg7 : (tensor<2048xi64>) -> tensor<2048xui32>
    %3482 = "stablehlo.gather"(%3480, %3481) {dimension_numbers = #stablehlo.gather<offset_dims = [1, 2], collapsed_slice_dims = [0], start_index_map = [0], index_vector_dim = 1>, indices_are_sorted = false, slice_sizes = dense<[1, 32, 128]> : tensor<3xi64>} : (tensor<2304x32x128xf32>, tensor<2048xui32>) -> tensor<2048x32x128xf32>
    %3483 = stablehlo.transpose %3482, dims = [1, 2, 0] : (tensor<2048x32x128xf32>) -> tensor<32x128x2048xf32>
    %3484 = stablehlo.dot_general %3458, %3483, batching_dims = [0] x [0], contracting_dims = [2] x [1], precision = [DEFAULT, DEFAULT] : (tensor<32x2048x128xf32>, tensor<32x128x2048xf32>) -> tensor<32x2048x2048xf32>
    %3485 = stablehlo.broadcast_in_dim %arg202, dims = [] : (tensor<f32>) -> tensor<32x2048x2048xf32>
    %3486 = stablehlo.divide %3484, %3485 : tensor<32x2048x2048xf32>
    %3487 = stablehlo.reshape %3486 : (tensor<32x2048x2048xf32>) -> tensor<1x32x2048x2048xf32>
    %3488 = stablehlo.reshape %77 : (tensor<1x1x2048x2048xf32>) -> tensor<1x2048x2048xf32>
    %3489 = stablehlo.broadcast_in_dim %3488, dims = [0, 2, 3] : (tensor<1x2048x2048xf32>) -> tensor<1x32x2048x2048xf32>
    %3490 = stablehlo.add %3487, %3489 : tensor<1x32x2048x2048xf32>
    %3491 = stablehlo.reduce(%3490 init: %6) across dimensions = [3] : (tensor<1x32x2048x2048xf32>, tensor<f32>) -> tensor<1x32x2048xf32>
     reducer(%arg363: tensor<f32>, %arg364: tensor<f32>)  {
      %3554 = stablehlo.maximum %arg363, %arg364 : tensor<f32>
      stablehlo.return %3554 : tensor<f32>
    }
    %3492 = stablehlo.broadcast_in_dim %3491, dims = [0, 1, 2] : (tensor<1x32x2048xf32>) -> tensor<1x32x2048x2048xf32>
    %3493 = stablehlo.subtract %3490, %3492 : tensor<1x32x2048x2048xf32>
    %3494 = stablehlo.exponential %3493 : tensor<1x32x2048x2048xf32>
    %3495 = stablehlo.reduce(%3494 init: %7) across dimensions = [3] : (tensor<1x32x2048x2048xf32>, tensor<f32>) -> tensor<1x32x2048xf32>
     reducer(%arg363: tensor<f32>, %arg364: tensor<f32>)  {
      %3554 = stablehlo.add %arg363, %arg364 : tensor<f32>
      stablehlo.return %3554 : tensor<f32>
    }
    %3496 = stablehlo.broadcast_in_dim %3495, dims = [0, 1, 2] : (tensor<1x32x2048xf32>) -> tensor<1x32x2048x2048xf32>
    %3497 = stablehlo.divide %3494, %3496 : tensor<1x32x2048x2048xf32>
    %3498 = stablehlo.reshape %3497 : (tensor<1x32x2048x2048xf32>) -> tensor<32x2048x2048xf32>
    %3499 = stablehlo.compare  LT, %arg198, %2 : (tensor<2048xi64>, tensor<2048xi64>) -> tensor<2048xi1>
    %3500 = stablehlo.broadcast_in_dim %arg199, dims = [] : (tensor<i64>) -> tensor<2048xi64>
    %3501 = stablehlo.add %arg198, %3500 : tensor<2048xi64>
    %3502 = stablehlo.select %3499, %3501, %arg198 : tensor<2048xi1>, tensor<2048xi64>
    %3503 = stablehlo.reshape %3502 : (tensor<2048xi64>) -> tensor<2048x1xi64>
    %3504 = stablehlo.transpose %arg8, dims = [1, 0] {result_layout = dense<[0, 1]> : tensor<2xindex>, xla_shape = "f32[4096,4096]{0,1}"} : (tensor<4096x4096xf32>) -> tensor<4096x4096xf32>
    %3505 = stablehlo.dot %3441, %3504, precision = [DEFAULT, DEFAULT] : (tensor<2048x4096xf32>, tensor<4096x4096xf32>) -> tensor<2048x4096xf32>
    %3506 = stablehlo.reshape %3505 : (tensor<2048x4096xf32>) -> tensor<2048x32x128xf32>
    %3507 = "stablehlo.scatter"(%arg358, %3503, %3506) ({
    ^bb0(%arg363: tensor<f32>, %arg364: tensor<f32>):
      stablehlo.return %arg364 : tensor<f32>
    }) {indices_are_sorted = false, scatter_dimension_numbers = #stablehlo.scatter<update_window_dims = [1, 2], inserted_window_dims = [0], scatter_dims_to_operand_dims = [0], index_vector_dim = 1>, unique_indices = false} : (tensor<2304x32x128xf32>, tensor<2048x1xi64>, tensor<2048x32x128xf32>) -> tensor<2304x32x128xf32>
    %3508 = stablehlo.convert %arg7 : (tensor<2048xi64>) -> tensor<2048xui32>
    %3509 = "stablehlo.gather"(%3507, %3508) {dimension_numbers = #stablehlo.gather<offset_dims = [1, 2], collapsed_slice_dims = [0], start_index_map = [0], index_vector_dim = 1>, indices_are_sorted = false, slice_sizes = dense<[1, 32, 128]> : tensor<3xi64>} : (tensor<2304x32x128xf32>, tensor<2048xui32>) -> tensor<2048x32x128xf32>
    %3510 = stablehlo.transpose %3509, dims = [1, 0, 2] {result_layout = dense<[2, 0, 1]> : tensor<3xindex>, xla_shape = "f32[32,2048,128]{2,0,1}"} : (tensor<2048x32x128xf32>) -> tensor<32x2048x128xf32>
    %3511 = stablehlo.dot_general %3498, %3510, batching_dims = [0] x [0], contracting_dims = [2] x [1], precision = [DEFAULT, DEFAULT] : (tensor<32x2048x2048xf32>, tensor<32x2048x128xf32>) -> tensor<32x2048x128xf32>
    %3512 = stablehlo.reshape %3511 : (tensor<32x2048x128xf32>) -> tensor<1x32x2048x128xf32>
    %3513 = stablehlo.transpose %3512, dims = [0, 2, 1, 3] {result_layout = dense<[3, 1, 2, 0]> : tensor<4xindex>, xla_shape = "f32[1,2048,32,128]{3,1,2,0}"} : (tensor<1x32x2048x128xf32>) -> tensor<1x2048x32x128xf32>
    %3514 = stablehlo.reshape %3513 : (tensor<1x2048x32x128xf32>) -> tensor<2048x4096xf32>
    %3515 = stablehlo.transpose %arg6, dims = [1, 0] {result_layout = dense<[0, 1]> : tensor<2xindex>, xla_shape = "f32[4096,4096]{0,1}"} : (tensor<4096x4096xf32>) -> tensor<4096x4096xf32>
    %3516 = stablehlo.dot %3514, %3515, precision = [DEFAULT, DEFAULT] : (tensor<2048x4096xf32>, tensor<4096x4096xf32>) -> tensor<2048x4096xf32>
    %3517 = stablehlo.add %3429, %3516 : tensor<2048x4096xf32>
    %3518 = stablehlo.power %3517, %1 : tensor<2048x4096xf32>
    %3519 = stablehlo.reduce(%3518 init: %7) across dimensions = [1] : (tensor<2048x4096xf32>, tensor<f32>) -> tensor<2048xf32>
     reducer(%arg363: tensor<f32>, %arg364: tensor<f32>)  {
      %3554 = stablehlo.add %arg363, %arg364 : tensor<f32>
      stablehlo.return %3554 : tensor<f32>
    }
    %3520 = stablehlo.multiply %3519, %0 : tensor<2048xf32>
    %3521 = stablehlo.reshape %3520 : (tensor<2048xf32>) -> tensor<2048x1xf32>
    %3522 = stablehlo.broadcast_in_dim %arg2, dims = [] : (tensor<f32>) -> tensor<2048x1xf32>
    %3523 = stablehlo.add %3521, %3522 : tensor<2048x1xf32>
    %3524 = stablehlo.rsqrt %3523 : tensor<2048x1xf32>
    %3525 = stablehlo.reshape %3524 : (tensor<2048x1xf32>) -> tensor<2048xf32>
    %3526 = stablehlo.broadcast_in_dim %3525, dims = [0] : (tensor<2048xf32>) -> tensor<2048x4096xf32>
    %3527 = stablehlo.multiply %3517, %3526 : tensor<2048x4096xf32>
    %3528 = stablehlo.broadcast_in_dim %arg5, dims = [1] : (tensor<4096xf32>) -> tensor<2048x4096xf32>
    %3529 = stablehlo.multiply %3527, %3528 : tensor<2048x4096xf32>
    %3530 = stablehlo.transpose %arg362, dims = [1, 0] {result_layout = dense<[0, 1]> : tensor<2xindex>, xla_shape = "f32[4096,11008]{0,1}"} : (tensor<11008x4096xf32>) -> tensor<4096x11008xf32>
    %3531 = stablehlo.dot %3529, %3530, precision = [DEFAULT, DEFAULT] : (tensor<2048x4096xf32>, tensor<4096x11008xf32>) -> tensor<2048x11008xf32>
    %3532 = stablehlo.logistic %3531 : tensor<2048x11008xf32>
    %3533 = stablehlo.multiply %3531, %3532 : tensor<2048x11008xf32>
    %3534 = stablehlo.transpose %arg4, dims = [1, 0] {result_layout = dense<[0, 1]> : tensor<2xindex>, xla_shape = "f32[4096,11008]{0,1}"} : (tensor<11008x4096xf32>) -> tensor<4096x11008xf32>
    %3535 = stablehlo.dot %3529, %3534, precision = [DEFAULT, DEFAULT] : (tensor<2048x4096xf32>, tensor<4096x11008xf32>) -> tensor<2048x11008xf32>
    %3536 = stablehlo.multiply %3533, %3535 : tensor<2048x11008xf32>
    %3537 = stablehlo.transpose %arg3, dims = [1, 0] {result_layout = dense<[0, 1]> : tensor<2xindex>, xla_shape = "f32[11008,4096]{0,1}"} : (tensor<4096x11008xf32>) -> tensor<11008x4096xf32>
    %3538 = stablehlo.dot %3536, %3537, precision = [DEFAULT, DEFAULT] : (tensor<2048x11008xf32>, tensor<11008x4096xf32>) -> tensor<2048x4096xf32>
    %3539 = stablehlo.add %3517, %3538 : tensor<2048x4096xf32>
    %3540 = stablehlo.power %3539, %1 : tensor<2048x4096xf32>
    %3541 = stablehlo.reduce(%3540 init: %7) across dimensions = [1] : (tensor<2048x4096xf32>, tensor<f32>) -> tensor<2048xf32>
     reducer(%arg363: tensor<f32>, %arg364: tensor<f32>)  {
      %3554 = stablehlo.add %arg363, %arg364 : tensor<f32>
      stablehlo.return %3554 : tensor<f32>
    }
    %3542 = stablehlo.multiply %3541, %0 : tensor<2048xf32>
    %3543 = stablehlo.reshape %3542 : (tensor<2048xf32>) -> tensor<2048x1xf32>
    %3544 = stablehlo.broadcast_in_dim %arg2, dims = [] : (tensor<f32>) -> tensor<2048x1xf32>
    %3545 = stablehlo.add %3543, %3544 : tensor<2048x1xf32>
    %3546 = stablehlo.rsqrt %3545 : tensor<2048x1xf32>
    %3547 = stablehlo.reshape %3546 : (tensor<2048x1xf32>) -> tensor<2048xf32>
    %3548 = stablehlo.broadcast_in_dim %3547, dims = [0] : (tensor<2048xf32>) -> tensor<2048x4096xf32>
    %3549 = stablehlo.multiply %3539, %3548 : tensor<2048x4096xf32>
    %3550 = stablehlo.broadcast_in_dim %arg1, dims = [1] : (tensor<4096xf32>) -> tensor<2048x4096xf32>
    %3551 = stablehlo.multiply %3549, %3550 : tensor<2048x4096xf32>
    %3552 = stablehlo.transpose %arg0, dims = [1, 0] {result_layout = dense<[0, 1]> : tensor<2xindex>, xla_shape = "f32[4096,32000]{0,1}"} : (tensor<32000x4096xf32>) -> tensor<4096x32000xf32>
    %3553 = stablehlo.dot %3551, %3552, precision = [DEFAULT, DEFAULT] : (tensor<2048x4096xf32>, tensor<4096x32000xf32>) -> tensor<2048x32000xf32>
    return %3553, %62, %97, %180, %207, %290, %317, %400, %427, %510, %537, %620, %647, %730, %757, %840, %867, %950, %977, %1060, %1087, %1170, %1197, %1280, %1307, %1390, %1417, %1500, %1527, %1610, %1637, %1720, %1747, %1830, %1857, %1940, %1967, %2050, %2077, %2160, %2187, %2270, %2297, %2380, %2407, %2490, %2517, %2600, %2627, %2710, %2737, %2820, %2847, %2930, %2957, %3040, %3067, %3150, %3177, %3260, %3287, %3370, %3397, %3480, %3507 : tensor<2048x32000xf32>, tensor<2304x32x128xf32>, tensor<2304x32x128xf32>, tensor<2304x32x128xf32>, tensor<2304x32x128xf32>, tensor<2304x32x128xf32>, tensor<2304x32x128xf32>, tensor<2304x32x128xf32>, tensor<2304x32x128xf32>, tensor<2304x32x128xf32>, tensor<2304x32x128xf32>, tensor<2304x32x128xf32>, tensor<2304x32x128xf32>, tensor<2304x32x128xf32>, tensor<2304x32x128xf32>, tensor<2304x32x128xf32>, tensor<2304x32x128xf32>, tensor<2304x32x128xf32>, tensor<2304x32x128xf32>, tensor<2304x32x128xf32>, tensor<2304x32x128xf32>, tensor<2304x32x128xf32>, tensor<2304x32x128xf32>, tensor<2304x32x128xf32>, tensor<2304x32x128xf32>, tensor<2304x32x128xf32>, tensor<2304x32x128xf32>, tensor<2304x32x128xf32>, tensor<2304x32x128xf32>, tensor<2304x32x128xf32>, tensor<2304x32x128xf32>, tensor<2304x32x128xf32>, tensor<2304x32x128xf32>, tensor<2304x32x128xf32>, tensor<2304x32x128xf32>, tensor<2304x32x128xf32>, tensor<2304x32x128xf32>, tensor<2304x32x128xf32>, tensor<2304x32x128xf32>, tensor<2304x32x128xf32>, tensor<2304x32x128xf32>, tensor<2304x32x128xf32>, tensor<2304x32x128xf32>, tensor<2304x32x128xf32>, tensor<2304x32x128xf32>, tensor<2304x32x128xf32>, tensor<2304x32x128xf32>, tensor<2304x32x128xf32>, tensor<2304x32x128xf32>, tensor<2304x32x128xf32>, tensor<2304x32x128xf32>, tensor<2304x32x128xf32>, tensor<2304x32x128xf32>, tensor<2304x32x128xf32>, tensor<2304x32x128xf32>, tensor<2304x32x128xf32>, tensor<2304x32x128xf32>, tensor<2304x32x128xf32>, tensor<2304x32x128xf32>, tensor<2304x32x128xf32>, tensor<2304x32x128xf32>, tensor<2304x32x128xf32>, tensor<2304x32x128xf32>, tensor<2304x32x128xf32>, tensor<2304x32x128xf32>
  }
}
